pretrained/pctsp/pctsp500.pt (torch, 372635 bytes, 230 tensors)

emb_net.v_lin0.weight f4 [32, 2]
000000 0b ee db be 4f 64 80 be 51 17 99 3e 7a 4d c5 be
       -0.4295505 -0.2507653 0.29900602 -0.38535672
000010 a8 52 ab 3e 4b 0b 8f be 5f 20 c1 3e e5 19 db be
       0.334615 -0.27938303 0.3772001 -0.42793193
000020 59 ab 02 3f 17 fa c7 3d a8 06 87 3e 60 db 8d be
       0.51042706 0.09764498 0.26372266 -0.27706432
000030 80 e4 29 bf 7d bb 03 bf 76 b1 fc 3e d5 fe 4a be
       -0.6636429 -0.5145796 0.49354142 -0.19823773
000040 c1 e4 b4 be a9 be 24 3f c2 f9 a3 3d e9 11 2f 3f
       -0.35330775 0.64353424 0.08006622 0.68386704
000050 19 a1 ff 3e 00 72 12 3e 9f ba cc 3e 95 20 00 3f
       0.49927595 0.143013 0.3998613 0.50049716
000060 de a1 2c 3e 5c 4b 1e 3f 9f f9 53 3e c0 e2 23 bf
       0.16858622 0.6183374 0.20700692 -0.6401787
000070 07 1e 5c be b8 6a 1e 3e 9e fb 16 bf 44 19 26 be
       -0.2149583 0.15470397 -0.5897769 -0.16220576
000080 8d 6e b0 bd 2a e8 d5 3e 48 32 05 3f bb 65 92 be
       -0.08614836 0.4177869 0.5202985 -0.2859324
000090 c7 b6 4a be f8 d4 95 3e e2 80 b8 be c5 f3 f5 be
       -0.19796287 0.29264045 -0.3603583 -0.48037544
0000a0 3a 79 5b 3e 18 64 00 3f d8 2e ae 3e c9 68 8a 3e
       0.21432963 0.5015273 0.34020114 0.2703307
0000b0 3f ea 33 bf d6 1b 68 be 40 a2 ed be 55 51 8c 3d
       -0.70279306 -0.22666869 -0.4641285 0.0685145
0000c0 eb 61 45 be b6 d0 ad 3e 17 80 9d be 0f 76 1f be
       -0.19275634 0.33948296 -0.30761787 -0.1557238
0000d0 e6 5d 22 3f 99 be 06 3f 35 33 30 bf a1 60 f1 3e
       0.6342453 0.5263458 -0.68828136 0.47144035
0000e0 bc e1 1c bf 13 bc 15 bf 87 d8 e2 3e 45 3d 9f 3e
       -0.61281943 -0.58490103 0.44305822 0.31101432
0000f0 3e dd 5b 3e ba 2c f5 3e ea 01 89 be 7f b5 59 be
       0.21471116 0.47885686 -0.26759273 -0.21260642

emb_net.v_lin0.bias f4 [32]
000000 fd 94 a3 be c3 1d f2 bd 33 f5 2d bf 14 b5 78 3e
       -0.31949607 -0.11822083 -0.6795227 0.24287826
000010 83 21 89 be f1 7b 26 bf 1e ad 29 bf 70 d0 14 3f
       -0.2678338 -0.6503287 -0.6627978 0.5813055
000020 b1 c6 d9 3e a5 c3 e9 be f1 4c cf 3e 22 99 7e be
       0.42534402 -0.45657077 0.4048839 -0.24863103
000030 72 fc c8 be 12 3b e3 be b8 22 b0 3e c0 ae c8 be
       -0.392551 -0.44381005 0.34401488 -0.39195824
000040 5b 60 f0 3e 24 bd 0e bf 21 47 12 3f 26 d3 f2 be
       0.46948513 -0.55757356 0.57139784 -0.47426718
000050 d0 26 eb 3e e3 bd 27 bd 61 cb 56 3e 37 40 fc 3e
       0.4592805 -0.040952574 0.2097602 0.49267742
000060 4a 9c 80 be f7 18 cf 3e 40 35 01 bf 62 1e 34 be
       -0.2511924 0.40448734 -0.5047188 -0.17589715
000070 09 bb 24 bf 8b a1 ed be 7d 89 d3 be e9 20 ee 3e
       -0.64347893 -0.4641231 -0.41315833 0.46509483

emb_net.v_lins1.0.weight f4 [32, 32]
000000 66 58 23 be ac 87 ce bd d4 fe d8 3c 28 81 00 be
       -0.1595169 -0.10084471 0.026488699 -0.12549269
000010 13 6a c6 bd f5 de 90 bd 83 e8 58 3d 97 7e 28 3d
       -0.09688201 -0.07073776 0.052956115 0.04113635
000020 d1 83 5a bc 06 3b 29 3e ed a1 fc bd 87 8e c2 bd
       -0.013337092 0.16526422 -0.123355724 -0.09499841
000030 fb aa 3b 3c 67 05 ba bd ae 60 44 3d aa 12 9e 3d
       0.011454339 -0.09083062 0.047943763 0.07718404
000040 d5 72 f3 bd d0 8a 29 be 16 00 b2 bd 81 5a ee 3d
       -0.11887137 -0.16556859 -0.08691423 0.11638356
000050 74 d9 4c bd 66 1f 4e bd 76 68 9b bd 4d 86 8c 3c
       -0.050012067 -0.050322913 -0.07588284 0.017153883
000060 83 ee 91 bd fc 4a fa bd 84 31 f0 3b 14 11 cb bd
       -0.071255706 -0.122213334 0.0073301215 -0.09915367
000070 47 b1 27 bd d4 70 c7 3d 1c 63 36 3e da 01 c5 3b
       -0.04094055 0.09738317 0.17811245 0.0060121836
000080 56 2f 03 3e 44 e1 34 3d cb 49 27 3e e6 48 e1 bd
       0.12811026 0.044160143 0.16336744 -0.110002324
000090 ef b6 1b 3e 05 f4 03 3e d0 bf 93 bc 54 06 03 3e
       0.15206502 0.12886055 -0.0180358 0.12795383
0000a0 c7 29 fe 3d 8d 79 8f 3c c7 12 c0 3a 84 5a 2f 3e
       0.12410312 0.017514015 0.0014654034 0.17124373
0000b0 ae 23 d0 3d a6 b9 33 3e ed 65 e0 bd 68 d7 25 bc
       0.10163055 0.17551288 -0.10956941 -0.010122158
0000c0 f8 55 9d 3c e9 b9 0d 3e 48 7d a1 3c dd b7 fb bc
       0.019206032 0.1384045 0.019713059 -0.030727321
0000d0 78 42 ae 3d c6 02 26 3e 65 90 93 3d ee 11 cd 3d
       0.08508772 0.16211995 0.072052754 0.100131854
0000e0 49 b2 04 3d 82 46 0c 3e 65 6d cd 3d 56 64 41 bd
       0.03239659 0.13698772 0.10030631 -0.04721483
0000f0 b5 ef 16 3d 5b ed be 3d 14 e4 a5 3d bb 20 18 3e
       0.036849696 0.09322616 0.08100143 0.14856236
000100 5a 79 e4 3d 70 53 72 3d 31 30 af 3d 50 96 82 3d
       0.111559585 0.059161603 0.08554114 0.06376326
000110 ec f8 15 3e 93 bc c8 bd 4d 85 fa bd 35 69 d5 3d
       0.14645737 -0.09801593 -0.12232456 0.10420457
000120 67 75 1e 3d 0d fc 95 bd f8 cc 24 3e 56 a8 29 3e
       0.038686182 -0.073234655 0.16093814 0.16568121
000130 be 9f 85 3d 30 5d 29 3d 16 36 25 bd 5d 6b 7a 3d
       0.06524609 0.041348636 -0.040334783 0.061137546
000140 90 56 85 bd 76 4d b7 3d 72 a1 03 3e cc ee 22 be
       -0.06510651 0.089503214 0.12854555 -0.15911406
000150 77 0c 1b 3e 69 77 02 be 7f 5d 28 3d 65 e1 c3 bd
       0.15141474 -0.12740864 0.04110479 -0.09564475
000160 5f 53 8e 3d 79 07 88 3d 1f da 69 3b 92 25 0c bd
       0.069494955 0.0664205 0.0035682989 -0.034215517
000170 38 e7 94 bd ce 5b c5 3d 25 9a af bd 05 7b d8 bd
       -0.07270664 0.09636651 -0.085743226 -0.10570339
000180 74 06 9f bd 99 52 29 be c4 78 9e bc 87 dc d4 bd
       -0.07764903 -0.16535415 -0.019344695 -0.10393625
000190 63 bb 2f be 4c 71 f2 bd 09 96 11 bd cd 4a f0 bc
       -0.17161326 -0.11838016 -0.035543475 -0.029332543
0001a0 41 04 9d bd 1f e5 31 3d 4e 8a af 3d 77 49 4c 3d
       -0.07666827 0.043431398 0.085713014 0.04987475
0001b0 36 f2 ca bc 5e 67 de bd 2a 4a bc 3c eb 08 e3 bd
       -0.024773698 -0.108595595 0.022984583 -0.11085685
0001c0 f0 d0 06 3e aa 47 de bd 3b c8 ef 3d 3c 5d 2f be
       0.13165641 -0.108535126 0.11708113 -0.1712541
0001d0 75 98 5e 3c 66 6b 01 be 3a 55 1c 3d 46 26 96 3c
       0.013586153 -0.12638626 0.038167216 0.018328797
0001e0 1e 6d a2 bd da c4 96 bd 24 a2 87 bd bf 20 2b be
       -0.07930969 -0.07361765 -0.06622723 -0.1671171
0001f0 3e 27 23 be 57 21 d3 3d b3 0a 7f bd 61 16 f1 bd
       -0.15932938 0.103090934 -0.062266063 -0.117718466
000200 5a 50 02 3e ea 16 23 be d4 78 48 bb 43 e9 c8 3d
       0.12725964 -0.1592671 -0.0030589597 0.09810116
000210 07 84 a4 bd a1 d1 e5 3d cf be 66 bd 81 b0 0d be
       -0.08032995 0.11221624 -0.056334313 -0.13836862
000220 12 48 1d 3d 81 94 2c be d6 d4 c7 bd db 3b a3 3c
       0.03839881 -0.16853525 -0.09757392 0.019926002
000230 ea ce 1c bc a8 74 14 be bf 2d a3 bc b1 ac 83 3d
       -0.0095708165 -0.14497626 -0.019919274 0.06429423
000240 89 e3 05 be b8 43 10 3c 60 6e 19 3d de 48 47 3d
       -0.13075079 0.008805208 0.037458777 0.048653476
000250 a9 a3 0d 3d b7 7b 1f be 17 f3 13 3e 86 ca 34 3e
       0.034579907 -0.15574537 0.144482 0.17655382
000260 b4 f6 37 bd 04 a5 85 bd 56 8a 2f be 97 ee 04 be
       -0.04491301 -0.06525615 -0.17142615 -0.1298164
000270 9e d3 63 bd 67 a3 b2 3d 31 a1 a5 bd e7 3b 79 bd
       -0.055621736 0.08722573 -0.080873854 -0.060848143
000280 9a 5a 09 3e 2e 19 01 3d 88 3b 3b 3d ed 0c 22 3e
       0.13413468 0.031518154 0.04571107 0.15825243
000290 dd 27 4f bd cf 3b 9d bc 94 7d 77 3c 4f 7d 10 3d
       -0.050575126 -0.019193558 0.015105624 0.035275754
0002a0 c2 70 a8 bd 6e a5 3a bd 1a 73 0f 3e cc 96 09 3d
       -0.08224632 -0.045567922 0.14008752 0.033591077
0002b0 66 e1 1b bd f5 c3 ae 3c 83 f4 ae 3d 87 2b 7b bc
       -0.038056754 0.021333674 0.08542731 -0.015330202
0002c0 7e fe 6a 3d 01 ab bc bc 01 e0 8c 3d ae cf d6 bc
       0.05737161 -0.02303076 0.06878663 -0.026222076
0002d0 57 cf aa 3c af 2f 25 3e ce 77 3d 3d 19 68 19 bd
       0.02085082 0.16131471 0.046256833 -0.03745279
0002e0 54 92 03 be 9a 00 20 3e ac 6e 90 3d 75 08 9a 3d
       -0.12848788 0.1562523 0.07052359 0.07521144
0002f0 03 54 43 be f1 71 9c 3d 7a bf db 3d 29 e2 b3 bb
       -0.19075017 0.0763892 0.10729881 -0.005489607
000300 24 aa 99 bd 8b 60 ed 3d 78 b7 54 bc 57 a0 6c bd
       -0.07503155 0.1159068 -0.0129831955 -0.0577701
000310 ef d3 a8 bd 7f 64 52 bd b0 71 7c 3d 7c c1 3b bd
       -0.08243548 -0.05136537 0.06163186 -0.045838818
000320 8c ea 83 bd e7 75 77 bd 16 40 6e bc b8 9a ef bd
       -0.06441221 -0.060415175 -0.014541646 -0.11699432
000330 10 30 f7 bd 4c 2d 31 bd e6 3e 41 3e ac c5 14 3c
       -0.12069714 -0.04325609 0.1887165 0.009080332
000340 73 f4 a4 bd c0 e6 cd bd 03 0b 1e 3e 01 f4 94 bd
       -0.080544375 -0.10053778 0.15433888 -0.072731026
000350 68 86 12 be 39 f1 2e 3d 46 82 12 be f3 44 f0 bd
       -0.14309084 0.042710517 -0.14307508 -0.11731901
000360 21 49 22 3e c0 63 07 be 4c dd cd bc 45 3d 06 be
       0.15848209 -0.13221645 -0.025129937 -0.1310931
000370 37 23 cf bd c4 0d 79 3d 3e db b9 3c ff 70 a6 bd
       -0.101141386 0.060804144 0.02268755 -0.08127021
000380 bd 65 d9 3c 0f dc 9f bd 50 a8 a3 3d a0 70 41 3d
       0.02653777 -0.07805645 0.079910874 0.04722655
000390 54 10 f6 bd f2 51 0f 3d 00 7c 2e bd 26 2a ab bd
       -0.12014833 0.03499026 -0.042598724 -0.083576486
0003a0 19 7b af bc ba 98 26 bd 6e 30 6b bc 9d 23 7a 3d
       -0.021421002 -0.040672995 -0.014354808 0.06106912
0003b0 6a 3e fb 3c 11 40 f4 3c 2f 94 0d be ad 98 cd bd
       0.03066941 0.029815705 -0.13826059 -0.10038886
0003c0 f8 f7 6a 3d fe 11 4e bd 06 21 d2 bd 01 f5 d9 3d
       0.057365388 -0.050310127 -0.10260205 0.10642434
0003d0 75 3b b3 3b 79 90 4e bb 45 0b 1d bd 13 c9 0e 3e
       0.0054697343 -0.0031519218 -0.038340826 0.13943891
0003e0 4f 1e 85 3d 2a fd df 3b 51 70 2b 3e 14 60 10 be
       0.064999215 0.0068355994 0.16742064 -0.14099151
0003f0 56 64 f5 b9 cc 95 db bd d7 e8 aa 3d 03 36 01 be
       -0.00046804798 -0.10721931 0.08345192 -0.1261826

emb_net.v_lins1.0.bias f4 [32]
000000 ae 53 e7 bd 38 2f 8f 3d 6a d8 dc 3d c3 e4 0c be
       -0.112952575 0.06991428 0.10783465 -0.1375914
000010 85 52 20 3e 87 4c 43 3d 73 02 42 3d 91 14 7e bd
       0.15656479 0.047680404 0.047365617 -0.062031332
000020 d4 3f c2 bc 61 1b 19 be 6f fc 44 3d 9a ef 31 be
       -0.023712076 -0.1495185 0.048092302 -0.17376557
000030 5e c4 5e 3d 7f 5a 35 be 1b 77 ef bd c8 35 0f bd
       0.05438649 -0.17710303 -0.116926394 -0.0349634
000040 48 a9 12 be b2 ec 22 bc b5 dc 0a be 85 25 f6 bd
       -0.14322388 -0.009944128 -0.13560756 -0.12018875
000050 fb 07 05 be f4 e2 f7 bd 2b e6 ba 3d 38 12 ea bd
       -0.12991326 -0.12103835 0.09125932 -0.11429256
000060 50 81 d4 bd fc 13 14 be 3b cd 21 be fd cb c1 bd
       -0.10376227 -0.14460748 -0.15800945 -0.09462736
000070 65 11 9e 3b d0 4e 09 3d bb 20 cb bd f1 44 06 3e
       0.004823851 0.033522427 -0.09918352 0.13112237

emb_net.v_lins1.1.weight f4 [32, 32]
000000 63 3e 87 bd b2 64 02 3e 29 61 1d 3e 95 c0 0d 3c
       -0.06603696 0.12733725 0.15369095 0.008651872
000010 bc e4 d8 3d 3c 7a 79 3d 62 e4 a8 bd 90 25 97 bd
       0.105905026 0.060907587 -0.082466856 -0.07380211
000020 e5 df bb bd d8 2c 2f 3e c9 8d 10 be 62 db 73 bd
       -0.09173564 0.1710695 -0.14116587 -0.05953539
000030 9c 56 28 be 36 61 99 3d 11 74 2f 3d 1c cb 20 3c
       -0.16439289 0.07489245 0.0428353 0.00981405
000040 1a d7 7e 3d 5d 27 0a be 8b c8 72 bd 78 7d f0 bd
       0.062216856 -0.13491578 -0.059273284 -0.11742681
000050 c0 cb 89 3d a1 93 25 be ab fc 58 3c 3c e3 b2 3d
       0.06728315 -0.16169597 0.0132438345 0.08734748
000060 1e a8 6e bd aa d6 ff bd 33 d4 f9 bc 28 6b 91 bd
       -0.058265798 -0.12492116 -0.030496692 -0.071005166
000070 68 13 0a 3c 52 da bc 3d 35 9c c8 3d 8a 86 75 bc
       0.008427478 0.09221329 0.09795419 -0.01498569
000080 72 27 33 bd 6d a2 09 be 3a 4c 0b 3d c1 bc cd 3d
       -0.04373879 -0.13440867 0.034008242 0.100457676
000090 57 40 29 be a5 ca 25 3d 34 7a 22 3e 73 4d cd bc
       -0.1652845 0.04047646 0.1586693 -0.025061345
0000a0 4f e4 38 be 28 17 08 3e af 8d c5 3d 9b d0 ce bd
       -0.18055843 0.13290083 0.096461646 -0.10098382
0000b0 28 49 37 3e 90 01 a2 3d 78 57 ab bc a1 87 67 3d
       0.17899 0.07910454 -0.020915732 0.05652583
0000c0 2f 1c c3 3c 9d 69 ee 3c 86 c1 13 3e 30 68 fa bd
       0.02381715 0.029103095 0.14429292 -0.122269034
0000d0 5d c5 98 bd d0 43 ae 3d 2e 1b de bb 77 88 b3 bd
       -0.07459519 0.08509028 -0.0067781424 -0.08766263
0000e0 4f a6 db bd 45 9c 15 3e 24 54 7a bd 2a a1 45 3c
       -0.1072508 0.14610393 -0.0611154 0.01206235
0000f0 bf 64 b3 3c 73 34 53 3d 85 32 2c be 44 49 1a 3d
       0.021898625 0.05156369 -0.16816147 0.037667528
000100 f2 b4 a1 bd ff 18 f8 bc f2 fc 23 3e 21 26 c5 bd
       -0.07895841 -0.030285357 0.1601446 -0.09626413
000110 99 ce b5 bc 5d 47 eb 3d 3c be 10 3e 7d 68 be bc
       -0.02219324 0.11488221 0.14135069 -0.023243183
000120 92 7d 3a bc 7b 4b 11 be 58 1e 0e 3e 6b d1 53 bd
       -0.011382477 -0.1418895 0.13878763 -0.05171339
000130 39 a3 b1 bc 95 6f 0e 3e dd e3 1f be ab 1f 2f 3c
       -0.021684276 0.13909753 -0.15614267 0.010688703
000140 68 73 e0 bb 27 ef 28 3e c2 db 1e bd a8 b2 1d 3e
       -0.006849695 0.1649748 -0.038783796 0.15400183
000150 d9 6f 17 3e 9b bf b9 3c a5 be 38 3d a5 a9 c0 bd
       0.1478876 0.022674372 0.045103688 -0.09407357
000160 f7 e0 25 be a0 c4 10 be b0 40 ea 3d 14 f1 33 be
       -0.16199099 -0.14137506 0.114381194 -0.17572433
000170 85 c6 82 38 9e c9 8c bc 16 ad 29 3e d1 2a c5 bd
       6.23586e-05 -0.017185982 0.16569933 -0.09627307
000180 55 47 1f 3e 13 81 a1 bd 6b 0e 5e bd bf 80 0e be
       0.15554555 -0.07885947 -0.05421297 -0.139163
000190 ec 1b f2 3d d7 e2 15 bd 5d d4 76 bd 7d de 63 3a
       0.11821732 -0.036593284 -0.06026112 0.0008692516
0001a0 a2 ee d6 3d fb 21 cd 3c 0a 72 19 3e 09 80 a5 3d
       0.10494734 0.025040617 0.14984909 0.080810614
0001b0 8a 6d d9 bd 60 b3 e6 bd 53 2e 93 3d eb d5 99 bd
       -0.10616596 -0.11264682 0.0718657 -0.07511505
0001c0 e5 e4 15 3e f1 56 91 bd 65 c1 0d 3d f9 f5 34 bd
       0.14638098 -0.07096661 0.034608264 -0.04417989
0001d0 38 04 9b bd dc 9d 1d 3e d1 6b 00 be 28 f2 b5 3d
       -0.07569164 0.1539225 -0.12541129 0.08884078
0001e0 4a 48 c5 bc 4e 05 0a 3c fa 0d 64 3d 17 75 03 3e
       -0.024082322 0.008424116 0.05567739 0.12837635
0001f0 32 c7 18 3e 87 e9 11 be 92 60 31 be fa f5 b6 bd
       0.14919737 -0.1424924 -0.17321995 -0.08933635
000200 63 19 70 3d 4d 32 cf bd 0f aa 15 3e ef c4 30 be
       0.05861796 -0.10117016 0.14615653 -0.17262624
000210 a8 47 8f 3d 32 fe ce bd 03 9e 45 bd 43 b6 7a bd
       0.06996089 -0.10107078 -0.048246395 -0.061208975
000220 ac 83 d1 3d e6 83 03 3e 26 62 9b bc 5e e0 c5 bd
       0.102301925 0.12843284 -0.0189677 -0.09661935
000230 d9 0e 81 3d c9 15 19 be 2e f1 32 3d 1c 96 d9 3d
       0.0630166 -0.14949717 0.043687038 0.10624334
000240 9b ff 22 3e f2 d0 97 bd 94 cf 91 3d 4d ca d7 3d
       0.15917818 -0.074129 0.071196705 0.10536633
000250 6d 58 27 3e 2a 29 1d be 8c 7a 6c bd 09 f1 3d be
       0.16342326 -0.15347734 -0.057734057 -0.18548979
000260 d0 9e fb 3c bf ac 91 3d 73 9a cf bd e1 91 d7 3d
       0.030715376 0.07113027 -0.10136881 0.10525871
000270 7a 61 8b bc 67 a9 7c bd 70 1a 3a be ec d4 1e be
       -0.017014254 -0.061684992 -0.18174148 -0.15510911
000280 52 fa 85 bd 9d 31 0e 3e d5 3c 7d 3d 77 d9 8b bc
       -0.065418854 0.13886113 0.061825592 -0.017071469
000290 ed 82 5e bd e2 af fd 3d 95 66 25 3e 09 08 0c 3e
       -0.05432408 0.123870626 0.16152413 0.1367494
0002a0 6c 41 1e bd 61 af 92 3d 5b b7 0d 3d a4 97 a9 bc
       -0.03863661 0.07162357 0.03459869 -0.02070219
0002b0 61 bf 7a bd 14 d5 55 bd 33 c2 35 3d a0 3f 43 3d
       -0.06121767 -0.05220516 0.044374656 0.0476681
0002c0 a7 92 77 3d 5d c1 fb bc e1 47 90 3d b1 ad 00 3e
       0.060442593 -0.030731851 0.0704496 0.12566258
0002d0 91 58 36 3d 50 9a 70 3d 3b ff 0a bd 66 ca 74 3d
       0.044518057 0.058740914 -0.033934813 0.059763335
0002e0 73 e5 14 be 6d 59 40 bc e2 07 e2 3a c7 a7 18 be
       -0.14540653 -0.011740071 0.0017244781 -0.14907752
0002f0 c7 12 81 3d ae 1c 6e 3b a3 9a de bd 06 a7 34 be
       0.063024096 0.0036333012 -0.10869338 -0.1764184
000300 66 86 35 bd ab b5 e7 bd c6 4e 78 3d a2 28 bb 3d
       -0.044317625 -0.11313947 0.060622 0.091386095
000310 17 67 e2 3d bc e3 09 be 56 7e 67 3d 32 11 07 bd
       0.11054819 -0.1346578 0.056516968 -0.032975383
000320 e4 02 a1 3d 45 38 05 bd 6b c0 3b bd 4c fc 35 bd
       0.078618795 -0.032524366 -0.0458378 -0.044430062
000330 c0 1a bf 3b 40 4c a2 3d 81 75 b9 bc 59 2b 38 be
       0.0058320463 0.079247 -0.022639038 -0.17985286
000340 a7 40 3f 3a ce d0 89 3c e3 22 94 bc 02 40 b8 3d
       0.0007295706 0.016823199 -0.018083042 0.089965835
000350 c8 0b 36 3b d4 ca 41 3d 9a 95 f4 bd 88 72 17 3d
       0.0027778018 0.047312573 -0.11942597 0.03697446
000360 3b cc 82 3d 69 21 e0 bd 93 01 d5 3d 58 45 01 bd
       0.0638661 -0.109438725 0.10400691 -0.031560272
000370 69 e4 f3 bc 93 45 4f 3d af 70 00 be 8d 62 4d bd
       -0.029772 0.05060346 -0.12542985 -0.050142813
000380 ec 03 94 3d d7 35 b7 bd bb 0c 0e 3e 6f 9e 62 bd
       0.072273105 -0.08945816 0.13872044 -0.055326875
000390 51 fc 94 bd fa c4 9f bc fd 21 bb 3d d1 3a bf 3d
       -0.07274688 -0.019503105 0.09137342 0.0933739
0003a0 52 81 13 3c ec 0b 0c 3d 58 18 e9 3c d6 fe da bc
       0.009003 0.034191057 0.02845399 -0.026732843
0003b0 6d ef 24 be 57 34 0d be 3e 5b e9 3d 13 80 1d 3e
       -0.16106959 -0.13789497 0.11394356 0.15380888
0003c0 66 4c 05 3d ca cf 23 be 91 f4 05 be 3e e0 22 bd
       0.032543562 -0.15997234 -0.13081576 -0.039764635
0003d0 90 33 3b be a6 f9 d5 bd 24 2b f8 3d 77 dd 26 be
       -0.18281388 -0.10448007 0.121176034 -0.1629542
0003e0 a6 e9 1d 3e 08 1f dd bd e3 46 87 bb 6f e4 0d 3d
       0.15421161 -0.10796934 -0.0041283234 0.03464168
0003f0 a9 4a 05 3d ad 94 50 3d 04 95 c6 bd 88 e2 38 3d
       0.032541905 0.05092304 -0.09696391 0.045137912

emb_net.v_lins1.1.bias f4 [32]
000000 ca 38 15 be d6 c0 de 3d a4 f6 ab 3c 25 e1 3d bd
       -0.14572445 0.10876624 0.02099163 -0.046357293
000010 d0 b3 19 be be b8 97 bd 49 99 10 be 58 4c b5 bd
       -0.1501 -0.07408284 -0.14120974 -0.08852452
000020 2d 38 b1 bd a7 50 00 3e a7 a0 1d 3e 49 58 16 bd
       -0.08653293 0.12530766 0.15393315 -0.03670529
000030 c8 8d fc 3d 6c 55 4e 3d 18 e9 0c bb 99 14 7b 3d
       0.1233173 0.050374433 -0.002150124 0.06129894
000040 30 41 1d 3c f4 26 87 3d 13 08 3e bd af 1e 3c bd
       0.009598061 0.065992266 -0.04639442 -0.0459277
000050 e0 8b 40 3b 90 ee ac 3d 02 86 0e be ee 35 a1 3d
       0.0029380247 0.0844394 -0.13918307 0.078716144
000060 be 0f 1b bc 8d 6c 07 be ab 7c ab 3d e3 53 26 bc
       -0.009464202 -0.13225003 0.08373388 -0.010151836
000070 68 56 b8 bd c3 0b c5 3d 36 cc 03 3e 79 0d d6 bb
       -0.09000856 0.09621384 0.12870869 -0.006532368

emb_net.v_lins1.2.weight f4 [32, 32]
000000 88 2c f8 bc 4e c2 8d bd 04 0e d4 bd 1b 43 08 3d
       -0.030294672 -0.06921826 -0.10354236 0.03326712
000010 3d 82 1c 3e 79 00 eb bd 4e 62 c1 3d 8f 61 f7 3d
       0.15284057 -0.114746995 0.09442578 0.12079155
000020 ec ce 1e 3d ea b7 73 3d 3f f8 af 3d 10 db 99 bd
       0.038771555 0.059501566 0.08592271 -0.07512486
000030 1d c9 28 3d ee a3 79 bd 4f a8 f4 bc f8 79 80 3d
       0.04120742 -0.06094735 -0.029865412 0.06273264
000040 62 4a fa bd dd 69 bc bd 08 f3 20 3d a8 d5 3a be
       -0.12221219 -0.09199879 0.039294273 -0.18245566
000050 13 3c f1 3d 0f 34 a6 3d a0 23 a6 3d a7 24 13 be
       0.117790364 0.08115398 0.08112264 -0.1436945
000060 81 35 23 3e 5c 9a f0 bd e6 05 b9 3d cf d9 6b 3d
       0.15938379 -0.11748192 0.09034328 0.057580765
000070 1e 99 4b bc db cf f5 3c b7 c0 20 be eb 71 0c be
       -0.012426643 0.03000634 -0.15698515 -0.13715331
000080 72 44 26 be 43 cb f7 bd 54 e1 2b 3e 24 ed 11 bd
       -0.16237047 -0.12099316 0.16785175 -0.035626546
000090 ef 9a 7d 3d 5b 3b 16 3e 8b 84 0e be 76 2a 8c 3d
       0.061915334 0.1467108 -0.13917749 0.06844036
0000a0 07 42 e5 3b 2b f4 0d 3e 4b d0 d6 bd be 13 c2 3d
       0.0069963965 0.13862674 -0.104889475 0.09476422
0000b0 97 f9 4a bd e0 72 0b 3d 22 59 11 be c8 2a 1c be
       -0.049554434 0.0340451 -0.14194158 -0.15250695
0000c0 d6 2f 26 3e a3 e5 10 3e f3 a0 10 be 98 d8 0f 3d
       0.16229185 0.141501 -0.14123897 0.03511867
0000d0 8f e2 d8 bc 72 47 4c 3d b1 e8 2a be 76 65 db 3d
       -0.026475219 0.049872823 -0.16690327 0.107127115
0000e0 46 d4 f8 3d f7 2d 28 3e 3e d3 6c bd 8a eb ec 3c
       0.12149863 0.16423784 -0.057818644 0.028920908
0000f0 36 5e bc bd da 00 4f bd 17 5e bb 3a e5 1a cc 3d
       -0.09197657 -0.05053792 0.0014295009 0.09966067
000100 4a ae 59 bd b7 3b 32 3d c0 8f 1a 3e 23 81 92 bc
       -0.05314473 0.04351398 0.15093899 -0.017883843
000110 7d d4 80 3d c2 ff dc 3d 81 5a 26 3e 55 88 8d bd
       0.06290529 0.107909694 0.16245462 -0.06910769
000120 38 d9 ad bd f7 e2 19 bd 5a 47 25 3e 9d 54 b1 3d
       -0.08488697 -0.037569966 0.161405 0.08658717
000130 93 4e 5f 3d a5 59 af bd 69 82 78 bd 44 09 06 3e
       0.054518294 -0.0856202 -0.060671244 0.13089472
000140 70 11 29 bd 01 b1 c0 3d 40 ff e9 3d f8 a4 17 3e
       -0.041276395 0.09408761 0.11425638 0.14809024
000150 82 de 04 be 4a 35 ad 3c e6 18 f7 bd fe a1 71 3d
       -0.12975505 0.021143574 -0.12065296 0.05899238
000160 b1 28 0c 3e bc f5 7e bd a7 e7 1c be 71 b7 d2 bc
       0.13687398 -0.06224607 -0.15322743 -0.025722237
000170 8c 28 63 bd fb 57 8b bd 7a 78 19 bd 1c 21 68 bd
       -0.05545859 -0.0680389 -0.03746841 -0.0566722
000180 f8 8c 34 be 68 06 09 3e f1 d1 03 bd af d4 04 3e
       -0.176319 0.1338135 -0.032182638 0.12971757
000190 a4 2e 4e 3b 81 db 22 3e 67 a2 1c 3e 9a 8c 1b be
       0.0031460905 0.15904047 0.15296327 -0.15190354
0001a0 35 85 2b be c5 c5 dc 3d 02 8f 19 3e a4 04 b8 bc
       -0.16750033 0.10779909 0.1499596 -0.02246315
0001b0 bc 6a c7 bd 14 5d 84 bc 6d 68 f1 3d e9 b7 23 bd
       -0.09737155 -0.016157664 0.11787496 -0.039970312
0001c0 7d 35 40 bd 49 76 67 3c c0 9e 12 3e a0 8e f0 3d
       -0.04692601 0.0141273225 0.14318371 0.117459536
0001d0 dc f3 ca bd 80 30 2c 3d cf cb d8 bc db d7 a2 3d
       -0.09909794 0.04203844 -0.026464371 0.079513274
0001e0 eb 95 29 be 7c a9 06 3e f5 b5 4d bd 9c ba 74 3d
       -0.16561095 0.1315059 -0.050222356 0.059748277
0001f0 af 5a c2 3d 0d 55 b2 bd e7 80 fb 3d 1e 4d c1 bd
       0.09489953 -0.087076284 0.122804455 -0.09438537
000200 19 b1 39 be 4a 17 db 3d a5 60 0c 3e e3 91 f2 3c
       -0.18133964 0.106978014 0.13708742 0.02961058
000210 9c e1 74 bd ee b5 16 3e c3 16 cd bd 73 66 05 be
       -0.05978547 0.14717838 -0.10014107 -0.13027363
000220 85 f1 15 3e 0d b5 e4 bd f0 2a e6 bb 65 15 d2 3d
       0.14642914 -0.11167345 -0.0070241615 0.10257987
000230 27 8d 2b 3d 5d 53 a4 bd 3f b1 10 3e 85 82 67 bd
       0.04188266 -0.08023713 0.14130114 -0.056520957
000240 d0 1c 1e 3e df ce d3 bd bf 33 06 3e 68 6f ac bd
       0.15440679 -0.10342192 0.13105677 -0.084196866
000250 68 ba 71 bc 93 f1 b8 3d ff 7b d3 3d b5 62 13 be
       -0.014753915 0.090304516 0.10326385 -0.14393122
000260 e3 ad 8f 3d 9e ba 06 3d db be 8a 3d 7a 4b 46 be
       0.07015588 0.032892816 0.06774684 -0.1936473
000270 15 a3 78 3b 8b a8 08 be 85 e6 e4 bd 44 02 aa bd
       0.0037939001 -0.13345544 -0.111767806 -0.083012134
000280 2f 3c 5b bc e3 93 fb 3d fa d3 db 3d c8 ad 9e bd
       -0.013381048 0.122840665 0.10733791 -0.0774799
000290 0e dc ad 38 45 db 10 be 85 1f ae bd ee a1 96 bd
       8.290271e-05 -0.14146145 -0.085021056 -0.073551044
0002a0 8f 8e e4 bd 3a 3c e4 ba b6 0e 6a bd 33 60 25 3e
       -0.111600034 -0.0017412968 -0.057142936 0.16149978
0002b0 6f 68 30 bd 87 f4 b4 3d 5d c2 6b bd 5c d3 1b be
       -0.043068346 0.088357024 -0.057558406 -0.15217346
0002c0 14 88 08 be 8b d7 16 3e c7 23 83 3c da 96 28 be
       -0.1333316 0.1473066 0.01600827 -0.16463795
0002d0 73 04 5a bd 6e 8c 5d bd 12 ce c0 3c 4b a6 d4 bd
       -0.0532269 -0.054089002 0.023535762 -0.1038328
0002e0 6e 71 2a bd 08 67 1e be 3b 06 dd 3d 03 0b 8e 3d
       -0.04161208 -0.15468991 0.10792204 0.06935694
0002f0 02 5d 49 3d 2b c8 38 3c df 54 45 3d 7e 4b 37 be
       0.049160965 0.0112781925 0.048176643 -0.17899892
000300 25 d0 23 3e 72 5f d8 3c 29 7a 30 ba 1a 5a 0e be
       0.1599737 0.0264127 -0.00067320705 -0.13901559
000310 ab 12 29 be 4e 13 36 3d 09 77 0e be b9 59 1f 3e
       -0.16511028 0.044452004 -0.13912596 0.1556157
000320 d8 2a 89 3d c5 a4 76 3d 64 48 d3 3d d0 53 6f 3d
       0.06697625 0.06021573 0.10316542 0.05842954
000330 5e 66 1f 3e 3a 92 0e be 7d 01 6e bd 46 80 ba bd
       0.15566394 -0.13922969 -0.058106888 -0.091064975
000340 3f f8 29 3d 07 10 1c 3c 18 e1 6e 3a 1c 5b 85 bd
       0.04149651 0.009525306 0.0009112521 -0.06511518
000350 23 21 ae bc 7a f1 b0 bd de d6 1c 3e 98 19 15 3e
       -0.021256035 -0.08639808 0.1531634 0.14560544
000360 cf d2 4c bd c6 f8 28 be 8d 9a 91 bd 72 c4 b1 bd
       -0.05000573 -0.1650115 -0.07109556 -0.08680047
000370 3c 21 23 3d 35 d8 27 be 68 89 a9 3d 68 54 e9 bd
       0.039826617 -0.1639107 0.08278161 -0.11393052
000380 4e 6c 12 be 30 b8 eb bd 26 8c 83 bd 60 11 ba 3d
       -0.14299127 -0.1150974 -0.064232156 0.09085345
000390 73 f2 16 be 0b 06 a1 3d 9f a6 e4 bd 1a 16 cd bd
       -0.14740925 0.07862481 -0.11164593 -0.10013981
0003a0 f0 5b 54 bd 4e ab 3a bd 7c e8 0e 3d 2e 7a ba bd
       -0.05184549 -0.045573525 0.034889683 -0.09105335
0003b0 7d f8 0f 3e 1b bb 20 3e 17 0e 6c bd 44 7c 4a bd
       0.14059635 0.15696375 -0.057630625 -0.049434915
0003c0 e8 b0 c4 3c f4 5a 1a be b3 d0 87 bd 6d 5f 1f be
       0.024010137 -0.15073758 -0.06631603 -0.15563746
0003d0 10 f8 d1 3c ab 8b 54 3d e0 bd d9 3c 1a 4b 42 ba
       0.02563098 0.05189101 0.026579797 -0.00074117037
0003e0 df cc 03 be 26 ec 35 3c dc 21 ea bd 4c 9c 8a ba
       -0.12871121 0.011103665 -0.114322394 -0.0010575145
0003f0 ff 00 31 3e 85 c1 d8 bd 52 de 01 3e 55 0e 05 be
       0.17285536 -0.10583786 0.12682465 -0.12993748

emb_net.v_lins1.2.bias f4 [32]
000000 0e 5b 9e 3b 6c 1a c8 bd c0 45 03 3e 00 34 0e bc
       0.004832632 -0.097706646 0.12819576 -0.00867939
000010 f8 7d 11 be ef fe f3 bd 7c 89 da ba 51 c0 3d bd
       -0.1420821 -0.11913859 -0.0016673054 -0.046325985
000020 33 c0 29 be de e1 d9 bd b6 cc a4 3d 4a c9 e5 bb
       -0.16577224 -0.10638784 0.08046858 -0.007012521
000030 a5 89 61 3d 12 7f bc 3d 5e 07 12 be 8a cc 33 3e
       0.05506291 0.09203924 -0.14260623 0.17558494
000040 ab 51 e5 3c 34 15 6c bd 1b 06 0f be 36 a4 d2 3c
       0.027993044 -0.05763741 -0.13967173 0.025713068
000050 e4 0c 9b bc 56 aa 23 3e 10 ca 66 bd 34 8e 2f 3e
       -0.018927045 0.15982947 -0.056345046 0.1714409
000060 ae 55 16 be 52 4d e7 bd 34 99 e6 3b ba 93 ae 3d
       -0.14681122 -0.112940446 0.007037306 0.0852427
000070 bf 7d 8b 3c bf 11 ec bd f6 44 cf bd 05 8a be 3d
       0.017027734 -0.11526822 -0.10120575 0.09303669

emb_net.v_lins1.3.weight f4 [32, 32]
000000 04 bf c1 bd 26 cf 98 3b 3c 98 16 3e 0a 41 0a 3e
       -0.094602615 0.004663366 0.1470651 0.13501373
000010 13 76 72 3d 46 8f 45 be c8 da 2b be fe fd 06 3e
       0.059194636 -0.19292936 -0.16782677 0.13182828
000020 3c 4d a6 3d cf d5 31 bb 1e d2 6e bc fd 3e 6c 3d
       0.081202 -0.0027135496 -0.014576463 0.057677258
000030 62 8d 0f 3d ca 91 46 bc 42 ae 23 3e 3b 8d 11 3e
       0.035046943 -0.01211972 0.15984443 0.14214031
000040 fa 87 fa 3d 1c 70 0d bd 6c ee ef 3d d1 ea 8f 3d
       0.12232967 -0.034530744 0.11715397 0.070272096
000050 87 f4 e8 3d fe 63 12 3e 9d 07 b5 3d e3 cb 38 bd
       0.11374765 0.14295956 0.08839343 -0.045116317
000060 21 45 5b 3d 82 ea e5 3d 68 f9 df 3d 3c 9c e7 bc
       0.053532723 0.112263694 0.10936242 -0.02827274
000070 0b 6c 05 3d cc de 33 3e 4a eb 33 be f9 28 fa 3d
       0.03257374 0.17565459 -0.17570224 0.12214846
000080 5d 78 35 be c4 be 53 bd df a7 a4 3d 82 5c 2b 3e
       -0.17721696 -0.0516956 0.08039831 0.16734508
000090 25 a5 08 be fd a4 d3 3d 39 b2 4e bd cd e3 6c bd
       -0.13344248 0.103342034 -0.050462935 -0.057834435
0000a0 05 19 ad 3d 00 fc 62 bc 5f 22 df bd 79 7d 3e bc
       0.08452038 -0.013854027 -0.10895228 -0.011626595
0000b0 fb e4 b2 bd 38 b4 93 bc dc 74 06 be b8 17 d3 3d
       -0.08735081 -0.018030271 -0.13130516 0.10307258
0000c0 d1 81 a4 bd 69 63 24 bd ed 03 28 3e cb fc 01 bd
       -0.08032573 -0.040133867 0.16407748 -0.031735223
0000d0 86 7d 00 3e 04 ed 9f 3d 50 85 88 bd a4 b2 f1 3c
       0.12547883 0.07808879 -0.06666052 0.029504128
0000e0 08 d2 b0 bd cb 2c 9d bd 46 e6 04 be 84 f5 8b bd
       -0.0863381 -0.07674559 -0.12978467 -0.06833938
0000f0 ac 52 c2 3c 49 e2 fd bc 18 be ad 3c c0 75 18 be
       0.023721062 -0.03099169 0.021208808 -0.14888668
000100 b3 93 7b bd 22 99 1c 3e 92 27 14 3c 41 4f b6 bd
       -0.061420154 0.1529279 0.009042637 -0.08901835
000110 ae fd 14 3e a7 24 1a be 3d 5b 09 be ce 40 be bd
       0.14549896 -0.15053044 -0.13413711 -0.09289704
000120 09 18 10 be 6e 76 1b be dc e1 33 bd b9 f3 21 bd
       -0.14071669 -0.15181896 -0.04391657 -0.039539073
000130 8d cf 84 bb 4d 3d 93 3c a4 5e 30 3d b9 6b 0f bd
       -0.0040530623 0.017973566 0.043059006 -0.03501484
000140 5b 5c 12 be ae 28 33 3e bf b1 0a bd 4e 7b 11 3e
       -0.14293043 0.17495987 -0.033860918 0.14207193
000150 02 9f c4 3c ca 0f 89 39 65 92 16 bb ba 4b f6 bc
       0.024001602 0.0002614244 -0.0022975442 -0.030065406
000160 0f b9 ec bd 5f 71 97 3d a8 aa af bd 60 c0 15 bd
       -0.115587346 0.07394671 -0.08577472 -0.036560416
000170 30 fd 12 bd d6 6c 3f 3d 66 1d 17 3e 27 b0 9f 3d
       -0.03588599 0.046734653 0.14757308 0.0779727
000180 bb 6a 8d bd d5 4e 9d bd ff 00 5e bd d1 22 d7 bb
       -0.06905123 -0.07681052 -0.05420017 -0.0065654297
000190 86 9d 1e 3e ee 67 39 bd 6e 3b 22 be 7a 72 1f be
       0.15489778 -0.04526513 -0.15842983 -0.15571013
0001a0 58 3d b9 bc 20 51 04 be cd 88 c9 3d b4 1b a8 bd
       -0.022612259 -0.12921572 0.09840546 -0.08208409
0001b0 51 8a cd bc 91 f4 06 3e 5b 69 0b 3e c1 55 2b 3e
       -0.025090368 0.13179232 0.13614409 0.16731931
0001c0 99 9c a9 3d 77 08 1a be 50 64 79 bd 5c d6 1e bd
       0.08281822 -0.15042292 -0.06088668 -0.038778648
0001d0 a1 89 06 be 8d 5a 83 3d c9 77 15 3b f2 bf 47 bd
       -0.13138439 0.064137556 0.0022806993 -0.048767038
0001e0 61 57 c0 bd ae f1 33 3e 9b 90 14 be 6d 40 16 bd
       -0.09391666 0.17572662 -0.14508288 -0.036682535
0001f0 f0 0b 0b be 8f 45 73 bd 10 45 78 bd 44 a0 d6 bc
       -0.13578773 -0.059392508 -0.060612738 -0.026199467
000200 c6 5b 4c 3b ad fb f3 3d 71 e0 18 3e fc 13 08 3d
       0.003118263 0.11913238 0.14929368 0.033222184
000210 92 db 44 3d 83 f2 a3 3d bc dd e5 bc ab 64 9a 3d
       0.04806096 0.0800524 -0.028059833 0.07538732
000220 72 99 3b be 5d b6 cb ba 04 3c e4 bd 6b 1c c0 bd
       -0.18320253 -0.0015542019 -0.111442596 -0.0938042
000230 bd 6d 78 3d d6 dd 05 be 8c d6 b2 bb 33 5a a0 3c
       0.06065153 -0.13072905 -0.005457705 0.01957426
000240 04 d4 de bc 4f f8 92 3d 93 54 2f 3e cd 43 93 bd
       -0.027200706 0.07176267 0.17122106 -0.07190666
000250 f8 f6 74 bd 04 a3 c1 bc 2c ce 44 bd e6 b4 c4 bd
       -0.05980584 -0.023637302 -0.048048183 -0.09604816
000260 5a 6d d3 bc a5 af f6 bd b7 c0 ec 3d fc 54 59 3d
       -0.025808979 -0.1204522 0.11560195 0.053059563
000270 d1 2b 51 bd 9f 1a e1 bc 47 c4 9b bc 35 1a a2 bd
       -0.051067177 -0.027478514 -0.01901449 -0.07915155
000280 95 f5 5f bd dc 02 67 bd 8d 36 d1 3d 2a 5f a6 bd
       -0.054677565 -0.05639921 0.10215483 -0.0812362
000290 6c 9d 82 3d d4 e3 18 3e 72 67 e0 bd 6d c0 f4 bc
       0.06377682 0.1493066 -0.10957231 -0.029876912
0002a0 a6 48 23 3d 2c 2f 41 bd 0b 04 12 be 46 39 d2 bd
       0.039864205 -0.047164127 -0.14259355 -0.1026483
0002b0 47 32 ab 3d a8 ec 53 3c a1 a8 7c 3d a7 db 13 3e
       0.08359199 0.012934841 0.061684255 0.1443926
0002c0 fb 5b 42 bd b0 5b 32 3d 96 1a 84 bd dd 35 eb bc
       -0.047451 0.04354447 -0.06450383 -0.028712207
0002d0 ae b4 08 3d a6 6c 78 bd b9 db eb bd a2 c3 c2 bd
       0.033375435 -0.06065049 -0.11516518 -0.0950997
0002e0 ee 52 14 be 97 e9 0d 3e ab d8 1e 3e d5 4a f3 bd
       -0.1448476 0.13858639 0.1551234 -0.118795075
0002f0 7c 88 2e be d2 c2 11 be 14 06 72 3d 40 42 00 3e
       -0.17044252 -0.14234474 0.059087828 0.12525272
000300 ba db 2c be c1 18 e5 3c a8 02 93 bd 05 74 24 3e
       -0.16880694 0.027965905 -0.07178241 0.16059883
000310 f2 07 07 3c 4e 23 9c bc 2b ce c9 bc 7b 02 dd bd
       0.00824164 -0.019059803 -0.024634441 -0.10791489
000320 a3 79 e3 3d 54 46 ef bc f1 54 bb bb a0 09 31 be
       0.11107185 -0.02920834 -0.005716913 -0.17288828
000330 f1 47 df bb c7 4c f9 3c f1 36 e4 bc 09 f7 06 3e
       -0.006813996 0.030432118 -0.02785823 0.13180174
000340 cc ba 95 bd e7 70 e3 bd c8 c4 dd bd 5d 8d 24 3e
       -0.07311019 -0.11105519 -0.10828549 0.16069551
000350 36 09 c7 3d 95 5e 11 bd bd ac 1d bd 22 1f 80 bc
       0.09718554 -0.03549059 -0.038494814 -0.015639845
000360 94 3f 36 3e 62 2c ab bc 22 b6 80 3d dc 29 18 3e
       0.1779769 -0.020895187 0.06284739 0.14859718
000370 81 8e 19 bd 67 88 41 bd e3 18 2b bd 75 4b 2e 3e
       -0.037489418 -0.047249224 -0.04177178 0.17020972
000380 e8 8d 1a be f9 69 b1 bd 5b b8 c2 3d 6d 49 01 3d
       -0.15093195 -0.08662791 0.09507819 0.031564165
000390 af f8 01 3b a2 0f 7a 3d 7a 37 2b 3c cc d6 54 bd
       0.0019832065 0.061050065 0.010450238 -0.05196266
0003a0 36 bd 15 3e d1 80 b5 bd 5f 99 87 bd 00 d9 14 3e
       0.1462296 -0.088624604 -0.0662105 0.14535904
0003b0 78 da 1e 3d e5 17 31 3e ea a9 ad 3a 70 ec 4a bd
       0.038782567 0.17294271 0.0013249491 -0.04954189
0003c0 8b 40 11 3e 07 78 11 be 4f ee 9b bd 18 6e 20 be
       0.14184777 -0.14205943 -0.07613813 -0.15666997
0003d0 e0 05 ab 3d 2e a0 20 be 81 9e 34 3e ae 6f 3c be
       0.0835073 -0.15686104 0.1763859 -0.18401977
0003e0 95 89 2d bd b5 a7 00 be 23 03 d6 bd 17 25 9b 3d
       -0.042367537 -0.12563975 -0.10449817 0.07575434
0003f0 ca 22 0f 3d f5 19 92 bd b1 92 6c bc b1 7a a7 3d
       0.034945287 -0.07133857 -0.014439271 0.081776984

emb_net.v_lins1.3.bias f4 [32]
000000 83 3f cd 3b 03 16 86 3d 40 42 dc bd 9e c1 1b bd
       0.0062636747 0.06547167 -0.10754824 -0.038026445
000010 33 4c cc 3d aa ed 27 3e 63 13 d9 bd 0a 7c 62 3d
       0.09975471 0.16399255 -0.10599401 0.055294074
000020 7d 72 21 bd 01 aa 22 be e2 10 d7 3d 23 36 88 3c
       -0.039415825 -0.15885164 0.10501267 0.016627377
000030 16 38 cf 3d 08 86 ee bd ab 3d eb 3c f5 ef 8a 3d
       0.101181194 -0.11646658 0.028715929 0.067840494
000040 aa ba e9 bd 59 0c da bb ac 1f 13 3e 98 bc b5 3d
       -0.114125565 -0.006654304 0.1436755 0.08873862
000050 ec 9c a8 3d 14 09 e9 3d 4e 8e 20 3d 10 ca 34 3e
       0.082330555 0.11378685 0.039198212 0.17655206
000060 52 78 2a be 3a 0f 20 bd 04 79 4a bd be c7 e0 bd
       -0.16647461 -0.03907702 -0.049431816 -0.10975598
000070 a0 54 2f 3e f9 8b db 3d 40 18 7a 3d 16 ff b9 3d
       0.17122126 0.10720057 0.061058283 0.09081857

emb_net.v_lins1.4.weight f4 [32, 32]
000000 de 54 70 bc f8 9e f4 3d e9 2e 25 3e ca 94 32 3d
       -0.014668671 0.119443834 0.16131176 0.043598928
000010 b3 8a 6c 3d 10 8e ed bd 26 04 99 bd 25 4e f9 3c
       0.05774946 -0.11599362 -0.074714944 0.03043277
000020 71 d5 2d 3e 57 b2 30 3e aa 27 9a bd ec 42 a7 bc
       0.16975953 0.17255531 -0.075270966 -0.020417653
000030 65 e1 55 3c f5 cb 1a be c3 05 1d 3e 28 71 c1 bc
       0.0130542265 -0.15116866 0.15334229 -0.023613527
000040 e8 a4 df 3d 50 dc 80 3d b4 2b 1b 3e 57 f4 37 be
       0.10920125 0.06292021 0.1515339 -0.17964302
000050 e2 23 ab bc f1 8c de bd ad 2a 2a 3d 78 aa d0 3d
       -0.020891134 -0.10866726 0.041544605 0.10188764
000060 f1 14 e8 bd a1 71 0c be 07 3b 3d 3c b2 e2 16 be
       -0.11332119 -0.13715221 0.011549718 -0.14734915
000070 53 51 14 be a1 3b 9f bd c5 0e 1d 3e 96 6b d2 3d
       -0.14484148 -0.07775045 0.15337665 0.10274427
000080 3d 64 3d bd f8 67 6d bd 4d f5 96 bd 2c c5 3f 3e
       -0.046238173 -0.05796048 -0.07371006 0.18727559
000090 ae 7c 0d 3e 0e ee 5d 3d 6c e4 17 be 0d f9 a2 3d
       0.13817093 0.054182105 -0.1483323 0.07957659
0000a0 c8 37 97 bd de 4c 2c be 31 04 0c 3e 12 aa 11 bd
       -0.07383686 -0.16826198 0.13673474 -0.035562582
0000b0 b3 7e b6 bd c9 44 2e 3e b6 d3 80 bd b9 fd ca 3d
       -0.08910885 0.17018427 -0.06290381 0.09911675
0000c0 db ce 24 bd 0b 4e af bd 35 d0 1d be ea 17 08 be
       -0.040236335 -0.085598074 -0.15411456 -0.13290372
0000d0 ee bd de 3d c6 8e 8c 3d d5 55 fc 3d db e1 cf bd
       0.1087607 0.06863169 0.12321059 -0.101505004
0000e0 1c 0f 91 bc 83 3b c7 3d 41 5b c6 bd 43 e4 03 be
       -0.0177074 0.09728148 -0.09685374 -0.12880044
0000f0 56 eb 41 3d 88 f3 4d bd 33 7c 25 3e 62 02 ea bc
       0.047343574 -0.050281078 0.1616066 -0.02856559
000100 ba 21 02 be 94 f1 20 3d dc 37 8a bd 7f 44 19 3e
       -0.12708178 0.039292887 -0.067489356 0.14967535
000110 7a 6e 02 3e 70 b1 0b be 12 3c ab 3d 6b e4 9a 3d
       0.12737456 -0.13641906 0.08361067 0.075630985
000120 4c 02 d6 bd a8 7b 0a bd 3a f9 01 3e 44 51 8a 3d
       -0.10449657 -0.033809334 0.12692729 0.067537814
000130 97 3e 86 bd a5 7a 0c 3e 6b 95 08 be a7 0d 70 bc
       -0.06554907 0.1371866 -0.13338248 -0.0146516925
000140 ff 33 89 bd 14 2f 36 3c b4 e0 c2 3d 1d ec cd bd
       -0.066993706 0.011119623 0.09515515 -0.10054801
000150 61 2c 61 bd b7 5f 8a bd b6 b3 bc 3d 83 26 ba 3c
       -0.054973964 -0.067565374 0.09213965 0.022723442
000160 1c ed 06 bd 5c b2 23 3e 1b 4c 0f 3e 51 64 27 be
       -0.03294097 0.15986007 0.13993876 -0.16346861
000170 1e 29 c5 3a 6c 99 f8 3d 9e 3f d7 3c 5f 1f ba bd
       0.0015042161 0.12138638 0.026275452 -0.09088015
000180 cd 82 a5 3d c9 3a e3 3d 66 3b 1c bc 65 33 0e 3e
       0.08081589 0.11095197 -0.009535646 0.13886793
000190 27 97 bb 3c 38 9c 58 bd cf 44 34 3d 1b 71 c3 bc
       0.022899223 -0.052883357 0.044010933 -0.023857644
0001a0 99 d0 2f 3e 72 25 0e 3e 98 b8 12 3e ad e7 06 3e
       0.17169417 0.13881472 0.1432823 0.13174315
0001b0 dc cf 31 be bc d4 3d bc 82 7e 99 3d f0 11 a3 3d
       -0.17364448 -0.011586364 0.074948326 0.07962406
0001c0 29 01 2c 3e 00 41 73 3d dd 3d 87 3d 80 77 2c be
       0.16797318 0.05938816 0.06603596 -0.1684246
0001d0 1a 97 23 3e 53 45 45 be 54 f4 2f be 18 7e 40 3d
       0.1597561 -0.19264726 -0.17183048 0.046995252
0001e0 5d 1f 00 3d e2 bb 1f 3e 5a 81 50 3d 48 c6 32 bd
       0.03127991 0.15599015 0.05090461 -0.043646127
0001f0 8c 32 10 be bf 43 0f be cb e0 22 be 5e 2b b8 3d
       -0.14081782 -0.13990687 -0.15906064 0.08992647
000200 7b 03 f1 bc 42 86 82 bd 5d 27 93 3d e7 75 22 be
       -0.029420605 -0.06373264 0.07185242 -0.15865289
000210 33 0a 83 bd b7 04 33 3c 1e 63 46 bd 0a 84 0c bd
       -0.0639843 0.010926417 -0.04843437 -0.03430561
000220 80 b8 7d 3d da 5a 01 bc 50 bd 2f 3e dc 05 84 bd
       0.06194353 -0.007895196 0.1716206 -0.0644643
000230 65 f9 92 3c 74 5a a7 bd da 3c 22 3e 43 0c 24 3d
       0.017941186 -0.081715494 0.15843526 0.040050756
000240 3a 19 40 3d d2 c3 1f 3d bb 94 6e bb 5e 75 53 3d
       0.046899058 0.03900511 -0.0036404568 0.051625602
000250 b8 75 2a 3e 23 5f 0d 3e f7 7e 1b 3d 8e 76 11 3e
       0.16646469 0.13805823 0.03796288 0.14205381
000260 19 82 9a 3d 74 38 03 be 72 cf ba b9 82 38 e7 3d
       0.075443454 -0.12814504 -0.00035631243 0.11290075
000270 25 44 1c 3d 0e 70 d3 3d b2 8a 0a 3e e2 9f 13 3e
       0.038150925 0.10324107 0.1352947 0.14416459
000280 93 3f ec 3d de 4e 99 bd 48 12 2d 3e 3a 29 35 3e
       0.11535563 -0.07485746 0.16901505 0.17691508
000290 7e 86 e5 bd 48 78 d5 bd ba 8a fa bd ec 42 a7 3d
       -0.11207293 -0.104233325 -0.12233491 0.08167061
0002a0 05 17 21 be 4c 8a 13 3e f1 24 a9 bd 35 4b dc bd
       -0.15731438 0.14408225 -0.08258999 -0.10756532
0002b0 f9 f2 16 be e5 a4 a3 bd 47 c1 28 be 2c 0b 4b 3d
       -0.14741124 -0.079904355 -0.1647998 0.0495712
0002c0 f4 0f a3 3d 89 0e 33 bd 9f 9d 40 3d 7b 6c 01 bc
       0.07962027 -0.043715034 0.04702532 -0.007899399
0002d0 59 59 ed bd a1 43 92 3d af 10 58 bd 85 90 31 3b
       -0.11589307 0.071418054 -0.052750286 0.0027094197
0002e0 1d 1f 29 be ac f2 f8 bd 3c 5f 29 be 2b b1 d9 bd
       -0.16515775 -0.12155661 -0.16540235 -0.10629495
0002f0 3f cb 96 3d c7 42 11 3e a7 23 d3 bd 60 02 7b 3d
       0.07362985 0.1418563 -0.103095345 0.06128156
000300 da 90 06 be 40 08 b1 bd d9 dd 10 3e 61 b9 d2 bd
       -0.13141194 -0.08644152 0.14147128 -0.102892645
000310 49 a4 fc 3d 7f d0 34 be c1 20 1d be 59 8f b6 bd
       0.123360224 -0.1765766 -0.15344526 -0.0891406
000320 fe c5 9f bd c5 88 2d bd 89 2d d5 3c 73 d7 aa 3b
       -0.07801436 -0.04236676 0.02602269 0.005213672
000330 0c 50 f1 3d 0f 9c 28 3d 57 53 82 bc 30 61 05 3e
       0.11782846 0.041164454 -0.01590888 0.13025355
000340 67 53 dd bd 77 b6 28 3d 32 21 2b be ed 87 a6 bd
       -0.10806923 0.041189637 -0.16711882 -0.081313945
000350 8b 18 bb 3d 7b f0 22 be 34 9b ce 3d e4 0b d6 3d
       0.091355406 -0.15912049 0.100881964 0.10451487
000360 86 7e 10 be 88 77 b6 bd f0 c6 40 be b3 dd 32 3e
       -0.14110765 -0.089095175 -0.18825889 0.17467384
000370 1a 67 df bc 2a 7d 03 be 96 2d 94 3d 16 1e 92 bd
       -0.027270842 -0.12840715 0.07235257 -0.07134645
000380 e2 09 1c be 70 82 15 be c6 88 5f bd 92 7c c4 3d
       -0.15238145 -0.14600539 -0.054573797 0.095940724
000390 20 5b 25 3e f5 61 92 bd 83 88 1e 3e f8 a5 9b bc
       0.16148043 -0.0714759 0.15481763 -0.019000039
0003a0 6c f1 36 3e 4b 04 87 3c b7 69 1c be 3d 86 93 3d
       0.17865533 0.01648154 -0.15274702 0.07203338
0003b0 0c 30 2d be b0 c3 30 be a5 e3 f4 ba af e0 a8 3d
       -0.1691286 -0.17262149 -0.0018683566 0.0824598
0003c0 b6 53 be bc bc 09 7c bd c4 2b 99 bd 03 13 89 bd
       -0.023233276 -0.06153272 -0.07479051 -0.06693079
0003d0 13 75 05 be 5f c2 2f be 96 b0 e9 bb 00 77 bc bd
       -0.13032942 -0.1716399 -0.0071316464 -0.09202385
0003e0 11 e8 59 3d 98 e6 1a 3e 5b 57 c7 3b a0 6e 04 be
       0.05319983 0.15127027 0.0060834116 -0.12932825
0003f0 b1 78 3a bc 5c b6 24 be 4c b5 11 3e 25 42 d5 bd
       -0.011381314 -0.1608519 0.14229316 -0.10413007

emb_net.v_lins1.4.bias f4 [32]
000000 d6 7d fa 3d 1f 21 31 3d 23 e2 8d 3d 21 d4 9e bd
       0.122310326 0.043244477 0.06927898 -0.07755304
000010 4c b6 32 3e e0 48 24 3e 57 8f fe 3d b8 e6 1e be
       0.17452353 0.16043425 0.12429684 -0.155177
000020 59 02 ad 3c ef dd 48 bd ab 7b c2 3d 2c dc 14 bc
       0.021119284 -0.049039777 0.09496244 -0.009085696
000030 fe fa 18 3b 6d 86 25 be cb 9c 4b bc 98 41 aa bd
       0.0023342962 -0.1616456 -0.012427519 -0.08313292
000040 75 3f 5d bc ed ce ad bd f8 8b 5e bc c2 47 1d be
       -0.013503899 -0.084867336 -0.013583176 -0.15359405
000050 64 f2 17 3e 18 7e bd bd c2 86 08 3d 2a 0a 9e bd
       0.14838558 -0.09252566 0.03333164 -0.077167824
000060 f4 49 01 be 09 74 f4 3d 93 cf f0 3c 39 47 27 be
       -0.12625867 0.119361944 0.029395854 -0.16335763
000070 e8 17 25 3d 16 5e af 3d 6f be 65 3d 62 b3 00 3d
       0.040306002 0.08562867 0.056089815 0.031421073

emb_net.v_lins1.5.weight f4 [32, 32]
000000 11 26 68 3d b5 2c b2 3d b6 e6 2c be fd 1c 18 be
       0.056676928 0.086999334 -0.16884884 -0.14854808
000010 39 c5 cb bd 0d 67 35 be 37 d4 a0 3d 05 a6 01 be
       -0.099497266 -0.17715092 0.07852977 -0.12660988
000020 17 1c 8b 3d ee d1 d7 3c a8 af 28 be 6d 36 72 bd
       0.06792467 0.02634522 -0.16473258 -0.059133936
000030 64 e0 84 3d 0f 01 09 3e 93 e3 ab bd 77 40 0c 3d
       0.064881116 0.1337931 -0.08393016 0.034241166
000040 e6 14 b5 3d 50 1d fc 3d b0 f4 92 bd a9 9e f6 bd
       0.08841877 0.123102784 -0.07175577 -0.12041981
000050 0a 2c 2a be 40 83 f1 3d 0b 20 84 3c 5e 17 c0 bd
       -0.16618362 0.11792612 0.01612856 -0.09379457
000060 7e d7 a2 bd 63 66 c0 bd e2 43 4e bc 49 6d 18 be
       -0.07951258 -0.09394529 -0.012589427 -0.14885439
000070 23 86 32 bc c8 34 08 be 0b de 20 be 89 44 20 be
       -0.0108962385 -0.13301384 -0.15709703 -0.15651144
000080 a9 d1 1d 3e dd 0a 9f bd 15 c8 48 3d e6 a5 0f be
       0.1541201 -0.07765744 0.049018938 -0.14028129
000090 f6 19 c9 3d 09 ed 0f be d9 73 2b be 4a fc be bd
       0.09819405 -0.14055265 -0.16743411 -0.09325464
0000a0 db 24 d5 bd d9 e3 0b 3d a2 6e 7d 3c 89 b1 d8 3d
       -0.1040742 0.03415284 0.015468271 0.10580737
0000b0 e5 60 2e be 62 44 34 be 69 4b 08 bd 3a fd a7 bb
       -0.1702915 -0.17604211 -0.03327504 -0.0051266225
0000c0 2e 52 2a be 96 cd f1 3d c0 42 cc 3d 32 ef 0b 3c
       -0.16632912 0.118067905 0.09973669 0.008540915
0000d0 c6 04 7a bd 63 8f 19 be f3 bd 8b 3d 78 1d 7e bd
       -0.06103971 -0.14996104 0.06823339 -0.062039822
0000e0 2e d3 0c bd 56 d5 c7 3b fb 85 f6 bd 9b d3 22 3e
       -0.034381084 0.0060984297 -0.120372735 0.15901034
0000f0 f4 cf 20 be b8 7b af 3d 1d 30 48 bd e9 24 e5 3d
       -0.15704328 0.08568519 -0.04887401 0.11188681
000100 a8 cb 05 3e 28 06 3e bd db 59 fb 3d 3d ba a1 bd
       0.1306597 -0.04639259 0.12272998 -0.0789685
000110 d2 51 bf 3d 80 8b 9e 3d ab eb 0e be 26 3a 97 bd
       0.09341778 0.07741451 -0.13957088 -0.07384138
000120 96 1c b9 bd 7b 6f 1a be a9 a2 5e 3c 5a bf 92 bd
       -0.090386555 -0.15081589 0.013588586 -0.07165404
000130 96 bc c1 bc 9f f8 1e be d8 24 8a bd 77 a3 fd 3d
       -0.023649495 -0.15524529 -0.06745309 0.12384694
000140 21 45 21 bd 70 68 ad bc 83 03 81 bc ba c6 95 bd
       -0.039372567 -0.021167964 -0.015748745 -0.07313295
000150 c9 bf b0 bd d2 e5 39 bd 29 0a 62 bd bf 9d 27 3d
       -0.0863033 -0.04538519 -0.05518547 0.040921923
000160 f3 c8 51 3d 53 f2 1c 3e 49 55 09 3e 4e 66 25 bd
       0.05121703 0.15326814 0.1341144 -0.04038077
000170 23 c8 06 be 07 ec 0e bc f5 c5 f3 3d d4 42 14 be
       -0.13162284 -0.0087232655 0.11902992 -0.14478618
000180 89 86 f1 bc 65 c4 ab 3d 11 90 2f be f5 99 58 bd
       -0.029483097 0.08387069 -0.171448 -0.0528812
000190 e0 e2 01 be 73 5f f2 bc b8 f7 90 3d 0e cf 03 be
       -0.12684202 -0.02958653 0.070784986 -0.12871954
0001a0 b0 fd ac bd ff 58 a2 bd 59 35 a8 3d f0 41 17 be
       -0.084468246 -0.07927131 0.082133 -0.14771247
0001b0 c3 5a 09 be f8 3f 0a 3d 51 39 33 3d 46 1c 99 bd
       -0.13413529 0.03375241 0.043755833 -0.07476096
0001c0 de 1e b4 3c 60 6e e5 3d 64 3f ff bb 8b 6c 0f 3e
       0.021987375 0.11202693 -0.007789539 0.1400625
0001d0 51 7c 0a be 82 03 11 bd 0f 06 a5 bb b6 29 ce bd
       -0.13523985 -0.035403736 -0.0050361226 -0.100665495
0001e0 8b e9 44 bd 18 28 be 3c c3 ce 9e 3d e8 f5 fc 3d
       -0.048074286 0.023212478 0.077542804 0.123515904
0001f0 55 64 a6 3d 96 f6 3a be 01 c2 32 3c 50 c6 1a be
       0.081246056 -0.18258128 0.010910512 -0.15114713
000200 9b 56 75 ba 3b 49 d3 3d cc d2 0a 3e 59 50 ac 3d
       -0.00093589135 0.10316702 0.13556975 0.084137626
000210 53 87 da 3d 6c 5a 83 bd fe c8 ed bd 57 4b 2f 3e
       0.10670342 -0.06413731 -0.11610602 0.17118584
000220 0e 12 aa bc b6 6e 09 bd c0 81 2d be 95 23 36 be
       -0.020760562 -0.033552848 -0.16944027 -0.17787011
000230 cb ae cc 3d fe ef 80 3d 9b 72 32 be b9 4e 9e bc
       0.099942766 0.06295775 -0.17426531 -0.019324647
000240 0b f1 75 bd 67 8e 7c 3c 3f fa 12 3e 83 7f f3 bc
       -0.06004433 0.015414811 0.14353274 -0.029723888
000250 55 f5 55 bd cd 93 69 bd bb 19 84 3d 50 ec 0d be
       -0.05223592 -0.05702572 0.0645022 -0.13859677
000260 03 d4 1c be 48 d5 b2 3d 46 d2 e8 bd 8c e0 1b 3e
       -0.15315251 0.087320864 -0.113682315 0.15222377
000270 28 e9 43 bc 9c da 13 3e df 3b c6 3d bb ab 12 bd
       -0.011957444 0.14438862 0.09679388 -0.035808306
000280 c4 39 37 3e c0 6b cb 3d b3 0d 07 3d 46 5f ae 3c
       0.1789313 0.09932661 0.03297205 0.021285664
000290 06 85 b8 3d b7 fd 35 3e c1 12 f0 bb b9 36 1c 3e
       0.09009747 0.17772566 -0.0073264544 0.1525525
0002a0 3a 77 d7 bd b4 12 ea 3d f3 52 8b bc 53 43 f5 bd
       -0.105207875 0.114293486 -0.017007327 -0.11975732
0002b0 bb 58 fa bd d7 0b 15 3d 86 03 e0 bd 88 d5 0b be
       -0.12223955 0.036388244 -0.10938172 -0.13655674
0002c0 f8 2a 37 bd b8 db bd 3c 7e 2f d0 bd 83 1c 93 3d
       -0.044718713 0.02317606 -0.101653084 0.071831726
0002d0 b4 e3 89 bd a7 d8 d5 3d 78 3e de 3d 9d f0 de 3d
       -0.06732884 0.10441714 0.10851759 0.10885737
0002e0 c1 41 5e bd 76 09 1f bd 25 ae 28 3d 33 ce 3c bd
       -0.054261927 -0.038827382 0.041181702 -0.046095084
0002f0 a5 4d a4 3d 81 83 9b bc 64 81 00 3e 3b 81 17 3e
       0.08022622 -0.018983604 0.12549359 0.14795391
000300 a4 44 26 be 91 a7 da bd 9a b3 00 3e f7 72 2e bd
       -0.16237122 -0.10676492 0.12568513 -0.042590108
000310 ee 5e 5c bd b3 99 5a bd 7a b9 66 bd d6 c0 c4 bd
       -0.05380147 -0.053369235 -0.056329228 -0.09607093
000320 53 3d 85 3d c5 ef fb bc 8d fb da bb 6c fb d6 3d
       0.06505837 -0.03075398 -0.006682819 0.10497174
000330 4c db 76 3d e7 b4 f1 3d 82 fd 2e be a1 05 83 3d
       0.06026773 0.118020825 -0.17088893 0.06397558
000340 ca d9 55 3d c6 1c e2 bd ea 74 0b 3e b5 57 a2 bd
       0.052209653 -0.11040644 0.13618818 -0.07926885
000350 1f 48 9b 3b 27 30 dd bc 8f 79 ce 3d 9e 0e 93 bc
       0.004738822 -0.0270005 0.10081779 -0.017951306
000360 9e 5b 4a bd 0b 0f a1 3d 3c 52 02 3e 0f 9e 83 3c
       -0.04940378 0.07864197 0.12726682 0.01606658
000370 89 20 9b 3d ac e4 ac 3c 4a cc 1a be 05 7e 96 3d
       0.07574565 0.021105133 -0.15116993 0.07348255
000380 76 ec 69 3d 09 cc bf bc a3 b6 70 3d 84 6f e2 3d
       0.057110272 -0.023412721 0.058767926 0.11056426
000390 c3 e3 d9 3d 0e 4b df 3d aa 30 b2 3d 89 0f 12 3d
       0.10639145 0.109029874 0.08700688 0.035659347
0003a0 7f 1c f3 bd 00 c4 00 3d 0c b6 b0 bb 6b 0f 06 3e
       -0.118706696 0.03143692 -0.0053927954 0.13091819
0003b0 ee f1 cd bc 29 86 04 3e 1a c1 a9 ba 4f 75 a2 bd
       -0.025139775 0.12941803 -0.0012951226 -0.07932531
0003c0 6f 71 e5 bd 32 e8 a1 3d f1 96 b6 bd 99 14 08 3e
       -0.11203276 0.07905616 -0.089155085 0.13289107
0003d0 62 94 a3 3c 5f 4e 1c 3e 7a a7 3a 3d f4 1d a9 bd
       0.019968215 0.15264271 0.045569874 -0.08257666
0003e0 ab 64 fc bc 28 41 30 3e 5b ca 9b bd 4e a4 3c be
       -0.030809721 0.17212355 -0.076069556 -0.18422052
0003f0 bd 90 ed bd f3 e2 a6 3d d8 2e 8e bd b9 1b 00 bc
       -0.11599872 0.08148756 -0.069425285 -0.00781911

emb_net.v_lins1.5.bias f4 [32]
000000 b2 7b 8d bd f8 1a 09 3e ce 93 fd 3d ea f3 66 3d
       -0.06908359 0.13389194 0.12381707 0.05638496
000010 61 92 77 bd 3d 35 08 be 94 07 04 be 55 2f ea 3d
       -0.060442332 -0.13301559 -0.12893516 0.11434809
000020 41 0d 97 3d 46 84 00 be 0b 38 c8 3d de 63 2d be
       0.07375575 -0.12550458 0.09776314 -0.16932628
000030 dc fb d2 bd 4f a2 0b be ec 9d f5 3d 92 3a c8 3d
       -0.103019446 -0.13636135 0.11993012 0.097767964
000040 a1 1d ab 3d a7 8c b1 bd 12 90 1d 3e 3c 6b 59 3d
       0.08355261 -0.086694054 0.1538699 0.053080782
000050 30 6e 2a 3e d3 dd 1f be 6e 2d 1a be b8 34 16 3e
       0.16643596 -0.15611963 -0.15056393 0.14668548
000060 e8 57 bf bd 19 92 7d bd e5 ed 93 bd f1 78 a0 3b
       -0.09342939 -0.061906908 -0.07223109 0.00489723
000070 07 05 52 bc 74 ba 1e 3e 55 e4 aa 3d 8b 32 1c 3e
       -0.012818581 0.15500814 0.08344332 0.15253656
