pretrained/rcpsp/rcpsp120-5.pt (torch, 354891 bytes, 225 tensors)

emb_net.v_lin0.weight f4 [32, 5]
-0.038100358 0.041509196 -0.3603447 0.075061806 0.0888901 -0.026336672 0.022995502 -0.32865492
0.40587825 0.216204 -0.3419967 -0.13566534 -0.22076668 -0.076784045 -0.40480295 -0.30389065
0.3279212 -0.4033701 -0.08838992 -0.10388845 -0.02620629 -0.34911245 -0.35773703 -0.08528044
-0.06484602 -0.04668766 -0.059066378 0.08956805 0.22881112 -0.058600154 -0.17404318 -0.37101316
0.3876957 0.30883357 -0.2643914 0.37407023 0.03854797 0.037848722 -0.36068875 -0.15847023
0.36932454 0.3376336 0.22266877 0.18032692 -0.40050128 -0.38161418 -0.24809647 0.42506984
0.33694077 -0.2912504 0.32633495 0.046119537 -0.24010833 -0.4266675 0.16519755 0.37410218
0.009253526 0.35098338 0.43553963 -0.39521235 -0.40776482 0.13890083 -0.15441313 -0.10501041
-0.36268607 -0.22638746 0.03706343 0.07449372 0.17864811 -0.26459593 0.35176438 0.32462448
-0.37676463 -0.2617523 -0.39384222 0.05807324 -0.22172578 0.016439809 0.3590908 -0.26087737
0.19559866 0.28940955 0.26435077 -0.29196733 -0.14552008 0.2208547 -0.41366264 0.23290363
-0.33549863 -0.11570179 -0.11544794 -0.0049449573 -0.25318623 0.2575383 0.18823639 0.18850735
-0.14874548 -0.028943595 0.31952047 -0.20875192 0.040166143 0.3121557 -0.23302475 0.015706416
-0.06096905 -0.33939216 0.12981705 0.12727717 -0.38554662 0.36648852 -0.14278252 -0.20704974
0.1051247 0.18514104 0.2329106 0.13090259 -0.011050289 -0.010072089 -0.00912459 0.04399804
0.16078825 0.021998473 -0.32446656 0.11178387 -0.23236078 0.46438408 0.23668276 0.15292081
-0.4275004 0.00994648 -0.21672875 0.40224472 -0.36906514 -0.29047894 0.24196975 -0.07395884
0.34135446 0.023558993 0.112037435 -0.05152583 0.41327164 -0.40247515 -0.41188496 0.08650887
-0.4255648 -0.1274076 0.0420418 -0.10527671 -0.1284456 -0.35420358 -0.18809277 -0.0948196
-0.25126082 0.13781591 0.3956776 -0.1301323 -0.2793056 0.41699567 0.08978114 -0.40709808
00000000: 1f0f 1cbd 8c05 2a3d 1a7f b8be 01ba 993d
00000010: 030c b63d 01c0 d7bc 1061 bc3c 7545 a8be
00000020: 46cf cf3e 9564 5d3e 311a afbe dbeb 0abe
00000030: a910 62be f440 9dbd 5542 cfbe 8e97 9bbe
00000040: 4ae5 a73e 8786 cebe c605 b5bd 78c3 d4bd
00000050: 93ae d6bc debe b2be 4f29 b7be 83a7 aebd
00000060: fdcd 84bd 8f3b 3fbd 96ef 71bd 746f b73d
00000070: 764d 6a3e b706 70bd 6038 32be 70f5 bdbe
00000080: 0d80 c63e 6f1f 9e3e 4f5e 87be 2286 bf3e
00000090: 7ae4 1d3d 4307 1b3d 32ac b8be 0546 22be
000000a0: 1b18 bd3e 50de ac3e 4803 643e 9fa7 383e
000000b0: 810e cdbe ef62 c3be 000d 7ebe c1a2 d93e
000000c0: 8083 ac3e c61e 95be 6015 a73e d7e7 3c3d
000000d0: f5de 75be 2a74 dabe 8c29 293e 528a bf3e
000000e0: 1a9c 173c 18b4 b33e 0dff de3e 4659 cabe
000000f0: 8dc6 d0be 053c 0e3e 7a1e 1ebe b30f d7bd
00000100: fdb1 b9be 1dd2 67be d3cf 173d 2a90 983d
00000110: 88ef 363e 1e79 87be 761a b43e 2e35 a63e
00000120: 4be7 c0be 6604 86be b0a5 c9be 35de 6d3d
00000130: 150c 63be c7ac 863c c0da b73e b891 85be
00000140: 044b 483e 7d2d 943e fc58 873e be7c 95be
00000150: 3703 15be bc27 623e 97cb d3be 4a7e 6e3e
00000160: 7ac6 abbe 0ff5 ecbd f86f ecbd 4f09 a2bb
00000170: a0a1 81be 0fdc 833e 0ac1 403e 1208 413e
00000180: bc50 18be 1e1b edbc 3098 a33e 10c3 55be
00000190: 4185 243d dfd2 9f3e 0a9e 6ebe beaa 803c
000001a0: afba 79bd cfc4 adbe c3ee 043e f254 023e
000001b0: 5e66 c5be 62a4 bb3e 9535 12be d904 54be
000001c0: 9e4b d73d 9d95 3d3e 1e80 6e3e 540b 063e
000001d0: 450c 35bc 6705 25bc 4e7f 15bc 4a37 343d
000001e0: ada5 243e 2436 b43c 7b20 a6be f1ee e43d
000001f0: fcef 6dbe c0c3 ed3e f75c 723e 4697 1c3e
00000200: 55e1 dabe 90f6 223c 24ee 5dbe 05f3 cd3e
00000210: 1bf6 bcbe a8b9 94be ebc6 773e bb77 97bd
00000220: 03c6 ae3e cafe c03c e273 e53d c00c 53bd
00000230: 5798 d33e 3911 cebe 96e2 d2be 902b b13d
00000240: a1e3 d9be 2377 02be 0634 2c3d 519b d7bd
00000250: 3e87 03be 2c5a b5be 649b 40be c730 c2bd
00000260: 42a5 80be 9d1f 0d3e 4196 ca3e 6741 05be
00000270: 2501 8fbe 7580 d53e 2ddf b73d 296f d0be

emb_net.v_lin0.bias f4 [32]
-0.35347837 0.025867853 -0.0293165 0.047703136 -0.092018366 0.069546506 0.4411611 0.23420607
-0.025106093 -0.4583831 -0.08933809 0.32598162 -0.16619077 -0.299904 0.34724614 -0.3178159
-0.024235273 0.07773959 0.01886399 -0.3757788 -0.15415151 0.43387055 0.21053287 0.4339214
-0.38346216 0.17146225 -0.10690061 -0.143001 -0.19239455 0.04614071 -0.15575342 0.00913775
00000000: 1efb b4be d2e8 d33c 2829 f0bc 5d64 433d
00000010: 2074 bcbd 666e 8e3d dedf e13e b7d3 6f3e
00000020: 4bab cdbc 31b1 eabe e3f6 b6bd 10e7 a63e
00000030: ea2d 2abe 048d 99be 3fca b13e c4b8 a2be
00000040: 0d89 c6bc ef35 9f3d a888 9a3c 1466 c0be
00000050: e5d9 1dbe 4824 de3e ee95 573e f22a de3e
00000060: 2755 c4be cd93 2f3e b5ee dabd db6e 12be
00000070: 1403 45be 0bfe 3c3d d37d 1fbe 80b6 153c

emb_net.v_lins1.0.weight f4 [32, 32]
0.112509824 -0.046317372 -0.122455 0.031544395 -0.106566556 0.09847823 -0.11370022 -0.065864906
0.117425434 0.17331186 0.05778679 0.0020440007 0.15118119 -0.024837738 -0.16715764 0.09968229
0.06187895 0.11069212 -0.18083246 -0.107507646 0.16670778 0.13796468 0.14535037 -0.16763152
-0.11658616 -0.13345087 -0.02251405 0.10991558 -0.062438354 -0.027909037 0.011818277 0.035938065
-0.04989089 0.19116156 -0.10617564 0.060758878 -0.080381475 0.03859597 -0.049048334 -0.0647865
-0.019638933 -0.011759903 0.038251713 0.06951321 0.008655226 0.12201184 -0.07329409 0.1884818
-0.1118545 0.14118466 0.0036208068 0.17622703 0.046390302 -0.16579883 -0.06725296 0.05175846
-0.08849413 0.14689934 -0.17114161 0.09362627 0.14454146 0.06472517 0.00038803928 0.020877918
0.052192755 -0.12310134 -0.08289169 -0.09296478 -0.15544148 0.12944421 0.010150479 -0.15477125
0.03983323 0.08185525 -0.107709214 -0.02253096 -0.1423969 -0.1464639 -0.1078733 0.08813672
0.027924683 0.029273726 0.110042155 -0.12783879 -0.0977008 -0.15235911 -0.1728355 -0.08065399
0.08351438 -0.055963926 -0.017525164 0.026594274 -0.13905685 0.042255737 -0.12621737 -0.10475268
0.1104783 0.03664904 -0.11728788 0.14728518 -0.016644044 0.016166322 0.048812278 0.11099196
-0.11661309 -0.011184289 -0.16492842 -0.13999762 0.038233303 -0.087667346 -0.020676844 0.15566598
0.08663076 0.0417624 0.12518181 0.029922398 -0.120572075 -0.04119541 -0.036670834 0.12940209
0.10542028 0.022410298 0.09192436 0.1756096 0.05430888 0.12455165 0.031701226 0.16397765
-0.052219305 0.11434761 0.05556882 -0.14492987 -0.090626575 0.17645468 -0.010274406 -0.14519158
0.07830964 -0.1033161 -0.09253924 -0.04171037 0.107601926 0.12638016 -0.05661006 -0.14607863
-0.10807515 0.06032329 0.10383937 0.012974251 0.11332999 0.033771552 0.09164809 -0.014356774
0.061580643 0.111621104 0.02666796 -0.023792295 0.037047975 -0.06387726 0.012305594 -0.11531982
-0.024793768 0.012581185 -0.08168731 0.11997117 -0.120578 0.10089765 0.055933412 0.1703477
0.12167273 0.06835822 0.17982772 -0.16778287 0.04903515 -0.15169944 -0.017992493 -0.013817207
0.1388569 0.11088134 -0.15619111 -0.01846091 0.14990105 0.0156101985 0.06085938 0.15145235
0.093727656 0.031938076 -0.044670455 -0.025986355 -0.13671272 -0.14336905 -0.1336803 -0.018079985
0.07389588 -0.1754656 -0.14783654 -0.020571623 -0.16983172 0.13414736 0.08816774 0.10632311
0.05076809 0.078868106 0.021225132 0.009073387 0.057105236 -0.13864365 0.08083607 0.071344286
0.039286908 -0.08450754 0.115449876 -0.021682585 0.14139345 -0.044752628 0.06741943 0.01962637
-0.019774059 0.07055705 0.13752227 0.0676662 0.16390552 0.047739644 -0.077507995 -0.12151869
-0.16395396 0.15348761 -0.07633662 -0.11771884 -0.15632509 0.07102697 0.14657475 -0.16662423
0.12271463 0.0709373 -0.1900196 -0.00088081916 0.087058745 0.1522431 0.12755865 -0.08046959
-0.09583332 0.059984062 0.027982704 0.08055227 -0.017529698 -0.09827741 0.041127 0.010457618
-0.10315219 -0.058596615 -0.107837416 -0.14248256 -0.16176458 0.119985096 0.11471637 -0.01987387
00000000: 8d6b e63d 49b7 3dbd b0c9 fabd b234 013d
00000010: 913f dabd f4ae c93d a9db e8bd 2ee4 86bd
00000020: bf7c f03d aa78 313e d7b1 6c3d a4f4 053b
00000030: 3ecf 1a3e 8378 cbbc 5f2b 2bbe 3a26 cc3d
00000040: c874 7d3d 8db2 e23d 252c 39be f82c dcbd
00000050: 72b5 2a3e 9d46 0d3e bad6 143e 99a7 2bbe
00000060: bac4 eebd 58a7 08be 636f b8bc 6b1b e13d
00000070: 5cbf 7fbd 7ea1 e4bc 72a1 413c cb33 133d
00000080: 645a 4cbd dbbf 433e 9d72 d9bd 4dde 783d
00000090: 0b9f a4bd cf16 1e3d e8e6 48bd c9ae 84bd
000000a0: d4e1 a0bc 9cac 40bc d4ad 1c3d f15c 8e3d
000000b0: a6ce 0d3c 58e1 f93d 361b 96bd 5f01 413e
000000c0: f913 e5bd b692 103e 0f4b 6d3b dc74 343e
000000d0: c203 3e3d 2bc7 29be ebbb 89bd ae00 543d
000000e0: 693c b5bd c86c 163e bf3f 2fbe 21bf bf3d
000000f0: ad02 143e a18e 843d c071 cb39 2b08 ab3c
00000100: 12c8 553d 8e1c fcbd 1ec3 a9bd 5264 bebd
00000110: 0d2c 1fbe 068d 043e 324e 263c 5b7c 1ebe
00000120: 2b28 233d baa3 a73d a696 dcbd d992 b8bc
00000130: 7ed0 11be a2fa 15be adec dcbd 0681 b43d
00000140: 4ec2 e43c 74cf ef3c c85d e13d 2ce8 02be
00000150: 5b17 c8bd 0704 1cbe cafb 30be eb2d a5bd
00000160: 9609 ab3d 6e3a 65bd ef90 8fbc 3cdc d93c
00000170: eb64 0ebe 5a14 2d3d 203f 01be 9388 d6bd
00000180: 7242 e23d 4e1d 163d a134 f0bd edd1 163e
00000190: 1759 88bc 3c6f 843c 62ef 473d c14f e33d
000001a0: d8d2 eebd 4f3e 37bc ffe2 28be 895b 0fbe
000001b0: 869a 1c3d f08a b3bd 7c62 a9bc e766 1f3e
000001c0: 786b b13d 0d0f 2b3d a92f 003e d11f f53c
000001d0: 7eee f6bd 85bc 28bd 2834 16bd fb81 043e
000001e0: 96e6 d73d cd95 b73c d742 bc3d 01d3 333e
000001f0: fd72 5e3d ef14 ff3d 25d9 013d c2e9 273e
00000200: e9e3 55bd 142f ea3d 229c 633d 7f68 14be
00000210: 6d9a b9bd 89b0 343e fb55 28bc 1aad 14be
00000220: ce60 a03d 6497 d3bd 3785 bdbd 7ed8 2abd
00000230: 665e dc3d cd69 013e f3df 67bd a395 15be
00000240: 8156 ddbd 8e15 773d bca9 d43d f491 543c
00000250: 8e19 e83d 0a54 0a3d feb1 bb3d ad38 6bbc
00000260: fc3b 7c3d 9b99 e43d c476 da3c 0fe8 c2bc
00000270: 9ebf 173d 15d2 82bd 679d 493c cc2c ecbd
00000280: 4d1c cbbc 5121 4e3c ad4b a7bd 72b3 f53d
00000290: 99f1 f6bd 6da3 ce3d 6f1a 653d a16f 2e3e
000002a0: 8d2f f93d 65ff 8b3d c224 383e 46cf 2bbe
000002b0: 15d9 483d 1957 1bbe fe64 93bc 9161 62bc
000002c0: 8130 0e3e c215 e33d 90f0 1fbe 563b 97bc
000002d0: a97f 193e ebc1 7f3c af47 793d 5316 1b3e
000002e0: 49f4 bf3d 80d1 023d 5ef8 36bd 56e1 d4bc
000002f0: 6bfe 0bbe 56cf 12be 7de3 08be 7a1c 94bc
00000300: b956 973d 41ad 33be 7662 17be d285 a8bc
00000310: 5ee8 2dbe ed5d 093e 4a91 b43d eebf d93d
00000320: 33f2 4f3d 9a85 a13d 54e0 ad3c 8ba8 143c
00000330: 2ee7 693d 9af8 0dbe 628d a53d f41c 923d
00000340: 4feb 203d 4a12 adbd fc70 ec3d ad9f b1bc
00000350: 72c9 103e 884e 37bd 3313 8a3d 7bc7 a03c
00000360: 35fd a1bc 3780 903d a3d2 0c3e 9494 8a3d
00000370: d9d6 273e a58a 433d 83bc 9ebd cade f8bd
00000380: 8ce3 27be db2b 1d3e 6056 9cbd 9316 f1bd
00000390: af13 20be 9776 913d b117 163e 8b9f 2abe
000003a0: cf51 fb3d 9347 913d 7f94 42be c6e6 66ba
000003b0: db4b b23d 9de5 1b3e bc9e 023e 3ecd a4bd
000003c0: 4244 c4bd d9b1 753d fc3b e53c 97f8 a43d
000003d0: 719a 8fbc ab45 c9bd c974 283d 6e56 2b3c
000003e0: 7541 d3bd 0103 70bd ddd9 dcbd f3e6 11be
000003f0: 9da5 25be bfba f53d 6bf0 ea3d 87ce a2bc

emb_net.v_lins1.0.bias f4 [32]
0.10807742 0.14273229 -0.087242454 0.06631362 0.06233142 0.14462514 0.1406194 0.0127725
0.013889205 0.18572769 0.044038475 -0.1261211 -0.07281248 0.006412999 -0.060527667 -0.14577933
-0.09218109 0.07100926 -0.13877544 0.1387415 -0.00483534 -0.14740278 0.02089098 0.18341355
0.051940113 -0.07147818 0.06446917 -0.07817395 -0.032268383 -0.010097405 0.11398628 0.037274495
00000000: b257 dd3d 6a28 123e 2cac b2bd 6fcf 873d
00000010: 3b4f 7f3d 9d18 143e 88fe 0f3e bf43 513c
00000020: 8c8f 633c 662f 3e3e b061 343d e425 01be
00000030: b61e 95bd 2224 d23b dceb 77bd 2d47 15be
00000040: 70c9 bcbd 4e6d 913d 261b 0ebe 4012 0e3e
00000050: c671 9ebb c1f0 16be 8f23 ab3c c3d0 3b3e
00000060: 28bf 543d 2763 92bd 6a08 843d aa19 a0bd
00000070: da2b 04bd 966f 25bc a471 e93d 24ad 183d

emb_net.v_lins1.1.weight f4 [32, 32]
0.18141152 0.041675758 0.082047254 -0.1498039 -0.090957575 -0.1306795 -0.080634914 0.028562276
0.14163816 -0.14466485 -0.04161061 -0.13320585 0.027085533 0.16005774 -0.03008476 0.0021622693
-0.13004343 -0.15474924 0.028641416 -0.1465448 0.08468267 -0.03854259 0.1542052 -0.13561426
-0.014552528 0.14768876 -0.02481429 0.17643066 -0.04224042 -0.17951033 0.0178295 0.033293772
-0.0785812 0.06886338 -0.019597607 0.07496596 0.12533617 0.07973666 0.021996222 0.026344778
-0.052320372 0.02512658 0.1396957 0.079012915 0.050048426 -0.0696425 0.06788844 -0.15087801
0.061176963 0.010861004 -0.13748758 -0.15582888 -0.09382527 -0.054470915 0.056972895 0.105471924
-0.017711837 -0.16372427 0.039154068 -0.14586425 -0.034845375 -0.20284836 -0.09808923 -0.16181579
-0.15164612 -0.059655853 -0.18422069 -0.16726081 -0.15141787 0.09137047 0.055062678 -0.16834658
-0.14754067 0.13881424 -0.002895922 0.08858949 -0.06267319 -0.11023189 0.08660045 -0.0068391785
-0.06062555 0.15724792 0.06404154 -0.019098027 -0.15373367 -0.060180552 0.09127121 -0.11822671
-0.14659494 0.10855131 0.1406958 -0.15956032 0.12538753 -0.15918972 -0.12360955 -0.0381345
-0.11856666 -0.0848999 -0.11296019 0.08259418 0.10031783 -0.058692846 0.12550186 0.15517147
0.13244 -0.013956995 -0.023566391 -0.12585586 0.09424209 0.12334422 -0.16246279 -0.18474424
0.06494153 -0.105649464 0.15188244 -0.14673871 0.11579534 -0.16418053 0.15595785 -0.09803136
0.043500833 -0.19702025 0.09456754 0.08364371 0.00812493 0.108307764 -0.09518315 -0.17245269
-0.0051546786 0.099779 -0.17463827 0.14389798 -0.103001386 -0.113260865 -0.11430216 0.15617013
-0.10351108 -0.009464747 -0.19198647 0.07844077 -0.14371957 0.106954545 -0.027416585 0.03740707
0.046232063 0.041920874 -0.18218087 0.16854694 -0.09207825 0.04163918 -0.08638954 -0.18096617
0.05706196 -0.00081556686 -0.17244633 -0.14867997 0.06712499 -0.17112373 -0.06511449 0.113813184
-0.07213732 -0.036150195 -0.105937935 0.07982671 0.02369005 -0.008490183 -0.13005462 0.14656326
-0.11285629 0.1354276 -0.03425281 -0.07106039 -0.103154615 -0.049850173 -0.005989671 0.07841398
0.110225804 0.15293796 0.056343332 0.12619816 -0.12070214 0.11432793 -0.020054955 -0.06054145
-0.114538774 0.057552747 0.14016682 -0.12017409 -0.10195325 0.11228917 -0.053454936 -0.04738603
-0.0009783154 -0.06676595 0.08698594 0.1975275 -0.06731675 0.024102692 0.04772908 -0.16316877
0.07491278 0.118894644 0.070962995 0.09713293 0.15242568 0.15052375 -0.12124704 -0.14972404
0.11822558 -0.025366446 0.02605604 -0.15541223 0.14400952 0.15780233 0.061414354 0.13748534
-0.038021717 -0.004986398 0.07173257 -0.11303134 0.027613878 -0.104982816 -0.07763663 0.08872833
-0.12587766 -0.123887144 0.10565089 0.124632545 -0.09025698 -0.03278683 -0.0074336273 0.10515296
-0.17353646 0.012842255 -0.19644804 -0.07427016 -0.10964746 -0.029542388 -0.035119545 -0.034214262
-0.1353817 -0.08198132 0.054349825 -0.079128645 0.17335002 0.055754945 -0.15182513 0.09626555
-0.06495049 0.037177075 -0.14622335 -0.078241475 -0.066235155 -0.06190225 0.15467598 -0.15999141
00000000: f1c3 393e 33b4 2a3d 6408 a83d 3266 19be
00000010: f747 babd d9d0 05be eb23 a5bd 6ffb e93c
00000020: 9809 113e 0623 14be e36f 2abd 1d67 08be
00000030: 7be2 dd3c 2de6 233e 5174 f6bc dcb4 0d3b
00000040: 1b2a 05be 9676 1ebe 67a1 ea3c d70f 16be
00000050: 1c6e ad3d d6de 1dbd f8e7 1d3e 77de 0abe
00000060: ba6d 6ebc b93b 173e 5747 cbbc 3daa 343e
00000070: 4a04 2dbd 8ed1 37be 2c0f 923c 0d5f 083d
00000080: 2eef a0bd 3e08 8d3d 298b a0bc c187 993d
00000090: 2058 003e f94c a33d 6c31 b43c 01d1 d73c
000000a0: e34d 56bd 42d6 cd3c 640c 0f3e 86d1 a13d
000000b0: 94ff 4c3d baa0 8ebd 1809 8b3d c47f 1abe
000000c0: b294 7a3d 5af2 313c 8bc9 0cbe 9b91 1fbe
000000d0: 7727 c0bd e51c 5fbd 695c 693d aa01 d83d
000000e0: 6a18 91bc 56a7 27be 0460 203d 705d 15be
000000f0: 06ba 0ebd 7bb7 4fbe 02e3 c8bd 0ab3 25be
00000100: 1f49 1bbe b259 74bd 59a4 3cbe 6b46 2bbe
00000110: 490d 1bbe 7120 bb3d 6789 613d 0c63 2cbe
00000120: e714 17be 5225 0e3e 82c9 3dbb 686e b53d
00000130: cd5a 80bd 42c1 e1bd 945b b13d 301b e0bb
00000140: 7f52 78bd 9905 213e 3628 833d 7773 9cbc
00000150: 5c6c 1dbe e27f 76bd 66ec ba3d d820 f2bd
00000160: fc1c 16be 2650 de3d 8f12 103e c863 23be
00000170: 9765 003e a102 23be 0127 fdbd ec32 1cbd
00000180: 14d3 f2bd 00e0 adbd ac57 e7bd 2327 a93d
00000190: 6f73 cd3d e967 70bd 8f83 003e 45e5 1e3e
000001a0: 5a9e 073e e1ab 64bc 4e0e c1bc 5ce0 00be
000001b0: ff01 c13d e59b fc3d a55c 26be 982d 3dbe
000001c0: 1100 853d bf5e d8bd 1287 1b3e ac42 16be
000001d0: 1b26 ed3d f11e 28be 6ab3 1f3e aac4 c8bd
000001e0: ee2d 323d adbf 49be a0ac c13d 654d ab3d
000001f0: 6d1e 053c 76d0 dd3d 62ef c2bd 7097 30be
00000200: 94e8 a8bb ef58 cc3d 60d4 32be fe59 133e
00000210: 64f2 d2bd 50f5 e7bd 4017 eabd 10eb 1f3e
00000220: 9efd d3bd 0712 1bbc 1a98 44be 8ea5 a03d
00000230: 392b 13be fc0a db3d bf98 e0bc 2838 193d
00000240: d55d 3d3d 39b5 2b3d 9f8d 3abe 9297 2c3e
00000250: 8693 bcbd d88d 2a3d 00ed b0bd 324f 39be
00000260: cdb9 693d c4cb 55ba c595 30be 903f 18be
00000270: d478 893d 0f3b 2fbe bf5a 85bd e316 e93d
00000280: bbbc 93bd 3a12 14bd fdf5 d8bd 307c a33d
00000290: a311 c23c 691a 0bbc 0a2d 05be ae14 163e
000002a0: 3321 e7bd 88ad 0a3e ad4c 0cbd 1c88 91bd
000002b0: ba42 d3bd b22f 4cbd 0145 c4bb 8297 a03d
000002c0: 11be e13d c59b 1c3e 44c8 663d 173a 013e
000002d0: af32 f7bd c324 ea3d 4a4a a4bc 50fa 77bd
000002e0: 4e93 eabd 6ebc 6b3d e487 0f3e d51d f6bd
000002f0: decc d0bd ddf7 e53d 90f3 5abd db17 42bd
00000300: d13a 80ba 96bc 88bd af25 b23d a644 4a3e
00000310: 5ddd 89bd 0273 c53c 917f 433d b715 27be
00000320: df6b 993d 097f f33d 0c55 913d a1ed c63d
00000330: 7a15 1c3e e622 1a3e 5e50 f8bd 4251 19be
00000340: 4120 f23d 4bcd cfbc 7a73 d53c 6224 1fbe
00000350: 3b77 133e ef96 213e 9e8d 7b3d f5c8 0c3e
00000360: a9bc 1bbd f064 a3bb 87e8 923d fa7c e7bd
00000370: 8036 e23c 3b01 d7bd f4ff 9ebd 33b7 b53d
00000380: 13e6 00be 8bb8 fdbd 7e5f d83d 593f ff3d
00000390: a7d8 b8bd 7c4b 06bd c995 f3bb 6f5a d73d
000003a0: 8bb3 31be 5268 523c ad29 49be f41a 98bd
000003b0: d98e e0bd e102 f2bc 83d9 0fbd 4124 0cbd
000003c0: 80a1 0abe d3e5 a7bd ec9d 5e3d 330e a2bd
000003d0: ab82 313e 4c5f 643d 0c78 1bbe df26 c53d
000003e0: c304 85bd fd46 183d 93bb 15be 113d a0bd
000003f0: 4ca6 87bd 378d 7dbd 6163 1e3e cad4 23be

emb_net.v_lins1.1.bias f4 [32]
0.029599104 0.046355724 0.09855395 -0.108036555 -0.16679733 0.17357175 -0.116821416 0.15516405
0.16375282 -0.14540526 -0.07319076 0.15606706 0.020505913 -0.13284391 -0.06944885 0.060543455
0.17447822 0.10625456 -0.12686062 -0.080933996 -0.036144592 0.018103605 0.027576817 0.16819744
-0.12517124 -0.04645086 -0.12171808 0.06986574 0.04623984 0.055543534 -0.09703654 0.034064643
00000000: d279 f23c 80df 3d3d a7d6 c93d 4542 ddbd
00000010: ebcc 2abe cbbc 313e 1140 efbd 53e3 1e3e
00000020: d2ae 273e 1ee5 14be 0ae5 95bd 0bd0 1f3e
00000030: 04fc a73c 3c08 08be 333b 8ebd 6afc 773d
00000040: 6baa 323e fe9b d93d c0e7 01be b9c0 a5bd
00000050: 5a0c 14bd 034e 943c c7e8 e13c f33b 2c3e
00000060: e42c 00be 4243 3ebd 5447 f9bd c515 8f3d
00000070: fd65 3d3d 9e81 633d 18bb c6bd 5e87 0b3d

emb_net.v_lins1.2.weight f4 [32, 32]
0.11205986 0.048682656 0.06468605 -0.035842612 0.15590319 -0.12460733 -0.07442151 -0.16159168
0.14502293 -0.049560424 -0.0679762 0.14073394 0.12051411 0.14252298 0.00031311146 -0.098797984
-0.14422536 -0.15126784 -0.07421446 -0.009972239 -0.045857262 0.11738356 -0.08214088 0.069354
-0.10319746 0.1386754 -0.112588145 0.16128668 -0.060513828 -0.03099649 0.045437206 -0.009378499
-0.014790458 -0.08140466 -0.029334946 -0.14304815 0.12747627 -0.14908586 0.14505795 0.09486883
0.17930588 -0.12748514 -0.038707614 -0.10609424 0.0029014673 0.10568425 0.11673252 -0.11956045
-0.035206713 0.019304542 0.08995917 -0.10126518 0.03298949 0.08423159 0.010775096 0.105882905
0.15793978 -0.065178886 0.130947 -0.01461547 0.043015577 -0.042526845 0.056269668 0.16647014
-0.113927655 0.110198736 0.13493438 -0.016627258 -0.12490828 0.103560306 -0.010546874 -0.0045425333
0.069956236 -0.024651691 0.09509196 -0.016314534 -0.073380895 0.16592067 0.08782115 -0.14636904
0.15841062 0.0062555918 0.1624022 0.108668774 -0.091890596 0.14043148 -0.08481505 -0.122376435
-0.04018118 0.020181041 -0.18334875 0.0532911 0.14187436 -0.11338103 -0.13885394 0.052825
0.08961129 -0.10282472 0.09947635 -0.100180306 0.11200126 -0.08568236 -0.106990404 -0.1537941
-0.13096815 0.10720817 0.068091914 -0.13762881 0.18032703 -0.15571313 -0.15430246 0.033634655
-0.047476515 -0.12731503 -0.015353386 0.05568934 -0.09924287 -0.08263221 -0.019266807 0.1308177
-0.015100447 -0.06331045 -0.16680251 -0.079864986 -0.15521502 -0.16833004 -0.1291069 -0.03694548
0.1447441 0.033203464 -0.17504273 -0.022821026 -0.13904148 0.11010915 0.12973474 0.019922514
0.039447907 -0.067923926 -0.15828124 0.16786246 -0.037175342 0.17581557 -0.1840808 -0.13794728
-0.15290226 0.1357301 -0.08392679 -0.09113557 0.17382751 -0.0077707293 0.008349269 0.14509936
0.16455959 -0.13116819 0.0818802 0.12186384 -0.054383535 0.045394924 0.10639908 0.10758354
-0.05326706 -0.13534455 0.0386433 -0.119296715 -0.036932696 -0.108917825 0.10564609 0.13419585
-0.017327728 0.03734973 -0.17754461 -0.035935704 0.05511923 0.057560503 -0.021998728 0.13413765
-0.0944736 0.15265656 0.028894046 -0.14702964 -0.09276575 -0.02461087 -0.123933285 0.09449568
-0.089776546 0.15532756 0.052803766 -0.18123727 -0.10847672 0.07799344 0.059377804 -0.07718037
-0.11215469 -0.1001961 -0.036613278 0.19589727 -0.09269775 0.03104601 -0.054082565 0.109446794
-0.13350125 -0.15374704 -0.08184579 -0.024145186 -0.07631453 -0.0015897298 0.04424328 -0.11504444
-0.061235283 -0.10151831 0.17629516 0.054822035 -0.080674216 -0.09048727 0.0077297157 -0.030266134
0.05097453 0.0629753 -0.08787092 0.16031113 0.09918279 -0.14637348 -0.16857858 0.1396411
-0.04391431 0.026647616 0.1345872 -0.09358747 0.1518775 0.035717506 0.03451261 -0.03292963
-0.16138527 0.1577826 0.0921947 0.09062807 0.07881562 -0.13238749 -0.11121109 -0.135155
-0.09160078 0.07587048 0.07840194 -0.09178633 0.15464619 0.089081794 0.093833506 -0.16746914
0.08680949 0.09831266 -0.09250081 -0.12308142 -0.08924929 0.03574574 0.008614303 0.09962061
00000000: a47f e53d 7767 473d 1f7a 843d b4cf 12bd
00000010: 16a5 1f3e 2132 ffbd 4e6a 98bd 4a78 25be
00000020: e480 143e dfff 4abd 1b37 8bbd 8f1c 103e
00000030: 1ad0 f63d 8bf1 113e 1c29 a439 9956 cabd
00000040: d0af 13be f5e5 1abe c0fd 97bd 9a62 23bc
00000050: d3d4 3bbd cb66 f03d 7a39 a8bd 7809 8e3d
00000060: 3159 d3bd ed00 0e3e 9d94 e6bd 5628 253e
00000070: 59dd 77bd 5aec fdbc 5d1c 3a3d 47a8 19bc
00000080: ad53 72bc 7db7 a6bd d74f f0bc 377b 12be
00000090: 2489 023e f7a9 18be 128a 143e 974a c23d
000000a0: f69b 373e 778b 02be e08b 1ebd f047 d9bd
000000b0: 8b26 3e3b fc70 d83d 7611 ef3d 1cdc f4bd
000000c0: ea34 10bd 8f24 9e3c 833c b83d 1e64 cfbd
000000d0: fd1f 073d 9d81 ac3d 078a 303c 23d9 d83d
000000e0: f7ba 213e 827c 85bd f816 063e b975 6fbc
000000f0: 1a31 303d a130 2ebd 067b 663d 2677 2a3e
00000100: e752 e9bd e0af e13d 3d2c 0a3e e335 88bc
00000110: eacf ffbd 6d17 d43d cccc 2cbc 88d9 94bb
00000120: 3745 8f3d 58f2 c9bc 93bf c23d 0fa6 85bc
00000130: b948 96bd 1ce7 293e 93db b33d c4e1 15be
00000140: 6536 223e b5fb cc3b c34c 263e bc8d de3d
00000150: 2331 bcbd 45cd 0f3e 83b3 adbd 7fa0 fabd
00000160: 0595 24bd b652 a53c c6bf 3bbe c547 5a3d
00000170: 8347 113e 5034 e8bd ba2f 0ebe 075f 583d
00000180: 2086 b73d c495 d2bd 42ba cb3d 552b cdbd
00000190: eb60 e53d 3c7a afbd c91d dbbd 337c 1dbe
000001a0: 841c 06be f58f db3d c673 8b3d 91ee 0cbe
000001b0: a6a7 383e 4373 1fbe 7701 1ebe 7ec4 093d
000001c0: bc76 42bd df5e 02be c58c 7bbc 811a 643d
000001d0: d93f cbbd 133b a9bd 6cd5 9dbc 13f5 053e
000001e0: de67 77bc e9a8 81bd 47ce 2abe 4190 a3bd
000001f0: b0f0 1ebe b65e 2cbe 9934 04be 2554 17bd
00000200: cc37 143e 5b00 083d 673e 33be 29f3 babc
00000210: e460 0ebe e880 e13d 2fd9 043e 8a34 a33c
00000220: 2194 213d b31b 8bbd 7a14 22be 23e4 2b3e
00000230: 2c45 18bd ff08 343e ad7f 3cbe 0d42 0dbe
00000240: 6992 1cbe d5fc 0a3e cfe1 abbd 49a5 babd
00000250: d7ff 313e 9aa1 febb 5fcb 083c ed94 143e
00000260: 4f82 283e f450 06be ceb0 a73d c093 f93d
00000270: 45c1 5ebd 07f0 393d c3e7 d93d c254 dc3d
00000280: 902e 5abd c397 0abe 7048 1e3d d651 f4bd
00000290: bd46 17bd 4f10 dfbd fa5c d83d a36a 093e
000002a0: e1f2 8dbc 08fc 183d 41ce 35be 5131 13bd
000002b0: b4c4 613d 90c4 6b3d ad36 b4bc 615b 093e
000002c0: 607b c1bd 0052 1c3e 35b3 ec3c f08e 16be
000002d0: f8fb bdbd bc9c c9bc bcd0 fdbd f386 c13d
000002e0: c4dc b7bd 300e 1f3e c348 583d 4396 39be
000002f0: 0b29 debd 06bb 9f3d 2436 733d be10 9ebd
00000300: 5cb1 e5bd 9d33 cdbd cef7 15bd 4b99 483e
00000310: 51d8 bdbd 3454 fe3c ae85 5dbd a425 e03d
00000320: 8db4 08be dd6f 1dbe c49e a7bd 20cc c5bc
00000330: cb4a 9cbd 7b5e d0ba 7138 353d 6b9c ebbd
00000340: d9d1 7abd d5e8 cfbd b886 343e 128d 603d
00000350: 8638 a5bd 6451 b9bd 8e49 fd3b aff0 f7bc
00000360: abca 503d 32f9 803d abf5 b3bd 9a28 243e
00000370: 5920 cb3d eee2 15be dd9f 2cbe 14fe 0e3e
00000380: 7edf 33bd 1a4c da3c 3ad1 093e caaa bfbd
00000390: c685 1b3e 854c 123d 185d 0d3d 38e1 06bd
000003a0: 2e42 25be c391 213e 93d0 bc3d 369b b93d
000003b0: 156a a13d 9690 07be a4c2 e3bd 1366 0abe
000003c0: 3199 bbbd fb61 9b3d 3291 a03d 79fa bbbd
000003d0: 925b 1e3e 8470 b63d c82b c03d 087d 2bbe
000003e0: 2dc9 b13d 2658 c93d 1171 bdbd 1d12 fcbd
000003f0: 55c8 b6bd 206a 123d 0123 0d3c e405 cc3d

emb_net.v_lins1.2.bias f4 [32]
0.15007357 0.09672469 -0.016289575 -0.0659014 0.061981738 -0.16355671 -0.16284356 0.011382001
0.13921958 -0.041567042 0.064676784 0.014701696 -0.085675664 -0.099697955 0.019306859 0.10135306
-0.0080531845 -0.1686719 -0.16946529 0.12741175 -0.01202576 0.052940205 -0.086008556 0.040622175
-0.050332658 0.13731703 -0.02481287 -0.15523931 -0.16173165 0.018873237 0.104990914 -0.16275911
00000000: e3ac 193e 9817 c63d b771 85bc 50f7 86bd
00000010: 90e0 7d3d 697b 27be 76c0 26be 937b 3a3c
00000020: 948f 0e3e 3442 2abd 4375 843d 62df 703c
00000030: b976 afbd 712e ccbd 6b29 9e3c 3192 cf3d
00000040: 81f1 03bc 54b8 2cbe 4f88 2dbe 3a78 023e
00000050: b107 45bc d4d7 583d 4125 b0bd 7063 263d
00000060: 9e29 4ebd d69c 0c3e 5c44 cbbc 0ef7 1ebe
00000070: fb9c 25be 0c9c 9a3c 7a05 d73d 53aa 26be

emb_net.v_lins1.3.weight f4 [32, 32]
0.08987267 0.14367183 -0.10047372 -0.093251675 -0.16701579 0.09889806 0.075127035 0.119896986
-0.08221075 0.15952955 -0.026576435 0.022338491 0.052412473 -0.06813014 0.074405864 0.08019199
-0.05471382 0.028973335 -0.051787265 0.15502773 -0.05589416 0.097382605 -0.17633075 0.09452958
-0.10628125 -0.10869948 -0.018974723 -0.18945453 -0.03258565 0.078225516 0.14585322 0.059793152
-0.031967916 0.07332822 -0.087035 0.14533447 -0.02213631 0.11266508 -0.1503816 -0.022462888
-0.09033866 -0.1112703 -0.13573365 -0.14715688 0.15038855 -0.01982271 -0.039001066 0.123955406
-0.19399838 0.020255718 0.07445739 -0.03831 0.09463886 0.021874908 0.09829392 0.107586056
-0.06303224 -0.16651668 -0.044762366 0.04437742 -0.0014456289 -0.11736531 0.11469558 -0.06530493
-0.045800935 -0.12388099 0.033387303 -0.15310109 -0.14795539 -0.19247538 0.14978582 0.017230153
0.057374343 -0.11145033 -0.10012358 -0.16141282 0.036162738 -0.010059908 0.012538745 0.10252252
-0.16110267 -0.02382217 0.119526125 -0.06278143 -0.025749499 -0.0015279461 -0.050012935 0.17038147
0.1352508 -0.100305565 0.079745136 -0.015191978 0.060764935 -0.11015324 -0.13399038 -0.10969812
0.039846428 0.1870561 0.033290416 0.09672997 -0.13383831 0.118282944 0.12973629 0.03239232
0.08078475 0.023958066 0.083851494 0.042673256 -0.006921729 -0.017405413 -0.10254324 -0.107326925
-0.0147309145 -0.16267031 -0.010657818 -0.067964025 -0.026779994 -0.07535513 0.07582571 -0.00023897634
0.08165845 -0.104548864 0.14945035 0.014279695 0.18106793 0.018958535 -0.10983937 0.084482774
-0.004884486 0.061571423 0.14063364 0.016118133 -0.1451629 0.0077945907 -0.16295135 0.03855843
-0.06625202 0.09616147 0.0051013394 -0.059584018 -0.013421489 0.1449978 -0.006103758 -0.17246927
-0.047891762 -0.1625785 -0.048311125 0.044487447 0.11318037 0.094985135 -0.14312263 -0.092994526
-0.10634453 0.13191728 0.1655487 0.007253719 -0.052723613 0.08173035 0.17411765 -0.027024856
-0.025810437 0.08237474 0.021143734 -0.0892044 0.036378145 -0.01404145 0.07431147 -0.1238387
-0.11552434 -0.077873 0.13169181 0.06199095 -0.07410658 -0.10032434 -0.04093077 0.064624034
-0.03629489 0.0004496933 -0.048024196 -0.023289366 -0.13569036 -0.14929107 0.13276361 0.040612858
-0.090726055 0.14536053 -0.111711845 -0.146733 -0.0032448382 -0.110829435 0.106245555 0.111865714
-0.18895133 0.0813383 0.12645659 -0.02812093 -0.14337668 0.16782705 -0.16492671 -0.16072388
0.042081963 -0.0127836205 -0.12905425 -0.12108806 0.0995114 -0.075355254 0.0092106955 -0.043031175
-0.012693288 -0.030120643 -0.16493002 0.067596674 -0.030330889 -0.15283926 -0.11260916 -0.020582905
0.02753569 -0.1520408 0.12368546 -0.12173148 0.07365927 0.018693333 0.159066 -0.12812601
0.15430179 -0.14154129 0.10805093 0.10715109 0.10657681 -0.08212161 0.081049845 0.090267934
0.14025234 -0.07958752 0.15342896 -0.0049248207 -0.08854668 0.06034129 0.14115721 -0.07050438
-0.14170311 -0.0894708 0.09124766 0.08405628 0.17691574 0.14923754 0.017126283 -0.17019391
-0.15147325 0.14464328 -0.18900685 -0.17069024 0.044023987 0.1456957 -0.026370399 -0.07755348
00000000: 2a0f b83d b51e 133e 2ac5 cdbd bcfa bebd
00000010: 3006 2bbe 118b ca3d 34dc 993d 8d8c f53d
00000020: 1c5e a8bd b75b 233e d3b6 d9bc 36ff b63c
00000030: 76ae 563d d187 8bbd 1a62 983d b33b a43d
00000040: 991b 60bd 7d59 ed3c e21e 54bd 97bf 1e3e
00000050: 46f1 64bd 8870 c73d 0c90 34be b998 c13d
00000060: fca9 d9bd d59d debd e170 9bbc 5e00 42be
00000070: 8878 05bd b334 a03d 8c5a 153e aae9 743d
00000080: caf0 02bd 1b2d 963d 683f b2bd 8fd2 143e
00000090: 3557 b5bc f3bc e63d a2fd 19be 1704 b8bc
000000a0: 7a03 b9bd afe1 e3bd c3fd 0abe 4bb0 16be
000000b0: 75ff 193e 3c63 a2bc 95bf 1fbd 55dc fd3d
000000c0: 83a7 46be 52ef a53c 1e7d 983d f2ea 1cbd
000000d0: 05d2 c13d 0233 b33c 534e c93d 1456 dc3d
000000e0: 0c17 81bd 5983 2abe be58 37bd 19c5 353d
000000f0: 427b bdba 395d f0bd 84e5 ea3d 97be 85bd
00000100: c399 3bbd 51b5 fdbd 20c1 083d 88c6 1cbe
00000110: 9e81 17be 4418 45be 7461 193e 4026 8d3c
00000120: 5c01 6b3d 1240 e4bd 970d cdbd 6749 25be
00000130: 611f 143d 50d2 24bc 4f6f 4d3c 54f7 d13d
00000140: 19f8 24be b626 c3bc 1dca f43d 8d93 80bd
00000150: 9df0 d2bc 5d45 c8ba 5dda 4cbd 7b78 2e3e
00000160: 307f 0a3e 016d cdbd 6b51 a33d c6e7 78bc
00000170: a7e4 783d 0698 e1bd c634 09be 68a9 e0bd
00000180: 0236 233d a28b 3f3e 885b 083d 5d1a c63d
00000190: e90c 09be 543e f23d 97d9 043e cfad 043d
000001a0: 7a72 a53d b543 c43c 55ba ab3d 27ca 2e3d
000001b0: accf e2bb cc95 8ebc 3102 d2bd 38ce dbbd
000001c0: ef59 71bc 0c93 26be 219e 2ebc b930 8bbd
000001d0: b861 dbbc ca53 9abd 834a 9b3d b995 7ab9
000001e0: 8c3c a73d b71d d6bd 8309 193e 62f5 693c
000001f0: df69 393e ee4e 9b3c 77f3 e0bd 4e05 ad3d
00000200: 0a0e a0bb 5132 7c3d 4402 103e 2d0a 843c
00000210: 95a5 14be c469 ff3b b8dc 26be 72ef 1d3d
00000220: 24af 87bd 4ef0 c43d 2329 a73b 5f0e 74bd
00000230: cee5 5bbc 4e7a 143e 0802 c8bb c99b 30be
00000240: 272a 44bd fa7a 26be e3e1 45bd 7838 363d
00000250: 1ccb e73d 9187 c23d bd8e 12be ea73 bebd
00000260: 29cb d9bd 5315 073e 9985 293e 9bb0 ed3b
00000270: b7f4 57bd 3e62 a73d e64b 323e 3b63 ddbc
00000280: 6970 d3bc 16b4 a83d a035 ad3c ccb0 b6bd
00000290: 4001 153d 1c0e 66bc 9d30 983d 259f fdbd
000002a0: 0698 ecbd e17b 9fbd 38da 063e 39ea 7d3d
000002b0: 31c5 97bd d976 cdbd 06a7 27bd 9b59 843d
000002c0: f3a9 14bd d0c4 eb39 05b5 44bd 57c9 bebc
000002d0: 6af2 0abe c2df 18be 2ff3 073e ab59 263d
000002e0: 95ce b9bd 64d9 143e 2ec9 e4bd 2d41 16be
000002f0: 5aa7 54bb 8bfa e2bd 4597 d93d da19 e53d
00000300: 757c 41be b294 a63d d67d 013e dd5d e6bc
00000310: 56d1 12be dbda 2b3e 8ce2 28be cd94 24be
00000320: 235e 2c3d 6472 51bc cc26 04be 04fd f7bd
00000330: a2cc cb3d db53 9abd 75e8 163c 7541 30bd
00000340: 82f7 4fbc 91bf f6bc 6ae3 28be 2070 8a3d
00000350: 7c78 f8bc e581 1cbe a29f e6bd 7b9d a8bc
00000360: 8792 e13c 95b0 1bbe cd4e fd3d 5b4e f9bd
00000370: acda 963d c322 993c 33e2 223e 7733 03be
00000380: 4a01 1e3e 33f0 10be ce49 dd3d 0872 db3d
00000390: f144 da3d 602f a8bd 76fd a53d 65de b83d
000003a0: 4f9e 0f3e c8fe a2bd 7b1c 1d3e 6460 a1bb
000003b0: f657 b5bd 6e28 773d 848b 103e 9a64 90bd
000003c0: 9f1a 11be 773c b7bd 0ee0 ba3d b325 ac3d
000003d0: 6629 353e bad1 183e 6b4c 8c3c 5047 2ebe
000003e0: ce1b 1bbe 5e1d 143e 038b 41be 6cc9 2ebe
000003f0: 7f52 343d 4131 153e bc06 d8bc 5cd4 9ebd

emb_net.v_lins1.3.bias f4 [32]
0.08678216 0.023989024 -0.111378744 -0.0150558725 0.08509564 -0.02162348 0.01840771 -0.10217898
-0.17233764 -0.14074573 0.14007692 0.12093677 -0.15343717 -0.013129411 -0.14801686 -0.15393168
0.11360607 0.058220904 0.17368191 -0.090649225 0.17206132 -0.066273674 0.09490631 0.047803365
0.15165727 -0.05143826 -0.12889275 0.11357687 -0.0699373 0.0020863344 -0.16360734 0.0054858723
00000000: d8ba b13d a184 c43c 8a1a e4bd e8ac 76bc
00000010: 9f46 ae3d b923 b1bc c4cb 963c 3743 d1bd
00000020: 4779 30be a61f 10be 5370 0f3e b3ad f73d
00000030: a21e 1dbe be1c 57bc bb91 17be 44a0 1dbe
00000040: 4daa e83d 0b79 6e3d acd9 313e 4da6 b9bd
00000050: d830 303e 7eba 87bd 3d5e c23d 76cd 433d
00000060: 0b4c 1b3e edb0 52bd 76fc 03be fd9a e83d
00000070: 4a3b 8fbd e2ba 083b af88 27be d5c2 b33b

emb_net.v_lins1.4.weight f4 [32, 32]
0.036550503 -0.09153688 -0.083556384 0.05432753 -0.15052119 0.014647791 -0.044703297 0.03835076
0.11507685 -0.10243064 0.085032165 0.13305292 -0.15168947 -0.016734114 0.14498377 -0.11424404
0.16672632 -0.1676817 0.031599414 -0.031378012 -0.09190308 -0.09454713 0.1720997 -0.14589596
0.016729824 -0.07149341 0.07280624 0.05058439 0.1649023 -0.04636977 0.072242215 0.11698123
-0.024562186 -0.025556445 -0.05273263 -0.12451065 0.16588691 0.07807993 0.008099828 -0.028002128
0.17679457 -0.1404343 0.04093807 0.09421126 -0.10189249 0.036754556 0.10501353 -0.12806895
0.003286527 0.09634323 -0.12286583 0.071757674 0.10133575 0.09447632 -0.07408571 -0.14515136
-0.16701 0.006938513 0.079522915 -0.06512757 -0.06369781 0.015188343 -0.11447895 0.16857532
-0.09062003 -0.0153367715 -0.13527203 0.04204601 -0.06455819 0.040641144 -0.03602495 0.0057866727
0.08578818 -0.08310547 0.008150306 -0.02133556 0.17621195 0.023968657 0.13615589 -0.09466108
0.02144447 0.038263243 0.02951408 0.015438972 0.078104556 0.08942317 0.052946907 -0.014985943
0.03855091 0.1114191 0.13313963 0.11053919 -0.059602145 -0.120610684 -0.10303738 0.06022623
-0.09259115 -0.10472675 -0.06053595 -0.027618885 -0.18672018 0.08084638 0.08477422 0.092687175
-0.14259993 0.11594866 0.065562084 0.088949665 0.15131518 -0.022240452 -0.12164826 -0.14106172
-0.13443963 -0.16264802 0.047886956 -0.1650418 0.09834173 0.0479536 0.18794836 0.14331053
-0.112591274 -0.11225842 0.008156667 -0.030136963 -0.05307364 -0.07816674 -0.014007472 -0.03738383
0.07710745 0.09930824 -0.15167621 0.0073954775 -0.030080423 0.11247442 -0.13827966 -0.06312851
-0.11430703 -0.061349355 0.16619705 0.007286792 0.118188426 0.06993598 -0.041752145 -0.08087917
-0.13366546 0.014398594 -0.11282735 0.10428407 -0.03915608 0.06046977 -0.12905176 0.13460463
0.12755865 -0.010595477 0.14935483 -0.070078164 -0.13099857 -0.023330972 0.14791778 -0.051189035
-0.17510717 -0.06435199 0.07191351 -0.054695603 -0.16381863 -0.123640195 -0.014101899 0.17082484
0.06069174 0.12410542 -0.078062475 -0.11537546 -0.19280806 -0.0499951 0.0522119 0.07059899
-0.019360315 -0.1588111 -0.10048 0.17531906 0.1155457 -0.15416658 0.018657858 -0.015520444
0.13829124 0.0050060214 0.111818425 0.13436104 0.12332307 -0.13707674 0.01821622 -0.09711076
-0.09651903 -0.04709298 -0.0820325 -0.10708996 -0.1509444 0.0039705546 -0.05772468 -0.09046524
0.059469476 -0.054571096 0.017266609 0.0041288 0.115936115 -0.112848565 0.09467084 0.1349986
0.119592465 -0.117396474 -0.08470919 -0.120431416 0.008574624 0.028842274 -0.0232398 0.09152928
0.11750886 -0.012405597 -0.17589867 0.031474795 -0.0068461834 -0.09121876 0.08484233 -0.15146448
-0.11477493 0.029458102 -0.16708334 0.103701085 0.08962778 -0.10275844 0.0009545175 -0.14128818
-0.012838861 0.0048154355 -0.037154507 -0.15274394 0.13324596 -0.094668955 0.1416353 -0.007678188
0.17615487 -0.08411961 -0.14472233 -0.13044344 -0.0887582 0.07391267 -0.06897202 -0.033996783
0.060655337 0.12799065 0.003074375 -0.053084057 0.028440654 -0.06016412 -0.15542239 -0.075323075
00000000: fbb5 153d b077 bbbd 9c1f abbd 8b86 5e3d
00000010: 3a22 1abe 4afd 6f3c ce1a 37bd b015 1d3d
00000020: 69ad eb3d 28c7 d1bd 5825 ae3d 063f 083e
00000030: 7c54 1bbe fb15 89bc a076 143e c7f8 e9bd
00000040: 4eba 2a3e c0b4 2bbe 636e 013d 3b86 00bd
00000050: af37 bcbd eda1 c1bd e73a 303e c065 15be
00000060: fc0c 893c 236b 92bd 701b 953d 9431 4f3d
00000070: 26dc 283e 3aee 3dbd baf3 933d db93 ef3d
00000080: a336 c9bc c05b d1bc 2cfe 57bd 71ff febd
00000090: 42de 293e 5fe8 9f3d 24b5 043c b864 e5bc
000000a0: a309 353e 02ce 0fbe adae 273d d5f1 c03d
000000b0: 03ad d0bd f28b 163d 5511 d73d 8224 03be
000000c0: c662 573b 994f c53d 15a1 fbbd b0f5 923d
000000d0: 1e89 cf3d cd7c c13d 40ba 97bd 8fa2 14be
000000e0: ab04 2bbe 775c e33b e9dc a23d 9a61 85bd
000000f0: ff73 82bd 87d8 783c f173 eabd 029f 2c3e
00000100: ff96 b9bd 1547 7bbc c084 0abe 7038 2c3d
00000110: 1637 84bd 5477 263d e68e 13bd 219e bd3b
00000120: b7b1 af3d 3333 aabd dc88 053c eac7 aebc
00000130: e870 343e eb59 c43c 736c 0b3e abdd c1bd
00000140: 50ac af3c ebb9 1c3d 83c7 f13c bef3 7c3c
00000150: 48f5 9f3d 7f23 b73d dbde 583d 9a87 75bc
00000160: 8fe7 1d3d b22f e43d c155 083e 5f62 e23d
00000170: 6121 74bd bc02 f7bd 4305 d3bd c8af 763d
00000180: 6ea0 bdbd fa7a d6bd 8bf4 77bd 0041 e2bc
00000190: 9333 3fbe c992 a53d 1b9e ad3d c6d2 bd3d
000001a0: b705 12be 7e76 ed3d 6a45 863d 3e2b b63d
000001b0: 5ef2 1a3e 9c31 b6bc b922 f9bd 7c72 10be
000001c0: 8baa 09be 348d 26be 1d25 443d b800 29be
000001d0: 6467 c93d fe6a 443d 8975 403e ffbf 123e
000001e0: 4196 e6bd bee7 e5bd 8ba3 053c cbe1 f6bc
000001f0: bf63 59bd e215 a0bd 997f 65bc c91f 19bd
00000200: 83ea 9d3d 1e62 cb3d 0251 1bbe c355 f23b
00000210: 386b f6bc fd58 e63d 2f99 0dbe 8549 81bd
00000220: ce19 eabd 7649 7bbd 8f2f 2a3e 0bc6 ee3b
00000230: c60c f23d 983a 8f3d 4c04 2bbd faa3 a5bd
00000240: 99df 08be 15e8 6b3c 0712 e7bd e392 d53d
00000250: 2062 20bd 26af 773d 2526 04be ccd5 093e
00000260: bc9e 023e a798 2dbc 79f0 183e 2485 8fbd
00000270: 7d24 06be 9820 bfbc c277 173e 98ab 51bd
00000280: 4b4f 33be faca 83bd 6447 933d 7f08 60bd
00000290: 12c0 27be 1237 fdbd a70b 67bc b5ec 2e3e
000002a0: e797 783d fc2a fe3d 38df 9fbd f849 ecbd
000002b0: 7a6f 45be a9c7 4cbd 25dc 553d 3496 903d
000002c0: 8699 9ebc 619f 22be 75c8 cdbd d786 333e
000002d0: 39a3 ec3d d8dd 1dbe 5dd8 983c 7649 7ebc
000002e0: 389c 0d3e 8d09 a43b 0f01 e53d f195 093e
000002f0: ce90 fc3d d85d 0cbe 2f3a 953c 02e2 c6bd
00000300: c5ab c5bd 92e4 40bd a800 a8bd fb51 dbbd
00000310: 2b91 1abe 6d1b 823b b770 6cbd d745 b9bd
00000320: 4496 733d f185 5fbd b472 8d3c e24a 873b
00000330: ea6f ed3d 261d e7bd c9e2 c13d 133d 0a3e
00000340: e5ec f43d 906d f0bd 037c adbd bfa4 f6bd
00000350: 947c 0c3c a246 ec3c 6561 bebc b473 bb3d
00000360: 7ca8 f03d d840 4bbc c81e 34be b7eb 003d
00000370: f355 e0bb e7d0 babd d1c1 ad3d 8119 1bbe
00000380: 1e0f ebbd 1e52 f13c e517 2bbe 3c61 d43d
00000390: c58e b73d 0473 d2bd 9638 7a3a d9ad 10be
000003a0: 165a 52bc cdca 9d3b 532f 18bd e868 1cbe
000003b0: a171 083e cce1 c1bd d808 113e 4f99 fbbb
000003c0: f161 343e e746 acbd 1732 14be f792 05be
000003d0: dcc6 b5bd 875f 973d 3441 8dbd 3640 0bbd
000003e0: bb71 783d fb0f 033e 747b 493b ab6e 59bd
000003f0: 60fc e83c a76e 76bd 0c27 1fbe fc42 9abd

emb_net.v_lins1.4.bias f4 [32]
0.012611742 0.10450458 -0.13968098 0.11761451 0.068910286 0.0833325 -0.045081303 -0.011763635
0.14267989 -0.052012984 0.09453796 -0.15249856 0.1520247 -0.092504725 0.06900553 -0.038023632
-0.060588 0.08727574 0.15554458 0.035081044 0.05774029 -0.10364105 0.07559588 -0.013787236
-0.03796018 0.13983513 0.00105128 0.12638786 -0.016332658 0.11940424 -0.13483272 0.061916884
00000000: 7ba1 4e3c 7f06 d63d 8808 0fbe e0df f03d
00000010: d620 8d3d 3baa aa3d 2ca7 38bd 43bc 40bc
00000020: ad1a 123e 910b 55bd 1e9d c13d 9528 1cbe
00000030: 5dac 1b3e 1e73 bdbd c552 8d3d abbe 1bbd
00000040: 1f2b 78bd a0bd b23d 1447 1f3e 24b1 0f3d
00000050: 1581 6c3d c241 d4bd 03d2 9a3d dce3 61bc
00000060: 227c 1bbd f130 0f3e 1acb 893a d26b 013e
00000070: 11cc 85bc 368a f43d 9711 0abe 8f9c 7d3d

emb_net.v_lins1.5.weight f4 [32, 32]
-0.13369006 0.04705094 -0.04518312 0.1551441 -0.09416627 -0.01656467 0.14956233 -0.07730351
-0.08237882 -0.12671837 0.117866665 0.12931843 -0.119363576 -0.0805813 0.1078403 0.012998222
-0.09131337 0.03117096 0.06706946 -0.01716347 0.038717266 -0.011403938 0.021537311 0.14021023
-0.14650668 -0.09195929 0.0022811638 -0.0053357184 -0.08303938 0.024282493 -0.17032747 0.021427678
-0.100965634 0.03773798 -0.105596565 0.077269375 -0.058858264 0.047218464 0.060707502 -0.12763579
0.09763412 -0.12500569 -0.07024871 0.026831346 0.05919056 -0.03662203 -0.15436418 0.079693295
0.020737367 0.033887036 0.0946241 0.16995527 0.025736993 0.17010404 0.029416244 0.17980075
-0.13083827 0.13044426 0.0063011013 0.14248744 0.013725687 -0.09281415 -0.08996708 -0.069338255
0.022355193 0.027042631 0.0066000265 -0.15749876 0.071742125 0.16452439 -0.051599056 0.1512755
-0.038327456 -0.12096961 0.19276558 -0.13690728 -0.1545495 0.07663139 0.009841524 0.0007915958
0.07034402 -0.08207717 -0.17185946 0.022187004 0.04338385 0.14185457 0.005354327 0.015511237
-0.10153123 0.08150347 -0.031310756 0.12527207 0.073813654 0.18446854 0.088939376 0.013849343
0.097629935 0.03777544 -0.17148092 -0.078357734 0.1658353 -0.024288092 -0.15530758 0.1534274
0.024734162 -0.093926124 0.030806912 -0.014642715 -0.018964926 0.07923089 0.0043745735 -0.12538476
0.11465067 -0.1306374 0.13695689 -0.07052272 -0.03476795 -0.024732184 -0.019493349 0.14327951
0.16579963 -0.066996515 0.043070383 -0.1291552 0.075944066 -0.012974548 -0.03647265 -0.15038648
-0.010066867 -0.11817064 0.065454334 -0.042820595 -0.10792074 -0.13247287 0.08324427 -0.041947052
-0.06404972 -0.041763585 -0.14586891 0.1174172 0.08362702 -0.08558488 -0.06409708 0.06748863
0.13337548 0.030380972 0.08602631 -0.045554362 0.13095717 -0.0021235156 -0.15312988 -0.088613786
0.047367204 0.09889356 0.13332067 -0.163374 -0.07256815 0.10511353 -0.018104596 -0.11327455
0.054180916 -0.14174695 -0.030883309 -0.021757552 0.1948158 0.00051279634 0.12530942 0.035758477
0.16524683 -0.07259316 0.14194448 0.14216064 -0.0056076203 0.12804827 -0.04693295 -0.103234835
0.124516636 0.16233112 0.1258312 0.024793398 0.08887671 0.100477464 -0.13580865 0.120731935
0.15140367 0.027192662 -0.07812021 -0.006201427 -0.1639616 0.059755273 0.05468947 0.064615965
0.047301553 -0.12965527 -0.15052135 0.15523173 -0.0386158 0.14575714 -0.12585984 0.016576177
-0.035129264 0.0015552342 0.16704932 0.14093708 0.07521704 -0.024441581 -0.15575525 -0.081726104
-0.10297856 0.06409523 0.12062445 -0.0022589278 -0.1117754 -0.036043532 0.095396966 0.03759077
0.011144088 0.014836855 0.044346213 -0.122661896 -0.09834438 -0.13085726 0.16306646 -0.1600267
0.14438453 -0.08276101 0.14040303 0.09711179 0.15740243 0.11438668 -0.11472662 -0.08387791
-0.06804779 -0.13355052 -0.024322582 -0.034294087 -0.19839792 0.18229592 -0.058047943 -0.008327929
0.16022234 0.043841198 -0.10701785 -0.16008475 0.16764227 0.023296405 0.117235824 -0.14575237
0.13010986 -0.10877204 0.08586037 0.1311205 0.10700132 -0.09678584 -0.06829151 -0.071878426
00000000: 0ce6 08be 7db8 403d ef11 39bd 18de 1e3e
00000010: 3fda c0bd a1b2 87bc de26 193e 4d51 9ebd
00000020: 3ab6 a8bd 76c2 01be 1464 f13d 0d6c 043e
00000030: e474 f4bd cf07 a5bd 60db dc3d 7ff6 543c
00000040: 8102 bbbd 3e5a ff3c b75b 893d 689a 8cbc
00000050: ff95 1e3d 95d7 3abc 046f b03c 4593 0f3e
00000060: d905 16be 2755 bcbd 947f 153b 40d7 aebb
00000070: 8d10 aabd 14ec c63c 536a 2ebe 1989 af3c
00000080: 12c7 cebd 2493 1a3d 0343 d8bd 683f 9e3d
00000090: 5d15 71bd 2668 413d 6ea8 783d f5b2 02be
000000a0: 66f4 c73d 7e01 00be 8ede 8fbd 69cd db3c
000000b0: cd71 723d fb00 16bd a511 1ebe 3d36 a33d
000000c0: 69e1 a93c 22cd 0a3d 48ca c13d c108 2e3e
000000d0: 63d6 d23c c12f 2e3e 56fa f03c b01d 383e
000000e0: 78fa 05be 2e93 053e 7879 ce3b 3ae8 113e
000000f0: b4e1 603c 5815 bebd a940 b8bd 3701 8ebd
00000100: 3d22 b73c 8288 dd3c 0945 d83b 5b47 21be
00000110: 89ed 923d 1579 283e 8859 53bd f7e7 1a3e
00000120: 40fd 1cbd eabe f7bd 5764 453e 6c31 0cbe
00000130: 3942 1ebe ebf0 9c3d 583e 213c 1883 4f3a
00000140: 8710 903d 1318 a8bd edfb 2fbe 85c1 b53c
00000150: 44b3 313d 5342 113e 5a73 af3b d822 7e3c
00000160: 9bef cfbd 4beb a63d b53f 00bd 5247 003e
00000170: 9d2b 973d 52e5 3c3e d925 b63d 5be8 623c
00000180: 34f2 c73d 6bba 1a3d b298 2fbe 057a a0bd
00000190: bbd0 293e d2f7 c6bc f308 1fbe 131c 1d3e
000001a0: 4c9f ca3c 575c c0bd c75e fc3c 00e8 6fbc
000001b0: 555c 9bbc ce43 a23d 9558 8f3b dd64 00be
000001c0: f8cd ea3d d0c5 05be 6d3e 0c3e 376e 90bd
000001d0: d768 0ebd 269b cabc 84b0 9fbc ddb7 123e
000001e0: 61c7 293e 7835 89bd 926a 303d 4341 04be
000001f0: 9088 9b3d 3393 54bc 5864 15bd eafe 19be
00000200: 80ef 24bc 7303 f2bd ec0c 863d a664 2fbd
00000210: 8d05 ddbd f8a6 07be f97b aa3d acd0 2bbd
00000220: 802c 83bd 4b10 2bbd a95e 15be 6e78 f03d
00000230: a544 ab3d 2047 afbd 5445 83bd 7b37 8a3d
00000240: 9593 083e 84e1 f83c 902e b03d 3697 3abd
00000250: a319 063e ae2a 0bbb 14ce 1cbe 257b b5bd
00000260: 1d04 423d b588 ca3d 3785 083e 844b 27be
00000270: 9c9e 94bd c345 d73d 1750 94bc 7dfc e7bd
00000280: cfec 5d3d 1d26 11be fefe fcbc e53c b2bc
00000290: cb7d 473e 2e6d 063a 1d51 003e 7b77 123d
000002a0: 7736 293e b9ab 94bd e559 113e 8f92 113e
000002b0: 21c0 b7bb 161f 033e c43c 40bd c96c d3bd
000002c0: 9402 ff3d 213a 263e e5d9 003e 861b cb3c
000002d0: fe04 b63d 21c7 cd3d 6c11 0bbe 4e42 f73d
000002e0: 9009 1b3e 25c3 de3c 7dfd 9fbd 5735 cbbb
000002f0: 8de5 27be f2c1 743d 1102 603d 6055 843d
00000300: 46bf 413d 5ac4 04be 4522 1abe 11f5 1e3e
00000310: 9a2b 1ebd 5c41 153e 67e1 00be c3ca 873c
00000320: b4e3 0fbd 00d9 cb3a fa0e 2b3e cf51 103e
00000330: 640b 9a3d b639 c8bc 4e7e 1fbe 0460 a7bd
00000340: 6ce6 d2bd 5c44 833d f409 f73d 850a 14bb
00000350: 80ea e4bd 62a2 13bd 7c5f c33d c7f8 193d
00000360: b195 363c 4816 733c 60a4 353d 2936 fbbd
00000370: c768 c9bd 72ff 05be e5fa 263e 0ade 23be
00000380: 8ad9 133e 9b7e a9bd d0c5 0f3e 8ce2 c63d
00000390: 1a2e 213e 9043 ea3d caf5 eabd 2fc8 abbd
000003a0: a45c 8bbd 78c1 08be 2740 c7bc f577 0cbd
000003b0: d328 4bbe c8ab 3a3e aec3 6dbd de71 08bc
000003c0: 5311 243e d492 333d 2d2c dbbd 42ed 23be
000003d0: 6aaa 2b3e 1ad8 be3c 5619 f03d 1c40 15be
000003e0: 853b 053e e0c3 debd 90d7 af3d 7444 063e
000003f0: 8223 db3d a837 c6bd 6bdc 8bbd ff34 93bd

emb_net.v_lins1.5.bias f4 [32]
0.03833178 0.09590265 0.09374526 0.09122747 0.15766273 -0.07837281 0.06304769 -0.047223415
0.09283505 0.11629349 0.08224202 0.15549558 0.1607143 -0.16677342 -0.06952798 0.020466473
-0.14350821 -0.027432196 -0.14901893 0.024874117 0.10244112 -0.1311474 0.15747274 -0.00013520304
0.0692127 0.10148982 -0.034454424 0.045352213 0.07597731 -0.1260916 -0.09792353 -0.071782075
00000000: c901 1d3d 9c68 c43d 84fd bf3d 78d5 ba3d
00000010: 5772 213e ec81 a0bd 261f 813d 576d 41bd
00000020: 4d20 be3d 482b ee3d 816e a83d 3c3a 1f3e
00000030: 4a92 243e a7c6 2abe b064 8ebd 4ea9 a73c
00000040: d1f3 12be 7cb9 e0bc 6b98 18be cec4 cb3c
00000050: a6cc d13d 814b 06be 8940 213e 4ac5 0db9
00000060: 63bf 8d3d e5d9 cf3d 1520 0dbd 3ec3 393d
00000070: fe99 9b3d 281e 01be 228c c8bd 7b02 93bd
