pretrained/rcpsp/rcpsp60-5.pt (torch, 354891 bytes, 225 tensors)

emb_net.v_lin0.weight f4 [32, 5]
0	0x3e1bd0f7	0.15216433
1	0xbe19c9d7	-0.15018402
2	0x3db63a1c	0.08897802
3	0x3e8e05a9	0.27738693
4	0xbd5671a3	-0.052354466
5	0x3ec17be5	0.37789837
6	0xbd2d39b0	-0.042291343
7	0xbe9a4ca8	-0.3013661
8	0xbeb90d33	-0.36142883
9	0x3e1777de	0.1479182
10	0xbeb80bd0	-0.35946512
11	0x3e39ce0b	0.18145005
12	0xbe7efb8d	-0.24900647
13	0x3e8e9be3	0.27853307
14	0x3e2f4205	0.17115028
15	0xbd99a1ea	-0.07501586
16	0xbea6e1f1	-0.32594255
17	0xbe9513ed	-0.29116765
18	0xbedfcdfe	-0.43711847
19	0x3e97579a	0.29559022
20	0xbe10cab8	-0.14139831
21	0x3e7f33a6	0.24922046
22	0xbe4553ae	-0.19270203
23	0x3edb1679	0.42790583
24	0xbe41c6df	-0.1892352
25	0xbd86d2a4	-0.06583145
26	0x3e27145f	0.16316365
27	0xbea8abe9	-0.32943657
28	0x3e81e1a5	0.25367466
29	0x3d274091	0.04083306
30	0xbe7a49ed	-0.24442263
31	0x3e564640	0.20925236
32	0xba296d54	-0.00064631295
33	0xbde8d1f9	-0.11368174
34	0xbe99a9c1	-0.30012324
35	0x3dd374fe	0.10325049
36	0x3e6d8fe6	0.23199424
37	0x3c15bf2e	0.009139819
38	0x3e56e6d2	0.20986488
39	0xbe7f1e62	-0.24913934
40	0x3cedd952	0.02903429
41	0xbe9613d0	-0.2931199
42	0xbc3a71bb	-0.0113796545
43	0xbd93ed6d	-0.0722302
44	0x3ed064d4	0.40701926
45	0xbe21e3c4	-0.15809542
46	0xbe4d4e3d	-0.20049377
47	0x3eb8165e	0.35954565
48	0xbd5cdc90	-0.053921282
49	0xbe85084e	-0.25982898
50	0x3ee02dc7	0.43784925
51	0x3ea83a85	0.32857147
52	0x3ec02cde	0.3753423
53	0xbe8c65c2	-0.27421385
54	0xbe4c0499	-0.19923629
55	0xbe36e3eb	-0.17860381
56	0x3e419460	0.18904257
57	0x3de2e7c0	0.11079359
58	0x3e93484c	0.28766096
59	0x3eae6aa9	0.3406575
60	0x3e298ee8	0.1655842
61	0xbeda1c9d	-0.42599955
62	0x3e051253	0.12995271
63	0xbe836ceb	-0.25669035
64	0x3c9c123c	0.019051664
65	0xbdfb3622	-0.122661844
66	0x3ec4d897	0.38446495
67	0xbde02d10	-0.10946095
68	0x3eccf4c2	0.40030485
69	0x3e3b6227	0.18299161
70	0x3c36949d	0.011143831
71	0x3cd7d126	0.026344847
72	0x3cc930d6	0.02455942
73	0xbe5fb1a4	-0.21845108
74	0x3a5a7c51	0.00083345646
75	0x3ceffeb5	0.029296258
76	0xbea90ef5	-0.33019224
77	0xbe773f11	-0.24145152
78	0x3de7587a	0.112961724
79	0xbe9780c3	-0.29590425
80	0x3e0c05f4	0.13674146
81	0x3e1854b2	0.14876059
82	0x3ed76bd4	0.42074454
83	0x3e55cfa0	0.20879984
84	0xbe561b46	-0.20908841
85	0xbed09af3	-0.40743217
86	0xba706282	-0.0009169952
87	0xbe4ced28	-0.20012343
88	0x3e9d0653	0.30668887
89	0xbeccaada	-0.399741
90	0xbec473e8	-0.3836968
91	0x3e1fb760	0.15597296
92	0x3d58afe6	0.052902125
93	0x3e980c81	0.2969704
94	0x3eccbb40	0.3998661
95	0xbe9b931a	-0.30385667
96	0xbe4a1cd0	-0.19737554
97	0x3dd8ec2f	0.105919234
98	0x3dcbb99f	0.09947514
99	0x3b9ca013	0.0047798245
100	0xbeba6e4d	-0.36412278
101	0xbdc85e07	-0.09783559
102	0x37958fc8	1.7829138e-05
103	0x3dfd9b60	0.12383151
104	0xbeb53fc2	-0.35400206
105	0x3eb3f0f9	0.35144785
106	0x3dc81168	0.09768945
107	0xbec96aee	-0.39339393
108	0x3e8dc453	0.27688846
109	0xbda67c8e	-0.08129226
110	0x3ee69fe6	0.45043868
111	0x3e64cc41	0.22343542
112	0x3df73710	0.12071049
113	0x3eb1c4ea	0.34720546
114	0x3e570941	0.20999624
115	0xbdae37ec	-0.0850676
116	0x3e95cc34	0.29257357
117	0x3cb3e436	0.021959405
118	0xbedb7b29	-0.428674
119	0x3ecea7ab	0.40362296
120	0x3ebd217b	0.36939606
121	0x3dcf8661	0.101330526
122	0xbe5920ec	-0.21203965
123	0xbed24187	-0.41065618
124	0xbe9d46f1	-0.30718186
125	0xbe5d63ef	-0.21620153
126	0xbeb60112	-0.35547692
127	0xbcf15ab4	-0.029462196
128	0xbe88f75c	-0.2675122
129	0xbc2e2fe6	-0.010631537
130	0x3cf26f3a	0.029594053
131	0xbe85ca67	-0.26130983
132	0x3e9b8794	0.30376875
133	0xbe9270c7	-0.28601667
134	0x3e3b6076	0.18298516
135	0xbe38863e	-0.1801996
136	0x3dc1a080	0.09454441
137	0xbd727dfb	-0.059202176
138	0xbea4c928	-0.3218472
139	0x3edc2d36	0.43003243
140	0xbd9db067	-0.07699662
141	0x3e2607ee	0.16213962
142	0xbeb73376	-0.3578145
143	0xbe91220f	-0.28346297
144	0xbeae0236	-0.33986062
145	0x3e479cea	0.19493452
146	0xbeb41fa0	-0.35180378
147	0x3e3770f4	0.17914182
148	0x3e71684b	0.23574941
149	0xbdcce475	-0.10004512
150	0x3e078492	0.13234165
151	0xbe88cab9	-0.26717165
152	0x3e0cb651	0.13741423
153	0x3e53cc34	0.20683366
154	0xbd093d77	-0.033505883
155	0xbe989808	-0.2980349
156	0xbea9125c	-0.3302182
157	0xbda0f8ed	-0.07859979
158	0x3e112153	0.14172868
159	0x3d4d62a9	0.050142918

emb_net.v_lin0.bias f4 [32]
0	0x3df0acc2	0.11751701
1	0xbe428e47	-0.18999587
2	0x3e85aa19	0.26106337
3	0xbe5ec8a7	-0.2175623
4	0xbeb7283c	-0.35772884
5	0x3e73158a	0.23738685
6	0xbcc07a9b	-0.023495963
7	0x3dbb6f6f	0.09152114
8	0xbd0ecc5d	-0.034862865
9	0x3df9878f	0.12184059
10	0xbea257a9	-0.31707504
11	0x3e883761	0.2660475
12	0xbea119ec	-0.3146509
13	0x3e619274	0.22028524
14	0x3e06cec5	0.13164814
15	0xbe8988f4	-0.268623
16	0xbe20e44d	-0.1571209
17	0xbe004386	-0.12525758
18	0xbe9ba405	-0.30398574
19	0x3e858d5a	0.26084405
20	0x3cf6c7e1	0.030124607
21	0xbea8f20a	-0.3299716
22	0xbdef21c4	-0.11676362
23	0x3eac4b5f	0.33651254
24	0x3ea34158	0.3188579
25	0x3d41ea2a	0.047342457
26	0x3ed3b088	0.4134562
27	0xbe3a93ee	-0.18220493
28	0xbe8bdf26	-0.27318686
29	0x3e12726f	0.14301465
30	0x3e0d58b9	0.13803376
31	0xbe0d37db	-0.13790838

emb_net.v_lins1.0.weight f4 [32, 32]
0	0xbe101b62	-0.14072946
1	0x3e2fa339	0.17152108
2	0x3e2a7a1d	0.16648145
3	0xbda02dc5	-0.0782123
4	0x3d7a07ef	0.061042722
5	0x3cd2569a	0.02567606
6	0xba0bf84e	-0.00053394295
7	0xbdd1526b	-0.10220798
8	0xb9a8e557	-0.00032214329
9	0x3e02e8eb	0.12784164
10	0xbdc29db8	-0.09502739
11	0xbd0504f8	-0.03247544
12	0x3dbbbf1b	0.0916731
13	0x3e0dcb55	0.13847096
14	0x3e21a3d5	0.15785153
15	0x3d1fdf5f	0.039031383
16	0xbe12915e	-0.14313266
17	0x3e222f38	0.15838325
18	0xbe03c711	-0.12868907
19	0xbdd440e7	-0.10363942
20	0x3a5f3b66	0.0008515626
21	0xbe074ba0	-0.13212442
22	0xbe27175a	-0.16317502
23	0xbd96b198	-0.07358092
24	0x3d7ec47c	0.0621991
25	0xbe085aa4	-0.13315827
26	0xbe27b914	-0.16379195
27	0x3dbb2d00	0.091394424
28	0x3d52eeea	0.051497377
29	0xbdc99ca0	-0.09844327
30	0xbdadd27d	-0.08487413
31	0xbe01d49a	-0.12678757
32	0x3dc233f8	0.094825685
33	0x3c9363e4	0.017991967
34	0xbe13f21f	-0.1444783
35	0x3c940fe5	0.018073985
36	0x3df19fd0	0.1179806
37	0xbcd1c5e0	-0.02560705
38	0xbd9e2102	-0.077211395
39	0xbde624a5	-0.11237458
40	0xbc036461	-0.008019538
41	0xbd955b4f	-0.07292806
42	0x3d575788	0.05257371
43	0xbd4ac21e	-0.04950153
44	0xbe049d12	-0.12950543
45	0x3df0e39a	0.117621616
46	0xbe0c0ec9	-0.13677515
47	0xbe15774a	-0.14596286
48	0xbe0fc5ac	-0.1404025
49	0x3dbf00ad	0.09326301
50	0x3c07c783	0.008287313
51	0x3dd901f3	0.10596075
52	0x3e064a0a	0.13114181
53	0x3d30e142	0.043183573
54	0xbe35ccac	-0.17753857
55	0x3c388941	0.011263193
56	0xbdef100e	-0.11672984
57	0xbd8571d9	-0.06515855
58	0xbc4297e1	-0.011877031
59	0x3e353f07	0.17699824
60	0xbd994e2a	-0.07485612
61	0x3d669e9a	0.056303598
62	0x3ba55ac3	0.00504622
63	0x3d39c3bf	0.045352694
64	0x3db6a9f7	0.08919137
65	0xbd55b603	-0.052175533
66	0xbd13579f	-0.035972234
67	0xbe219577	-0.15779673
68	0x3def674f	0.116896264
69	0x3d0e95ba	0.03481076
70	0x3d8cc087	0.06872659
71	0xbda8894d	-0.08229313
72	0xbe1a4d95	-0.15068658
73	0xbd911f10	-0.07086003
74	0x3e27feed	0.1640584
75	0x3d86a65f	0.065747015
76	0xbc313d8a	-0.010817895
77	0x3e1e22f1	0.15443017
78	0x3d350d5e	0.0442022
79	0xbceda0a9	-0.029007273
80	0x3d8d21bc	0.068912
81	0x3e2d8545	0.1694537
82	0xbda3c9e0	-0.07997489
83	0xbd78d0e3	-0.060746085
84	0xbe1c6124	-0.15271431
85	0x3e03575f	0.12826298
86	0x3cca1769	0.024669366
87	0xbd109c4e	-0.035305314
88	0xbcfab741	-0.03060496
89	0xbe368112	-0.17822674
90	0x3ce7b850	0.02828613
91	0x3c8a1417	0.016855283
92	0x3db917c4	0.09037736
93	0xbdb3215b	-0.087465964
94	0x3e273308	0.1632806
95	0x3e2eca62	0.1706939
96	0x3da24544	0.079233676
97	0xbe13852e	-0.14406273
98	0x3dbd914f	0.09256231
99	0xbda6fb90	-0.081534505
100	0xbe2de67c	-0.16982454
101	0xbd015a1b	-0.031580072
102	0xbe337953	-0.1752675
103	0x3e0df811	0.13864161
104	0xbb8d5a5f	-0.0043137516
105	0x3e04b37c	0.12959093
106	0xbad96e71	-0.00165887
107	0x3d445b78	0.047938794
108	0x3cab6c2c	0.020925604
109	0xbded083a	-0.11573835
110	0x3d07d4dd	0.033161987
111	0xbd8dc09a	-0.069215015
112	0x3e22f972	0.15915468
113	0x3d830a41	0.0639844
114	0xbda21205	-0.07913593
115	0x3e1a4666	0.15065917
116	0xbe3f9580	-0.18709373
117	0x3dc26322	0.09491564
118	0xbd259044	-0.040420786
119	0x3b94eeee	0.004545084
120	0x3e45f4fa	0.19331732
121	0xbdace8fa	-0.08442874
122	0xbdc5649b	-0.096383296
123	0xbe0e97ca	-0.1392509
124	0x3df0ab36	0.11751406
125	0xbda27d14	-0.07934013
126	0xbcf7831b	-0.030213883
127	0xbd8f79f4	-0.070056826
128	0xbb82f560	-0.003996536
129	0x3d629dd6	0.055326305
130	0x3c893be5	0.016752193
131	0x3dae624c	0.085148424
132	0x3e0096fb	0.12557594
133	0xbdc04c56	-0.0938956
134	0x3e0947fc	0.13406366
135	0x3d6611b9	0.056169245
136	0xbddb6154	-0.10711923
137	0x3c8b9c36	0.01704226
138	0xbddda95f	-0.108233206
139	0xbda5fb8a	-0.08104618
140	0x3cd5dc70	0.02610609
141	0x3e15c453	0.14625673
142	0xbdee53fe	-0.11637114
143	0x3db41c9f	0.087945215
144	0xbd3aeb9e	-0.04563486
145	0x3daf920a	0.085727766
146	0xbdefd394	-0.11710277
147	0xbe092af6	-0.13395295
148	0x3dc88e42	0.097927585
149	0x3d7b6071	0.06137127
150	0x3c04e4b5	0.008111169
151	0xbe11c499	-0.14235152
152	0xbe2cbbb3	-0.16868477
153	0xbc35cf56	-0.011096796
154	0xbd8777d2	-0.06614651
155	0x3ce06a6e	0.0273945
156	0x3d771ce2	0.06033028
157	0x3d5986cd	0.05310707
158	0xbdc78f7f	-0.097441666
159	0x3e0e317b	0.13886063
160	0xbdc38f88	-0.09548861
161	0xbd547272	-0.051866956
162	0xbe2e8460	-0.17042685
163	0x3e16e9ba	0.14737597
164	0xbe23ba63	-0.1598907
165	0x3e273633	0.16329269
166	0x3b97d516	0.004633556
167	0x3dd35709	0.10319335
168	0x3e341adb	0.1758837
169	0xbe4663d5	-0.1937402
170	0x39c6edf5	0.00037942795
171	0x3e0245a4	0.12721878
172	0x3dd78d03	0.10524943
173	0xbc47f202	-0.012203695
174	0x3e0ef158	0.13959253
175	0xbd1fd32e	-0.039019756
176	0x3db2c418	0.08728808
177	0xbd5e3b7a	-0.05425594
178	0xbe3b09fe	-0.1826553
179	0xbe33bae1	-0.17551757
180	0xbde0d975	-0.10978977
181	0x3cfac704	0.030612476
182	0xbdd3beb0	-0.10339105
183	0xbe1a4936	-0.1506699
184	0xbdcaccf5	-0.09902374
185	0xbddb71a5	-0.10715035
186	0x3deff67d	0.11716936
187	0x3e187c4b	0.14891164
188	0xbd07bdda	-0.03314004
189	0x3d837af2	0.06419934
190	0xbd95e864	-0.073197156
191	0x3d3fca0a	0.04682354
192	0x3e30cec1	0.1726637
193	0x3e349c37	0.17637716
194	0x3c4e16e0	0.012578696
195	0xbd94e6cb	-0.07270583
196	0xbd389099	-0.045059774
197	0x3dec758a	0.11545856
198	0x3e2a3904	0.16623312
199	0x3d9b8154	0.07593027
200	0x3d71339a	0.0588871
201	0x3dfd2588	0.12360674
202	0xbdfe2150	-0.124086976
203	0xbd75e2f7	-0.060030904
204	0x3cf1af93	0.029502666
205	0x3d33cac1	0.043894533
206	0x3d21a408	0.039463073
207	0x3d235d49	0.039883886
208	0x3da2c8e6	0.079484746
209	0x3e11e49e	0.14247367
210	0x3d6c069b	0.057623487
211	0xbe306d21	-0.1722913
212	0x3dcb8454	0.09937349
213	0x3d9da62f	0.07697713
214	0x3e0d7db6	0.13817486
215	0x3d8a5523	0.0675452
216	0x3e1297d1	0.14315726
217	0xbe3b90c0	-0.18316936
218	0xbdc0dea5	-0.09417466
219	0x3dd739fe	0.10509108
220	0xbdb6b948	-0.08922058
221	0x3e0334cb	0.12813108
222	0xbdc454e9	-0.09586508
223	0x3db38d65	0.08767203
224	0x3d0a04db	0.033696037
225	0xbe3832d3	-0.17988138
226	0x3e231270	0.15925002
227	0xbd8cef6b	-0.06881603
228	0x3dd96a14	0.10615936
229	0x3e1744ed	0.14772387
230	0x3d4f338d	0.050586272
231	0xbe0a4f5a	-0.13506833
232	0xbdf04568	-0.11731988
233	0xbd036b6a	-0.03208486
234	0xbd9ed5be	-0.07755612
235	0xbcd327c8	-0.025775805
236	0x3cac82fd	0.021058554
237	0x3d7eb244	0.062181726
238	0xbdb6180b	-0.088913046
239	0xbdc82c2d	-0.09774051
240	0xbe2f3623	-0.17110495
241	0xbe048832	-0.1294258
242	0xbd323af6	-0.04351326
243	0xbd0f9afc	-0.035059914
244	0x3e4701d0	0.19434285
245	0xbe36ab7c	-0.17838854
246	0xbc20fd8a	-0.009826073
247	0xbcd3681a	-0.025806475
248	0xbcf43877	-0.02981208
249	0xbd38edcb	-0.045148652
250	0x3dabcb31	0.08388365
251	0x3e2bd129	0.16779007
252	0xbdb21cfa	-0.08696933
253	0x3d9d09b3	0.076678656
254	0xbe11a2c8	-0.14222252
255	0x3de6ec44	0.11275533

emb_net.v_lins1.0.bias f4 [32]
0	0x3db0a03a	0.08624311
1	0x3d397cf5	0.045285184
2	0xbd213446	-0.039356492
3	0xbe38459f	-0.17995308
4	0x3e0bfcf5	0.13670714
5	0xbdc172d5	-0.094457306
6	0x3e119da5	0.14220293
7	0xbe2d0d24	-0.16899544
8	0xbe1c2346	-0.15247831
9	0x3dc71f27	0.09722739
10	0xbdf361ec	-0.118839115
11	0xbe3e78fd	-0.18600841
12	0x3dfd7a08	0.12376791
13	0xbcc3c6fe	-0.023898598
14	0x3d9c7305	0.07639126
15	0x3daaaddd	0.08333943
16	0xbc23f854	-0.0100079365
17	0xbe21a9d6	-0.15787444
18	0xbdf9fb9b	-0.12206193
19	0x3c17d3f2	0.00926684
20	0x3cebb8a5	0.028774569
21	0xbd22e911	-0.03977305
22	0xbe02fcd4	-0.12791759
23	0xbce84233	-0.028351879
24	0x3d1e5ee2	0.038664706
25	0x3cf01389	0.02930619
26	0x3e1c38eb	0.15256087
27	0x3e1884cf	0.14894412
28	0x3dfc7e04	0.12328723
29	0x3e032738	0.1280793
30	0xbd5e40bd	-0.054260958
31	0xbd85a517	-0.06525629

emb_net.v_lins1.1.weight f4 [32, 32]
0	0xbe147d4d	-0.14500923
1	0xbddc3c11	-0.10753644
2	0x3bed2cfd	0.007238029
3	0xbdaac49f	-0.08338284
4	0xbda77ce4	-0.08178118
5	0xbb3b84cc	-0.0028613089
6	0xbc203f01	-0.009780646
7	0xbcf21834	-0.029552557
8	0xbc1568a7	-0.009119189
9	0xbcee2463	-0.029070085
10	0xbcfb34bf	-0.0306648
11	0x3d5f0d37	0.054455962
12	0x3db25c39	0.08708996
13	0xbd8893d2	-0.066688195
14	0xbdb91575	-0.09037296
15	0x3d066d4a	0.03281907
16	0x3ca35ffc	0.01994323
17	0xbdc3e3d8	-0.09564942
18	0x3c1cff08	0.009582289
19	0xbca9e6fa	-0.020740021
20	0xbddd0187	-0.10791307
21	0xbc03b51c	-0.008038785
22	0x3e265a85	0.16245468
23	0x3db34ce0	0.08754897
24	0xbd9e5c71	-0.077324755
25	0xbd70b962	-0.058770545
26	0xbe1fb053	-0.15594606
27	0xbe028b81	-0.12748529
28	0x3e2c1ee0	0.16808653
29	0x3e17ed0b	0.14836518
30	0xbe24d519	-0.16096915
31	0xbe0f6795	-0.14004357
32	0xbe258ad8	-0.16166246
33	0xb9f9b7a1	-0.00047629795
34	0x3e1dd2fd	0.15412517
35	0xbd90d72b	-0.0707229
36	0x3dc9f608	0.0986138
37	0xbe0c2eef	-0.13689779
38	0xbcf8ecc6	-0.03038634
39	0x3de8dc22	0.11370112
40	0xbe052470	-0.13002181
41	0x3e2ddd77	0.16979013
42	0x3d67118a	0.05641321
43	0x3dc32364	0.095282346
44	0xbcfdaaf7	-0.030965311
45	0x3d1e4c72	0.038647123
46	0xbe40b7ec	-0.1882016
47	0x3e01a5b8	0.12660873
48	0x3d392caf	0.04520863
49	0xbba78676	-0.0051124645
50	0x3e27dfd5	0.16393979
51	0x3e2bd2c2	0.16779616
52	0x3d23cdf9	0.039991353
53	0xbd0c9e51	-0.03433067
54	0x3e14b2cd	0.14521332
55	0xbd2122a2	-0.03933967
56	0xbe2f9777	-0.17147623
57	0xbcad8b95	-0.021184722
58	0x3c91f30b	0.017816087
59	0x3c040e44	0.008060042
60	0x3d870407	0.06592565
61	0x3e25c6af	0.16189073
62	0xbe038707	-0.12844478
63	0x3d386083	0.045013916
64	0x3ce96db7	0.028494699
65	0xbe12f384	-0.14350706
66	0xbd39bc19	-0.0453454
67	0xbdd8f17e	-0.10592936
68	0x3d9f3da3	0.07775428
69	0x3d4de39a	0.050265886
70	0xbdb0633d	-0.08612678
71	0xbddc8386	-0.107672736
72	0xbc8420a3	-0.016128844
73	0x3d76d8be	0.060265295
74	0xbdc5cdb6	-0.09658377
75	0xbc611f2d	-0.013740343
76	0x3e04e41f	0.12977646
77	0xbd9ec123	-0.07751682
78	0x3df1edc5	0.11812929
79	0x3d720310	0.059084952
80	0xbde8ed82	-0.11373426
81	0x3e055f2f	0.13024591
82	0xbe412612	-0.18862179
83	0x3def1a93	0.116749905
84	0xbe1c53e6	-0.1526638
85	0x3da365bd	0.079783894
86	0x3c81272c	0.015765749
87	0x3d6b9190	0.057511866
88	0x3dd41ba7	0.10356837
89	0x3c59fbaa	0.01330463
90	0xbd4fdc16	-0.050747
91	0x3e020177	0.12695871
92	0x3d3f2665	0.046667475
93	0xbd8e6c1a	-0.069542125
94	0x3e0a014d	0.13477059
95	0xbddfe8ec	-0.10933098
96	0xbbf78b2c	-0.0075544324
97	0x3d8a08cf	0.06739961
98	0x3e06a9e8	0.13150752
99	0x3e13ff18	0.1445278
100	0x3de1c7ac	0.110244125
101	0xbdc4e777	-0.09614461
102	0xbe0215ca	-0.12703624
103	0x3dc73c5e	0.09728311
104	0xbdba36f9	-0.090925165
105	0xbbd9fad1	-0.006652214
106	0xbd843f5f	-0.064573996
107	0xbdc5ed73	-0.096644305
108	0x3e10ebd1	0.14152457
109	0xbd80929c	-0.062779635
110	0x3d5a10f7	0.053238835
111	0x3d4e4654	0.05036004
112	0xbc3b9f02	-0.011451485
113	0xbda0d09d	-0.0785229
114	0x3e179228	0.14801848
115	0x3de10b97	0.10988539
116	0x3e170922	0.14749578
117	0xbd933b02	-0.07188989
118	0xbd24cf91	-0.040237013
119	0xbdce0a9e	-0.10060619
120	0xbdfbed02	-0.12301065
121	0x3c386bf8	0.0112562105
122	0xbd922729	-0.071363755
123	0x3dc07f33	0.09399261
124	0xbe29986e	-0.16562054
125	0x3dda3cd1	0.10656131
126	0x3d95a47b	0.07306763
127	0xbcf674f0	-0.030085057
128	0xbe21840c	-0.15773028
129	0x3d345e7d	0.044035424
130	0x3e1530f3	0.14569454
131	0xbd314cdf	-0.0432862
132	0xbdab5de2	-0.08367516
133	0xbd883412	-0.066505566
134	0x3cf5f31d	0.030023152
135	0xbe315f58	-0.17321527
136	0x3dd9e35c	0.106390685
137	0xbe1b7cc3	-0.15184312
138	0x3a944221	0.0011311212
139	0x3c7d084c	0.015443873
140	0xbe2ef092	-0.17083958
141	0x3d8073a7	0.06272059
142	0xbdeceaa7	-0.11568194
143	0x3e04d4f7	0.12971865
144	0xbc735f35	-0.014854242
145	0xbdc7eff6	-0.09762566
146	0xbd79bb40	-0.06096959
147	0x3def8836	0.11695902
148	0xbcc22247	-0.023697985
149	0xbdb07b21	-0.08617235
150	0xbde8f381	-0.1137457
151	0xbe1d5088	-0.15362751
152	0x3d92dd15	0.07171074
153	0x3c612893	0.013742584
154	0x3e07f342	0.13276389
155	0x3cc6981f	0.024242459
156	0xbc7df09e	-0.015499262
157	0x3dcd9fc9	0.10040242
158	0xbd2732c6	-0.040819906
159	0x3c14a85b	0.009073342
160	0xbe00749b	-0.12544481
161	0x3d54b194	0.051927164
162	0x3e2ac55c	0.16676849
163	0xbd8dedf2	-0.0693015
164	0xbd228fe9	-0.039688025
165	0xbd888c95	-0.06667439
166	0x3c85ceee	0.016334023
167	0xbe0872d0	-0.13325047
168	0xbe008ebb	-0.12554447
169	0xbe036a6d	-0.12833567
170	0xbdd2b50d	-0.10288439
171	0xbde28229	-0.11059982
172	0xbcb6964a	-0.02228846
173	0xbc2c75f9	-0.010526174
174	0x3e1b02a1	0.15137722
175	0x3e19db3c	0.15025038
176	0x3e23031f	0.1591916
177	0x3d525c21	0.051357392
178	0xbd976b59	-0.07393522
179	0xbe37669c	-0.17910236
180	0x3cf8f1b5	0.030388692
181	0xbde2c06b	-0.11071857
182	0x3d81c2f8	0.063360155
183	0xbe23e953	-0.16006975
184	0xbc59a9c3	-0.013285103
185	0xbe15f3b8	-0.14643753
186	0xbda1ca67	-0.07899933
187	0x3db62431	0.08893622
188	0x3dbe69d0	0.09297526
189	0xbde8c1f1	-0.113651164
190	0x3e2b73ea	0.16743436
191	0x3df0b822	0.117538705
192	0x3e302b8f	0.17204116
193	0x3a9ec47f	0.0012113004
194	0xbe26bc8b	-0.16282861
195	0x3dcd767e	0.10032366
196	0xbe0b1eca	-0.13585964
197	0xbe1d7c78	-0.15379512
198	0x3d091566	0.033467673
199	0xbdac6eeb	-0.084195934
200	0xbd659cbe	-0.056057684
201	0xbd86413d	-0.06555412
202	0xbd527662	-0.05138243
203	0xbddc63ee	-0.107612476
204	0xbdfbf5fb	-0.123027764
205	0xbc54fdf1	-0.0129999975
206	0x3ce257da	0.027629782
207	0x3cafbeb9	0.021453248
208	0xbd5d9052	-0.054092713
209	0x3b4e7b35	0.0031506543
210	0xbde32226	-0.11090498
211	0xbccab24b	-0.02474322
212	0x3db1ff86	0.08691315
213	0x3d36a11d	0.044587243
214	0xbdd2e4f9	-0.10297579
215	0xbda6089d	-0.081071116
216	0x3d7eb9d6	0.062188946
217	0xbe0cb0a2	-0.13739255
218	0x3d664e3e	0.05622696
219	0x3caef85c	0.021358661
220	0xbe2055b5	-0.15657695
221	0x3d4e8bf2	0.05042643
222	0x3e364170	0.177984
223	0x3d91cc67	0.07119065
224	0xbc63147d	-0.013859865
225	0x3c60f3b2	0.0137299765
226	0xbdd429ed	-0.10359559
227	0x3cd31b90	0.025769979
228	0xbcacd5e0	-0.021098077
229	0x3db59d1b	0.08867856
230	0x3d508bda	0.050914623
231	0xbde77c22	-0.11302973
232	0xbad031b3	-0.0015883952
233	0xbd47fe52	-0.048826523
234	0xbe236366	-0.15955886
235	0xbd048fac	-0.03236358
236	0x3ba49c62	0.005023525
237	0x3d3032ce	0.0430172
238	0x3db47115	0.08810631
239	0x3c0e1ef0	0.008674368
240	0x3c7683ca	0.015046069
241	0xbcf2adf6	-0.029623967
242	0xbd7b0366	-0.061282538
243	0xbc052ba5	-0.008128081
244	0xbd7d54de	-0.061848514
245	0xbd1b218d	-0.037873793
246	0x3d5d547e	0.054035656
247	0xbd647eec	-0.055785105
248	0x3df74b55	0.12074915
249	0x3e3b81c9	0.18311228
250	0x3df704fc	0.120614976
251	0xbd6b8b24	-0.05750574
252	0x3bc74d82	0.0060822377
253	0x3c6cc215	0.01445057
254	0xbd6e92d8	-0.05824551
255	0xbe116a9b	-0.14200823

emb_net.v_lins1.1.bias f4 [32]
0	0x3df4a77a	0.11946006
1	0x3a81cc68	0.0009902837
2	0x3d9a57ac	0.07536253
3	0xbda0be7f	-0.07848834
4	0xbd699fc7	-0.05703714
5	0x3c62e768	0.013849117
6	0x3cbf3be0	0.02334398
7	0x3d85c90b	0.065324865
8	0x3dfa3449	0.12217004
9	0x3de774a0	0.11301541
10	0x3e0bcf83	0.13653378
11	0x3df61446	0.120155856
12	0xbdad789b	-0.08470269
13	0x3d8e4b2f	0.06947934
14	0x3d08cd51	0.03339893
15	0x3d79fd49	0.061032567
16	0x3d16ab8a	0.036784686
17	0x3c8018c5	0.015636811
18	0x3e161013	0.1465457
19	0x3ca46989	0.020069854
20	0x3e215631	0.15755536
21	0xbd218f09	-0.03944305
22	0xbe1c7a2f	-0.15280984
23	0x3e077c0b	0.13230912
24	0x3d5009fd	0.050790776
25	0x3dddbb8d	0.10826788
26	0xbd808c5a	-0.0627677
27	0xbe12dd52	-0.1434224
28	0x3dddbf0f	0.10827457
29	0x3d9cb6ea	0.076520756
30	0xbdcafcc1	-0.0991149
31	0xbd309640	-0.04311204

emb_net.v_lins1.2.weight f4 [32, 32]
0	0x3dfd66ee	0.12373148
1	0xbbe023c1	-0.0068401997
2	0xbcfd9768	-0.030955985
3	0x3dc6c1a1	0.097049005
4	0xbe24d237	-0.16095816
5	0xbd3801d4	-0.04492362
6	0xbe29647b	-0.16542237
7	0xbc9f0ac4	-0.019414313
8	0x3e2ad8ac	0.16684216
9	0xbd17f46d	-0.037098337
10	0x3d728681	0.059210304
11	0x3da9ae6d	0.08285222
12	0x3cb851db	0.02249997
13	0xbd5b4281	-0.05353022
14	0xbd1dad7b	-0.038495522
15	0x3c321b01	0.010870696
16	0x3e0ab851	0.13546874
17	0x3d909668	0.07059938
18	0x3e1a4194	0.15064079
19	0xbe0b56a3	-0.13607268
20	0xbbd78f84	-0.0065783877
21	0xbd4793e7	-0.048725035
22	0xbd7c6a1b	-0.061624628
23	0xbd875685	-0.06608299
24	0xbe1794e6	-0.14802894
25	0x3c68fdb8	0.0142206475
26	0x3c270d5e	0.010196058
27	0x3ddc361c	0.10752508
28	0xbe0ed302	-0.1394768
29	0x3e12647c	0.14296144
30	0xbe1b43d0	-0.15162587
31	0x3e10f150	0.14154553
32	0x3e2566d9	0.16152515
33	0xbe62bd63	-0.22142558
34	0xbe288e30	-0.1646049
35	0x3d52fe11	0.051511828
36	0xbdeecdff	-0.116603844
37	0xbd69abb8	-0.05704853
38	0x3dde6ecf	0.10860979
39	0xbd94bbe1	-0.072623976
40	0x3d759e28	0.059965283
41	0xbe192266	-0.14954528
42	0xbd3743a5	-0.044742245
43	0x3d4f020a	0.050539054
44	0xbde490bf	-0.111604206
45	0x3e23f179	0.16010083
46	0xbddeda42	-0.10881473
47	0x3dfba27c	0.12286851
48	0x3d4d607a	0.050140835
49	0x3e1cda49	0.15317644
50	0x3dcb86b6	0.099378034
51	0xbdeee613	-0.11664977
52	0xbd9029ec	-0.07039246
53	0xbdb28e39	-0.08718533
54	0xbdb1392d	-0.086534835
55	0x3e172155	0.14758809
56	0x3caebd82	0.021330599
57	0xbe08a4ef	-0.13344167
58	0xbccc9c88	-0.024976984
59	0xbe4333c4	-0.19062716
60	0x3c51cb35	0.012804796
61	0x3c022173	0.007942545
62	0xbe0ce564	-0.1375938
63	0x3d619cfd	0.055081356
64	0x3b10b977	0.0022083202
65	0x3e06bb17	0.13157307
66	0xbe352919	-0.17691459
67	0x3d9bd4c7	0.076089434
68	0xbd0696c5	-0.03285863
69	0xbd12ea92	-0.035868235
70	0x3e1c13c1	0.1524191
71	0xbe252517	-0.1612743
72	0xbdc70d3c	-0.09719321
73	0xbc9408ca	-0.018070597
74	0xbd349a26	-0.04409232
75	0xbdb6ff7f	-0.08935451
76	0xbd9a3f65	-0.07531623
77	0xbdcd1a2f	-0.1001476
78	0xbe262690	-0.16225648
79	0xbd636edd	-0.05552565
80	0xbd81a327	-0.06329947
81	0xbe20b8d6	-0.1569551
82	0xbda1e8fb	-0.079057656
83	0x3e05e8f2	0.13077143
84	0x3be471de	0.006971582
85	0x3e195873	0.14975147
86	0xbe257966	-0.16159591
87	0xbdf85530	-0.12125623
88	0x3d97c38b	0.07410344
89	0xbd22d937	-0.039757933
90	0xbcadac49	-0.021200316
91	0xbd1c75cc	-0.038198277
92	0xbc721e2e	-0.014777703
93	0x3dba6d96	0.09102933
94	0xbdeeb290	-0.11655152
95	0xbe08416f	-0.13306211
96	0x3e2a3158	0.16620386
97	0xbb4eb244	-0.003153936
98	0xbe2f1323	-0.17097144
99	0xbd706b03	-0.058695804
100	0x3df67f5d	0.12036011
101	0x3db7715d	0.08957169
102	0x3dbd5ef7	0.09246629
103	0x3c104409	0.008805283
104	0xbde3a85a	-0.11116095
105	0xbdd800e7	-0.10547047
106	0xbe1c3729	-0.15255417
107	0xbc1b8a21	-0.009493382
108	0xbc3303fe	-0.010926245
109	0xbda7172c	-0.081587166
110	0x3c5b74bc	0.013394531
111	0x3e0d82e9	0.1381947
112	0xbdd20fc2	-0.10256912
113	0x3e1cec2b	0.15324466
114	0x3da1b5ab	0.078959785
115	0xbe3a2042	-0.18176368
116	0xbd800616	-0.06251161
117	0x3e027497	0.12739788
118	0x3d9b38cb	0.07579192
119	0xbdadf4a1	-0.08493925
120	0xbdf209b7	-0.11818259
121	0x3d2f3769	0.042777453
122	0x3dad5571	0.08463562
123	0xbbeed46a	-0.0072885053
124	0x3d15c562	0.036565192
125	0x3df25697	0.11832922
126	0x3dab0c3a	0.083519414
127	0xbd634f6a	-0.055495657
128	0xbdf7425c	-0.12073204
129	0xbdfbb02f	-0.12289464
130	0x3db14ce3	0.08657243
131	0x3c67c573	0.014146197
132	0x3d9d683a	0.07685895
133	0x3e134994	0.14383537
134	0x3dd72fd6	0.10507171
135	0x3d59dea4	0.053190842
136	0x3e2462af	0.1605327
137	0x386da9f7	5.6663495e-05
138	0x3e430170	0.19043517
139	0xbddd395f	-0.10801958
140	0x3dd7b5af	0.105327
141	0xbe27f46f	-0.16401838
142	0xbd55b77f	-0.05217695
143	0x3d8da5ce	0.0691639
144	0x3e063c29	0.13108887
145	0x3cc949b1	0.024571272
146	0x3e3795d8	0.17928255
147	0xbd0efa57	-0.03490671
148	0x3d85bd52	0.065302506
149	0xbe0fe209	-0.1405107
150	0x3e19e36f	0.15028165
151	0x3d5941a8	0.05304113
152	0x3db7184e	0.089401826
153	0xbd90975a	-0.07060118
154	0xbd360deb	-0.044446867
155	0xbe3a5d5b	-0.18199675
156	0xbd000174	-0.031251386
157	0x3cb9bbbd	0.022672528
158	0x3daa81ce	0.083255395
159	0xbc410152	-0.0117801
160	0x3da26500	0.079294205
161	0x3dad06a7	0.084485345
162	0xbe224b50	-0.15849042
163	0x3da01c4d	0.07817898
164	0x3d76eea3	0.060286175
165	0xbe1dd46d	-0.15413065
166	0x3df61354	0.12015405
167	0x3e0bce73	0.13652973
168	0x3d1f95b1	0.038961116
169	0x3df126ae	0.11774956
170	0xbe0fef34	-0.14056093
171	0xbce08d1d	-0.027411038
172	0xbd992f0b	-0.07479676
173	0xbe2fe184	-0.17175871
174	0x3e311ae2	0.17295411
175	0x3df19efc	0.11797902
176	0xbd84c557	-0.06482952
177	0xbc604294	-0.013687748
178	0x3e216f11	0.15765025
179	0xbc459f93	-0.012061971
180	0x3e2d37ff	0.16915892
181	0x3dda0045	0.10644583
182	0x3ddbdcad	0.1073545
183	0x3b726bbc	0.0036990484
184	0xbd295b29	-0.041346703
185	0x3db9571d	0.09049819
186	0x3d35c291	0.044375006
187	0x3e134416	0.14381441
188	0xbdcd171e	-0.10014175
189	0xbdc732d9	-0.09726495
190	0xbdabc108	-0.08386427
191	0xbd29a998	-0.041421503
192	0xbdb55882	-0.08854772
193	0x3cb2c305	0.021821508
194	0x3dc59866	0.09648208
195	0x3df04d28	0.117334664
196	0x3c6f05f0	0.014588818
197	0x3e0c673b	0.13711254
198	0x3d9cb07b	0.076508485
199	0xbdb504a7	-0.08838778
200	0xbc9f7221	-0.0194636
201	0xbc7ea694	-0.015542645
202	0x3e1388b9	0.14407624
203	0x3debc33e	0.11511849
204	0xbd9bd4f2	-0.076089755
205	0x3de4c528	0.11170417
206	0x3d34ae87	0.044111755
207	0xbe14c446	-0.14527997
208	0x3da86469	0.08222277
209	0xbe028344	-0.12745386
210	0x3e129742	0.14315513
211	0x3d0a7169	0.033799563
212	0x3d9b9a7a	0.075978234
213	0xbe1220a3	-0.14270262
214	0x3e06f9e9	0.1318127
215	0x3d9d5a0f	0.07683193
216	0x3d7d9e73	0.061918687
217	0x3e3905c9	0.18068613
218	0xbdf98670	-0.12183845
219	0xbdb0b564	-0.086283475
220	0xbd68ea28	-0.056863934
221	0x3dd0a417	0.10187548
222	0x3dbb8f73	0.0915822
223	0x3d2edc6d	0.042690683
224	0x3d9f7294	0.07785526
225	0xbde76804	-0.11299136
226	0xbcd484fa	-0.025942314
227	0x3e24b88b	0.16086023
228	0x3d9e78ad	0.07737861
229	0xbd3741ad	-0.044740368
230	0x3d3f57b7	0.04671451
231	0xbdad24af	-0.084542625
232	0xbd377374	-0.04478784
233	0xbd7fcec0	-0.06245303
234	0x3e0fc676	0.1404055
235	0xbe177661	-0.14791252
236	0x3d0ffc88	0.035152942
237	0x3ce4deac	0.02793821
238	0x3d71900d	0.05897527
239	0xbdc4ffbb	-0.09619089
240	0x3d71bea3	0.059019696
241	0xbe2693c2	-0.16267303
242	0xbd77f81b	-0.060539346
243	0x3d55d3a5	0.052203793
244	0xbd688b05	-0.056773204
245	0x3e1c4858	0.15261972
246	0xbd9bd9c9	-0.076098986
247	0x3c8a76fc	0.01690244
248	0x3e296009	0.16540541
249	0xbe279178	-0.16364086
250	0xbdcf64b5	-0.1012663
251	0x3bfff6ae	0.007811389
252	0xbe003ec6	-0.12523946
253	0x3d165557	0.03670248
254	0x3da00759	0.078139015
255	0xbd6fa5cc	-0.058507726

emb_net.v_lins1.2.bias f4 [32]
0	0xba519f92	-0.0007996495
1	0x3d8d0fb5	0.068877615
2	0xbdf2da1a	-0.11858006
3	0xbdb9e1de	-0.09076284
4	0xbd1d863c	-0.038458094
5	0x3ce1fb6c	0.027585708
6	0xbe0dd1dd	-0.13849588
7	0x3e046f98	0.12933195
8	0xbc3576ea	-0.011075715
9	0x3d06d8ce	0.032921605
10	0xbc8f879d	-0.01752072
11	0x3db23d5f	0.08703112
12	0x3ddcb8b4	0.10777417
13	0x3d98ed30	0.07467115
14	0xbe10870e	-0.1411402
15	0xbe10913a	-0.141179
16	0x3d50c7d3	0.050971817
17	0xbc016452	-0.007897453
18	0xbe2255f7	-0.15853105
19	0xbdcfca7f	-0.10146045
20	0x3e2a912c	0.16656941
21	0x3e25d10a	0.16193023
22	0x3c436349	0.011925527
23	0xbe1e3e61	-0.15453483
24	0xbdd55a95	-0.10417668
25	0xbd8324c7	-0.06403499
26	0xbce7d7a8	-0.028301075
27	0x3e2c5596	0.16829523
28	0xbdfd6b44	-0.12373975
29	0xbde44edd	-0.111478545
30	0x3e14840c	0.14503497
31	0xbe124c30	-0.14286876

emb_net.v_lins1.3.weight f4 [32, 32]
0	0xbe0b9e1f	-0.13634537
1	0x3d36c13f	0.044617888
2	0xbe507c4b	-0.20359914
3	0xbe09b41d	-0.13447614
4	0x3dda596b	0.106615864
5	0xbcb84fd0	-0.022498995
6	0xbe1c3768	-0.15255511
7	0x3cc9eb5a	0.024648357
8	0x3ccccef0	0.02500102
9	0x3dcb7721	0.099348314
10	0xbdf843a6	-0.12122278
11	0x3e1852bc	0.1487531
12	0xbdbdc50a	-0.09266098
13	0x3dd56d6f	0.104212634
14	0xbdab2eaf	-0.083585136
15	0xbe18b83f	-0.14914034
16	0xbd62cad7	-0.055369224
17	0xbd33b547	-0.04387405
18	0x3e0321fb	0.12805931
19	0xbdb2158c	-0.08695516
20	0x3d4bc304	0.04974653
21	0x3b648023	0.0034866414
22	0x3e07d1c1	0.13263609
23	0xbc31e5b2	-0.010857986
24	0x3d18f65e	0.03734433
25	0xbd3fda9a	-0.046839334
26	0x3d749cf9	0.059720013
27	0xbd60b8f4	-0.054863885
28	0xbe22e139	-0.15906228
29	0x3c9bf04e	0.019035485
30	0xbdde4e93	-0.108548306
31	0x3df57021	0.119842775
32	0x3e24a7ab	0.16079585
33	0xbd3ba59c	-0.045812234
34	0xbe0f6af5	-0.14005645
35	0x3d0d23c4	0.034457937
36	0xbe086417	-0.13319431
37	0xbe447a93	-0.19187383
38	0x3c9612ec	0.01831957
39	0xbde5025e	-0.11182092
40	0x3d4dee34	0.050275996
41	0x3dda80c1	0.10669089
42	0x3e0011fe	0.12506863
43	0x3d99f6f5	0.075178064
44	0xbcf0c81d	-0.029392296
45	0x3e1aa53d	0.15102096
46	0xbdbcecf3	-0.09224882
47	0xbd3c7cd8	-0.046017498
48	0xbcc9e1fd	-0.024643892
49	0xbe2863d3	-0.1644433
50	0xbdc8b4a7	-0.09800082
51	0x3dd5ad2b	0.1043342
52	0xbe19538e	-0.1497328
53	0xbd8a3d30	-0.06749952
54	0x3d19fb44	0.03759314
55	0xbdacbced	-0.08434472
56	0xbd0ec418	-0.03485498
57	0xbe1a782c	-0.15084904
58	0xbe419972	-0.18906191
59	0x3d947c09	0.0725022
60	0xbd9291c3	-0.07156708
61	0xbda549d9	-0.08070726
62	0x3e25cbeb	0.1619107
63	0xbbae1f03	-0.0053137555
64	0xbd93a2c3	-0.07208779
65	0x3d96713f	0.07345819
66	0x3d4b87f0	0.049690187
67	0x3de77e9f	0.11303448
68	0xbe0d455e	-0.13795993
69	0x3d1b8bf3	0.037975263
70	0x3e10254f	0.14076732
71	0x3dcb2017	0.0991823
72	0xbd476f09	-0.048689876
73	0x3dce7b14	0.10082069
74	0xbe1149ed	-0.14188357
75	0xbd924ca0	-0.07143521
76	0x3e16c09f	0.14721917
77	0x3daa79cc	0.08324012
78	0x3d41c233	0.047304343
79	0x3e0b6caf	0.13615678
80	0xbdbe77f1	-0.09300221
81	0x3e2df03f	0.16986178
82	0x3d96fa3c	0.07371947
83	0x3bfe06e1	0.007752285
84	0x3dbeb99d	0.09312747
85	0x3d8fbdf3	0.07018652
86	0xbe1d8e98	-0.15386426
87	0xbdd4b0d2	-0.10385288
88	0x3e03fccf	0.12889408
89	0xbc8c0225	-0.017090866
90	0xbdf02f8a	-0.11727817
91	0xbcfb7792	-0.030696664
92	0xbe1fa283	-0.15589337
93	0xbe04e43d	-0.12977691
94	0xbdc8f3cb	-0.09812125
95	0xbe47d7ce	-0.19515917
96	0xbc721833	-0.014776277
97	0x3d93b193	0.07211604
98	0xbe04bdfe	-0.12963101
99	0x3cf64f35	0.030067066
100	0xbdffd0b3	-0.12490978
101	0x3dffbc5e	0.124871
102	0x3d5f216e	0.05447524
103	0x3e42181b	0.18954508
104	0x3d9570c6	0.072969005
105	0x3ddc79cf	0.10765421
106	0xbdaa6923	-0.083208345
107	0xbca97e8e	-0.020690229
108	0x3d3fb0be	0.046799414
109	0xbd9eaead	-0.077481605
110	0x3db7f7f4	0.0898284
111	0xbdb00300	-0.08594322
112	0x3d55fcb6	0.052242957
113	0xbba77da7	-0.0051114145
114	0x3ced7db3	0.028990602
115	0x3dc1d18b	0.09463795
116	0x3ca28b91	0.019841941
117	0x3df82213	0.12115874
118	0xbdc44fca	-0.09585531
119	0x3b9c524f	0.004770554
120	0x3e1b6086	0.1517354
121	0x3cd154aa	0.025553066
122	0xbe31eda5	-0.1737581
123	0x3dc98578	0.0983991
124	0x3e1b3126	0.15155467
125	0xbc844f3e	-0.016151067
126	0x3d9df1e3	0.07712152
127	0x3c39020f	0.011291995
128	0x3dba232e	0.09088741
129	0xbc8bcba8	-0.017064884
130	0xbdb9b373	-0.0906743
131	0x3e0b43dd	0.13600107
132	0xbcc2a380	-0.023759604
133	0x3e33bf63	0.17553477
134	0xbd09c936	-0.033639155
135	0x3d8bc751	0.06825126
136	0x3c8871a4	0.01665575
137	0xbe2d9470	-0.16951156
138	0xbd97838d	-0.07398138
139	0x3d8f0468	0.06983262
140	0x3d849892	0.06474413
141	0xbdf7a88a	-0.12092693
142	0x3e018a7a	0.12650481
143	0xbd882d69	-0.06649286
144	0x3dd50f15	0.10403267
145	0x3cd24dbb	0.02567183
146	0x3c3457ba	0.011007244
147	0x3da86292	0.08221926
148	0xbde810a5	-0.113313
149	0xbe267461	-0.16255333
150	0x3d0f2641	0.03494859
151	0xbd1e17a5	-0.038596768
152	0x3dbc5616	0.09196107
153	0x3b3eee38	0.0029133689
154	0x3ca9c8d8	0.020725653
155	0xbace6ea9	-0.0015749532
156	0xbe30a6ce	-0.17251131
157	0xbe2dff62	-0.16991952
158	0x3d99a327	0.07501822
159	0xbbebf74e	-0.007201112
160	0xbe30472d	-0.17214651
161	0xbdcd87c8	-0.10035664
162	0xbe233261	-0.15937187
163	0x3dd768fd	0.10518072
164	0x3cc27ac3	0.023740178
165	0x3df2376c	0.11826977
166	0xbd97f75c	-0.07420227
167	0x3dc2a13b	0.095034085
168	0x3d3d9839	0.04628775
169	0xbc79d0ca	-0.015247533
170	0x3e0b7992	0.13620594
171	0x3cbd33d1	0.023095997
172	0x3d9a9ea5	0.0754979
173	0x3d7100f8	0.058838814
174	0x3ddfe184	0.109316856
175	0x3d3b9951	0.04580051
176	0x3ddfee76	0.10934155
177	0xbce6f14d	-0.028191233
178	0xbd8804af	-0.06641518
179	0xbdbb1867	-0.09135514
180	0x3d03921a	0.032121755
181	0xbc306e5a	-0.010768497
182	0xbcbcfc61	-0.023069562
183	0x3e0a15ae	0.13484833
184	0x3db6d567	0.08927422
185	0x3da62f38	0.08114475
186	0xbe27c8b7	-0.1638516
187	0xbdc02275	-0.09381572
188	0xbdaad4bf	-0.08341359
189	0xbe22c7e8	-0.1589657
190	0x3e1f5f90	0.15563798
191	0x3d4e9140	0.05043149
192	0xbdd232ad	-0.10263572
193	0x3dc41968	0.09575158
194	0xbe1ec9dc	-0.1550669
195	0x3d77e6f6	0.060522996
196	0x3ba6f2d2	0.0050948644
197	0xbd2e0286	-0.042482875
198	0xbe02c5d5	-0.1277078
199	0xbdf49166	-0.11941795
200	0xbd8d4d97	-0.06899565
201	0xbe3e3b22	-0.18577245
202	0xbd2b53bb	-0.0418279
203	0x3d1732de	0.036913745
204	0xbe2285d5	-0.15871365
205	0x3deacf23	0.114652894
206	0x3d9327f0	0.07185352
207	0xbb69bdb2	-0.0035666046
208	0x3e503eee	0.20336506
209	0xbd813f61	-0.06310917
210	0xbccc540d	-0.024942422
211	0x3da6e429	0.08148987
212	0x3d0129d5	0.031534035
213	0x3d4f49c6	0.050607465
214	0xbd97f48c	-0.074196905
215	0xbde88f33	-0.11355438
216	0x3e37bd69	0.17943348
217	0xbd6cca1e	-0.05780994
218	0xbe021c36	-0.12706074
219	0xbcc15f04	-0.023604877
220	0x3d84bf6d	0.06481824
221	0xbc5db773	-0.013532507
222	0xbdbe0048	-0.092773974
223	0xbd7bcce1	-0.061474685
224	0xbdec6e51	-0.11544479
225	0x3e05fdcf	0.13085102
226	0xbde16d77	-0.11007207
227	0xbc006e73	-0.007838833
228	0x3d792a11	0.060831133
229	0x3dcc3fcd	0.099731065
230	0xbe0f8f5e	-0.14019534
231	0xbe13d531	-0.14436795
232	0xbdc33435	-0.09531442
233	0x3d990adf	0.074727766
234	0xbe0957bd	-0.13412376
235	0x3d563f06	0.052306198
236	0xbde8b168	-0.113619626
237	0xbe2c1ffc	-0.16809076
238	0x3d18fd60	0.037351012
239	0x3d42e3f5	0.047580678
240	0x3d422258	0.047396034
241	0xbd30d6ab	-0.043173473
242	0x3e2a9327	0.16657697
243	0x3e04d52b	0.12971942
244	0xbdb50ada	-0.088399604
245	0xbd552745	-0.052039403
246	0xbd9eb1fe	-0.07748793
247	0x3d50a9b9	0.05094311
248	0xbdf91cef	-0.12163722
249	0xbdf634f7	-0.12021821
250	0xbdbf4185	-0.09338669
251	0x3e0a0c10	0.13481164
252	0xbe20f711	-0.15719248
253	0xbd2e0799	-0.042487714
254	0x3de60962	0.112322584
255	0xbe321be2	-0.17393449

emb_net.v_lins1.3.bias f4 [32]
0	0xbb80aa9f	-0.0039265896
1	0x3c03b39c	0.008038428
2	0xbddef7a7	-0.1088708
3	0x3d1a68b3	0.037697505
4	0xbd12930e	-0.035784774
5	0x3a24e6e8	0.0006290511
6	0xbcff1f73	-0.031142926
7	0x3d2a5bb3	0.041591357
8	0x3dbd96b5	0.09257261
9	0xbdb6773a	-0.089094594
10	0xbd13e8bd	-0.03611063
11	0x3b7bc10d	0.0038414628
12	0x3a71764d	0.00092110486
13	0xbe34443a	-0.17604151
14	0x3dc0de34	0.09417382
15	0x3dfa8986	0.12233262
16	0xbdd6cef2	-0.104886904
17	0xbde6cb43	-0.11269238
18	0x3d8c235f	0.06842684
19	0x3e2353e7	0.15949975
20	0x3da012e9	0.07816107
21	0xbdc84a23	-0.097797655
22	0x3d18abe8	0.037273318
23	0x3df16c17	0.117881946
24	0x3d2beafd	0.04197215
25	0xbd20b2be	-0.03923296
26	0xbd302b3e	-0.04300999
27	0x3de3d60e	0.11124812
28	0x3df3475f	0.11878847
29	0xbe31d002	-0.17364505
30	0xbd995c45	-0.07488302
31	0x3c625fd0	0.013816789

emb_net.v_lins1.4.weight f4 [32, 32]
0	0xbe05b9cf	-0.13059162
1	0xbe0a2334	-0.13489991
2	0x3cd4459e	0.025912102
3	0x3d2afd75	0.04174562
4	0x3c812c6e	0.015768256
5	0x3e1c3e09	0.1525804
6	0x3da9c6ad	0.082898475
7	0xbde02470	-0.1094445
8	0xbcd974ac	-0.026544891
9	0x3cd05a6a	0.025433738
10	0x3d5b2ecf	0.053511437
11	0xbd61ec7b	-0.055157166
12	0xbdc444f6	-0.09583466
13	0x3df1ac23	0.118004106
14	0xbc835471	-0.016031476
15	0xbca9dab3	-0.020734167
16	0xbe2229e8	-0.15836298
17	0xbe1bf99f	-0.15231942
18	0x3d82986e	0.0637673
19	0xbd20680c	-0.039161727
20	0xbe08f6c3	-0.13375382
21	0xbe3c9189	-0.18414892
22	0xbe13cd5d	-0.14433809
23	0xbe3062c9	-0.17225184
24	0xbddac138	-0.10681385
25	0x3c2106d1	0.009828285
26	0xbd311af7	-0.043238606
27	0xbd880f3a	-0.06643529
28	0xbd3adafb	-0.045618992
29	0x3d809121	0.06277681
30	0xbe1490fa	-0.14508429
31	0xbe0bb523	-0.13643317
32	0xbd70e7f4	-0.058814958
33	0x3dc4a582	0.096018806
34	0xbe0e622a	-0.13904634
35	0xbc99ca1c	-0.018773131
36	0x3c240ff4	0.010013569
37	0x3d2900e6	0.041260622
38	0xbe0d5636	-0.13802418
39	0xbdfbeb00	-0.12300682
40	0xbdb35f35	-0.08758394
41	0xbd880e9c	-0.066434115
42	0x3e03d36c	0.1287362
43	0x3dbe2c9b	0.092858516
44	0x3e397879	0.18112363
45	0x3d91eb6d	0.07124982
46	0x3c9a9da3	0.018873995
47	0x3d9cf682	0.07664205
48	0xbda8cfc6	-0.08242755
49	0x3e0e3d3c	0.13890547
50	0xbda1d1ef	-0.0790137
51	0x3d17cb88	0.037059337
52	0x3dd62dda	0.10457964
53	0xbe44f0e4	-0.19232517
54	0x3ab3565c	0.0013682353
55	0x3d957040	0.072968006
56	0xbdad0d16	-0.084497616
57	0xbde52c1b	-0.11190053
58	0xbdb97a8a	-0.090565756
59	0xbe2cefd5	-0.16888364
60	0xbd8f44bf	-0.06995534
61	0xbd821552	-0.06351723
62	0xbd1ae957	-0.037820186
63	0x3df99400	0.12186432
64	0xbd45069a	-0.048102
65	0xbadee8f8	-0.0017006686
66	0x3bd6dd7c	0.0065571647
67	0x3cb8c01f	0.022552548
68	0x3e18876b	0.14895408
69	0xbb1d804e	-0.0024032774
70	0xbdf9c1b0	-0.12195146
71	0x3dc42985	0.09578232
72	0x3d2f746d	0.04283564
73	0x3de476fe	0.111555085
74	0x3df15ed6	0.11785667
75	0x3d53f4c9	0.051747117
76	0x3d32140c	0.04347615
77	0xbc76885d	-0.01504716
78	0xbd8d29ad	-0.06892715
79	0xbcba92d3	-0.02277509
80	0x3e2364a7	0.15956365
81	0x3dfb1fcc	0.12261924
82	0xbc881ec9	-0.016616242
83	0xbde3eb74	-0.111288935
84	0x3bb9ae1a	0.0056665065
85	0x3d4eb71b	0.05046759
86	0xbe4c278d	-0.19936962
87	0xbe540ca2	-0.20707944
88	0xbd44e423	-0.04806913
89	0x3dc0257b	0.09382149
90	0xbc5beed3	-0.013423639
91	0xbdfee863	-0.12446668
92	0x3dd805bf	0.10547971
93	0xbcda4482	-0.026643995
94	0x3e13265e	0.14370105
95	0xbe2d68e9	-0.16934551
96	0x3da55e3c	0.080746144
97	0xbd07c2e3	-0.033144843
98	0xbdc2833f	-0.094976895
99	0xbe27753b	-0.16353314
100	0xbe06af1b	-0.13152735
101	0x3e158ca1	0.14604427
102	0xbd2f22d6	-0.04275783
103	0x3d872647	0.06599098
104	0xbd5562b2	-0.052096076
105	0xbd662891	-0.05619103
106	0xbdee2adb	-0.11629268
107	0x3e299ab2	0.16562918
108	0xbe038c60	-0.12846518
109	0xbd806078	-0.062684
110	0x3ddf8aa6	0.10915117
111	0xbd87a55d	-0.066233374
112	0xbdd138c7	-0.102159075
113	0xbdce2f44	-0.10067609
114	0x3cbbde09	0.022933023
115	0x3cb70846	0.022342812
116	0xbe02bfc6	-0.12768468
117	0xbd34024a	-0.043947496
118	0x3d3f004b	0.04663114
119	0xbe0b982f	-0.13632272
120	0x3de2872d	0.11060939
121	0x3d9dbb46	0.07701735
122	0x3e021d98	0.12706602
123	0xbd75e6ee	-0.060034685
124	0x3db3de85	0.087826766
125	0x3e042ddc	0.12908119
126	0xbdd32aa6	-0.10310869
127	0x3cbc29c3	0.022969132
128	0x3df44494	0.11927143
129	0xbdf31086	-0.11868386
130	0x3d6ed567	0.058308985
131	0xbd9c8fe7	-0.07644635
132	0xbdffd4e3	-0.12491777
133	0xbce643c2	-0.028108481
134	0x3e32beea	0.1745564
135	0xbd978fcd	-0.07400475
136	0xbe275e18	-0.16344488
137	0xbe0a7844	-0.1352244
138	0x3e0b6a38	0.13614738
139	0xbcb3a764	-0.021930404
140	0xbe2c933f	-0.16853045
141	0x3dfc1b79	0.123099275
142	0xbe0817fa	-0.13290396
143	0xbe126b55	-0.14298756
144	0x3dc9d1b7	0.09854453
145	0xbdd0ba3e	-0.10191773
146	0x3e27229e	0.16321799
147	0x3d6e8cc2	0.058239706
148	0xbc397cbe	-0.011321245
149	0x3db4d474	0.08829585
150	0x3d61f1a8	0.055162102
151	0xbd9469ba	-0.07246728
152	0xbdf452c3	-0.11929848
153	0x3cc55666	0.02408905
154	0x3e051298	0.12995374
155	0x3d786f65	0.06065311
156	0xbdc7cd2a	-0.09755929
157	0xbe381ebe	-0.17980477
158	0x3e2f4c5c	0.17118973
159	0xb8a92aa2	-8.066489e-05
160	0xbd5ec758	-0.054389328
161	0x3d6c71f1	0.05772585
162	0xbdd34c0d	-0.1031724
163	0xbdb0ce69	-0.086331196
164	0xbd7dea6e	-0.061991148
165	0xbe222a21	-0.15836383
166	0xbc40fc06	-0.011778837
167	0xbe030988	-0.12796605
168	0xbd6c15b3	-0.05763788
169	0xbe2b9de6	-0.16759452
170	0xbd871873	-0.0659646
171	0x3d3122b9	0.043246005
172	0x3dcb6afc	0.09932515
173	0x3ddccc95	0.107812084
174	0xbdb4ab94	-0.088217884
175	0xbe1cfc94	-0.15330726
176	0x3dce2114	0.10064903
177	0x3d8e5864	0.06950453
178	0x3e2f42a7	0.1711527
179	0x3d2da791	0.042396132
180	0x3df05277	0.11734479
181	0xbe2d44da	-0.16920796
182	0x3de32043	0.11090138
183	0xbe1ba3de	-0.15199229
184	0x3e23b3a7	0.159865
185	0xbe05fcc0	-0.13084698
186	0x3c73ba2d	0.014875931
187	0x3d877bc7	0.066154055
188	0x3dfff3a4	0.12497643
189	0x3e088f92	0.13336018
190	0x3def0777	0.11671346
191	0xbdea812e	-0.1145042
192	0xbb3c1b6e	-0.0028702873
193	0xbc3d5470	-0.011555776
194	0xbda04816	-0.07826249
195	0xbcc4ef25	-0.024039814
196	0xbde20ae0	-0.110372305
197	0xbdfca3c4	-0.12335923
198	0xbd946711	-0.07246221
199	0x3d2762e7	0.040865805
200	0xbbcda00b	-0.006275182
201	0x3d66453d	0.056218375
202	0xbd88bc17	-0.066765
203	0x3dba1907	0.09086805
204	0xbe1b5018	-0.15167272
205	0x3b4148df	0.0029492897
206	0x3db69738	0.089155614
207	0x3b0d7984	0.0021587322
208	0x3dc4ccdb	0.096093856
209	0xbe347b4c	-0.17625159
210	0xbe03d654	-0.12874728
211	0xbde01c74	-0.10942927
212	0x3d8189c9	0.063251086
213	0xbd41e680	-0.047338963
214	0x3e0e367b	0.1388797
215	0x3ccba2d1	0.02485791
216	0xbd13681e	-0.035987966
217	0xbdccee6e	-0.10006414
218	0x3e070ab0	0.1318767
219	0x3e2a1a91	0.16611697
220	0xbddbfcdb	-0.10741588
221	0x3c518978	0.012789123
222	0xbe2ca992	-0.16861561
223	0x3d946a03	0.07246783
224	0xbcb95a80	-0.022626162
225	0xbe27f0c0	-0.16400433
226	0x3c93b8c2	0.018032435
227	0xbd083f7b	-0.033263665
228	0x3d3b1604	0.045675293
229	0x3e12d94f	0.14340709
230	0x3e230370	0.1591928
231	0xbe1e4010	-0.15454125
232	0xbd46ae0f	-0.04850584
233	0x3dc3f016	0.09567277
234	0xbd2a0373	-0.041507196
235	0x3d8a0626	0.06739454
236	0x3dd6a357	0.10480373
237	0xbdf7e56a	-0.12104304
238	0x3d1013ac	0.03517501
239	0xbd99302e	-0.07479893
240	0x3df089de	0.11745046
241	0xbdffabf9	-0.12483973
242	0x3d771b9d	0.06032907
243	0xbe0528cd	-0.13003846
244	0xbd94020a	-0.072269514
245	0x3de42c82	0.11141302
246	0x3bb627cf	0.005558945
247	0xbe156016	-0.14587435
248	0xbdf8f2d0	-0.12155688
249	0x3d3859bb	0.04500745
250	0x3dc2e7de	0.095168814
251	0xbd8877df	-0.066634886
252	0xbdaec9e1	-0.08534599
253	0xbdaf6f6e	-0.085661754
254	0xbe1da6bf	-0.1539564
255	0x3e12cc9a	0.14335862

emb_net.v_lins1.4.bias f4 [32]
0	0x3e197dbd	0.14989372
1	0xbc73a654	-0.014871199
2	0x3dcda21c	0.100406855
3	0xbd2a86a6	-0.041632317
4	0xbe0fc4bb	-0.1403989
5	0xbdd77c3e	-0.10521744
6	0x3d3ad2d6	0.045611225
7	0xbca9315b	-0.020653417
8	0xbe18f538	-0.14937294
9	0x3e0241e1	0.12720443
10	0xbde374fe	-0.11106299
11	0x3d7592ed	0.059954572
12	0x3e0eb0d9	0.1393465
13	0x3e1cd8bf	0.15317057
14	0xbd89e1c7	-0.06732517
15	0xbdb966c5	-0.09052805
16	0x3e2b6f36	0.16741642
17	0xbd44c836	-0.0480425
18	0x3dedf46c	0.116188854
19	0x3da8563a	0.082195714
20	0xbe2ef85c	-0.17086929
21	0xbd84dbc6	-0.06487231
22	0xbc72fc45	-0.014830654
23	0xbd011d72	-0.031522222
24	0x3cbc0493	0.0229514
25	0xbd931230	-0.07181203
26	0xbe1f81d7	-0.15576874
27	0xbd856227	-0.06512862
28	0x3e1fde9f	0.15612267
29	0x3d12b640	0.03581834
30	0xbd2aa856	-0.041664444
31	0x3de72d92	0.11287989

emb_net.v_lins1.5.weight f4 [32, 32]
0	0xbe0b9f81	-0.13635065
1	0x3de86710	0.113477826
2	0x3d155e10	0.036466658
3	0xbdc3a0a8	-0.09552127
4	0x3d7b1ee8	0.06130877
5	0x3e36e283	0.17859845
6	0x3d741d25	0.059598107
7	0xbe0dcfed	-0.13848849
8	0xbd959cc0	-0.07305288
9	0x3d9e7dcf	0.0773884
10	0xbc7c106f	-0.015384777
11	0xbde5e544	-0.112253696
12	0xbcc16584	-0.023607977
13	0xbe139b80	-0.14414787
14	0x3d03a8b3	0.032143306
15	0xbe098513	-0.1342967
16	0xbe0c5e74	-0.13707906
17	0xbe0aac42	-0.13542274
18	0xbe24a497	-0.16078411
19	0x3e16ebfd	0.1473846
20	0x3e2cec15	0.16886933
21	0xbdd62185	-0.10455612
22	0xbe22523d	-0.15851684
23	0x3d0fdebb	0.03512452
24	0x3e001e01	0.12511446
25	0xbde6f492	-0.11277117
26	0xbe07bbdc	-0.13255256
27	0xbda0602e	-0.07830845
28	0xbe161fab	-0.14660518
29	0xbd2f1ab8	-0.04275009
30	0x3ddc27aa	0.10749753
31	0x3cdd2b8d	0.026998306
32	0x3e16855f	0.14699315
33	0xbd462e48	-0.04838398
34	0x3d6c8bd5	0.05775054
35	0xbe1d5b3e	-0.15366837
36	0x3e1044ef	0.14088796
37	0xbd857b19	-0.0651762
38	0x3e078229	0.13233246
39	0x3d364244	0.04449679
40	0xbd916fcc	-0.07101402
41	0xbd840b56	-0.06447475
42	0x3e2f1e13	0.17101316
43	0x3da1a16f	0.07892119
44	0x3dc5bf12	0.096555844
45	0x3e20a5d8	0.15688264
46	0x3dd9a4f7	0.10627168
47	0xbd967c45	-0.07347921
48	0x3d615351	0.055011097
49	0xbdf83126	-0.12118749
50	0x3e2d8419	0.16944923
51	0x3e135e43	0.14391427
52	0x3e1c2be4	0.15251118
53	0xbdcde809	-0.10054023
54	0x3d82fc88	0.06395823
55	0xbe3e0b27	-0.18558942
56	0x3cf90bfe	0.030401226
57	0x3e008ee2	0.12554505
58	0x3a25f881	0.00063312805
59	0x3d42e857	0.047584858
60	0xbe34b3ff	-0.17646788
61	0xbdd4f3f7	-0.10398095
62	0x3e186a9f	0.14884423
63	0xbe1f1b49	-0.15537752
64	0xbe40a7ac	-0.18813962
65	0x3c918371	0.017762871
66	0xbe3b30bd	-0.18280311
67	0xbdfb0e55	-0.12258593
68	0xbc9ca0aa	-0.01911958
69	0x3d8e698c	0.06953725
70	0x3d51f4ad	0.05125873
71	0x3d5730ab	0.052536648
72	0xbe0a5185	-0.1350766
73	0xbe2fccd3	-0.17167978
74	0xbdb352fc	-0.087560624
75	0xbe09e5e7	-0.13466607
76	0x3cf17198	0.029473111
77	0xbe3e468e	-0.18581602
78	0xbdab782a	-0.08372529
79	0x3d7cba68	0.06170121
80	0xbe011223	-0.12604575
81	0x3d0045e0	0.031316638
82	0xbe0a79ab	-0.13522975
83	0xbe270a6d	-0.16312571
84	0x3e2210eb	0.15826766
85	0x3db85c48	0.09001976
86	0xbca3f24a	-0.020012993
87	0x3e0b73f0	0.13618445
88	0x3dc6d476	0.097084925
89	0xbd9f9fe8	-0.077941716
90	0x3e1f26ce	0.15542147
91	0xbdcbd48b	-0.09952649
92	0x3e1dbedf	0.15404843
93	0x3db39363	0.08768346
94	0xbe064c3c	-0.13115019
95	0x3d8e5639	0.069500394
96	0x3e00715e	0.12543246
97	0xbddb413d	-0.107058026
98	0xbd8b5b40	-0.06804514
99	0xbe308a48	-0.1724025
100	0xbe38a6da	-0.18032399
101	0xbe3fac7e	-0.18718144
102	0xbcf8f98a	-0.030392427
103	0xbe24b441	-0.16084386
104	0x3d24310d	0.04008584
105	0x3dca8071	0.098877795
106	0x3c26ee2c	0.010188621
107	0xbd3051f2	-0.0430469
108	0x3dcd3b8b	0.100211225
109	0xbe118fef	-0.14215063
110	0xbdfdd196	-0.12393491
111	0xbe18e500	-0.14931107
112	0xbc58818a	-0.013214478
113	0xbdf93c64	-0.12169722
114	0x3e06a108	0.13147366
115	0x3df7ba40	0.12096071
116	0xbe396391	-0.18104388
117	0xbd1d523d	-0.038408507
118	0xbd866acf	-0.06563341
119	0x3df777fc	0.12083432
120	0x3ae46ced	0.0017427482
121	0x3d185c78	0.03719756
122	0xbd31552c	-0.043294117
123	0x3e24f170	0.16107726
124	0xbe240cae	-0.16020462
125	0x3d273c96	0.040829264
126	0x3d9816a1	0.07426191
127	0x3d0025bc	0.031285986
128	0xbdaa23bc	-0.08307597
129	0xbd925aa6	-0.07146196
130	0x3d8988ce	0.067155465
131	0x3d85e38b	0.06537541
132	0x3e152b58	0.14567316
133	0xbe12eab0	-0.14347339
134	0xbe05f5d6	-0.1308206
135	0x3daca938	0.084307134
136	0x3e04c03e	0.1296396
137	0xbcec4027	-0.028839184
138	0xbe161f42	-0.14660361
139	0xbdc6974e	-0.09696828
140	0xbe04bed4	-0.1296342
141	0xbd2f6d04	-0.042828575
142	0x3e315f33	0.17321472
143	0xbdb59ef5	-0.08868209
144	0x3d331545	0.043721456
145	0xbd443681	-0.04790354
146	0xbdccc390	-0.09998238
147	0x3d715c4e	0.05892592
148	0x3e21d7f6	0.15805039
149	0xbdf03e77	-0.11730664
150	0xbd009e3b	-0.0314009
151	0xbc9a977e	-0.018871065
152	0xbb7aaac5	-0.003824876
153	0x3dcc8a08	0.09987265
154	0xbd928717	-0.071546726
155	0xbdaf5b74	-0.08562365
156	0xbe16d842	-0.14730933
157	0xbe1acab3	-0.15116386
158	0xbc8d93f0	-0.017282456
159	0xbded9f20	-0.11602616
160	0xbe09dbfb	-0.13462822
161	0x3d362324	0.044467106
162	0xbcc1588c	-0.023601793
163	0x3d72a7c1	0.059242014
164	0x3df9b999	0.12193603
165	0x3dd3a748	0.10334641
166	0xbe0ab81f	-0.13546799
167	0xbcd27ace	-0.025693323
168	0x3ddbcce8	0.10732442
169	0xbe23f1f6	-0.1601027
170	0xbd9ce644	-0.07661107
171	0xbcd7609a	-0.02629118
172	0xbda64da3	-0.08120277
173	0xbd13b9c3	-0.036065828
174	0xbd35e79b	-0.04441033
175	0xbdc49ee7	-0.09600621
176	0x3da022ad	0.07819114
177	0x3df18485	0.11792854
178	0xbdbbb455	-0.09165255
179	0xbcfa69e0	-0.030568063
180	0xbdffde77	-0.12493604
181	0xbd8c85c4	-0.06861451
182	0xbd9226cf	-0.071363084
183	0xbdbde713	-0.092725895
184	0xbe23058b	-0.15920083
185	0x3cd0083d	0.025394553
186	0xbe24342a	-0.16035524
187	0xbe2899d1	-0.16464926
188	0xbe13a38b	-0.14417855
189	0xbe28d599	-0.16487731
190	0xbe23d144	-0.15997797
191	0x3e12480a	0.14285293
192	0x3de08f1e	0.109647974
193	0x3dad3818	0.08457965
194	0x3d1d89a7	0.038461354
195	0x3ce02e7f	0.027365921
196	0x3e02d869	0.12777866
197	0x3e316d84	0.17326933
198	0x3d0114b4	0.031513885
199	0xbe0a2928	-0.13492262
200	0xbda87fe3	-0.082275175
201	0x3da813ee	0.08206926
202	0x3df54d50	0.11977637
203	0x3c88d67e	0.01670384
204	0xbe035203	-0.12824254
205	0xbe0fa677	-0.14028345
206	0xbd4dbc7c	-0.05022858
207	0x3df22e0c	0.11825189
208	0xbdea2e89	-0.11434657
209	0x3d1044ab	0.035221737
210	0x3c3c930a	0.011509666
211	0x3d2a81b8	0.041627616
212	0x3d301f7d	0.04299878
213	0x3d8f9ee7	0.0701273
214	0xbc8b85c4	-0.017031558
215	0xbd55ace0	-0.05216682
216	0xbe2df7bc	-0.16989034
217	0x3d14f50d	0.03636651
218	0xbd8581b8	-0.065188825
219	0x3d939e45	0.07207922
220	0xbe132ec5	-0.1437331
221	0x3dc73e5b	0.0972869
222	0x3e125cd1	0.14293219
223	0xbdc942da	-0.09827204
224	0x3d6f7e61	0.058470134
225	0x3e1a9d03	0.15098958
226	0x3de8f42e	0.113746986
227	0x3df47f1a	0.11938305
228	0xbd06bf72	-0.03289742
229	0x3ddb31e6	0.10702877
230	0xbd923773	-0.07139482
231	0x3dc97640	0.098370075
232	0xbdd04b53	-0.10170617
233	0x3c2038a3	0.009779128
234	0x3d6cd117	0.05781659
235	0xbdba9c45	-0.09111837
236	0x3e00bb66	0.12571487
237	0x3de18606	0.11011891
238	0x3e21a281	0.15784647
239	0xbdc1d661	-0.09464718
240	0x3d7adbbd	0.061244715
241	0xbd2e81c6	-0.04260423
242	0x3dba2828	0.090896904
243	0x3de22afd	0.110433556
244	0x3de2300d	0.11044321
245	0xbc1e9238	-0.009678416
246	0xbce78af7	-0.028264506
247	0x3ddb4776	0.107069895
248	0x3e2eed6c	0.17082757
249	0xbccf644e	-0.025316384
250	0x3d98dc82	0.074639335
251	0xbdf2dd28	-0.118585885
252	0xbe213f3e	-0.15746781
253	0x3e056214	0.13025695
254	0x3e1d0989	0.15335669
255	0xbcfdedaa	-0.030997116
