pretrained/rcpsp/rcpsp30-5.pt (torch, 354891 bytes, 225 tensors)

emb_net.v_lin0.weight f4 [32, 5]
0	0x3eb9e4c7	0.36307356
1	0xbdce2670	-0.10065925
2	0xbede6d93	-0.43442973
3	0xbe69cf87	-0.22833072
4	0x3c8b611c	0.017014079
5	0x3e92bf8e	0.2866177
6	0xbde83c52	-0.1133963
7	0x3edce94f	0.4314675
8	0xbe6bfa75	-0.2304476
9	0x3d0aca24	0.033884183
10	0x3e30d2ee	0.17267963
11	0x3ed7fe9e	0.42186445
12	0xbe59024d	-0.21192284
13	0x3eb03e8d	0.34422722
14	0xbe5438e7	-0.20724832
15	0x3eb7763d	0.35832396
16	0x3e1e1024	0.15435845
17	0x3d1f6a92	0.038919993
18	0x3e22e798	0.15908659
19	0xbe902a05	-0.28157058
20	0x3e40a92b	0.18814532
21	0xbe20b781	-0.15695001
22	0x3eb9845b	0.36233792
23	0x3dd29dc0	0.10283995
24	0xbeb76ce2	-0.35825258
25	0xbecfbfae	-0.40575927
26	0x3ec5f0ef	0.3866038
27	0xbe3f1a6d	-0.18662424
28	0xbddd43c9	-0.108039446
29	0x3d439c3a	0.04775641
30	0x3cfca2ee	0.03083941
31	0x3e84318c	0.2581905
32	0x3eaadc82	0.3337136
33	0x3eac3e28	0.3364117
34	0x3d1f2428	0.03885284
35	0xbdc6ba03	-0.09703448
36	0x3d1b08ad	0.03785007
37	0x3e3ff8d4	0.18747264
38	0xbe114c7d	-0.14189334
39	0x3e5534b7	0.2082089
40	0xbe68b048	-0.22723496
41	0xbe658d05	-0.22417076
42	0xbd1ebd78	-0.03875491
43	0x3e523cd0	0.2053101
44	0x3e5f876a	0.21829
45	0xbeac4ee2	-0.33653933
46	0xbd1cb0ed	-0.038254667
47	0xbe91192a	-0.2833951
48	0xbe9b0c51	-0.30282834
49	0x3e9e60c9	0.30933216
50	0xbec5d797	-0.38641044
51	0xbed0f3fd	-0.40811148
52	0xbd8e1e63	-0.069393896
53	0xbdcf1294	-0.10110965
54	0xbe3edbfd	-0.18638606
55	0xbe406dfa	-0.18791953
56	0x3ea3e4f3	0.32010612
57	0xbe89721e	-0.26844877
58	0x3e94ae50	0.2903924
59	0xbe5f0f5e	-0.21783206
60	0x3e916d8b	0.28403887
61	0x3e0cf948	0.13766968
62	0xbe32de8a	-0.17467704
63	0xbed4f2fa	-0.41591626
64	0xbebd36f8	-0.36956
65	0xbdb766c5	-0.089551486
66	0xbeb2d526	-0.34928244
67	0x3ec50a70	0.38484526
68	0xbeca85f0	-0.3955531
69	0xbe28b8a6	-0.16476688
70	0x3edc3d33	0.4301544
71	0xbed7beb7	-0.4213769
72	0x3e1e2f95	0.15447839
73	0xbda10dd0	-0.07863963
74	0xbe994b57	-0.29940292
75	0x3ea90453	0.33011112
76	0xbc91d68e	-0.017802503
77	0x3eb64838	0.35601974
78	0x3ec297c0	0.380064
79	0x3ddfa1fb	0.10919567
80	0xbebea7d7	-0.37237427
81	0x3e5e6eff	0.21722029
82	0xbe892c3e	-0.26791567
83	0xbea02d48	-0.31284547
84	0xbdc71121	-0.09720064
85	0xbe420ef4	-0.18951017
86	0xbe41156f	-0.18855833
87	0x3ea22e31	0.31675866
88	0xbe27240a	-0.16322342
89	0x3e8b45e9	0.27201775
90	0xbdb0192b	-0.085985504
91	0xbe664d68	-0.22490466
92	0xbce7a3f7	-0.028276427
93	0xbd3799ba	-0.04482434
94	0xbe0d44fc	-0.13795847
95	0x3e1faec9	0.15594019
96	0x3e6b81b5	0.22998698
97	0x3e103da1	0.1408601
98	0x3c967343	0.018365508
99	0x3ced3478	0.028955683
100	0x3ec9bece	0.39403385
101	0xbed3fa44	-0.41401875
102	0xbe5f038d	-0.21778698
103	0x3e8d47fc	0.27593982
104	0xbeb1aca3	-0.34702024
105	0xbeb88347	-0.36037657
106	0x3e057aff	0.130352
107	0x3e3dbae7	0.18528329
108	0x3ea50879	0.32233027
109	0xbe3e35b2	-0.1857517
110	0xbe4311ce	-0.1904976
111	0x3e88b017	0.26696846
112	0xbe998036	-0.2998063
113	0xbe89aaf8	-0.2688825
114	0xbec65c68	-0.38742375
115	0xbe7cca1a	-0.2468647
116	0xbe9f9e2c	-0.31175363
117	0xbd5f5fa9	-0.054534588
118	0xbec85ae2	-0.39131838
119	0xbe96fd20	-0.29489994
120	0x3cdb85cf	0.026797203
121	0x3ce868cc	0.028370284
122	0xbd65a348	-0.05606392
123	0x3ca12854	0.01967255
124	0x3e9ae981	0.30256274
125	0x3e3f875d	0.1870398
126	0x3d75de13	0.06002624
127	0xbdef431e	-0.116827235
128	0x3ea29fdf	0.31762597
129	0xbe2ddedf	-0.1697955
130	0x3dba80b6	0.09106581
131	0xbda90e22	-0.08254649
132	0x3df2b436	0.11850779
133	0xbde890bc	-0.11355731
134	0xbe14537e	-0.14484975
135	0xbda5b57e	-0.080912575
136	0xbe9d83f8	-0.30764747
137	0xbeb5bcc1	-0.3549557
138	0xbe3561ea	-0.17713133
139	0xbe5c56e5	-0.21517523
140	0x3d9e22cc	0.07721481
141	0x3e96251f	0.29325196
142	0xbd81e1b0	-0.063418746
143	0xbe390843	-0.18069558
144	0x3ea8f34b	0.32998118
145	0x3d832c15	0.06404892
146	0xbdc6ad11	-0.097009785
147	0x3ea804b7	0.32816097
148	0xbea47f51	-0.32128385
149	0xbe84ccd4	-0.2593752
150	0x3d1a04c3	0.037602197
151	0xbd641585	-0.055684585
152	0xbdcf05d8	-0.101085365
153	0xbe86cfcb	-0.26330408
154	0x3e835a57	0.2565486
155	0x3e63537b	0.22199814
156	0x3b0ea133	0.0021763563
157	0xbed4e7ba	-0.41583043
158	0xbd0aeada	-0.03391538
159	0xbd006c6d	-0.031353403

emb_net.v_lin0.bias f4 [32]
0	0x3ed861f0	0.4226222
1	0x3e072b62	0.13200143
2	0x3e0efc54	0.13963443
3	0xbed8b33e	-0.4232425
4	0x3e8b2180	0.27173996
5	0x3dc2abb8	0.09505409
6	0x3ed25adf	0.41084954
7	0x3de2cb6c	0.11073956
8	0x3d7c63f9	0.06161878
9	0x3d12060a	0.03565029
10	0x3ec7c682	0.39018637
11	0x3eaf4ab0	0.3423667
12	0xbe0cbb60	-0.13743353
13	0xbd95c35c	-0.073126525
14	0xbe99d0a5	-0.30041996
15	0xbe757c3a	-0.2397317
16	0xbb8c425a	-0.0042803707
17	0xbe7034b0	-0.23457599
18	0xbeb00c35	-0.34384313
19	0xbe6ab7c5	-0.22921665
20	0xbec62976	-0.38703507
21	0xbecac2dd	-0.39601794
22	0xbeaa123e	-0.33217043
23	0x3e4c5449	0.19954027
24	0xbd9efe17	-0.077633075
25	0x3e52663c	0.20546812
26	0x3e61bfac	0.22045773
27	0xbea15d16	-0.3151633
28	0xbea35295	-0.31898943
29	0xbeb46e1f	-0.35240266
30	0xbecfc9fe	-0.40583795
31	0x3db94d73	0.090479754

emb_net.v_lins1.0.weight f4 [32, 32]
0	0xbdd4f411	-0.103981145
1	0xbc29646c	-0.010338884
2	0x3e26e62f	0.16298746
3	0xbe06eafc	-0.13175577
4	0xbd7c18bf	-0.061547037
5	0xbd9832c2	-0.07431556
6	0x3c7a5895	0.015279909
7	0xbb2c79fa	-0.002631782
8	0x3ddcccce	0.10781251
9	0x3df63e7d	0.120236374
10	0x3cc65e66	0.024214935
11	0x3e2b966d	0.16756602
12	0xbe10d77e	-0.14144704
13	0x3df135be	0.11777829
14	0xbbd10a62	-0.0063794116
15	0x3d598cfc	0.05311297
16	0xbd8ebc44	-0.069695026
17	0x3e30c688	0.17263234
18	0x3e1cb94f	0.15305065
19	0xbd441b20	-0.04787743
20	0xbe2878fe	-0.16452405
21	0x3d0150f5	0.031571347
22	0x3db70319	0.08936138
23	0xbcc59337	-0.02411805
24	0xbd83af6f	-0.06429946
25	0xbd1fcdb5	-0.039014537
26	0x3d1666d0	0.036719143
27	0x3ddf4290	0.10901368
28	0xbdb14506	-0.08655743
29	0xbe10958b	-0.14119546
30	0xbd5638ba	-0.052300192
31	0xbda623f6	-0.08112328
32	0xbdc31a2c	-0.09526476
33	0x3d847bab	0.064689
34	0x3bd5fb71	0.0065302183
35	0x3d34b1af	0.044114765
36	0x3d820acd	0.06349716
37	0xbda7d0f8	-0.081941545
38	0xbdd812da	-0.10550471
39	0xbe0acc0c	-0.135544
40	0xbd8aa569	-0.06769831
41	0x3bc2e666	0.005947876
42	0x3d8f5e2b	0.07000383
43	0x3ca18b4b	0.01971974
44	0xbd98fe99	-0.07470436
45	0xbdc1598d	-0.094409086
46	0xbe0c87a6	-0.13723621
47	0xbd108951	-0.035287205
48	0x3e07c0c6	0.13257131
49	0xbe279656	-0.16365942
50	0x3e43dfea	0.19128385
51	0xbded3fc0	-0.11584425
52	0xbd9b4af7	-0.07582658
53	0xbdf818a1	-0.121140726
54	0x3d46e183	0.04855491
55	0x3dff2fec	0.12460312
56	0xbc8fe2e1	-0.017564239
57	0x3db78098	0.08960074
58	0x3de5a27e	0.112126336
59	0xbddc46f7	-0.10755723
60	0x3b79d877	0.0038123408
61	0x3b1bf6af	0.0023798158
62	0x3ddd11ab	0.107943855
63	0xbde97b23	-0.114004396
64	0x3d8f4313	0.06995215
65	0x3d86ee53	0.065884255
66	0xbc9a4ebe	-0.018836375
67	0x3e3be452	0.18348816
68	0x3e2334b7	0.15938078
69	0xbd99e0b4	-0.07513562
70	0x3e375c80	0.1790638
71	0x3e145dac	0.14488858
72	0xbe015b0e	-0.12632391
73	0xbd410324	-0.047122136
74	0x3d45865e	0.048223846
75	0xbe0f68b3	-0.14004783
76	0xbd06e2a4	-0.032930985
77	0x3e22c03a	0.15893641
78	0xbe043536	-0.12910923
79	0xbd95f3ec	-0.07321915
80	0x3d1e8bee	0.038707666
81	0xbe36e044	-0.17858988
82	0xbddf0084	-0.1088877
83	0xbe1d219c	-0.15344852
84	0xbd75de65	-0.060026545
85	0xbdb42172	-0.08795442
86	0xbc296641	-0.010339321
87	0xbe1b3f8c	-0.1516096
88	0xbe3ae2f6	-0.18250641
89	0xbcedf3c2	-0.029046897
90	0x3e25998a	0.16171852
91	0xbd9a378c	-0.07530126
92	0xbe3e37d2	-0.18575981
93	0x3da63c9c	0.08117029
94	0xbe180da2	-0.1484895
95	0x3d89dfe8	0.0673216
96	0xbd0ee5c1	-0.03488708
97	0x3d807f78	0.06274313
98	0xbce9aeb7	-0.028525693
99	0x3ceab205	0.02864934
100	0xbe2684fb	-0.16261666
101	0xbdf3601f	-0.11883568
102	0x3c78d1a8	0.015186705
103	0xbcd170e3	-0.025566524
104	0x3e36c775	0.17849524
105	0x3e0aa65e	0.13540027
106	0x3dadb2eb	0.084813915
107	0x3e323689	0.17403616
108	0x3d70741b	0.058704477
109	0xbdc0a4b0	-0.09406412
110	0xbd8ee10c	-0.06976518
111	0xbdf164ce	-0.11786805
112	0xbe2a7e82	-0.16649821
113	0xbcda810a	-0.026672859
114	0xbe229aed	-0.15879412
115	0xbdbf019e	-0.0932648
116	0x3da0501a	0.07827778
117	0x3d1c8f82	0.038222797
118	0xbdac452c	-0.08411631
119	0x3e191d54	0.14952594
120	0xbe17132a	-0.14753404
121	0xbe0598ce	-0.13046572
122	0xbc634259	-0.013870799
123	0x3e322238	0.17395866
124	0xbe2024d4	-0.15639049
125	0xbcc7cb1a	-0.024388839
126	0x3d5e4071	0.054260675
127	0xbc4d612d	-0.012535376
128	0xbe2314c1	-0.15925886
129	0xbe1a411b	-0.15063898
130	0xbd1f7225	-0.038927216
131	0x3c307061	0.010768981
132	0x3d9c219d	0.07623599
133	0xbe007e49	-0.12548174
134	0xbe0dcece	-0.13848421
135	0xbcc2dbb6	-0.023786407
136	0x3d841eab	0.06451162
137	0x3da4e1f6	0.08050911
138	0x3e36aadc	0.17838615
139	0xbc91a2cd	-0.017777825
140	0x3d2762e3	0.04086579
141	0xbdc1c35f	-0.09461092
142	0x3aaba1d1	0.001309449
143	0xbdfcc80a	-0.12342842
144	0x3e2d7e20	0.16942644
145	0x3d9a86fe	0.07545279
146	0x3e384853	0.1799634
147	0xbe457283	-0.19281964
148	0xbda610a3	-0.08108642
149	0x3ce7cbd6	0.028295439
150	0xbd7dee6f	-0.061994966
151	0x3d59d298	0.053179353
152	0xbc28b519	-0.010297083
153	0xbd8b6681	-0.068066604
154	0xbcdeb5e6	-0.027186345
155	0xbe0bd357	-0.13654839
156	0x3d503f99	0.0508419
157	0xbe0dd6f7	-0.13851534
158	0x3d8008c3	0.06251671
159	0x3e31b9a1	0.17355968
160	0x3d177f7d	0.036986817
161	0x3d1ddffa	0.03854368
162	0xbce826be	-0.028338786
163	0x3dbec13c	0.093142
164	0xbdb83ff5	-0.08996574
165	0xbde415f2	-0.11136998
166	0x3d9170ac	0.071015686
167	0x3d6d15fd	0.057882298
168	0xbda76a66	-0.08174591
169	0x3cc8bc91	0.024503978
170	0x3df9c0c2	0.12194969
171	0x3df3ed4e	0.11910497
172	0xbd84e085	-0.06488136
173	0x3d7c82f4	0.061648324
174	0x3ca81c27	0.020521237
175	0xbda1613b	-0.07879873
176	0xbd7aa94c	-0.06119661
177	0xbe2903db	-0.16505377
178	0x3dc96f38	0.098356664
179	0xbd474e57	-0.048658695
180	0xbdcc3e81	-0.09972859
181	0xbcbcefbd	-0.023063535
182	0x3cabfc99	0.020994471
183	0x3ca0dba3	0.019635981
184	0xbc77f03b	-0.015132959
185	0x3e0db054	0.13836795
186	0xbdca07ed	-0.09864793
187	0xbe12615f	-0.14294957
188	0x3cd6fd01	0.026243689
189	0xbd66d745	-0.05635764
190	0xbdfb97dc	-0.12284824
191	0xbe0caa03	-0.1373673
192	0xbd48496c	-0.048898146
193	0xbe26abf2	-0.1627653
194	0x3d800cf4	0.062524706
195	0xbe3111a4	-0.17291886
196	0x3ddbf12e	0.10739361
197	0xbd806792	-0.062697545
198	0xbe0be503	-0.1366158
199	0xbe19bf03	-0.15014271
200	0xbd976f3a	-0.07394262
201	0x3ced1aa3	0.028943365
202	0xbd7251cc	-0.05916004
203	0xbdc3dabc	-0.09563205
204	0x3d8ebb97	0.06969374
205	0x3b3a5002	0.0028429036
206	0xbdacf0ab	-0.08444341
207	0xbe2488fb	-0.16067879
208	0x3caf364b	0.021388194
209	0x3da64478	0.08118528
210	0xbdc57df2	-0.09643163
211	0x3da08382	0.07837583
212	0x3df8d6db	0.121503554
213	0x3e3ed684	0.18636519
214	0x3dbe5685	0.09293846
215	0x3dd490c3	0.103791736
216	0x3e2a15a4	0.16609818
217	0x3e0c0b57	0.13676201
218	0xbe20f3fe	-0.15718076
219	0x3e25aa90	0.16178346
220	0xbcf9f838	-0.030513868
221	0xbd36a2d7	-0.04458889
222	0xbd668c1e	-0.05628597
223	0xbdbee7c0	-0.093215466
224	0x3c2db3e1	0.0106019685
225	0xbde4f995	-0.111804165
226	0x3aadb8ff	0.0013253986
227	0x3e07b177	0.13251291
228	0xbd8e3807	-0.0694428
229	0x3e00e35a	0.12586728
230	0x3df3d2ab	0.11905416
231	0x3c8f14ab	0.01746591
232	0x3e47a3fc	0.19496149
233	0xbd56239c	-0.052280053
234	0xba82c5b7	-0.0009977137
235	0x3dce933a	0.10086675
236	0xbe19e98b	-0.15030496
237	0xbdba52e8	-0.09097844
238	0xbd313ca0	-0.043270707
239	0x3dc0f6e8	0.09422094
240	0x3b64387b	0.0034823704
241	0xbdea003a	-0.114258245
242	0x3d278890	0.04090172
243	0x3d9f2743	0.077711605
244	0xbd40253b	-0.046910506
245	0x3df710af	0.12063729
246	0xbe286eeb	-0.16448562
247	0x3d837db8	0.06420463
248	0xbde3d74b	-0.11125048
249	0x3dd9c257	0.106327705
250	0x3d0ca9ac	0.0343415
251	0xbd21a708	-0.039465934
252	0x3d92045f	0.0712974
253	0x3e0480fd	0.1293983
254	0xbd8af521	-0.06785036
255	0x3cb41144	0.02198089

emb_net.v_lins1.0.bias f4 [32]
0	0xbcdef571	-0.027216645
1	0x3dd4b410	0.10385907
2	0x3cdde635	0.02708731
3	0xbc13a770	-0.009012088
4	0xbcd503d1	-0.026002796
5	0x3e0c02a8	0.13672888
6	0x3e06a34c	0.1314823
7	0x3d90b57f	0.07065868
8	0xbd443cf1	-0.04790968
9	0x3d63e051	0.055633847
10	0x3d0f1a7b	0.034937363
11	0x3e035d28	0.12828505
12	0x3da1d9ad	0.079028465
13	0xbc22ea2e	-0.009943528
14	0xbcaa49c3	-0.020787125
15	0xbddda50e	-0.10822497
16	0x3d94e3ce	0.07270013
17	0xbe01b67b	-0.12667267
18	0x3e16be23	0.14720969
19	0x3e3e0d8a	0.18559852
20	0xbcafe7a3	-0.021472758
21	0xbdd99b49	-0.106253214
22	0x3c40feb6	0.011779478
23	0x3d65a6d6	0.05606731
24	0xbe3df193	-0.18549185
25	0xbe32167c	-0.1739139
26	0xbe20ddb9	-0.1570958
27	0xbd825d8e	-0.063655004
28	0xbde7674c	-0.11298999
29	0xbd5607a0	-0.052253366
30	0x3cc83211	0.024437936
31	0xbe1a1ac2	-0.1504927

emb_net.v_lins1.1.weight f4 [32, 32]
0	0xbc7a47db	-0.015275921
1	0x3dde425d	0.108525015
2	0xbe1c774c	-0.15279883
3	0xbd97f427	-0.07419615
4	0x3dc0aaf5	0.094076075
5	0xbdb70831	-0.08937109
6	0xbd9d6f67	-0.07687264
7	0x3d884a21	0.06654764
8	0x3cf3334a	0.029687542
9	0x3da77a31	0.08177603
10	0x3dc63144	0.096773654
11	0x3d9b1a19	0.07573337
12	0x3e11f78f	0.14254592
13	0x3c2b47d3	0.010454136
14	0x3e23b812	0.15988186
15	0x3d045f45	0.03231742
16	0x3d8a399a	0.06749268
17	0x3d547f9f	0.05187952
18	0xbd5f78b6	-0.05455848
19	0x3dd7e657	0.10541981
20	0xbe1bcb7b	-0.1521434
21	0xbcc3b981	-0.023892166
22	0x3dda214c	0.10650882
23	0xbdf0af7b	-0.1175222
24	0xbbdc7905	-0.006728294
25	0xbc5bd017	-0.013416312
26	0xbd432ec2	-0.047652014
27	0x3dd88695	0.105725445
28	0x3e24bdaf	0.16087984
29	0xbb80aea0	-0.003927067
30	0x3dc2e694	0.095166355
31	0xbc809308	-0.01569511
32	0xbe180507	-0.14845668
33	0x3ddbf9c1	0.10740996
34	0x3bad60d5	0.0052910843
35	0xbe0dbc66	-0.138414
36	0x3de956fb	0.11393543
37	0xbd7c0872	-0.06153149
38	0x397f3c33	0.00024341121
39	0x3d7fab0e	0.06241899
40	0xbe181f3b	-0.14855663
41	0xbe1b3ccd	-0.15159912
42	0xbd168896	-0.036751352
43	0xbe144e39	-0.14482965
44	0x3d08dd55	0.033414204
45	0x3c7003d7	0.014649353
46	0x3def0972	0.116717234
47	0xbd4ea950	-0.050454438
48	0x3d66ffed	0.056396414
49	0xbd298b68	-0.041392714
50	0xbdb2a30a	-0.087225035
51	0xbe1526af	-0.14565538
52	0xbe09ff38	-0.13476264
53	0x3d9a81ea	0.075443104
54	0x3c0feee0	0.00878498
55	0x3c72cf6b	0.01481996
56	0xbba156d2	-0.00492368
57	0xbdfd284a	-0.123612
58	0xbe0727f0	-0.13198829
59	0x3d5c4cbf	0.05378413
60	0x3d09861d	0.033575166
61	0x3d918f4b	0.07107409
62	0xbdf58813	-0.11988845
63	0x3cf3e618	0.029772803
64	0xbd5e8254	-0.05432351
65	0xbcfd1bce	-0.030897047
66	0x3e0bfc55	0.13670476
67	0xbdd033e1	-0.10166145
68	0x3dd3d82e	0.103439674
69	0x3e205d38	0.1566056
70	0x3e2f6259	0.1712736
71	0x3de213c3	0.110389255
72	0xbdf9cb82	-0.12197019
73	0xbd967dfb	-0.073482476
74	0x3e1376a9	0.14400734
75	0x3d8a188d	0.06742964
76	0x3dbf74de	0.093484625
77	0x3d550722	0.052008756
78	0xbd8c5596	-0.06852262
79	0x3dfc19e0	0.12309623
80	0xbd2a9e00	-0.041654587
81	0x3e18df58	0.14928949
82	0x3bb9b0d1	0.00566683
83	0xbe02cb0e	-0.12772772
84	0xbe078d8a	-0.13237587
85	0x3dd6cbfd	0.104881264
86	0x3e1e17a4	0.15438706
87	0xbe1b8e8f	-0.151911
88	0x3e131def	0.14366888
89	0x3c9aa5db	0.018877914
90	0xbddf15a7	-0.10892802
91	0xbdcf0870	-0.10109031
92	0x3d4e12d1	0.050310913
93	0xbe37ab47	-0.17936431
94	0xbdd9759d	-0.10618136
95	0xbe05f311	-0.13081004
96	0xbdadb60e	-0.0848199
97	0xbda41a02	-0.08012773
98	0x3e236f80	0.15960503
99	0x3e2dff04	0.16991812
100	0x3d949fdb	0.072570525
101	0xbda3483d	-0.07972763
102	0xbd4bfade	-0.049799792
103	0x3cc823b0	0.02443108
104	0x3e37e7fe	0.17959592
105	0x3def6cb1	0.11690653
106	0xbd71201c	-0.058868513
107	0x3d6a5244	0.05720736
108	0x3e199077	0.14996515
109	0xbd579306	-0.052630447
110	0xbdf4596d	-0.11931119
111	0x3d9864b3	0.07441082
112	0xbdc7ad27	-0.09749823
113	0x3bc3ee3f	0.005979329
114	0xbdf8101e	-0.12112449
115	0xbdf6e10b	-0.12054642
116	0x3dd85132	0.10562362
117	0xbd5fa72a	-0.05460278
118	0xbe2878a2	-0.16452268
119	0xbda61cf2	-0.0811099
120	0xbdb33d43	-0.08751919
121	0xbe265192	-0.16242054
122	0xbd2e5407	-0.042560603
123	0xbdd89937	-0.105760984
124	0x3d97c671	0.074108966
125	0xbdfd7ea5	-0.12377671
126	0xbd7eeb6f	-0.062236246
127	0x3d7268a8	0.05918184
128	0x3d4b32c0	0.049608946
129	0xbc6525ae	-0.013986034
130	0xbe1878b7	-0.14889799
131	0x3dc7f53e	0.09763573
132	0x3e027183	0.12738614
133	0xbd6d6b96	-0.05796393
134	0x3ded407c	0.11584565
135	0x3dea353a	0.114359334
136	0x3da0c393	0.07849803
137	0xbd42e408	-0.04758075
138	0x3e3c6b72	0.18400362
139	0x3e1aaf10	0.15105844
140	0xbbd4a5d9	-0.006489497
141	0x3e328bbe	0.1743612
142	0xbda0e7be	-0.07856701
143	0x3d52ad73	0.051434945
144	0xbba76aaa	-0.005109151
145	0x3d58ba64	0.05291213
146	0x3df6f0f5	0.12057678
147	0x3e16517c	0.14679521
148	0x3d759e1a	0.05996523
149	0x3d6aacbd	0.057293642
150	0x3e2ef9e1	0.17087509
151	0x3db86f3c	0.09005591
152	0xbc9e2038	-0.019302472
153	0x3da988fa	0.08278079
154	0xbdf8f348	-0.12155777
155	0xbe148969	-0.14505543
156	0xbce2dc4e	-0.02769294
157	0x3dc35b7a	0.09538932
158	0xbcdb970e	-0.026805427
159	0xbe0a1b15	-0.13486893
160	0x3d0a2655	0.033727963
161	0x3d9d221d	0.07672522
162	0xbc30bf52	-0.010787802
163	0x3e27b037	0.16375814
164	0x3dbcd41a	0.09220143
165	0x3d426606	0.04746058
166	0x3c3aca05	0.011400704
167	0xbe3c1e3a	-0.18370906
168	0x3cea825f	0.028626619
169	0xbe19d7fc	-0.15023798
170	0xbe1baab3	-0.15201835
171	0x3bf96290	0.0076106265
172	0x3db1bbc5	0.08678392
173	0x3e26adcc	0.16277236
174	0x3c85ea60	0.01634711
175	0xbdad4d73	-0.08462038
176	0xbde263c0	-0.11054182
177	0xbbfb7d0c	-0.007674819
178	0xbd41387a	-0.047173
179	0xbd9d5346	-0.07681899
180	0xbe134ce3	-0.14384799
181	0x3e086ee5	0.13323553
182	0xbe017c0e	-0.1264498
183	0x3e01513f	0.12628649
184	0xbdf951b4	-0.12173787
185	0xbe1b46a0	-0.1516366
186	0xbe1ea9cd	-0.15494461
187	0xbd9569a7	-0.07295542
188	0xbdde8c86	-0.108666465
189	0xbe02e677	-0.12783228
190	0xbd50b6cb	-0.050955575
191	0x3de9b6f1	0.114118464
192	0x3df5288e	0.11970626
193	0x3e13d93d	0.14438339
194	0xbd1b75bd	-0.03795408
195	0x3dfcce90	0.12344086
196	0xbe01128b	-0.1260473
197	0xbd1e956b	-0.038716715
198	0xbdb90a48	-0.09035164
199	0x3dd1eb72	0.10249986
200	0xbdd99aa4	-0.106251985
201	0x3d9a9254	0.07547441
202	0xbe238497	-0.15968548
203	0xbe1208c6	-0.1426116
204	0xbdb014a4	-0.08597687
205	0x3d7683db	0.06018434
206	0x3e269541	0.16267873
207	0x3d04b174	0.032395795
208	0x3c070cd6	0.008242806
209	0x3c75f78c	0.015012633
210	0xbe16d577	-0.14729868
211	0x3e167153	0.14691667
212	0x3c59f8af	0.01330392
213	0xbd5cd8b3	-0.053917598
214	0xbd941dbb	-0.07232233
215	0xbe06a930	-0.13150477
216	0xbda06789	-0.07832248
217	0x3d27b109	0.04094032
218	0x3d481995	0.048852522
219	0x3e1f2977	0.15543161
220	0x3e0f5fb5	0.14001353
221	0xbd48fffb	-0.049072247
222	0xbd87ef35	-0.06637422
223	0x3e353f5a	0.17699948
224	0x3ddf034f	0.10889303
225	0x3dd8364a	0.1055723
226	0x3d0c7d3f	0.03429913
227	0xbc8b39f4	-0.016995408
228	0x3d8780e6	0.06616382
229	0xbe10ade0	-0.14128828
230	0x3d88c226	0.06677656
231	0x3d66303a	0.056198336
232	0x3e0698a4	0.13144165
233	0xbd02f312	-0.03197009
234	0xbcb75bb1	-0.022382589
235	0x3d25c40b	0.040470164
236	0xbc5b54ae	-0.013386888
237	0xbcb53bd0	-0.022123247
238	0xbdde0e1e	-0.108425364
239	0x3dd17990	0.10228264
240	0x3e0ea1f8	0.13928974
241	0xbd68edf9	-0.056867573
242	0xbd2b6462	-0.04184378
243	0xbdd5de96	-0.104428455
244	0xbdf1b773	-0.11802568
245	0xbb87b836	-0.0041418327
246	0x3e150f86	0.14556703
247	0xbdb26d70	-0.0871228
248	0x3d83c93c	0.06434867
249	0xbdeddd26	-0.11614446
250	0xbdbdf969	-0.09276087
251	0xbe13614f	-0.14392589
252	0xbdea5e88	-0.11443812
253	0x3e33b85f	0.175508
254	0x3da0e642	0.07856418
255	0xbe115789	-0.14193548

emb_net.v_lins1.1.bias f4 [32]
0	0xbd411021	-0.047134522
1	0xbbdc6154	-0.0067254696
2	0xbe00ab44	-0.12565333
3	0x3e173594	0.14766532
4	0xbde15e4a	-0.11004312
5	0x3dcd94ed	0.10038171
6	0xbdf781fb	-0.12085339
7	0x3cc25e72	0.023726676
8	0xbc74aca8	-0.014933743
9	0x3d9c9887	0.0764628
10	0x3d9f8048	0.077881396
11	0xbe02a093	-0.12756567
12	0x3d6844d8	0.05670628
13	0xbe0c60e9	-0.13708843
14	0xbddc8b2e	-0.10768734
15	0xbcb09399	-0.021554755
16	0xbdc3666f	-0.09541022
17	0x3dc9d64b	0.09855326
18	0xbd3df9e4	-0.046380892
19	0x3dfdbb1e	0.123892054
20	0xbe29c71d	-0.16579862
21	0x3c1bd7fa	0.009511942
22	0xbd3a2b4f	-0.04545146
23	0xbce882f4	-0.028382756
24	0xbd874e4c	-0.06606731
25	0x3e2459e1	0.16049911
26	0x3ddc53b3	0.10758152
27	0x3e0f4c71	0.13994004
28	0xbdf8d9a1	-0.121508844
29	0x3e11a2f6	0.14222321
30	0x3e0ac321	0.13550998
31	0x3deac13b	0.11462637

emb_net.v_lins1.2.weight f4 [32, 32]
0	0xbdb4af11	-0.08822454
1	0xbe325436	-0.17414936
2	0xbda72afe	-0.08162497
3	0xbe0ea63f	-0.13930605
4	0xbdba4643	-0.090954326
5	0x3dfd1dc4	0.12359193
6	0xbd828a62	-0.06374051
7	0xbe1e20e7	-0.15442239
8	0x3d71c065	0.059021372
9	0xbd923022	-0.07138087
10	0xbca251fe	-0.019814488
11	0xbc551ca6	-0.013007319
12	0x3b2d47b3	0.002644044
13	0x3ce73dbf	0.028227685
14	0xbdb92ea4	-0.09042099
15	0xbd9e44e5	-0.07727984
16	0xbcc1c709	-0.023654478
17	0x3dbb79d8	0.09154099
18	0xbe30696c	-0.17227715
19	0x3dbdf962	0.092760816
20	0xbdb3ad3d	-0.08773277
21	0xbb90b432	-0.004416012
22	0x3ca8042e	0.020509806
23	0xbc720f8c	-0.0147742145
24	0xbe1eb9b5	-0.15500529
25	0x3dcdf450	0.100563645
26	0xbe486c72	-0.19572619
27	0xbdc37ef9	-0.095457025
28	0xbd60a072	-0.054840513
29	0x3bfcd053	0.007715264
30	0x3e20e551	0.15712477
31	0xbda1e986	-0.07905869
32	0xbd80e7db	-0.06294223
33	0x3e27beb6	0.16381344
34	0xbc24f83b	-0.010068948
35	0x3d8ffb0a	0.07030304
36	0xbe167906	-0.14694604
37	0xbdd8edd3	-0.10592236
38	0x3e2b5970	0.16733336
39	0x3c04cc57	0.008105359
40	0xbd385a75	-0.04500814
41	0xbe26291d	-0.16226621
42	0x3e0b614c	0.13611335
43	0x3c94cf2a	0.01816519
44	0xbe0a40ff	-0.13501357
45	0xbe266546	-0.1624957
46	0xbd81063c	-0.06300017
47	0x3d934774	0.07191363
48	0xbda96182	-0.08270551
49	0x3dfc3b91	0.12316049
50	0x3da9f469	0.08298571
51	0xbe15cd49	-0.14629091
52	0x3db7a4bc	0.089669675
53	0x3adc3213	0.0016799591
54	0x3da5b082	0.08090307
55	0xbb7b4319	-0.0038339554
56	0xbe082ba0	-0.13297892
57	0x3dfffe36	0.12499659
58	0xbd6bf866	-0.057609938
59	0x3df3a52a	0.11896737
60	0x3df9a358	0.121893585
61	0xbe408e58	-0.188043
62	0x3b7fe216	0.003904467
63	0xbd68f9a0	-0.056878686
64	0xbe2f5295	-0.17121346
65	0xbdeb8af9	-0.11501116
66	0xbe289b6b	-0.16465537
67	0x3d35bdf2	0.0443706
68	0x3df74875	0.12074367
69	0xbce0307d	-0.027366871
70	0xbd85cd8b	-0.06533345
71	0xbddc2b5d	-0.107504584
72	0xbe2e19f4	-0.17002088
73	0xbda21bb6	-0.07915442
74	0xbdad3bba	-0.084586576
75	0xbdc03752	-0.093855515
76	0x3d5a3fc0	0.053283453
77	0x3df4000a	0.1191407
78	0xbe213792	-0.15743855
79	0xbe0921e7	-0.13391839
80	0x3de1d3be	0.11026715
81	0x3db9ec12	0.0907823
82	0x3e0d67ab	0.13809077
83	0x3e087f32	0.13329771
84	0x3de33691	0.11094392
85	0x3cf953fe	0.030435558
86	0xbdeaeec2	-0.11471321
87	0xbe2696c5	-0.16268452
88	0x3deec2c9	0.11658246
89	0x3e12fab9	0.14353456
90	0xbbda9194	-0.0066701863
91	0x3e104f7f	0.14092825
92	0xbe106fe0	-0.14105177
93	0x3d1661ac	0.03671424
94	0x3d25f0ee	0.04051297
95	0xbe1dc347	-0.15406524
96	0x3e151c19	0.145615
97	0xbe13ed43	-0.14445977
98	0x3e3ab550	0.18233228
99	0xbc01455e	-0.007890074
100	0xba8e58db	-0.0010860221
101	0x3de086b4	0.109631926
102	0xbda71da7	-0.081599526
103	0xbcded844	-0.027202733
104	0x3d9526a1	0.072827585
105	0xbd80fec9	-0.062985964
106	0xbd09c185	-0.03363182
107	0x3e22c0ee	0.1589391
108	0xbdcaeb02	-0.099081054
109	0x3cb31271	0.02185938
110	0xbcfae936	-0.030628782
111	0x3e0e46de	0.13894221
112	0xbd06e93f	-0.032937285
113	0x3e358306	0.17725763
114	0xbe065eb3	-0.13122062
115	0x3c9e6e00	0.019339561
116	0x3d217a2a	0.039423145
117	0xbcb403db	-0.021974495
118	0x3cef1f64	0.029189773
119	0x3b8792a7	0.0041373554
120	0xbd3b6e61	-0.045759562
121	0x3c36e02a	0.011161843
122	0x3bfd3eee	0.007728449
123	0xbe27ccbb	-0.16386692
124	0xbb7e6a21	-0.0038820582
125	0xbb093383	-0.0020935244
126	0x3dd359d6	0.10319869
127	0x3dadf476	0.08493893
128	0xbd204dff	-0.039136883
129	0xbdd07d88	-0.10180193
130	0x3df47218	0.11935824
131	0xbc6a7ba3	-0.014311704
132	0xbdeb525b	-0.114903174
133	0xbe1fde7f	-0.1561222
134	0xbbf5b133	-0.0074979304
135	0xbdd3949c	-0.10331079
136	0x3d7d75bd	0.061879862
137	0xbe0a89f4	-0.13529187
138	0xbdd4e612	-0.10395445
139	0xbe216196	-0.15759882
140	0xbd8e1612	-0.06937803
141	0x3d98685e	0.074417815
142	0x3d8b6221	0.06805826
143	0x3d780f77	0.060561623
144	0xbe20bb06	-0.15696344
145	0x3d9c2a9e	0.07625316
146	0xbdaab762	-0.08335759
147	0xbd57c174	-0.052674726
148	0x3d6da43a	0.058017947
149	0x3d9d7b4e	0.07689534
150	0x3ca350b4	0.019935943
151	0xbdff1ef2	-0.12457074
152	0x3e292198	0.16516721
153	0x3e03cb01	0.12870409
154	0xbc257f43	-0.010101142
155	0xbe094fd9	-0.13409366
156	0x3d7e5140	0.062089205
157	0x3e15fa6c	0.1464631
158	0xbc04db1c	-0.00810888
159	0x3d504736	0.050849162
160	0xbd84d1c9	-0.06485326
161	0xbdf8a7c2	-0.12141372
162	0xbddbdbe4	-0.107353
163	0x3df2eb91	0.11861337
164	0xbb5affc5	-0.003341661
165	0x3de73b33	0.11290588
166	0xbdcce658	-0.10004872
167	0xbc79e77f	-0.015252947
168	0xbe0794d3	-0.13240366
169	0xbd0d66fe	-0.03452205
170	0xbd03f79b	-0.032218557
171	0xbd53d671	-0.05171818
172	0x3cae6074	0.021286227
173	0xbe1efe6c	-0.15526742
174	0x3e262c76	0.16227898
175	0xbdb1cfe3	-0.08682229
176	0xbca9cb07	-0.020726694
177	0xbdf53e57	-0.11974781
178	0xbdeda143	-0.11603024
179	0x3d8adca1	0.06780363
180	0x3e30904d	0.17242546
181	0x3d5fc1e2	0.05462826
182	0x3cecf193	0.028923785
183	0xbe1be2f7	-0.15223299
184	0x3cfb2d4c	0.030661248
185	0xbdf7184a	-0.1206518
186	0x3c47cac0	0.012194335
187	0xbd731282	-0.059343822
188	0x3d95b9a2	0.07310797
189	0x3d6d59f8	0.05794713
190	0xbdd194a7	-0.10233431
191	0x3d32bf6a	0.043639578
192	0xbe1cbf1e	-0.1530728
193	0x3bde0f9c	0.006776763
194	0x3d35a81d	0.04434978
195	0x3c58aaf9	0.013224357
196	0x3e369aa3	0.17832427
197	0xbd884431	-0.066536315
198	0x3dd55489	0.104165144
199	0xbdea5763	-0.11442449
200	0xbe06032c	-0.13087147
201	0x3de868aa	0.11348088
202	0xbdeb996a	-0.11503871
203	0x3e16bde6	0.14720878
204	0x3e0ab40a	0.13545242
205	0x3e01b27d	0.12665744
206	0xbc8ab7cd	-0.016933346
207	0xbdc51744	-0.09623578
208	0xbe389309	-0.1802484
209	0x3d471d76	0.04861208
210	0xbc62d2e4	-0.013844226
211	0x3b403a02	0.002933145
212	0x3d11dd0c	0.035611197
213	0xbe440ce9	-0.1914555
214	0xbd8b4c31	-0.06801642
215	0x3d9a8754	0.07545343
216	0xbde1f39b	-0.11032792
217	0xbd7c4882	-0.061592586
218	0xbc9804f9	-0.018557059
219	0xbd15e046	-0.036590837
220	0x3de7deae	0.1132177
221	0x3e04cc77	0.12968622
222	0xbb2e7e82	-0.0026625698
223	0x3c6a5a62	0.0143037755
224	0xbd77ea23	-0.060526025
225	0x3d518175	0.05114885
226	0xbe125c3b	-0.14292996
227	0x3cae3646	0.021266114
228	0x3decabbb	0.115561925
229	0xbe271164	-0.16315228
230	0xbe43ab19	-0.19108237
231	0x3dd0297a	0.10164161
232	0xbe33c278	-0.17554653
233	0xbd81e17b	-0.06341835
234	0x3dcecd59	0.10097761
235	0x3caf915b	0.021431616
236	0xbdd3b97e	-0.10338114
237	0xbb066a2b	-0.0020510058
238	0x3d993110	0.07480061
239	0x3db315e1	0.087444074
240	0x3d8bbba6	0.068229005
241	0x3d7f9f5f	0.062407847
242	0xbd556dc2	-0.052106626
243	0xbda4dce9	-0.08049948
244	0x3dd8dd96	0.10589139
245	0xbcb625a7	-0.02223475
246	0x3e10ca10	0.1413958
247	0x3c54d85a	0.012991035
248	0xbdd27215	-0.10275666
249	0x3ce67fdd	0.028137142
250	0xbe1705d3	-0.14748316
251	0xbd68a8d7	-0.056801643
252	0x3cb3951c	0.021921687
253	0x3d9c1c2a	0.07622559
254	0x3de4145e	0.11136697
255	0xbc414b86	-0.011797791

emb_net.v_lins1.2.bias f4 [32]
0	0x3dc6824c	0.09692821
1	0x3bd86c07	0.0066046747
2	0x3dc97158	0.09836072
3	0xbd8cc359	-0.06873197
4	0x3e12e154	0.14343768
5	0x3e072e56	0.1320127
6	0x3dd7d37f	0.105383866
7	0x3da666c0	0.08125067
8	0x3dc88475	0.09790889
9	0x3d94fc43	0.072746776
10	0x3c87c15e	0.016571697
11	0xbdba5820	-0.0909884
12	0xbda2ae26	-0.079433724
13	0x3d6fcf42	0.058547266
14	0x3db46f2b	0.08810266
15	0x3d429c1a	0.04751215
16	0x3da4239c	0.080146044
17	0x3de2c9f7	0.11073678
18	0xbdff2879	-0.124588914
19	0x3e0bd4d4	0.13655406
20	0xbe0410d5	-0.12897046
21	0x3db3d1a0	0.08780217
22	0xbd98bcfd	-0.07457922
23	0xbe003ecd	-0.12523957
24	0x3e307f5b	0.17236082
25	0xbd1bb09b	-0.03801022
26	0x3e2b4dd3	0.16728906
27	0xba91193d	-0.0011070144
28	0xbdc13358	-0.09433621
29	0x3dad87b6	0.084731504
30	0xbdc64d34	-0.09682694
31	0xbcb2f8a8	-0.021847084

emb_net.v_lins1.3.weight f4 [32, 32]
0	0xbd7c06ff	-0.06153011
1	0x3d8ef64c	0.06980571
2	0x3dda2edd	0.1065347
3	0x3e2380d0	0.15967107
4	0xbd956337	-0.07294314
5	0x3c946adc	0.01811736
6	0x3c2c3406	0.01051045
7	0x3c7935df	0.015210598
8	0x3da6915d	0.081331946
9	0x3ddc1880	0.107468605
10	0x3d5144b0	0.051090896
11	0xbdd5cc67	-0.10439377
12	0xbd54754c	-0.051869676
13	0xbe19504a	-0.14972034
14	0xbd2d1e48	-0.042265207
15	0x3e1b8180	0.15186119
16	0x3cce11f4	0.025155045
17	0xbd3f7d12	-0.046750136
18	0x3dfd5629	0.12369949
19	0x3e3c6891	0.18399264
20	0x3e1a577e	0.15072438
21	0x3e20b0e9	0.15692486
22	0x3d49b9c7	0.049249437
23	0x3d95f7d3	0.07322659
24	0xbe31199f	-0.1729493
25	0x3ddff735	0.10935823
26	0xbdffd0a2	-0.124909654
27	0xbe1bbb41	-0.1520815
28	0x3e163832	0.14669874
29	0xbdeae7e8	-0.11470014
30	0x3e24ec43	0.16105752
31	0x3d4d83fb	0.050174695
32	0x3dfc6c51	0.12325347
33	0x3dce2e59	0.10067434
34	0xbcbdeb44	-0.023183472
35	0x3c9ace4a	0.018897194
36	0xbcc8fbc4	-0.024534114
37	0x3d852b77	0.06502431
38	0x3dd7dd23	0.10540225
39	0xbda4666a	-0.080273464
40	0x3c9f4b71	0.019445153
41	0xbe22ab7a	-0.15885726
42	0xbe176f29	-0.14788498
43	0xbe0d24c4	-0.13783556
44	0x3da9cb34	0.08290711
45	0x3d050def	0.03248399
46	0xbe1c2376	-0.15247902
47	0x3d95c548	0.07313019
48	0xbd34e9d5	-0.044168312
49	0x3e09f388	0.13471806
50	0xbdf590be	-0.11990498
51	0xbd801824	-0.062546045
52	0x3dff7328	0.12473136
53	0x3e20de1f	0.15709732
54	0x3cc31dd1	0.023817929
55	0xbc90c643	-0.017672664
56	0x3e128bc7	0.14311133
57	0x3da91bdd	0.082572676
58	0xbe135e33	-0.14391403
59	0x3e061266	0.13092956
60	0xbe22b94e	-0.15891
61	0x3dfcaa7f	0.12337207
62	0xbda473ca	-0.080298975
63	0xbe0524d2	-0.13002327
64	0xbcfd5313	-0.030923402
65	0x3ba4af14	0.0050257538
66	0x3da4c7b9	0.080459066
67	0x3dc7ef0f	0.09762394
68	0xbde48c56	-0.111595795
69	0x3c9e2146	0.019302975
70	0x3c2c67b0	0.010522768
71	0xbe0fe901	-0.14053728
72	0x3e07e896	0.13272318
73	0x3dcef975	0.10106174
74	0x3dd57953	0.104235314
75	0x3c9d98ea	0.019237954
76	0x3dc12a67	0.09431916
77	0xbc400cb9	-0.011721783
78	0xbd812eba	-0.063077405
79	0xbdbf7578	-0.09348577
80	0xbd9a1571	-0.07523621
81	0xbe2492d4	-0.16071635
82	0x3c9505f3	0.018191313
83	0xbcf3942e	-0.029733744
84	0xbe412d60	-0.18864965
85	0xbe1e25db	-0.15444128
86	0xbd54b721	-0.051932458
87	0x3df03238	0.117283285
88	0x3df613af	0.12015473
89	0x3d753630	0.05986613
90	0x3da91ed2	0.08257832
91	0xbdf70145	-0.12060789
92	0x3ac2302c	0.0014815382
93	0x3c085e38	0.008323245
94	0x3c996421	0.018724503
95	0xbc9391a0	-0.018013775
96	0xbd9d187b	-0.07670685
97	0xbe42aedc	-0.19012016
98	0x3c5e2af0	0.013560042
99	0xbe23af83	-0.15984921
100	0xbc93c8d8	-0.018040106
101	0xbbec03d7	-0.007202606
102	0xbdffacb7	-0.124841146
103	0x3d101c2e	0.035183124
104	0xbe08f2e7	-0.1337391
105	0xbe079e51	-0.13243987
106	0xbc42618e	-0.011864079
107	0xbd43b076	-0.04777571
108	0x3e077126	0.13226756
109	0xbcb094c8	-0.02155532
110	0x3ddb7414	0.107154995
111	0x3d9ad765	0.075606145
112	0x3cc08255	0.023499647
113	0xbcc01eee	-0.023452248
114	0x3e099bbb	0.13438313
115	0x3ccdf4b3	0.025141096
116	0xbdd1597e	-0.102221474
117	0x3cfb7ff7	0.030700667
118	0xbdac6a7b	-0.08418747
119	0xbe31b6cf	-0.17354892
120	0xbcdf8b34	-0.027288057
121	0x3d79179b	0.060813528
122	0x3d02578c	0.031821772
123	0x3c0d32f3	0.008618104
124	0xbd59d6ef	-0.053183492
125	0x3e047cb3	0.12938194
126	0xbe1466db	-0.14492361
127	0x3dd3b003	0.10336306
128	0xbdd21b1d	-0.10259078
129	0x3e08c2d2	0.13355568
130	0xbd600f99	-0.054702375
131	0x3df61075	0.12014858
132	0x3e0c32d5	0.13691266
133	0xbbe39d03	-0.0069462075
134	0xbbd4f0d1	-0.006498434
135	0x3de3daa3	0.11125686
136	0xbd279fd8	-0.040923923
137	0xbda510de	-0.08059858
138	0xbe1a2fc9	-0.15057291
139	0x3d00dff6	0.031463586
140	0x3d9eb891	0.07750047
141	0xbd8e929f	-0.069615595
142	0x3e28dffa	0.1649169
143	0x3d54daaf	0.051966365
144	0xbd47a8bc	-0.048744902
145	0xbce6410f	-0.028107194
146	0xbcc58cca	-0.024114985
147	0xbcb5e7e5	-0.022205302
148	0x3e1ebb5d	0.15501161
149	0xbe24ec48	-0.16105759
150	0xbe2635f4	-0.16231519
151	0x3ce2a407	0.027666105
152	0xbe3bf20b	-0.18354051
153	0xbc3e8051	-0.011627273
154	0xbe18876e	-0.14895412
155	0xbdb50180	-0.08838177
156	0x3dae7b87	0.08519655
157	0xbcf2e231	-0.029648872
158	0xbd36783f	-0.04454827
159	0xbd17d65b	-0.03706966
160	0xbe10ba01	-0.14133455
161	0xbd62e678	-0.055395573
162	0xbd6026ce	-0.054724507
163	0x3e053f58	0.13012445
164	0x3daa0697	0.08302038
165	0x3d93d7b5	0.07218877
166	0xbc886f66	-0.016654681
167	0x3c8fcdf0	0.017554253
168	0xbdc2a7fb	-0.09504696
169	0x3d9771df	0.07394766
170	0x3e11a8c2	0.14224532
171	0xbe1def57	-0.15423332
172	0x3cfb7091	0.030693324
173	0xbd89e29b	-0.06732675
174	0xbdb732b9	-0.089452215
175	0xbe13338a	-0.1437513
176	0xbdb53d42	-0.088495746
177	0xbe01d484	-0.12678725
178	0x3da80170	0.08203399
179	0x3d48636d	0.048922945
180	0xbcb20a8e	-0.021733548
181	0xbd07f81c	-0.0331956
182	0xbd6e7b57	-0.058223095
183	0x3cc6468c	0.024203561
184	0x3df0dd91	0.117610104
185	0xbd841f7d	-0.064513184
186	0xbe2ef947	-0.1708728
187	0x3c076288	0.008263238
188	0xbd89529c	-0.067052096
189	0xbbc6c658	-0.006066125
190	0x3e09314a	0.13397709
191	0xbde0dc51	-0.10979522
192	0x3d8a2b13	0.06746497
193	0x3db4c1ad	0.08826003
194	0x3e162ee3	0.14666323
195	0xbe3e596b	-0.18588798
196	0xbe0c8bf6	-0.13725266
197	0x3de79b66	0.11308937
198	0xbd08bf14	-0.03338535
199	0x3d7317cc	0.059348866
200	0x3dafbdad	0.085811
201	0x3cfe34ad	0.031030977
202	0xbdf9ccde	-0.121972784
203	0x3d1f59df	0.038904067
204	0x3da577f6	0.08079521
205	0xbe295e3c	-0.16539854
206	0xbdd3c927	-0.10341101
207	0xbde17c9d	-0.11010096
208	0xbdc060bf	-0.09393453
209	0x3a1d641c	0.0006003992
210	0xbd0450a3	-0.032303464
211	0xbe28dee3	-0.16491275
212	0xbd84dc24	-0.06487301
213	0xbccd36bf	-0.025050519
214	0xbddda45e	-0.10822366
215	0xbda6ac0d	-0.08138285
216	0xbdbd6dc7	-0.09249454
217	0xbdf70de1	-0.12063194
218	0xbcf1890f	-0.0294843
219	0xbe0e7db2	-0.13915136
220	0x3c5926bc	0.013253864
221	0xbdeb4401	-0.1148758
222	0x3d0de156	0.034638725
223	0x3d31ec30	0.043438137
224	0xbd90f1be	-0.07077359
225	0x3d71f569	0.059071932
226	0xbc75fc83	-0.015013817
227	0xbd95e330	-0.07318723
228	0xbd71344f	-0.058887776
229	0xbd882cf0	-0.06649196
230	0xbdb3108e	-0.08743392
231	0xbd97b1ba	-0.074069455
232	0x3cd4a27f	0.02595639
233	0x3d5f8b02	0.054575928
234	0xbdf700ab	-0.12060674
235	0x3d7c1495	0.061543066
236	0x3cf25111	0.029579671
237	0xbe1b915d	-0.1519217
238	0x3d0103ea	0.031497873
239	0x3d0165f9	0.03159139
240	0x3babb27f	0.0052397843
241	0xbdbf5045	-0.09341482
242	0x3d839b16	0.06426065
243	0xbe08db18	-0.13364828
244	0xbdbe19e8	-0.09282285
245	0xbde92e95	-0.11385838
246	0xbe261f99	-0.16222991
247	0x3d78d4a2	0.060749657
248	0x3e09ae05	0.1344529
249	0xbe1b244c	-0.15150565
250	0x3c8f434c	0.017488144
251	0xbd5d6fbd	-0.05406164
252	0xbd2e39f7	-0.04253575
253	0xbe03b109	-0.12860502
254	0x3da10f9a	0.07864304
255	0x3ddcf4f6	0.1078891

emb_net.v_lins1.3.bias f4 [32]
0	0x3d124195	0.035707075
1	0xbd06b1f5	-0.032884557
2	0x3b7c1da3	0.0038469813
3	0xbde76b5f	-0.11299776
4	0x3dec5398	0.11539382
5	0xbe060928	-0.1308943
6	0xbdbb03ad	-0.091315605
7	0xbb3a95f1	-0.002847072
8	0xbdf7d06d	-0.12100301
9	0x3d4f0666	0.05054321
10	0xbdd7df6e	-0.10540663
11	0x3ccc7910	0.02496007
12	0xbd5b84a7	-0.053593304
13	0xbda8978c	-0.0823203
14	0x3cdc6bc6	0.02690686
15	0xbbad1639	-0.00528219
16	0x3d4d2c34	0.050090984
17	0xbd40148c	-0.046894595
18	0x3d9eb065	0.07748488
19	0xbe3265f6	-0.17421708
20	0x3c607b78	0.013701312
21	0xbcd8b628	-0.026454046
22	0x3e15979f	0.1460862
23	0x3e214d38	0.15752113
24	0xbcd58f30	-0.026069254
25	0x3e18a8d7	0.14908157
26	0x3dd233a7	0.10263758
27	0x3d863e4e	0.065548524
28	0xbdc9d463	-0.09854963
29	0xbdb172e4	-0.08664492
30	0x3e25c078	0.16186702
31	0xbd5964e8	-0.053074747

emb_net.v_lins1.4.weight f4 [32, 32]
0	0x3e14e60c	0.14540881
1	0x3da2f33d	0.0795655
2	0xbd8d8f2b	-0.06912073
3	0x3e025b28	0.12730086
4	0x3d4d6037	0.050140586
5	0x3cba5ac0	0.022748351
6	0xbdcc2373	-0.09967699
7	0x3e256521	0.16151859
8	0x3dd76f4c	0.10519275
9	0x3e1dc8b1	0.15408589
10	0x3e2ba2f5	0.16761382
11	0xbd466351	-0.04843456
12	0x3e049b7a	0.12949935
13	0xbc936886	-0.017994177
14	0x3cf531b3	0.029930925
15	0xbdf7afb6	-0.12094061
16	0x3e17d536	0.14827427
17	0xbd8d2ea9	-0.06893665
18	0x3e35bb45	0.17747219
19	0x3d452c1f	0.04813778
20	0x3d1b4d2f	0.037915405
21	0x3d584265	0.052797694
22	0x3e1ca6f2	0.1529806
23	0x3dc588bc	0.09645221
24	0x3db0ee2f	0.0863918
25	0x3dde389d	0.10850642
26	0xbde62c4d	-0.112389185
27	0xbdd57db0	-0.104243636
28	0x3e13aafd	0.14420696
29	0x3de3f31e	0.11130355
30	0xbdba31a7	-0.09091502
31	0xbd8ff1e2	-0.07028557
32	0xbd23f1e5	-0.04002561
33	0xbca926f5	-0.020648459
34	0x3e21cc9d	0.1580071
35	0x3d39f17c	0.045396313
36	0xbe0f14c7	-0.1397277
37	0x3d0b1b5e	0.033961646
38	0x3d15c5d8	0.03656563
39	0x3e2b84e0	0.16749907
40	0x3df9826d	0.1218308
41	0xbe065bb4	-0.1312092
42	0xbdb4e7be	-0.08833264
43	0x3e38fbe9	0.18064846
44	0x3d01b3e1	0.031665687
45	0xbd0ad5d6	-0.033895336
46	0xbdb455c7	-0.08805423
47	0xbd44a3ca	-0.048007764
48	0x3d5edbd8	0.054408878
49	0xbe1750ee	-0.14776966
50	0x3dc9051d	0.098154284
51	0x3d4ecc46	0.05048778
52	0xbdf8100c	-0.12112436
53	0x3e0bf47d	0.13667484
54	0x3dbff4bd	0.09372852
55	0x3e13c5ad	0.14430876
56	0x3e29a44f	0.16566585
57	0xbe087975	-0.13327582
58	0x3dbb3cdd	0.09142468
59	0x3d80fe39	0.06298489
60	0x3dfa62f8	0.12225908
61	0x3d1b83fe	0.037967674
62	0xbe25b823	-0.16183524
63	0x3dd2bdda	0.102901176
64	0xbda14b36	-0.078756735
65	0xbdf6dafc	-0.12053487
66	0x3cf309df	0.029667793
67	0xbdd44c69	-0.103661366
68	0xbda65189	-0.0812102
69	0x3e1fcee3	0.15606265
70	0xbe120047	-0.14257918
71	0x3d4aab2e	0.049479656
72	0xbbf1be00	-0.007377386
73	0x3d8d56bc	0.06901309
74	0x3d14360c	0.036184356
75	0xbcf817fc	-0.030284874
76	0x3d5200f1	0.05127043
77	0x3dcec78d	0.10096655
78	0x3e1020b8	0.14074981
79	0x3e2b569d	0.16732259
80	0xbde1efe2	-0.11032082
81	0x3d42a0bc	0.04751657
82	0x3dcad934	0.099047095
83	0xbe02adbf	-0.12761591
84	0x3d9a6ab2	0.07539882
85	0xbd05bfce	-0.032653622
86	0x3d2b4546	0.04181411
87	0x3e1d2071	0.15344407
88	0xbe111ef5	-0.14171965
89	0xbd0b6cc0	-0.03403926
90	0x3dafa289	0.08575923
91	0x3dbd81c0	0.092532635
92	0x3d8d0e21	0.068874605
93	0x3e000a31	0.12503888
94	0xbdacc8b2	-0.08436717
95	0x3db685ca	0.08912237
96	0xbe0e92c7	-0.13923179
97	0xbd40426a	-0.046938337
98	0x3d5ca75b	0.05387054
99	0x3dcd3784	0.100203544
100	0x3b154644	0.0022777477
101	0xbde5b67c	-0.11216447
102	0x3debdc48	0.11516625
103	0xbe23dfdf	-0.16003369
104	0xbe202001	-0.15637209
105	0xbdef6ded	-0.116908886
106	0x3cbd4f81	0.0231092
107	0x3d8b7041	0.0680852
108	0xbdb82ce1	-0.08992935
109	0x3d8f0b7f	0.069846146
110	0xbd9eeafb	-0.07759663
111	0xbe1d37d3	-0.15353326
112	0xbdde62eb	-0.10858711
113	0x3d1881f2	0.0372333
114	0x3e1bb53d	0.15205856
115	0x3da99bbe	0.082816586
116	0x3d87b085	0.06625465
117	0xbd8cb591	-0.068705685
118	0xbba3f8ea	-0.005004038
119	0xbe1e842c	-0.15480107
120	0xbde47996	-0.11156003
121	0xbe04d84d	-0.12973137
122	0xbc828883	-0.015934234
123	0xbe0bb905	-0.13644798
124	0xbe0519a4	-0.12998062
125	0x3d647a1b	0.05578051
126	0xbdf31be3	-0.11870553
127	0x3cda99f8	0.026684746
128	0xbdbcefd9	-0.09225435
129	0x3d8637c9	0.06553609
130	0x3e163ef9	0.1467246
131	0xbe22ce2e	-0.15898964
132	0x3d99612d	0.07489238
133	0x3e354593	0.17702322
134	0xbe107477	-0.14106928
135	0x3e0eee47	0.13958083
136	0xbe4730b0	-0.19452167
137	0xbd41e92a	-0.047341503
138	0xbdfb331f	-0.1226561
139	0xbcb2341c	-0.021753363
140	0x3e050396	0.12989649
141	0xbd94c420	-0.072639704
142	0x3d541acf	0.05178338
143	0xbdb0b688	-0.08628565
144	0xbe1c3ad6	-0.15256819
145	0xbe07e5d9	-0.13271274
146	0xbd5c0b9a	-0.053722
147	0x3dd8447c	0.10559937
148	0xbd3061f7	-0.043062177
149	0xbdf32839	-0.11872906
150	0xbd2abad5	-0.041682083
151	0x3dedeb44	0.11617139
152	0x3bec0ea2	0.007203893
153	0xbd3329c6	-0.04374101
154	0xbdfb1fe9	-0.12261946
155	0xbe0087f7	-0.12551866
156	0x3df86bb4	0.12129918
157	0x3c1a3efe	0.009414433
158	0x3c74e228	0.014946498
159	0x3dbf4ff0	0.09341419
160	0x3da84605	0.0821648
161	0xbe32789d	-0.17428823
162	0xbe11a19d	-0.14221807
163	0x3dfd46dd	0.12367032
164	0xbdf1a525	-0.11799077
165	0xbc1cacd0	-0.009562686
166	0x3d05f600	0.032705307
167	0x3d88b656	0.06675403
168	0xbe4506f4	-0.19240934
169	0xbd8e2071	-0.069397815
170	0xbd64dd5f	-0.05587518
171	0xbcb786ec	-0.022403203
172	0xbd91d236	-0.07120173
173	0xbb861390	-0.0040916875
174	0x3dd922cb	0.10602339
175	0xbda31f83	-0.07964995
176	0xbda30d20	-0.07961488
177	0x3d4849f6	0.04889866
178	0xbe1ae79e	-0.15127417
179	0x3d183b65	0.037166018
180	0x3d703612	0.058645315
181	0xbc4add96	-0.012381932
182	0xbe119266	-0.14216003
183	0xbd22857c	-0.039678082
184	0xbe12b4f5	-0.14326842
185	0x3de89a89	0.113576
186	0xbbe9157e	-0.007113158
187	0x3e226ed2	0.15862587
188	0xbe122ed5	-0.14275678
189	0x3da900db	0.08252116
190	0xbe080607	-0.13283549
191	0x3db3e245	0.08783392
192	0x3ce52851	0.027973326
193	0xbdfd49bf	-0.123675816
194	0xbd831d81	-0.06402112
195	0x3d95db6d	0.07317243
196	0x3db24125	0.087038316
197	0x3e1bf182	0.15228847
198	0x3bf4fc6c	0.00747638
199	0x3da3e247	0.08002143
200	0xbc953f05	-0.018218527
201	0xbe2c4616	-0.1682361
202	0x3dd11ffa	0.10211177
203	0x3c82e950	0.015980393
204	0xbbe4df91	-0.006984659
205	0xbe1c55ef	-0.15267156
206	0x3ce0f9a9	0.027462797
207	0x3da042c8	0.078252375
208	0xbdb548bf	-0.08851766
209	0x3d8ab0cc	0.067720026
210	0x3a87dc42	0.0010365325
211	0xbe0042ca	-0.12525478
212	0xbdaec407	-0.08533483
213	0x3df5fecc	0.12011489
214	0x3db2d064	0.087311536
215	0xbe31e078	-0.17370784
216	0x3dc56166	0.09637718
217	0xbdf69af4	-0.12041274
218	0x3cb611b6	0.022225242
219	0xbe01c389	-0.12672247
220	0xbc86d052	-0.016456757
221	0xbe034159	-0.12817897
222	0xbdcdcdbf	-0.100490086
223	0x3d8a09d2	0.06740154
224	0x3e03656f	0.12831663
225	0xbe04b639	-0.12960137
226	0xbe39c14f	-0.18140148
227	0x3d8d7387	0.06906801
228	0xbe3ff9d1	-0.18747641
229	0xbd977864	-0.073960096
230	0x3cff74b7	0.031183584
231	0xbdfd771b	-0.12376233
232	0xbd24412c	-0.040101215
233	0xbe309a57	-0.17246376
234	0xbe40ffca	-0.18847576
235	0x3db5bb56	0.08873622
236	0x3d00b461	0.031422023
237	0xbbb5da8b	-0.005549734
238	0x3cbed1bc	0.023293369
239	0xbe2292ce	-0.15876314
240	0x3bd2bd09	0.006431226
241	0xbd0e0cd8	-0.034680218
242	0x3cbcc3de	0.023042616
243	0x3da012c6	0.07816081
244	0xbd06eec0	-0.032942533
245	0x3c7d7bb0	0.015471384
246	0xbcccd3e0	-0.025003374
247	0x3c790ab2	0.015200304
248	0x3d9cedf5	0.07662574
249	0x3d6d2599	0.057897184
250	0xbe35e41c	-0.17762798
251	0x3d8e8c5b	0.069603644
252	0x3d0a1232	0.03370876
253	0x3dd328e8	0.103105366
254	0xbd090b6b	-0.033458155
255	0x3d2cc78e	0.042182498

emb_net.v_lins1.4.bias f4 [32]
0	0xbde9bff3	-0.114135645
1	0x3d032272	0.03201527
2	0xbe2b1668	-0.16707766
3	0xbc34dabe	-0.01103848
4	0xbd1a2432	-0.037632175
5	0xbde80578	-0.11329168
6	0x3e23b69d	0.1598763
7	0x3d450831	0.048103515
8	0xbd364b7c	-0.04450558
9	0xbe2f1d14	-0.17100936
10	0x3d25c4d5	0.040470917
11	0x3d44b394	0.04802282
12	0x3d3a73c7	0.04552057
13	0xbddd1f2a	-0.1079696
14	0x3e3037a9	0.17208733
15	0x3dc44231	0.095829375
16	0xbbe5fd00	-0.0070186853
17	0xbdede0cd	-0.11615143
18	0xbc6ecbd2	-0.014574962
19	0x3d0bcf0e	0.03413301
20	0x3b9c0271	0.004761033
21	0x3b8b9738	0.00425997
22	0xbd10873b	-0.035285216
23	0x3af6b448	0.0018822039
24	0xbe26efa7	-0.16302358
25	0x3cab54c8	0.02091445
26	0xbe334744	-0.17507654
27	0xbd8d3fac	-0.0689691
28	0xbdd4f9df	-0.10399222
29	0x3e27f259	0.16401042
30	0xbd57f624	-0.052724972
31	0xbde8f1ce	-0.113742456

emb_net.v_lins1.5.weight f4 [32, 32]
0	0xbd883127	-0.0665
1	0x3d209984	0.039208904
2	0x3e08f746	0.13375577
3	0xbdc63487	-0.096779875
4	0xbd88bdb5	-0.06676809
5	0xbd52ea5e	-0.05149304
6	0xbe24312e	-0.16034386
7	0xbe30d11c	-0.17267269
8	0x3e082e25	0.13298853
9	0xba6e6074	-0.0009093352
10	0x3dd20ed4	0.102567345
11	0xbd0bb3b1	-0.034106914
12	0xbd41bebd	-0.047301043
13	0xbd579d92	-0.052640505
14	0xbe2085d8	-0.15676057
15	0x3dbf748c	0.093484014
16	0xbe1b1458	-0.1514448
17	0x3e046686	0.12929735
18	0xbdf61d5f	-0.12017321
19	0xbc7187d8	-0.01474186
20	0xbe289cec	-0.16466111
21	0xbdb0145f	-0.085976355
22	0x3e2ef30b	0.17084901
23	0xbd2336e1	-0.03984726
24	0xbdbc0ea7	-0.09182482
25	0xbe1730f3	-0.14764766
26	0xbe0f0fef	-0.13970922
27	0xbdf3fc8a	-0.119134024
28	0xbd27f5bb	-0.04100583
29	0xbdd2c054	-0.1029059
30	0x3e02f67f	0.12789343
31	0x3d922181	0.071352966
32	0x3cbc711f	0.02300316
33	0x3d172fdc	0.036910877
34	0x3e30fae1	0.17283203
35	0x3e0ed14c	0.13947028
36	0xbcf69f27	-0.030105187
37	0xbe11448c	-0.14186305
38	0x3dd8a574	0.10578433
39	0xbd45d07b	-0.048294526
40	0x3e286f4e	0.1644871
41	0x3e1424a2	0.144671
42	0x3db9ff25	0.09081868
43	0x3cc67f67	0.024230672
44	0x3e27d43a	0.16389552
45	0x3b19b6f1	0.002345499
46	0x3cc9a686	0.024615537
47	0xbcf44cef	-0.029821841
48	0xbce5d7ee	-0.028057065
49	0xbe2c0ab7	-0.16800962
50	0xbddd7c87	-0.10814767
51	0x3dcd5cca	0.10027464
52	0xbd9d4574	-0.07679263
53	0xbde2557b	-0.1105146
54	0x3d835cd6	0.064141914
55	0xbe108201	-0.14112093
56	0xbe0a2217	-0.13489567
57	0xbd1eeb9e	-0.03879892
58	0x3da5b939	0.08091969
59	0xbc80ab4a	-0.015706677
60	0x3d8e29a3	0.06941535
61	0xbc83d81a	-0.016094256
62	0xbdd0da5f	-0.10197901
63	0xbca5b32a	-0.020227034
64	0xbdd64f17	-0.10464304
65	0xbd3f6112	-0.046723433
66	0x3e27a9d4	0.16373378
67	0xbc5cbeb7	-0.013473204
68	0x3df58113	0.119875096
69	0xbdfdb196	-0.123873875
70	0xbd64bd6f	-0.05584472
71	0x3d518aaf	0.05115765
72	0xbda4e044	-0.08050588
73	0x3c877c34	0.016538717
74	0x3d9711fb	0.073764764
75	0xbe1bbb2f	-0.15208124
76	0x3c845007	0.016151441
77	0xbcc7d78e	-0.024394777
78	0xbcc4ef29	-0.024039822
79	0x3c0e0172	0.008667337
80	0x3d874810	0.06605542
81	0xbde2db6c	-0.11077008
82	0xbd8fc8f1	-0.070207484
83	0xbe1533a0	-0.14570475
84	0xbd4343fe	-0.047672264
85	0xbdfc3b57	-0.12316006
86	0xbe2c7f90	-0.16845536
87	0x3e20a7cd	0.15689011
88	0x3b22208d	0.002473864
89	0x3d6aeadb	0.057352882
90	0x3df031db	0.11728259
91	0xbdce0646	-0.1005979
92	0xbdfc9b11	-0.12334264
93	0xbde3cf02	-0.11123468
94	0x3e124c0f	0.14286827
95	0xbda7ec3a	-0.081993535
96	0x3e0b8ed3	0.13628702
97	0x3e11e514	0.14247543
98	0xbd5b97c2	-0.053611524
99	0xbdbc3465	-0.09189681
100	0xbd3cb31e	-0.046069257
101	0xbc3cbc63	-0.011519524
102	0x3db559da	0.088550285
103	0xbe1d6c1f	-0.15373276
104	0x3df20364	0.11817053
105	0xbe24cd70	-0.16093993
106	0x3da732f1	0.08164013
107	0x3d4622f0	0.048373163
108	0x3e31dfff	0.17370604
109	0xbb1fb6e5	-0.0024370488
110	0xbd0b8eef	-0.03407186
111	0x3d608ee1	0.05482376
112	0xbe1778e4	-0.1479221
113	0x3c22a475	0.009926905
114	0x3d8a78ab	0.06761297
115	0x3de25c32	0.11052741
116	0x3e068f17	0.13140522
117	0x3d29c6cc	0.041449353
118	0xbd41b96f	-0.047295984
119	0xbd5463f1	-0.051853124
120	0x3e266c2c	0.16252202
121	0xbd425710	-0.04744631
122	0x3d780c91	0.06055886
123	0x3e20fc42	0.15721229
124	0xbd17818f	-0.03698879
125	0x3d22025a	0.039553024
126	0xbe03546c	-0.12825173
127	0x3d8faece	0.07015763
128	0x3be0b443	0.0068574264
129	0xbcd203b6	-0.025636535
130	0xbe2d2a53	-0.16910677
131	0x3e069658	0.13143289
132	0x3db7cf9f	0.089751475
133	0x3e3844f5	0.17995055
134	0xbe2aa828	-0.16665709
135	0xbd40e293	-0.047091078
136	0xbe3b8c3e	-0.18315217
137	0xb9c76b2d	-0.0003803609
138	0x3df000f1	0.117189296
139	0xbd0e1fd0	-0.034698308
140	0x3cd9455f	0.026522337
141	0xbe30ff7f	-0.17284964
142	0xbda04ca9	-0.07827122
143	0xbd84ed51	-0.06490577
144	0xbe02b6c0	-0.12765026
145	0x3dd2ad2c	0.10286936
146	0xbd539b47	-0.051661756
147	0xbcce2aa3	-0.025166815
148	0x3d87915c	0.06619522
149	0xbd183050	-0.03715545
150	0xbe06c63f	-0.13161562
151	0xbd5a9b88	-0.053370982
152	0xbd2e39cd	-0.042535592
153	0xbdc3bd1e	-0.095575556
154	0xbdc3bf23	-0.09557941
155	0x3df77faa	0.12084897
156	0x3d5aa5de	0.05338084
157	0x3c49e90c	0.012323629
158	0x3de50096	0.111817524
159	0xbcfc62ef	-0.030808894
160	0x3e2b0c39	0.16703881
161	0x3dd56d14	0.104211956
162	0xbe141343	-0.14460473
163	0xbdd9c611	-0.10633481
164	0x3e2abdd0	0.1667397
165	0x3cfad135	0.030617336
166	0xbc746b0b	-0.014918099
167	0xbdedc848	-0.11610466
168	0xbe072e88	-0.13201344
169	0x3db3c131	0.08777083
170	0xbe2db0da	-0.16961995
171	0xbdf28d97	-0.11843412
172	0x3dd9b26a	0.10629733
173	0x3d323783	0.04350997
174	0xbc122dca	-0.00892205
175	0xbe1b7382	-0.15180781
176	0xbca95b3f	-0.020673392
177	0x3e437c26	0.19090328
178	0xbdb580d4	-0.08862463
179	0xbdb83592	-0.08994593
180	0xbdc21b5d	-0.094778754
181	0xbd8911f8	-0.066928804
182	0xbe2acac4	-0.16678911
183	0xbdf454db	-0.119302474
184	0xbe02ed1d	-0.12785764
185	0xbd22eeb5	-0.03977843
186	0x3d79f251	0.061022107
187	0x3dfa4ecb	0.1222206
188	0xbdbe1c82	-0.09282781
189	0xbdaf0505	-0.08545879
190	0xbd252dba	-0.04032681
191	0x3ccb9ce5	0.024855087
192	0x3e2df0a1	0.16986324
193	0x3d0468c5	0.03232648
194	0x3e0e5218	0.13898504
195	0xbe1b3481	-0.15156747
196	0xbdb95447	-0.09049278
197	0xbdbd76c6	-0.0925117
198	0xbdbe9af4	-0.09306899
199	0x3db99af1	0.09062756
200	0x3c8258a0	0.0159114
201	0x3e212040	0.15734959
202	0x3e22b7f9	0.15890492
203	0x3d50921a	0.050920583
204	0xbdc7c24a	-0.097538546
205	0x3e1ee1eb	0.15515868
206	0xbe0d3621	-0.1379018
207	0x3dc96b56	0.09834926
208	0xbe16708e	-0.14691374
209	0xbe21f2a4	-0.15815216
210	0xbd625d75	-0.05526491
211	0xbd315c44	-0.043300882
212	0xbcff3642	-0.031153802
213	0x3b52af6b	0.0032148014
214	0x3d9c3126	0.07626562
215	0xbe0ddd68	-0.13853991
216	0x3cd859b7	0.026409967
217	0x3e155325	0.14582498
218	0x3cabb6a1	0.020961108
219	0xbe21da91	-0.15806033
220	0xbb07a0a5	-0.0020695117
221	0xbd82ad8c	-0.06380758
222	0xbdb35f4e	-0.08758412
223	0x3d98961a	0.074505046
224	0xbdf09b29	-0.117483445
225	0x3e029f97	0.12756191
226	0x3cea00d4	0.028564848
227	0x3dc7bcfe	0.09752844
228	0x3d0fdf27	0.035124924
229	0xbd5bb45d	-0.053638805
230	0x3d695d38	0.056973666
231	0x3e1d2873	0.15347461
232	0xbe038a78	-0.1284579
233	0xbe22e80a	-0.15908828
234	0xbe0acb47	-0.13554107
235	0xbe245522	-0.160481
236	0xbcdaf0d5	-0.026726166
237	0x3e1e8356	0.15479788
238	0x3df28361	0.11841465
239	0xbdbc403e	-0.09191941
240	0xbd0763d6	-0.033054195
241	0xbe1bede6	-0.1522747
242	0x3e0d5714	0.13802749
243	0x3dc15d05	0.0944157
244	0x3e126ced	0.14299364
245	0xbd803a0f	-0.06261074
246	0xbcb15d40	-0.02165091
247	0xbde0f128	-0.10983497
248	0xbe010581	-0.12599756
249	0xbd92e665	-0.071728505
250	0xbd57c20e	-0.0526753
251	0x3d94221d	0.07233069
252	0x3d8cb939	0.06871266
253	0x3d346029	0.044037018
254	0xbe176496	-0.14784464
255	0xbd56f163	-0.052476298
