pretrained/tsp_2opt/tsp100.pt (torch, 357771 bytes, 225 tensors)

emb_net.v_lin0.weight f4 [32, 1]
00000000: cd40 7cbe ea3d 813e 13c2 53bf dee4 553f
00000010: 79c2 29bf 1a9d 2bbf a491 803e 8a0d 12bf
00000020: 6ecf a9be 6deb debc 0fd5 233f 942e 3cbf
00000030: c760 6b3f 06a0 19bf 43e8 01bf 9968 293f
00000040: 8fc6 7cbf 7389 173f 2fac cc3e d2cd 393e
00000050: 6b71 0cbf d07f b7be 0372 54bf 8020 e9bc
00000060: 03c7 98be f085 0c3f 4240 56bf 73bf 4d3f
00000070: eeac c73d 4ddf 7a3f 10ca e6be cdd4 1e3f
-0.24634095 0.2524255 -0.8271801 0.8355235 -0.66312367 -0.6703659 0.25111115 -0.5705191
-0.3316607 -0.02721187 0.63996977 -0.7350857 0.91944546 -0.600098 -0.5074503 0.6617523
-0.98740476 0.59194106 0.39975116 0.1814492 -0.5486056 -0.358397 -0.8298647 -0.02845788
-0.29839334 0.5489187 -0.836918 0.80370253 0.097497806 0.9799698 -0.45076036 0.6204346

emb_net.v_lin0.bias f4 [32]
00000000: 4fe0 183e 3f66 02bf 480e da3e 254e c33d
00000010: 405f 12bf 5c0b 5fbe 8448 683e 9e50 91be
00000020: 35c0 2bbf f846 8fbe 7740 4f3f 964b 95bc
00000030: f025 5ebf f3e3 653f 41bf 40be d0cb 1abf
00000040: 198b 3e3f 7838 743f 20b9 55bf 8f26 693f
00000050: c517 62bf 70db 0b3f 3cbc 2cbe c5a9 fd3e
00000060: 5ada c8be 8d07 063e 593c d13e 72fe 9bbc
00000070: 0fec 423f 8c67 46bf 37d1 48bf d120 4ebf
0.14929317 -0.50937265 0.4258902 0.09536389 -0.5717659 -0.21781677 0.22683913 -0.2838182
-0.6709016 -0.27983832 0.8095774 -0.018224519 -0.8677664 0.8980095 -0.18822958 -0.60467243
0.74430996 0.95398664 -0.83485603 0.9107446 -0.8831752 0.5463171 -0.1686868 0.49543586
-0.3922909 0.13088818 0.40866354 -0.019042227 0.76141447 -0.7750175 -0.78444237 -0.80518824

emb_net.v_lins1.0.weight f4 [32, 32]
00000000: 5f6d fe3d 11b6 053e 93b4 be3c 8e06 2b3e
00000010: e6e2 cfbd 5473 043e 71bc 0fbe 72e7 cebd
00000020: 85cb 1f3e 84f3 0bbe 3234 23be 6952 e33d
00000030: fb55 273e e1d7 b2bd 085a 973d 4311 fcbd
00000040: 4073 c13d af07 05bc b325 a4bc 6c23 643d
00000050: 3ba0 d53d 684c ec3c 2cb6 a33d 59d1 bbbd
00000060: 538c 00bd 7ef2 313e d113 8c3d 8790 7f3d
00000070: dc3c 23be 3aa3 e13c dba5 1f3d 80af d83d
00000080: 6290 bebd d390 81bd ab42 be3d fdb3 c8bd
00000090: 8435 27be 658b cebd 8bbc e0bc 648f a23c
000000a0: 888e 3b3e ce3d 043e 3035 8ebd 5c2a 983d
000000b0: c6ca d03d 4a56 18bd 4648 2d3e e4af 84bd
000000c0: 5fe9 073e 4c48 763d 877b c73b 1313 00bc
000000d0: 7f8b e63d 1ad4 1b3c c486 f83b a44a 23bc
000000e0: 2ec4 15be 19e2 6f3c 9c72 c73d d8bd 2a3e
000000f0: f3c8 8dbd 27db 86bd b195 1cbe b8d5 873c
00000100: 0722 62bd a281 30bd 735d 8cbd 6830 afbd
00000110: 5162 d13d 678f 9dbc 9bad acbd 8274 08bd
00000120: 92f0 bfbc d2a1 a03d 2a13 fe3d 286f 8c3d
00000130: 28f5 08bd d9de ac3d d2bd 2a3d 750e ab3d
00000140: 316b d1bc a1dc f9bd 4a6b 04be 390e 02be
00000150: 355f 2d3d d56c b03c b8b1 ee3d 7e21 6e3b
00000160: efea 003e c504 00be 0a2f 3abd 1929 8e3d
00000170: f617 d13d efb9 0c3e 79f8 30be 29cd 5b3d
00000180: c0a5 083d 43d7 f6bd 3da3 c6bd 0829 263e
00000190: f28f 183e 8e64 a43d 1589 94bc 6a84 2a3b
000001a0: 5b93 14be b18f 993d 01e2 d7bd c4e1 0f3c
000001b0: a442 c9bd de40 303c 36f2 813d eaab 833d
000001c0: 394b 4bbd 1006 aa3d 8e9c 7cbd 1f34 01be
000001d0: bca4 edbd 571e b1bd 033e 8abd baa4 03be
000001e0: 3071 0b3e 8d8a 2b3e 134b e53c bc72 c13d
000001f0: a032 273d 07f8 863d 98f3 01be f8e9 823c
00000200: d9e2 253e a42a 05be 9237 33bd af27 2c3e
00000210: c61a a1ba f541 0d3e ca2b 4bbd f5f8 27be
00000220: e5c8 1a3e 37ad 313e 09e9 5d3c d1f4 db3d
00000230: 89bd 1e3e 7d67 9bbb 968c 09be 6cf3 12be
00000240: e732 e63d 49a4 c23c dbcd df3c 0952 cfbc
00000250: a983 debd 47e6 823d eae3 873d c64f a63d
00000260: 59b2 ac3d 2dc0 db3d f71d a2bd 645c 8d3d
00000270: ad4b 093e ea62 7a3d 0d43 743c 361d 223e
00000280: 941e cf3d 695f 57bd aa39 913d afa1 58bc
00000290: 2d60 bebc a0ea c53c 5f13 c63d 8ebe 153d
000002a0: 80bf bcbd 1b8c 28be 72b3 1dbd 60b4 56bd
000002b0: c362 70bd 8152 003e 5f46 013e 9fc5 0cbe
000002c0: c6ad 21be d27f 1f3e b643 253e 133b 0b3d
000002d0: 473b abbd 8885 183d 59a6 a4bc 66a7 edbb
000002e0: 1e81 bbbc 2024 183d 2b5d 993d c91e c4bd
000002f0: bf7a f43c 70ae 663d 0079 bdbd a9b8 c1bc
00000300: e609 9fbd f8ca 9cbd 4a67 4cbd dcb5 033e
00000310: 1efa 2a3e f915 bf3d 20f3 cebd d9f9 ff3b
00000320: c6fe 033e a9d9 023e 4e73 023e 4000 f73d
00000330: 1b04 543c ecd7 1f3e d168 00bd aa61 86bc
00000340: 1e1c 153e bdac c33d be4e c03d 32f8 053e
00000350: d3c7 a6bc f8f9 3d3d 9448 183e 9390 8abb
00000360: 185c 1dbe 90c4 1f3e 8c62 44bd 8f62 943d
00000370: 1de0 07be 19e8 a73c 3dfc 10bd 7fde 35bd
00000380: b766 d4bd ffe4 f6bd bf68 fcbd 0101 1fbe
00000390: 3680 0bbb 366f f73d feba bfbd 232f d6bc
000003a0: db20 ce3d 8842 1e3e fad3 293e 1fa3 d33c
000003b0: 8bf7 1fbe 3c0e 1cbd 10a4 f13d f5ff b83d
000003c0: 462c c73d 354b 863d 6a4e 843c 12e6 433c
000003d0: 69e5 e4bd 7eeb f03b 0f2e 7e3c b010 2f3b
000003e0: a88f 033e 4d20 703c 603c 21be d5d0 19bd
000003f0: ef4a 0cbe 8b43 1a3e bf05 323d b92d 273e
0.12423205 0.13057734 0.023279464 0.16701719 -0.10150699 0.12934619 -0.14036728 -0.101027384
0.1560498 -0.13667113 -0.1593788 0.11099703 0.16341393 -0.08732582 0.07390219 -0.1230798
0.0944581 -0.008119508 -0.020037508 0.055697843 0.10430952 0.028845027 0.07993731 -0.09170789
-0.031383824 0.1737766 0.06839717 0.06239369 -0.15941185 0.027543653 0.03897653 0.10580349
-0.093048826 -0.06326451 0.0929006 -0.09799955 -0.16329008 -0.10085181 -0.027433654 0.019843765
0.1831609 0.12914202 -0.069437385 0.074299544 0.10194926 -0.037191667 0.16922101 -0.06478861
0.13272618 0.06012754 0.0060877237 -0.007817048 0.112570755 0.009511018 0.0075844247 -0.009966526
-0.14625618 0.014641308 0.09738657 0.16673982 -0.06923094 -0.06584769 -0.15291478 0.016581401
-0.055208232 -0.043092377 -0.068537615 -0.08554155 0.102238305 -0.019233419 -0.0843155 -0.033314236
-0.023430143 0.07843365 0.12405999 0.06857139 -0.033436924 0.08440942 0.041684933 0.08352367
-0.025563808 -0.12200285 -0.12931553 -0.12700738 0.042327125 0.02153627 0.11654991 0.003633588
0.1258962 -0.1250182 -0.045455016 0.069414325 0.10209648 0.13742803 -0.17282285 0.053662453
0.033361197 -0.12052777 -0.09699104 0.1622659 0.14898661 0.08026992 -0.018131772 0.0026018866
-0.14509337 0.0749811 -0.10541154 0.008781854 -0.09827164 0.010757653 0.06345026 0.064292744
-0.049632285 0.083019376 -0.06167274 -0.12617539 -0.11603686 -0.08648365 -0.06750109 -0.12855807
0.13617396 0.16752072 0.0279899 0.09445712 0.040819764 0.06590276 -0.1269058 0.015980706
0.16199817 -0.13004547 -0.043754168 0.16812013 -0.0012291304 0.13794692 -0.049602307 -0.16403563
0.15115698 0.17351232 0.013544329 0.107400544 0.1550199 -0.0047425614 -0.13432536 -0.1435067
0.112401776 0.023759978 0.02731984 -0.025307672 -0.10864956 0.06391578 0.06635268 0.08120684
0.084324546 0.10730014 -0.079158716 0.06902388 0.13407774 0.061129488 0.014908564 0.15831456
0.10113254 -0.052581225 0.07091077 -0.013222142 -0.02323922 0.02415973 0.096716635 0.03655868
-0.09216213 -0.16459696 -0.03850121 -0.052418113 -0.058687937 0.12531473 0.126245 -0.13747261
-0.15788946 0.15576103 0.16139111 0.033991884 -0.08360916 0.03723672 -0.020098852 -0.0072526215
-0.022888716 0.037143826 0.074884735 -0.09576184 0.029843686 0.0563187 -0.092515945 -0.023647623
-0.0776556 -0.07655901 -0.04990319 0.12862343 0.16696975 0.09330363 -0.10104966 0.0078117666
0.12890157 0.12778343 0.12739298 0.120605946 0.012940432 0.15609711 -0.03134996 -0.016403992
0.14561507 0.095544316 0.09390019 0.1308296 -0.020358955 0.046380967 0.14871436 -0.0042286604
-0.15367162 0.15602326 -0.047945544 0.07245361 -0.13269086 0.020496415 -0.035396803 -0.044401642
-0.10371154 -0.12055396 -0.12324666 -0.15527727 -0.0021286136 0.12081759 -0.09361838 -0.026145523
0.100648604 0.15455067 0.16584769 0.025834618 -0.15621774 -0.038099512 0.117988706 0.09033195
0.09725241 0.06557313 0.016150672 0.0119567085 -0.11176569 0.0073522916 0.015513911 0.0026712827
0.1284777 0.014656139 -0.15745687 -0.037552673 -0.1370046 0.15064828 0.04346251 0.16326036

emb_net.v_lins1.0.bias f4 [32]
00000000: ccfc 2f3e d2dc 6c3d dc87 4f3d 28c7 063d
00000010: 65e7 023c bef5 e9bd 2330 08be 96cf 34be
00000020: db02 d9bd 45c7 02be 2832 c0bd e639 c3bd
00000030: 3ea1 f23d ff4b b23c a190 9dbd 7e6c 003d
00000040: a5d5 293e bb0b 203e d187 173e c3b7 163d
00000050: 1c98 f3bd 8459 9ebd 8e2d 9cbd dc05 1ebe
00000060: 9aca 5fba 7935 e83d e2e0 e2bd f82d 0d3e
00000070: 60a7 12bd 3a36 833d ab45 d3bd a86a f5bd
0.17186278 0.05782778 0.050666675 0.032904774 0.007989739 -0.11423825 -0.13299613 -0.17657313
-0.10596248 -0.12771328 -0.093845665 -0.095325276 0.11847161 0.021764753 -0.076936014 0.031353466
0.16585405 0.15629475 0.14797904 0.036796343 -0.11894247 -0.077319175 -0.07625876 -0.15431923
-0.0008536965 0.11338324 -0.11078049 0.13787067 -0.035804152 0.06406827 -0.103160225 -0.11983234

emb_net.v_lins1.1.weight f4 [32, 32]
00000000: 7a95 00bc 4d24 08be 9497 45bd 3850 c83d
00000010: 6b59 8d3c 0b9e 25be 2ae3 c1bc 76b4 0c3d
00000020: 9d92 45bd 8cdd 2cbc e41a d3bd b887 93bd
00000030: d88e 41bd 1feb 213e 8305 c53d 23f9 94bd
00000040: bf1d 0fbe 6ba0 3e3e 450f 803d 7570 e6bd
00000050: 5124 dabd c644 9a3d b54e 123e 562e 803c
00000060: d4f6 1d3d bbe0 69bb 9e2b 833d 0fc2 30bd
00000070: 4761 abbc 0a27 33be 1bd3 0dbd 1b90 1b3e
00000080: 62a0 17bd 700b 3cbc eca7 8dbd 2bc4 f83d
00000090: 6005 24bd 610f 4b3d c135 87bd 4302 da3d
000000a0: ef46 fbbc 5bda 49bd 200b 063d 0e0a 953d
000000b0: 1b7f 2e3e 92cd 9cbd 22a4 0abe 8a57 a7bd
000000c0: 607d c23d b4b1 183e 093c f1bd f0ab f43d
000000d0: dd71 f3bc 3cab c7bd 3079 003e 9dca 46bd
000000e0: 1f65 1b3e 070b 043e f8db 803d 83c8 94bc
000000f0: fa54 28be e8ad 083c 5f30 203e c0fd fdbd
00000100: b6e4 88bd dfcb 04be 3d7c ebbd f3c7 8fbd
00000110: 2317 903b fb6c 893d 8c71 12be 8dd9 30bc
00000120: f6e2 413d 43a5 2cbe 36b3 e73b 9134 36be
00000130: 3cdc 1a3e 29ab 4cbd ae9f fc3d 037b 1bbe
00000140: 1e4e d9bc 0f66 84bd 132a 6d3d 8aa1 bdbd
00000150: f16f 73bd 4fb8 c73d 1b7d 11bd bd40 6ebd
00000160: c5d5 c63d c21d 37bd 50da 21be 6820 11be
00000170: e5ad aa3d 9212 31be 56d2 6dbc 8018 9b3d
00000180: 9e78 d0bd 43e1 1dbe b12c 483d a6f5 9f3c
00000190: 1bb9 d7bd 9096 553d d129 aa3c 885b 0cbe
000001a0: f922 0abd a763 60bd e07f f73d 75b1 95bd
000001b0: db27 c33d 71cd ba3d 2a02 2f3d 52df 82bd
000001c0: 785c 61bd 0a97 ce3a b2ec 8c3d 14a4 36bd
000001d0: 0e4c 2bbd 33de 9dbc 1c48 423c 7b6c b93d
000001e0: 022d b43d 6a2d 47ba f388 113e a81a 823d
000001f0: 919e ed3c b5a4 a7b9 6717 1d3d e695 033c
00000200: ef44 ce3d f72b a3bc 73c8 36bd c0b6 843c
00000210: 807e 66bd df76 9ebd d033 a4bb fac3 05be
00000220: eaa5 51bd 91ec e3bd 2256 13be 4fac a53c
00000230: c519 4f3d 65e0 2b3d 4a1d a5bd a710 003e
00000240: f1d0 073e e367 f33d bde8 063e d075 853d
00000250: 2e79 33be 8873 b8bd 3a79 fdbd 534f 10be
00000260: 7479 133e e66f f43c b88c 803c f48f 15be
00000270: fd6b 3bbd aa69 eebc 4926 7ebd ee78 0d3e
00000280: 4b5e 873d e1cc 13be 2485 e33b 1833 c43d
00000290: 2712 063e 58ba edbd c584 703d 5437 233e
000002a0: 2bce f53d 3274 cfbc 341e 153e 7099 42bd
000002b0: 4236 e83c 3ee1 c9bd 5d65 113e c224 d3bc
000002c0: 52b9 50bd ab9e 6c3d d079 993d ab52 fe3d
000002d0: 41a0 b6bd f045 f4bd 086c f3bd ee8f a63b
000002e0: 2483 f83d 3f6b 213d be7f 193d 80c0 4cbd
000002f0: cd8f 24be 8bb6 a13d 3873 233e 22e0 3c3e
00000300: 0ed6 91bd 3107 0dbe bf08 f4bd 9818 363e
00000310: 870b 2abe 718c d3bd 9ecf 043e 9661 de3d
00000320: d4f2 b6bb 34cc 22be 9518 f53d ab8e 63bd
00000330: 3103 a9bd 17fa 743d c8e3 2dbe b36e d13d
00000340: b480 7dbc 8a16 c23d dd3b ce3b b410 1e3e
00000350: 139b f9bd 340c c63d 97aa 15be 9bb1 60bd
00000360: 0a79 0a3e 0a9a 343e 89e5 cc3d 1d65 143e
00000370: baac e93d f8f2 523d 2e87 babd ceec 093c
00000380: aded 7c3c 7ab1 dc3d ea9c e1bc c444 b73d
00000390: 6e2a dbbd fcf0 813a f3ed 23be 0ffc f8bd
000003a0: ae70 47bb 6879 cf3c 70fd 0ebd 5a46 f53d
000003b0: 6f2f 183e 01fc 0e3e 77de 9b3c 6352 23bc
000003c0: e9cd 94bd 05cc 7c3d a4e9 dfbc dedb 10be
000003d0: 8211 173e 6c9c 663b e976 a6bc 5073 dd3c
000003e0: 79e6 10ba f962 a9bd ff62 81bd 2563 89bd
000003f0: 265f 32be 4fcd 693d 7340 303d 281f 89bd
-0.007848138 -0.13295098 -0.04824026 0.097809255 0.017254552 -0.1617357 -0.02366789 0.03435179
-0.048235524 -0.010550868 -0.10307863 -0.07203621 -0.047255367 0.15812348 0.09620192 -0.072740816
-0.13976191 0.18615882 0.062529124 -0.11251918 -0.10651458 0.07532649 0.14287837 0.015647095
0.03856547 -0.0035686928 0.06404804 -0.04315382 -0.020920409 -0.17495361 -0.034625154 0.1519169
-0.037018187 -0.011477336 -0.06916794 0.12146791 -0.04004419 0.049575213 -0.066020496 0.10644963
-0.030673472 -0.049280506 0.032725453 0.072773084 0.17040674 -0.07656397 -0.13539174 -0.081709936
0.0949657 0.14911538 -0.11779029 0.11946857 -0.02971738 -0.09749457 0.1254623 -0.04853307
0.15175293 0.12894832 0.06291956 -0.018162018 -0.16438666 0.008342244 0.15643452 -0.124019146
-0.06684248 -0.12968396 -0.11498306 -0.07020559 0.0043972894 0.067102395 -0.14301127 -0.010794056
0.047335587 -0.16859917 0.007070924 -0.1779349 0.15123075 -0.04996792 0.12335144 -0.15183644
-0.026526507 -0.06464779 0.057901453 -0.09259327 -0.059432928 0.09751951 -0.0355197 -0.058167208
0.09708742 -0.044706114 -0.15805936 -0.14172518 0.08333949 -0.1729224 -0.01451548 0.075730324
-0.10179256 -0.15417962 0.048870746 0.019526314 -0.10533353 0.05214554 0.020771893 -0.13706791
-0.03372476 -0.054782536 0.12084937 -0.07309238 0.09529086 0.09121216 0.042726673 -0.06390251
-0.055019826 0.0015761566 0.068810835 -0.04459007 -0.04182058 -0.019270992 0.0118580125 0.09053894
0.08797647 -0.0007598015 0.14212398 0.063527405 0.029006274 -0.00031975438 0.038352396 0.008031344
0.10071742 -0.019918425 -0.044624757 0.016200423 -0.056272984 -0.077375166 -0.0050110593 -0.1306304
-0.05118362 -0.11129106 -0.14388326 0.020223765 0.050561685 0.041962046 -0.08062227 0.12506352
0.13263299 0.11885049 0.1317472 0.065166116 -0.17526695 -0.09006411 -0.12376638 -0.1409276
0.144018 0.029838514 0.0156921 -0.14605695 -0.045757283 -0.029103119 -0.06204823 0.13815662
0.06609782 -0.14433624 0.006943362 0.09580058 0.13092862 -0.11607808 0.05872037 0.15939075
0.12002214 -0.02532396 0.14562303 -0.04750961 0.028346185 -0.09857415 0.14198823 -0.025774363
-0.050957985 0.057768505 0.07493937 0.124181114 -0.08917285 -0.11927402 -0.1188584 0.0050830757
0.12134388 0.03940892 0.03747534 -0.04998827 -0.1607048 0.078961454 0.15961921 0.18444875
-0.07120906 -0.13772275 -0.11915731 0.1778282 -0.1660596 -0.103295214 0.12969825 0.10858457
-0.0055831466 -0.1589821 0.11967579 -0.05555598 -0.08252562 0.059808817 -0.16981423 0.10226192
-0.01547258 0.09476955 0.0062937574 0.15436059 -0.12187781 0.09670296 -0.14615856 -0.054856878
0.13522735 0.17636886 0.10004718 0.14491697 0.11409898 0.051501244 -0.09107815 0.008418275
0.015437526 0.107760385 -0.027540643 0.08948663 -0.10701452 0.0009913738 -0.16008739 -0.12157451
-0.0030432153 0.025326446 -0.034909666 0.11976309 0.14861844 0.1396332 0.019026978 -0.009968373
-0.07265837 0.061718006 -0.027333088 -0.14146373 0.14752772 0.003518845 -0.020320373 0.027032524
-0.0005527507 -0.08270831 -0.0631771 -0.067083634 -0.17419109 0.057080563 0.043030214 -0.06695396

emb_net.v_lins1.1.bias f4 [32]
00000000: 4b34 b9bd 9eb3 9e3d 8714 32bc b107 e7bd
00000010: b729 04bd 7338 0abe c42c efbd f2ef ff3d
00000020: 2add e4bd 3c0b 50bd 08f8 753d c9a7 673d
00000030: 54ad 16bd 3103 e13a 8255 d0bd c88a 70bd
00000040: a69c c4bd abee 133e 9d4b 01bd e0c3 0fbe
00000050: 232d 613b 2d1d 22be 02d4 823d 4154 a53d
00000060: 4103 29bc 5c66 79bd 27f6 55bd 1a0d 143e
00000070: 55e6 0dbd e577 cbbd 9d5c 93bb aa20 da3d
-0.09043177 0.07749103 -0.010869152 -0.11280764 -0.032266345 -0.13498096 -0.1167846 0.12496938
-0.11174996 -0.050791964 0.060050994 0.056556497 -0.036786392 0.0017167089 -0.10172559 -0.058726102
-0.09600191 0.14446513 -0.03156625 -0.14039564 0.003435918 -0.15831442 0.063880935 0.08072711
-0.010315717 -0.060888633 -0.052236702 0.14458123 -0.03464349 -0.099349774 -0.0044971243 0.106507614

emb_net.v_lins1.2.weight f4 [32, 32]
00000000: 2b9c e3bd 7f68 1a3e bf80 563d ac07 903d
00000010: b0b6 653d c39f b6bd 5a60 dcbd b726 413d
00000020: d67c bc3d be6d 163e ff51 793d 445d edbd
00000030: 330d 90bd 26f2 af3d 8a72 273e fa09 d0bd
00000040: ab1b bbbc 91de b8bd 7c66 26be 0d09 81bd
00000050: 1758 15be b45b 123d df72 4f3a 08d3 1d3d
00000060: 9d53 32bd e331 2f3e 1ad8 d63d b7c0 ec3d
00000070: 076a 7bbd faee 89bd 3748 16be 1176 1f3e
00000080: 50cf 053c 3c1b 03be 5efe b4bd b041 e73c
00000090: 513e 3cbd 6039 f13d 2530 de38 4b6d 0cbe
000000a0: d589 a83d 1c61 01be e34e d23d b26c 1b3d
000000b0: 62c5 85bd 963c a4bc 83db c8bd b527 b23b
000000c0: 616f 58bd 5e10 43bd 8d9a d33d 6bf0 823d
000000d0: d8e3 093e 3390 efbd cba9 af3d 61b0 91bd
000000e0: cedd 1d3e 0cbe 57bd 3f64 39be fa47 f73c
000000f0: e776 ffbd 6921 6dbd 0513 eabc 9eb3 fe3d
00000100: dc6f 7abd b4a0 203c de08 33be 3dd8 a5bd
00000110: 9524 3c3d daeb a5bc 5dca 353d 475a 14be
00000120: 6b33 24be 70e1 c03d 49ac 0a3e 494f 00bd
00000130: 500e ffbd 4218 e1bd c3c7 9cbd 5c77 bfbd
00000140: 2f5c b7bd 1895 093e 78c1 e23d a7f8 df3d
00000150: 4546 7a3d 2f1d 5d3a 9605 bfbd 17e1 5b3d
00000160: f8d4 fabd 6d12 ab3d 0a95 42bd ce22 4b3c
00000170: 8df3 7abd c135 10be 5247 143e 9465 f6bd
00000180: 82ff 063e 4435 333d f3b5 a2bc 5800 e23d
00000190: 7099 13bd e0b2 27be 9ea8 a3bd 45f5 9a3d
000001a0: 05e2 cb3d 1d91 17be 3db5 183d f89b 96bd
000001b0: afa7 e93d 468c 9d3c e0a3 903d f83c 963c
000001c0: 17ee 69bd 5dce 523d 6fc5 123d dee6 0b3e
000001d0: 21bd 273e 57e7 dabd eb53 1fbe baf1 e73c
000001e0: 55fb a33c d565 2c3e ff22 e23c 4e53 1fbe
000001f0: 8879 62bd f4ae 0cbd eb3e cd3d 30fa d33c
00000200: 7b6d 663c ceec 0a3c 2597 6d3c 3a32 943c
00000210: 98c6 523d 7c22 fc3d 6e39 4f3c 7e7c 07be
00000220: dc75 263d ef3d 9cbd 062e 083e d27b 233e
00000230: 01d4 37bd ff97 b0bd 0a9c 1e3e eb79 243d
00000240: ca60 21be 054f 27bb cb13 2f3d d4c1 23be
00000250: fb9f e8bd 4a80 103e 3e6f 063e aaf6 debd
00000260: 472d 633d dd22 a5bd 17af c4bd 903d 2bbe
00000270: 1614 1cbe 49ab e1bd c66c 3cbe d7d9 a23d
00000280: 29b2 9c3c 3910 f7bc 69af 883c 33c1 eabc
00000290: a3cd 2fbe 562a 2ebd a8c2 1abe f0bd 543d
000002a0: 5542 843d e1d8 aa3d ead1 35be a00d b13d
000002b0: 9b52 12be a6ef 3b3e 8138 0cbd 8414 c7ba
000002c0: 0771 de3d 8cc3 f8bd 9d7b 083e e7fc 183c
000002d0: 3709 6abd 5bc9 b43d d863 233e 5396 173e
000002e0: 0201 ddbd fb12 d3bc 12b8 1fbe 8402 0f3e
000002f0: 62ac 6d3d 152d 0c3c 83ad 22be 4152 2abe
00000300: 45cd 36be aaf1 073e b33a b6bc be97 24be
00000310: a495 c7bc 55fb 43bd 2d60 293c 5f8c 333d
00000320: ae8b 223e edb6 03be e281 123d 7cbe 083c
00000330: d34a c8bd bce9 3a3e 7a30 233e ffe9 2abe
00000340: faa0 f53b bf0d 933d 84fa a9bd 7940 823d
00000350: f635 e03c b9ee 26be efac 0f3d ed86 af3c
00000360: 74fb 75bc 8749 0d3e 4b6e 023e da33 2bbe
00000370: 01ec 1bbe 634a ddbd b897 09be b979 b43d
00000380: e336 1b3e 0856 a23d 0e2e 723d a290 ad3d
00000390: 5d11 253e 18dd 323e c5e4 adbd 4fbc 1bbe
000003a0: 6cdb 8ebd 0d3f c63d d0f3 973d 75ac 38be
000003b0: c858 903d 602a ab3d 3264 7b3d 9a18 c43d
000003c0: 7105 dcbd b74c 413d 5996 23bd 5538 0f3e
000003d0: db1d 333e 5f90 45be 591b 093e 7684 e53b
000003e0: eb78 a53d 1b4a 22bd 4f78 e7bc c512 dbbd
000003f0: 98af 463c ee96 7dbd 5906 81bd 5e9e 15be
-0.11113771 0.15078925 0.052368876 0.07032713 0.056082428 -0.08917191 -0.10760565 0.047156062
0.09203498 0.14690301 0.060869213 -0.11590055 -0.070337676 0.08591108 0.16352287 -0.10158153
-0.022840342 -0.09026826 -0.16250032 -0.063005544 -0.14584385 0.035731986 0.00079135405 0.038531333
-0.04353677 0.17108874 0.10490437 0.11560195 -0.061380412 -0.06735034 -0.14675985 0.15572383
0.008167103 -0.12803358 -0.08837579 0.028229564 -0.045957867 0.117785215 0.000105947525 -0.13713567
0.082294144 -0.126347 0.10268953 0.037945457 -0.065317884 -0.02004842 -0.098074935 0.0054368624
-0.052840594 -0.04762303 0.103322126 0.06393512 0.13465822 -0.11697426 0.08577307 -0.0711372
0.15416643 -0.052671477 -0.18104647 0.030185688 -0.12473851 -0.05789319 -0.028573522 0.12436603
-0.061141834 0.00980394 -0.17483851 -0.08097885 0.045933325 -0.020254064 0.04438244 -0.14487563
-0.1603524 0.09417999 0.13542284 -0.031325612 -0.12453902 -0.10990955 -0.07655289 -0.09348938
-0.089531295 0.13435781 0.110720575 0.109360985 0.06110217 0.00084348297 -0.09327237 0.05368146
-0.12247652 0.08353124 -0.047505416 0.012398435 -0.061267424 -0.14083005 0.14480332 -0.12031093
0.13183406 0.04375197 -0.01986215 0.11035222 -0.036035 -0.16376829 -0.079911456 0.07566313
0.09955219 -0.1480145 0.037282217 -0.073539674 0.11408936 0.019231927 0.07062507 0.018339619
-0.057111826 0.051466335 0.03583282 0.13662288 0.1638074 -0.10688656 -0.15559356 0.028313506
0.020017305 0.16835721 0.027604578 -0.15559122 -0.055291682 -0.034346536 0.10021766 0.025876135
0.014064188 0.00847931 0.014501368 0.018090356 0.051458925 0.12311265 0.01264797 -0.13231084
0.040639743 -0.076290004 0.13298807 0.15965202 -0.044879917 -0.08622741 0.15489212 0.040155333
-0.15759578 -0.0025529277 0.042743485 -0.15991908 -0.11358639 0.14111438 0.13128373 -0.10886891
0.0554631 -0.0806329 -0.09603708 -0.16722703 -0.15242037 -0.11018998 -0.18400869 0.07951706
0.019127922 -0.030159103 0.016685205 -0.028656578 -0.17168288 -0.042520843 -0.15113318 0.05193895
0.06457964 0.083421476 -0.17755857 0.08645177 -0.14289324 0.18353137 -0.034233574 -0.0015188609
0.10861402 -0.121466726 0.13328405 0.00933764 -0.057137694 0.08827468 0.15956056 0.14803438
-0.10791208 -0.025765887 -0.15597561 0.13965803 0.058025725 0.00855567 -0.15886502 -0.1663294
-0.17851742 0.13275781 -0.022244787 -0.1607351 -0.024363346 -0.04784711 0.0103378715 0.04383504
0.15873596 -0.1286275 0.035768397 0.008346196 -0.097798966 0.18253225 0.15936461 -0.16690825
0.0074959965 0.07180356 -0.08299735 0.063599534 0.02736948 -0.16302003 0.03507703 0.021426642
-0.015013564 0.1379758 0.12737386 -0.16718999 -0.15226747 -0.10805204 -0.13436782 0.08812279
0.15157656 0.079265654 0.059125952 0.08474852 0.16119905 0.17467153 -0.084909 -0.15208553
-0.06975445 0.09679995 0.074195504 -0.18034537 0.07048184 0.08357692 0.06137485 0.09575005
-0.10743225 0.0471923 -0.039938305 0.13986333 0.17491858 -0.19293354 0.13389339 0.007004316
0.08079704 -0.039621454 -0.02825561 -0.106969394 0.012126826 -0.061911516 -0.06300039 -0.14611194

emb_net.v_lins1.2.bias f4 [32]
00000000: 75f7 c33c 1567 f5bd a50b d8bd 1455 083e
00000010: 4589 14be df86 fabd 85c4 2cbd a4bb 1dbe
00000020: 340b d33d 9590 fb3d f379 2fbe d65f 30be
00000030: 549c 293c 2e85 a93c b0dd d4bd 9ff7 8ebc
00000040: 8a9d ccbd caeb 1ebc dbd3 b8bd 8e22 7abd
00000050: 5ab5 19be 7873 603d 1599 adbd 502b 2f3e
00000060: 5ee2 1e3e bfeb c1bd da47 b43d 1d34 7d3c
00000070: ab30 1b3e a2e8 b8bc d6ce 27be 3786 b43d
0.023921708 -0.11982552 -0.10549096 0.13313705 -0.14505489 -0.12232756 -0.042179603 -0.1540361
0.10304871 0.12283436 -0.17136364 -0.17224059 0.010352213 0.020693388 -0.10393846 -0.01745206
-0.09990986 -0.009699771 -0.09024783 -0.06106811 -0.15010586 0.05479762 -0.08476464 0.17106366
0.1551604 -0.09468793 0.08802767 0.015454319 0.15155284 -0.022571865 -0.16387495 0.08814662

emb_net.v_lins1.3.weight f4 [32, 32]
00000000: e500 b8bd b137 be3c 350d 313e 8231 123d
00000010: 4736 20bd 63d2 8d3c 3dd6 bfbd 5581 c1bd
00000020: adba 0fbd 003a 243e 6dd3 d83c f452 aebd
00000030: 1238 ccbd cfbc 0ebe 58c7 1abe 3f8e 30bb
00000040: 182a d33d 749b b43d 866a adbd e2f1 5ebd
00000050: 2380 e9bd 29ce adbd 6984 1a3e cb14 473d
00000060: c213 85bd 5ab7 00be c94c 053e d6e9 b23d
00000070: 8af7 34bd d9ec 98bc c97e 58bd c5fc 8a3c
00000080: eae9 9fbd 9742 bfbc 4d56 71bd 2ad4 1a3e
00000090: 5143 0c3e ed55 2b3e 6def 4eb9 e789 983c
000000a0: eaef 9a3d 80be bfbd 48e8 8f3c adbb f63d
000000b0: b6dd 41bc c3d1 b2bd a0de 853d 276e 113d
000000c0: 2137 cabd 6bcf 38bd 5216 7d3d 2f12 b7bc
000000d0: 77b4 aa3d 16b3 e23d 8cdb d73d 7eb0 06be
000000e0: e1a7 413d b36b bcbd d9b0 643d 339e eabd
000000f0: 63a2 c7bd 58c1 c1bd 588b b8bd 7199 993d
00000100: c84c 933d 5a8e b6bd 144e d63d cd5d 373d
00000110: fa75 75bd 2813 bcbd e8f1 d63c ba72 8bbd
00000120: 85c9 d7bd 455e 1bbe 12c5 9a3d 8d1a e33d
00000130: c809 dcbd ede7 0f3d 5f21 06bd 5257 813d
00000140: 1489 1bbe b21b 293e a33d 153e 037b 8cbc
00000150: e9ec 42bd 1599 9f3d 30c4 923d 0ce9 173e
00000160: 5126 d3bd 004e 033e bb58 d8bc 07c2 063d
00000170: 36c3 25bd 8a8d 14be 77db 343d 1671 c0bd
00000180: cedd 8c3d 5f12 2e3d 8da2 51bd 5d3d f63c
00000190: 1bb3 13be a6d9 b5bb 0cb7 08be cd04 1abe
000001a0: 3b48 2c3e e9ef 483d 4a05 043e a67c 88bd
000001b0: 64df 88bd ce25 df3d 1a98 013e bf96 09bc
000001c0: a315 373e e843 393e 05af 5c3c e228 bd3d
000001d0: b432 91bd 93c3 8fbd 6e0b 003d 8f7a d6bd
000001e0: 6548 34bd f985 0d3b 7ce2 babd b520 143e
000001f0: 4e70 893b 526c 10be f8a3 8a3d 4ad5 59bc
00000200: 3560 ff3d 762e c93c b5b0 703d 5fdd 9a3d
00000210: cc15 153e 6138 30bd 2723 51b9 c228 04be
00000220: 1155 11be 1af3 3bbe 9bf4 c1bd 6cb1 1f3d
00000230: a00a 543d a8a3 0b3e fec5 253e 352b 0d3e
00000240: 6b31 193e 02b3 08bd c573 0bbe 6ff9 d1bd
00000250: c0b4 debc 71ae 17be c1dd 87bd abe2 b23c
00000260: 044c 093e dd26 563c 9d4e 28be dac4 dcbd
00000270: d928 31be 72c8 89bd 666a 213e 4cba 85bd
00000280: abc8 473d a88e 22be cab5 e93d fe49 33bc
00000290: 37b3 603d 280d 2c3e 0c78 003e 0a94 073e
000002a0: 8e1d b0bb b67e 2fbd cc8c 2cb9 0d6a 833b
000002b0: 07bb 81bd 3cfa 14be d26a 00be 7b6d af3d
000002c0: 9acd 673c 69cb cd3c d36d 7f3d 563e 72bd
000002d0: b02a 0bbe e131 ad3b 411f 153e 789a bdbd
000002e0: 8300 163e e764 10bd eb64 86bd b30e febd
000002f0: dfcf 3a3d cddd 2dbe 49b6 633d 8fb1 3a3e
00000300: 9f89 6c3d 5914 ac3c 78a8 523d f645 743c
00000310: 098f 3dbd a4fe 953d 0254 6abd 9d84 82bd
00000320: f8fe 69bb cd84 113d 302b 0b3e be1a 123c
00000330: 8bdd f8bd cc77 623c 772a 32be fa09 f5bd
00000340: fd86 26be 0e67 953d 4f88 58bd 4bed c93c
00000350: b408 17be 7214 a9bd af86 b73d 4b24 d33d
00000360: e186 0d3e a2a2 953d dc02 1e3e a957 083e
00000370: 784e 4ebd 2ea1 3bbd ba57 d83d 4d3f b03d
00000380: 756a c6bc bbaa ecbd bcef d6bd adaa 8d3d
00000390: 6a79 1bbd f522 22be 6554 853d f56c dbbd
000003a0: 1b79 5b3c 5181 a23c 11f2 e53c ed5d 213e
000003b0: faab afbd 76e3 8c3d 0f04 67bc 386e 453d
000003c0: 8c0f 9e3a c66a b8bd 39c8 b33d fada c93d
000003d0: 2312 26be 2fe5 1bbe 8c62 08bc dba0 7fbd
000003e0: 3f3e da3d 2dda 1ebe 9a9b b1bc d77f 23be
000003f0: 68d0 e03d 168b bebb 25ff 01be 0d4e 11bd
-0.089845456 0.023219915 0.17290194 0.035691746 -0.039114263 0.017312234 -0.093670346 -0.09448496
-0.035090137 0.1603775 0.026468003 -0.08511916 -0.09971632 -0.13939212 -0.15115106 -0.0026940254
0.10310763 0.08818713 -0.08467583 -0.054429896 -0.11401393 -0.084865876 0.15089573 0.048603814
-0.06497909 -0.12569943 0.13017572 0.08736007 -0.044181384 -0.018667625 -0.052855287 0.016966233
-0.078082874 -0.023347182 -0.058920193 0.15119997 0.13697554 0.16731997 -0.00019734884 0.018620444
0.07565291 -0.09362507 0.017566815 0.12047515 -0.011832645 -0.08731415 0.06536603 0.03550544
-0.09873796 -0.045119684 0.061788864 -0.022347538 0.08335202 0.11069314 0.10539922 -0.13153264
0.047279242 -0.092002295 0.055832718 -0.11455955 -0.0974777 -0.094607055 -0.09010953 0.0749997
0.07192379 -0.0891387 0.10464111 0.04476719 -0.059926964 -0.09183341 0.026238397 -0.06808992
-0.10536484 -0.1517268 0.075571194 0.110890485 -0.10744053 0.03513329 -0.03274667 0.06315483
-0.1518901 0.16514471 0.14574294 -0.0171485 -0.047589216 0.0779287 0.07166326 0.14834994
-0.10310043 0.12822723 -0.026409497 0.032899883 -0.04046937 -0.14507118 0.04415461 -0.093965694
0.068782434 0.04249799 -0.05118041 0.030058557 -0.14423792 -0.0055496274 -0.13351077 -0.15040894
0.16824429 0.04905692 0.12892643 -0.066644 -0.066832334 0.108958825 0.12655678 -0.008397757
0.17879348 0.1809231 0.013469462 0.092363134 -0.07089749 -0.07019725 0.0312609 -0.10472595
-0.044014353 0.0021594747 -0.0912523 0.14465602 0.004194296 -0.14103821 0.06769556 -0.013295481
0.12469522 0.024558287 0.05876227 0.075617544 0.14559096 -0.043022517 -0.00019944888 -0.12906173
-0.14192607 -0.18354455 -0.09470483 0.038987562 0.051767945 0.13636649 0.1618881 0.13786013
0.14960258 -0.03337384 -0.13618381 -0.10252654 -0.027185798 -0.14812638 -0.06634093 0.0218366
0.13407904 0.013070789 -0.16436239 -0.10779734 -0.17300738 -0.06727685 0.15763244 -0.06529674
0.048775356 -0.15874732 0.11411627 -0.010942934 0.054858413 0.16801894 0.12545794 0.13240066
-0.005374617 -0.04284545 -0.00016455649 0.004010445 -0.06334501 -0.14548582 -0.12540749 0.085658036
0.01414814 0.025121408 0.062360596 -0.05914148 -0.13590503 0.005285487 0.14562704 -0.09257978
0.14648633 -0.035252478 -0.06562217 -0.124051474 0.045608398 -0.16979142 0.055593763 0.18231796
0.057748433 0.021005796 0.051430196 0.014909258 -0.046278987 0.073239595 -0.057209022 -0.0637295
-0.0035704952 0.03552704 0.13590693 0.008917509 -0.12151631 0.013822507 -0.17399012 -0.119647935
-0.16262431 0.07295047 -0.05286437 0.024649283 -0.14749414 -0.08255853 0.08961236 0.10309657
0.13820983 0.0730641 0.15430778 0.1331469 -0.050367802 -0.04580801 0.105636075 0.08605824
-0.024220685 -0.11556002 -0.104949445 0.069173194 -0.037957586 -0.15833648 0.065102376 -0.10714141
0.013395573 0.019837053 0.028069528 0.15758486 -0.08577724 0.06879322 -0.014100089 0.048200816
0.0012059077 -0.090047404 0.08778424 0.098562196 -0.16217856 -0.15224145 -0.008324277 -0.062409263
0.10656404 -0.15512915 -0.021680642 -0.15966736 0.1097725 -0.00581492 -0.12694986 -0.035474826

emb_net.v_lins1.3.bias f4 [32]
00000000: c352 9abd 3918 8d3c ce1c 2c3e c750 f3bd
00000010: 920a ab3d 029a 83bd db76 093e 397e 51bc
00000020: 821f 03be 60bb 9f3d 0170 31be 6fc7 ea3d
00000030: 2e5d 24be d326 09be d2ab e33c 6787 063e
00000040: 6e98 f63d 2e35 663d d939 333c 42fc 1ebe
00000050: 2f89 043e 9bf1 2bbe b2ff c8bd 7294 1bbd
00000060: b9a1 ce3d 47ce 90bd 5289 b43b b440 bd3d
00000070: 7f9c 543c 4671 153e 725d 1cbd d8e2 3cbd
-0.07535317 0.017223464 0.16807863 -0.118806414 0.083516255 -0.06425859 0.13424246 -0.0127864415
-0.12804988 0.07799411 -0.17327882 0.1146382 -0.1605117 -0.13393717 0.027791891 0.1313759
0.120407924 0.05620306 0.010939085 -0.15525916 0.12942956 -0.16791384 -0.09814395 -0.037983365
0.1008944 -0.07070594 0.005509534 0.09240857 0.012976765 0.14593992 -0.038175054 -0.046114773

emb_net.v_lins1.4.weight f4 [32, 32]
00000000: 039b 1f3e da54 8f3d c362 f3bd 6f12 9e3d
00000010: 1258 cabd 801c b23d a106 a6bd c742 a53d
00000020: cb95 903d 12d4 4b3d 1db4 a93b 369c af3d
00000030: f759 b3bd 2217 05be bc8b ef3d 81d8 2cbe
00000040: 2f39 013d 8439 c2bd 6677 283c 74b3 b63d
00000050: f1dc f0bd 2e67 cc3d d539 dd3d 8e5a 653d
00000060: 6fb5 e43d 2b0a 973d 49d0 2abe 3782 3e3a
00000070: 59bf 1b3d 307b 15bd ecfd 53bd d8b1 e93d
00000080: 4923 26be 1153 ac3d 4ac8 913d 418c 8fbd
00000090: d1e7 a93d 3b24 123e 95a0 1ebe 8eb3 993c
000000a0: 4e62 a33d 631d aabd f152 5c3d 1f1c 923c
000000b0: f701 173e 8c0d 6fbd 08aa 1cbe e0ef 0e3e
000000c0: a423 f73d 8a3b 51bd ab81 2b3e db03 1fba
000000d0: c651 133c 4779 2c3d 585c 683d 2ff2 c43d
000000e0: 74cc 55bc 7243 72bd 8cfa 213e 8087 23bc
000000f0: 9717 553d 33ea 0fbe 7ca9 1cbe 592b 2d3e
00000100: 5d4c d63d 875d d6bc 34af 3ebd 784b a2bd
00000110: 004e ad3d d736 013d 343e 1f3e 49a3 e43d
00000120: f9d9 c3bd 6df7 d73d dd13 a3bd b3ea c3ba
00000130: 6674 23bd b0dc 08be 9845 0abe 96c3 eebc
00000140: e93d 283d 27ab e6bd 9288 183e 3a63 1bbe
00000150: eefa c2bd 7245 65bd 07d7 943d 4757 c83d
00000160: e261 303d 0e3e aabd b992 133e 4066 4dbc
00000170: 6365 acbc 8cd0 edbd 0afd 3ebc dc0c 99bd
00000180: dd3e acbd aae5 aa3d a841 bf3d e0a4 33bd
00000190: 143e 00bd cb15 8c3d bee4 fbbd 8321 11be
000001a0: 3d01 67bd d9c0 913d 5108 1e3e 2a59 aa3d
000001b0: 3b6e 853c 02fd 253e a7d5 ff3d 4d5e 673d
000001c0: de14 38bd cd56 3d3e 0503 d9bc 550f ee3d
000001d0: dd69 a4bd 5334 a039 f308 e83b 8444 94bc
000001e0: cb82 08be d81c b5bd 8ec3 fdbd 79ef 24be
000001f0: 7ec5 0cbe 80e7 3c3e 25e5 253e c4e5 493d
00000200: ce2f 773d 62c8 9a3d c95b c93d 73b1 e13d
00000210: 11e4 2fbe 58bd e0bd de3d ed3d 33a3 b93d
00000220: 7f91 2c3e 82a4 c73d 0756 8abd f262 57bd
00000230: 9610 17be 2af6 2c3e 3a5c 0dbe 62dd db3d
00000240: 63a0 0d3d b830 0cbe 146c d9bd 3853 0dbe
00000250: d778 18be 2e37 ca3d 212c f33d 6e24 73bd
00000260: f340 203e cd0c 38bd 1fbe fd3d cef5 d1bd
00000270: c933 71ba 2a7b 0abe 80c1 2cbe 05dc 2b3d
00000280: 2fc2 30ba 063c 17be 5b74 90bd f49c 02be
00000290: 8593 103e 9619 413d b210 64bd 75bc 033e
000002a0: 684e a33d 938e 25be 8535 d23d a5e8 c33d
000002b0: f340 45bd 2875 91bd 6c9a 0f3e 488e ba3d
000002c0: dab6 cebd 42b8 033e fc91 793b f30e 9abd
000002d0: 5522 9fbd a476 d1bd 4e2d 10be 0fc6 8b3d
000002e0: e41f ef3d ae58 3c3e 8582 c53d 76db ff3d
000002f0: c167 213e d695 4fbc bc57 fabd 9fd0 5cbd
00000300: edce f2bd 34d0 2abe 568a 4fbc d237 efbd
00000310: a262 b6bd 0ed7 1abe 0668 01be 065f 5bbb
00000320: 18af 12bd b1a0 fcbd 6a66 223e 3162 14be
00000330: cd25 48bc a2c9 ab3d 1c38 28be d32c bdbb
00000340: 9574 0d3e 1fde a73c 9d3f 4e3b 5cd4 e4bc
00000350: 0721 b3bd 0a1c 6d3d 82f4 e63d c21d 333e
00000360: 3188 ec3d 11aa 883d b4e1 a03c 6996 663d
00000370: 6b66 43bc 9136 25be 432b 8bbd 8b9f 5e3b
00000380: f2fc a33d 9468 e6bd 9b2b df3d 98d2 d13d
00000390: 845d 39be 5975 ea3c 3895 1c3e fb0b abbd
000003a0: b160 713c da2c 213e 7180 cc3d 754c c9bd
000003b0: bbf1 2ebe d35c a03d b24e fdbd b509 d4bd
000003c0: 471a f93d a001 9f3d df46 243d 133a f1bd
000003d0: c8ba cabd 6061 a2bd 37d2 0dbe fe26 013e
000003e0: d9af e03d 9a07 173e b1d7 f23d 3bf4 a4bb
000003f0: 2d45 b3bd b945 1039 9968 213e f4f3 813b
0.15586476 0.06998606 -0.11884072 0.0771836 -0.09880079 0.08696842 -0.08106733 0.080693774
0.07059821 0.049762793 0.005178942 0.08574717 -0.08757394 -0.12997106 0.11696574 -0.16879465
0.031548675 -0.094836265 0.010282373 0.08920947 -0.11760891 0.099806175 0.10802046 0.055994563
0.11167418 0.07374986 -0.16681017 0.00072673283 0.03802428 -0.036494434 -0.05175583 0.11410874
-0.16224398 0.08414281 0.0711828 -0.07009173 0.082961686 0.14271633 -0.15490945 0.018762376
0.079777345 -0.08306386 0.053790037 0.017835675 0.14746843 -0.05836253 -0.15299237 0.13958693
0.12067345 -0.05108217 0.16748683 -0.0006065943 0.008991664 0.042107847 0.05672869 0.09616505
-0.013049234 -0.059146352 0.15818232 -0.009981036 0.05202445 -0.14054184 -0.15299028 0.16911067
0.10463784 -0.026167644 -0.046553805 -0.07924551 0.08462143 0.03154644 0.15551072 0.11163957
-0.09563059 0.105452396 -0.07962773 -0.0014947265 -0.039905928 -0.13365436 -0.1350311 -0.029145997
0.041074667 -0.112631135 0.14895847 -0.1517457 -0.09520517 -0.05597443 0.07267576 0.09782272
0.0430621 -0.08312617 0.14411439 -0.012536585 -0.021044439 -0.11612043 -0.011657009 -0.07473156
-0.08410428 0.08344586 0.09338695 -0.04385841 -0.031309202 0.06840094 -0.122994885 -0.1417294
-0.056397665 0.07116861 0.1543286 0.08317788 0.016287914 0.16209796 0.12491923 0.056486417
-0.044941776 0.18490143 -0.026490698 0.11624018 -0.08028004 0.00030556563 0.007081145 -0.018099077
-0.13331144 -0.08843392 -0.12390815 -0.16106977 -0.13747212 0.18447685 0.16200693 0.049291387
0.060348324 0.07557751 0.0983196 0.11020174 -0.17176844 -0.109736145 0.11584066 0.09064331
0.16852377 0.09748174 -0.0675469 -0.052584596 -0.14752421 0.16890779 -0.13804713 0.10735585
0.034576785 -0.1369046 -0.106163174 -0.13801277 -0.14889847 0.09873806 0.11873651 -0.059360914
0.15649776 -0.044934083 0.12389778 -0.10251962 -0.0009201137 -0.13523546 -0.1687069 0.041957874
-0.0006742803 -0.14768991 -0.07053443 -0.12755185 0.14118774 0.04714354 -0.055679984 0.1286486
0.07973939 -0.16167669 0.10264114 0.09565858 -0.048157644 -0.07102424 0.14023751 0.09109169
-0.1009347 0.12863258 0.0038081398 -0.075223826 -0.0777022 -0.10227707 -0.14079782 0.06824886
0.116760045 0.18393204 0.09644035 0.12493031 0.15762235 -0.012670001 -0.12223765 -0.053909894
-0.11855874 -0.16680986 -0.012667259 -0.11680569 -0.089055315 -0.151211 -0.12637338 -0.0033473386
-0.035811514 -0.12335337 0.1585938 -0.14490582 -0.012216044 0.08388068 -0.16427654 -0.0057731657
0.13814004 0.020491658 0.0031471022 -0.027933292 -0.08746534 0.05788807 0.11277105 0.1749182
0.11549414 0.066730626 0.019638874 0.056295786 -0.011926274 -0.16134097 -0.06795361 0.0033969607
0.0800723 -0.112504154 0.10896989 0.10245246 -0.1810208 0.028620409 0.15291297 -0.083518945
0.014732526 0.15739766 0.09985436 -0.09829036 -0.170844 0.07830205 -0.123685256 -0.10353414
0.12163215 0.07763982 0.04010665 -0.11778655 -0.09898907 -0.07928729 -0.13849722 0.1261253
0.1097104 0.14748994 0.11857546 -0.0050339974 -0.087534286 0.00013758884 0.15762557 0.003965849

emb_net.v_lins1.4.bias f4 [32]
00000000: 1f56 183e 169b 1dbe 7a54 44bd bcef e53d
00000010: 19b0 9cbd c309 1e3e 7f73 e03d 5d68 73bc
00000020: 8e73 d93d 4ae3 b0bd fdf9 3b3d 3c62 af3d
00000030: ffde 163e ef32 22be 7a8c 183e e3db 2b3e
00000040: d55c c9bd 0c60 333e aa54 1c3e 1d52 5ebc
00000050: c6f4 113a a430 923c 110d 8fbd d5cf 143e
00000060: 3255 8b3d 2309 4f3d 4f37 9cbd c644 6e3d
00000070: 61b8 4f3b e378 163e 49d4 313e 543a 163e
0.14876603 -0.15391192 -0.047932126 0.11227366 -0.076507755 0.15433411 0.10959529 -0.014856425
0.106177434 -0.08637102 0.045892704 0.085636586 0.14733504 -0.15839742 0.14897338 0.16783099
-0.098321594 0.17517108 0.15266672 -0.013569382 0.0005567785 0.01784546 -0.06984914 0.14532407
0.06803359 0.050545823 -0.07627737 0.058171056 0.0031695592 0.14694552 0.17366137 0.14670688

emb_net.v_lins1.5.weight f4 [32, 32]
00000000: 369c d73d 7c1b 363e 7a7d 233d 8336 eabd
00000010: d6bd 1fbe c856 95bd 6c73 34be aad0 d73d
00000020: 35c1 28be def8 873d 1393 f5bc 3215 053e
00000030: bc1c babd 3e0a efba 0fd6 fcbd 0a7b ddbd
00000040: 1971 283d 2450 74bd cc00 46bd e4ae 7ebb
00000050: 52df ccbd 5586 8e3d d59a 74bc 0337 2abe
00000060: f701 a7bd cf15 06be 28fc 433c 4bb3 073e
00000070: e968 7d3d f215 bbbd cbf6 15bb 78e2 36be
00000080: 35d5 643d 58c6 293e 9512 6e3d a6d1 2ebd
00000090: d130 dc39 bee5 243e 3438 b43d be2a 3cbe
000000a0: 9e83 5abd dfae 433a 9bd9 053d 1b87 d23d
000000b0: 2ccb ca3d e694 f6bd e143 0d3e 9dd0 dcbd
000000c0: ccb6 76bd 700b 06be 215c 023e b899 e4bc
000000d0: 3926 fb3c 5b52 bb3d 71a7 133e e74d 14be
000000e0: 9d16 ed3d 91f5 41be 1dab 163d c99d e0bc
000000f0: 943d f23d eea6 9b3d 04e0 c03d 7c9e 11be
00000100: 74c6 243d b3a7 3abd 1e47 d5bd d71d 8a3c
00000110: 9c4e d3bd f00f c83d 9afd e4bd 69d7 a2bd
00000120: 8b30 2e3d 30ac d53d 3c2e 163e 1552 d1bd
00000130: 9561 353d d1ff 0abe aeb4 09bd 288d 253e
00000140: cc34 31be 9caf a1bd b44b 86bd 18d4 0bbc
00000150: 7c26 f6bd 76f3 66bc 7442 b33d 6462 29bd
00000160: 0e86 27be 86e9 25be 2278 8e3d c502 243e
00000170: 5466 21be 7c93 a9bd 3a4f 043d b8d1 123e
00000180: 3f03 69bd 47c9 7abb 994a cd3d 785f c2bd
00000190: c880 98bd d5d3 99bd 48eb 9d3d d77d 96bd
000001a0: 34ce a0bd 6258 04be 75a5 43bd 5abc efbb
000001b0: 1cf7 323e 4906 28be 548d 4ebd b7a4 7cbd
000001c0: df36 113e 3257 89bd 85f9 e73d 8fa8 013d
000001d0: 5b70 293c eaa4 a9bd b540 073e b18e 1f3e
000001e0: e0c7 ad3d 4568 94bd 2574 5cbd c757 153e
000001f0: 9002 0b3e e970 203e 962a 13be 5122 1fbe
00000200: e1f3 81bd aca8 c93b 9db4 08bd 0f29 a3bc
00000210: 745c ae3d de04 893d 06d5 e03d ac9d c9bd
00000220: 6043 b93d 2fc5 b83c a866 0b3e 8f3d a2bd
00000230: bb78 13be d20c 223e 8a87 92bd 77cc 11be
00000240: f714 b1bd b237 04be b4af e0bd 610f b83d
00000250: e9de a9bd 3c33 e8bd 706d 6cbd 463c ed3d
00000260: ec54 aa3d 6b60 1f3e 1bdc adbd b084 1fbe
00000270: 764d a43a 06d8 03bd e349 d43d 60b2 9fbd
00000280: 7b38 5ebd ebb5 c73d fa8a a7bd 0cb4 25bd
00000290: b9ed 073d 6ee5 7dbc 418a 2dbe 32f8 97bd
000002a0: c158 1bbe 3f70 57bd 6c81 0a3e 4c48 283d
000002b0: 62fa 26be defd b8ba 4806 e5bd a3b1 d03c
000002c0: 41ac 1e3e a494 0e3c 6639 0cbe d473 283e
000002d0: d2bc a83d 0fb6 d8bb 313e 123d 4fbf 2e3e
000002e0: a0b1 1f3e caf5 21be a2e8 e43d 0cc5 52bd
000002f0: a1fe b23c 48a8 af3d 9061 303e 717a f3bd
00000300: 1c3d 86bd 67e9 f83d dff7 0d3e 78e1 87bd
00000310: 1139 223e 3364 6dbd f80d 163b 5b7a 3cbe
00000320: 59da 1c3e 8e29 5dbc 1d12 9cbd 0a39 28be
00000330: 7a94 4a3d bfc3 0e3e ff3c 463d 9307 403d
00000340: 0917 cebd 4b25 cfbd 4f40 223b f56c e53c
00000350: 4de1 4abd e3f6 1a3e 8e4f bcbd a34e c7bd
00000360: 2a52 99bc ff57 903d d5c4 0f3e 8d88 16be
00000370: 4c6f ce3d f1ba bb3d 2690 f33d ea90 823d
00000380: 94bb 263e d835 0abe 88ca 183e 4145 b13d
00000390: e8b2 aa3a 380d 9bbd 30e5 26be 3074 1cbe
000003a0: b591 2b3e 7526 063e d6cf 023e e8e3 e6bd
000003b0: a74e f2bd e1e9 dbbd 846e cbbd 5fd4 15bd
000003c0: 746e d43d 09f0 b7bd c220 f8bd 0dc9 36be
000003d0: e59a ab3d e3eb 87bd e5aa ffbd 696b a53d
000003e0: 965a 89bd 3f9b 1b3e 7e64 983d d328 203e
000003f0: cde4 33bd 8f4e bb3d 9600 bfbd 9b72 123c
0.10527842 0.17783922 0.039914586 -0.114361785 -0.1559976 -0.07291943 -0.17622155 0.105378464
-0.16479953 0.066392645 -0.029977357 0.12996367 -0.09087512 -0.0018237305 -0.12345516 -0.108144835
0.041123483 -0.05964674 -0.048340604 -0.0038861567 -0.100035325 0.069592156 -0.014929493 -0.16622548
-0.08154672 -0.13094257 0.011961974 0.13251989 0.06186763 -0.09135045 -0.0022882696 -0.17859828
0.055867393 0.16579568 0.05812319 -0.042680405 0.0004199804 0.16103265 0.087997824 -0.1837568
-0.053348176 0.00074647175 0.032678228 0.102796756 0.09902033 -0.12040119 0.13795425 -0.10781977
-0.060232922 -0.130903 0.12730457 -0.02790533 0.030657874 0.091465674 0.14419343 -0.14482842
0.11576579 -0.18941332 0.03678428 -0.027418988 0.11828151 0.07600199 0.094177276 -0.14220613
0.040228322 -0.045570087 -0.10413955 0.016859932 -0.10317728 0.09768665 -0.11181183 -0.079512425
0.042526763 0.10433233 0.14666075 -0.10220734 0.044282515 -0.13574149 -0.033619575 0.16167128
-0.17305297 -0.07894823 -0.06557408 -0.008534454 -0.12019059 -0.014096132 0.08752909 -0.0413536
-0.16359732 -0.16202363 0.06956507 0.16016681 -0.15761691 -0.082800835 0.03230212 0.14337814
-0.05688786 -0.0038266943 0.10023994 -0.094908655 -0.07446438 -0.07511107 0.07710892 -0.07348221
-0.0785183 -0.1292434 -0.047765214 -0.0073161544 0.17477077 -0.16408648 -0.05042775 -0.06168052
0.14181088 -0.06706084 0.11326889 0.03165489 0.010341729 -0.08283408 0.13208278 0.15581776
0.08485389 -0.0724645 -0.0538217 0.14584266 0.13575196 0.15668072 -0.14371714 -0.15540434
-0.06345344 0.0061541405 -0.03337537 -0.01991704 0.08513728 0.066903815 0.10978131 -0.09844527
0.09046054 0.022554962 0.13613379 -0.079218976 -0.14401524 0.15825203 -0.07154758 -0.14238153
-0.08646577 -0.12911871 -0.10971013 0.08987308 -0.0829447 -0.11337897 -0.057721555 0.11583762
0.08316979 0.15564124 -0.084892474 -0.1557796 0.0012535292 -0.032188438 0.10365655 -0.07797694
-0.054253083 0.09751495 -0.081808046 -0.04045491 0.033185694 -0.015496595 -0.16947271 -0.074203864
-0.15170576 -0.05259728 0.13525933 0.041084573 -0.16306451 -0.0014113744 -0.11182839 0.025475329
0.15495397 0.008702431 -0.13693771 0.16450435 0.082391396 -0.0066135 0.03570384 0.17065166
0.15595102 -0.15816417 0.11177184 -0.05145745 0.021849932 0.08577019 0.17224717 -0.11888588
-0.065546244 0.12153893 0.13864087 -0.066348016 0.15842082 -0.057956886 0.002289651 -0.1840605
0.15317668 -0.013498677 -0.07620642 -0.16428009 0.049458005 0.13941859 0.048398014 0.046882223
-0.10062987 -0.10114535 0.002475757 0.028006056 -0.04953127 0.15133242 -0.09194861 -0.09731796
-0.018715937 0.07048034 0.14039929 -0.14700527 0.10079822 0.091665156 0.118927285 0.063752964
0.16282493 -0.13497102 0.1492101 0.08655787 0.0013023289 -0.07570881 -0.16298366 -0.15278697
0.16754802 0.13100608 0.12774596 -0.112739384 -0.11831408 -0.10737968 -0.099331886 -0.036579486
0.1037263 -0.0898133 -0.12115623 -0.17850132 0.08379153 -0.06636789 -0.124837674 0.080771275
-0.06706731 0.1519594 0.07441042 0.15640573 -0.043919373 0.09145843 -0.09326284 0.008938457

emb_net.v_lins1.5.bias f4 [32]
00000000: 49f5 fa3c 20f5 2fbe 21de 283e 248f 343e
00000010: 03e0 b63d ef7f 2fbe 1101 043c 2d0d 593d
00000020: cd8a 49bd 1571 833d 0b90 b33d d142 53bc
00000030: 286a 2a3d 6948 40bd 1f79 1abe 12e5 2c3d
00000040: 3df7 c53d 868b 283e 7a5c 8a3d b065 37bd
00000050: da23 713d 8ad1 abbd b639 d1bc c523 a43d
00000060: 94c3 003e 33a0 27bd 05f5 aabd 3446 e7bb
00000070: 9cd0 22be 1246 0fbe a2ff 23bd 17e3 4e3d
0.03063454 -0.17183352 0.16490985 0.17632729 0.089294456 -0.17138647 0.008056895 0.05299108
-0.049204636 0.06418053 0.087677084 -0.012894348 0.041605145 -0.046944056 -0.15085267 0.042210646
0.096662976 0.16459474 0.0675592 -0.04477471 0.05887208 -0.08389576 -0.025540214 0.08014635
0.12574607 -0.040924262 -0.08347515 -0.0070579294 -0.1589989 -0.13991573 -0.040038712 0.05050954

emb_net.v_lins1.6.weight f4 [32, 32]
00000000: a095 c4bd 2d05 4bbd fd62 02be f4e5 89bc
00000010: 189d cc3b 8f0f 033d 90fe 5cbd b242 f43d
00000020: a762 d73d 47ef 063e f4da 3b3e d065 29be
00000030: 53c2 de3d 6953 69bc c484 32be 773b fabc
00000040: 7dc3 d7bd 6e8b 733d ae0e 20be 9e58 953c
00000050: 1051 c13d 5e8d 01be 5b16 62bd 8fa3 9a3d
00000060: 28d0 803d 4bb1 babd 80bb 343c f1c7 123e
00000070: 3e04 ddbd ce74 a2bd a67f 1e3e 812f ea3d
00000080: b35b 393e c576 fa3d 5dc3 2cbe be12 9ebd
00000090: 55f1 023d 24ba 8ebd 1da9 fcbd 4ef1 e93c
000000a0: e544 133e 38cc 2d3e 8b2d cfbd 20e8 22be
000000b0: 9d7f efbd e6f6 dd3d 42ee f63d 369e 0a3e
000000c0: 3407 fdbd c9fd 0f3e 0205 0fbd 1401 63bd
000000d0: eb79 93bd 73f0 ec3d eeb7 05be f32d 433d
000000e0: db4a 7b3c ac5f cfbd da5d 1d3d 6223 293e
000000f0: 2730 fbbc db5e 113e 6379 80bd 84eb 033c
00000100: 9513 30be 18fc 15be 062d 133e aeda d03c
00000110: 2733 8c3d 9d45 b43c 62c6 d0bc 7210 253d
00000120: ff1a 1dbc 7802 dc3d 4e3e 1fbd ca62 573d
00000130: 0acf f0bd 4e3a 08be af6a 003e 1ab3 2ebe
00000140: 4f05 133e c73a f9bd f476 f7bd ff5b 18be
00000150: e87f 10be fe8a 983d a45b e3bb 2cae 023e
00000160: c8cc 99bc 66da 5e3d e287 133d d724 103e
00000170: 1335 97bd 9d8f adbd d731 e0bd 1cf6 bf3d
00000180: 419e e6bd e85c 17bc 1a96 e4bd a3ee 21be
00000190: b3b2 fcbd 1af6 073e 5a1d 39bd 3196 723d
000001a0: ea20 a9bc df4c 603c 2ac0 1fbe 86d6 2ebe
000001b0: 95db f43c 8260 c83d 2336 07be ec59 c2bc
000001c0: c0d9 653d d285 ea3d 65ad a63d 6468 5b3d
000001d0: 2170 323e a975 ea3d b570 2ebc 0f5e 6ebd
000001e0: 5238 0cbe 042f 87bd 6a49 813c f65c 383e
000001f0: 2d8a d3bd 3181 dcbd 512e 19bd 3935 b5bd
00000200: 6a7b 613d 0f4a b43d 56e9 053e 9b5a 4d3d
00000210: 4167 b63c 6b10 1fbb a5c3 76bd 19af b23d
00000220: 8b71 e8bd 881d cfbd 0083 02be 4008 b9bd
00000230: e1de 8abc 6bd2 1bbe 0e0b f83d dfc3 26be
00000240: 4bd2 193e d5e3 663d 51af e83d a72c abbb
00000250: faa0 9cbd 7e0e 9b3d 4ff6 d3bd e644 db3d
00000260: ffc2 1bbe dd76 323c 0c5d 8c3d 373f f0bd
00000270: 2ed4 a7bd 1f0e debd 89f9 283c 48af 99bd
00000280: 46c5 d83d 101a 46bd ace6 ccbd c942 de3b
00000290: 704b 323e 38ee e4bb 78e4 263e b989 183e
000002a0: 0c27 ac3d d8b4 eabc 82d9 e3bc 123d 2e3e
000002b0: 3f22 dd3d 1e96 4d3d ea9a febc 255e 893d
000002c0: 6cb6 c53b f6f2 133e a3ba e4bd 20e3 f63d
000002d0: 841a 09be ad2a 803d 7f1f c83c 1a6f 4d3d
000002e0: 1c85 d0ba 5b80 84bd 9180 9b3d 6ca6 2e3e
000002f0: 38d2 bbbd da3e d43c ba73 103e ffd6 103e
00000300: 346e 0b3e 4595 ccbd 812d e23d 6693 bc3d
00000310: c125 5fbd 724f 103e b9d1 293e bfe4 d13d
00000320: 316a ab3d c284 6ebb b152 833d 9c40 0cba
00000330: 9de8 40bd c4ee ac3c ca43 71bd 5051 963d
00000340: 0186 2bbe 6ad4 ddbd 7d63 d9bc be8e 5e3d
00000350: a400 01be 5527 81bd 9b13 2a3e 0877 aebd
00000360: 4517 2cbd 8cfb 123e 1cac 1ebb 32e3 3abe
00000370: 7d1d 38be 35eb dfbd 9ab1 11be 8041 17be
00000380: 6fe5 873c 1d51 c7bd e1b3 c13b 188b 00be
00000390: 3743 653d 0f63 853d 7354 863d 4caa adbd
000003a0: 110f 5fbd 21fe 0ebe d0b7 1f3e 557c c73d
000003b0: 7eea 953b 608e 9d3d 0a0f 74bd 465c 6c3d
000003c0: 617b d3bd 5326 b03a 2bee 27bd 0f88 d43d
000003d0: ab81 87bc c7a4 37be a490 323e bf60 2b3d
000003e0: a5eb 843d bbb3 05be 7159 033e 1a9c 283e
000003f0: d572 013e 9b64 fcbd 424c 6cbd f903 1a3e
-0.09598851 -0.049565483 -0.12733074 -0.016833283 0.006244313 0.03199726 -0.053953707 0.119267836
0.10516863 0.13177215 0.18345243 -0.16542745 0.10876908 -0.014241078 -0.17433459 -0.030545933
-0.10535333 0.059459142 -0.156306 0.018230733 0.094392896 -0.12651584 -0.0551971 0.075507276
0.06289703 -0.09115847 0.011031032 0.14334084 -0.10791825 -0.07932435 0.15478382 0.11434842
0.18101387 0.12229685 -0.168714 -0.077184185 0.031968433 -0.06969097 -0.12336943 0.028557446
0.1438175 0.16972435 -0.101161085 -0.15908861 -0.11694262 0.10838108 0.12057163 0.13536915
-0.123548895 0.14061655 -0.034916885 -0.05542095 -0.072009884 0.115692995 -0.13058445 0.047651242
0.015337671 -0.1012567 0.038419582 0.16517404 -0.03066261 0.1419634 -0.06273153 0.008051757
-0.1719497 -0.14646947 0.14372644 0.0254949 0.06845694 0.02200585 -0.025485221 0.040298887
-0.009588956 0.107426584 -0.038877778 0.052584447 -0.117582396 -0.13303491 0.12540697 -0.1706051
0.14357494 -0.12169414 -0.120832354 -0.14878844 -0.14111292 0.07448386 -0.0069384146 0.12761754
-0.018774405 0.0544075 0.03601826 0.14076553 -0.0738317 -0.08474658 -0.10947006 0.093731135
-0.11260653 -0.009238459 -0.11161442 -0.15813689 -0.12338772 0.13277474 -0.045194007 0.059225265
-0.020645577 0.0136902025 -0.15600649 -0.17074022 0.029889861 0.097840324 -0.13204245 -0.023724519
0.056115866 0.114513054 0.08138541 0.05356635 0.17425586 0.11448223 -0.010646989 -0.05819517
-0.1369336 -0.066007644 0.015782077 0.18004212 -0.10329089 -0.10766829 -0.037397686 -0.08848042
0.055049337 0.08803188 0.13077292 0.050135236 0.022266032 -0.002427126 -0.060245175 0.087248035
-0.113497816 -0.101130545 -0.12745285 -0.09034777 -0.01695198 -0.15216987 0.121114835 -0.16285656
0.15021627 0.05636962 0.11361564 -0.005223829 -0.07647891 0.075711235 -0.10349714 0.10706501
-0.15211104 0.010892597 0.06853685 -0.11730807 -0.08194767 -0.10842537 0.0103134 -0.07504135
0.10584502 -0.0483647 -0.10004935 0.0067828638 0.1741159 -0.0069864057 0.16298091 0.14896287
0.08405885 -0.028650686 -0.027813677 0.17015484 0.107975475 0.05019199 -0.031079728 0.0670741
0.0060337093 0.14448151 -0.11168411 0.120550394 -0.13389021 0.0625814 0.024429081 0.050154783
-0.001590881 -0.06469794 0.075928815 0.17055672 -0.091709554 0.025908876 0.14106646 0.14144515
0.13616258 -0.099894084 0.110438354 0.092078015 -0.054479364 0.14092806 0.16583909 0.10248708
0.08369864 -0.0036395048 0.064122565 -0.0005350204 -0.047096837 0.021109946 -0.05890254 0.07339728
-0.16750337 -0.108315304 -0.026536698 0.05433535 -0.125979 -0.0630633 0.16609041 -0.08518797
-0.04201438 0.1435377 -0.0024211472 -0.1825073 -0.17979999 -0.10933534 -0.14227906 -0.1477108
0.016588895 -0.09732268 0.005911336 -0.1255306 0.055972304 0.065130346 0.06559076 -0.08479747
-0.054457728 -0.1396413 0.15597463 0.09740511 0.004575073 0.076931715 -0.059584655 0.057705186
-0.10326267 0.0013439156 -0.04099862 0.103775136 -0.016541323 -0.17933951 0.17437989 0.04184031
0.06490258 -0.13056843 0.12827088 0.16465798 0.12641461 -0.123238765 -0.057689913 0.15040578
