pretrained/tsp_2opt/tsp500.pt (torch, 357771 bytes, 225 tensors)

emb_net.v_lin0.weight f4 [32, 1]
00000000: bf47 a13e ac9b 3c3f 14c2 2abe b21c e13e
00000010: 69d7 bc3e 8031 9abd 8d4f 503f 6462 0b3f
00000020: 2877 c93e ad9c 0bbf 8889 cfbd 392e ed3e
00000030: b704 95be 6ac0 5e3d d0fe 433e 29d4 0ebf
00000040: 2833 cbbe a032 07bf 2cf0 afbd 0bc7 103f
00000050: e818 373f 0d5c c53e 52ba 49be 3f0a 65bf
00000060: 5760 c43e 568a c53e 77d7 fa3e 11a2 913e
00000070: 9ba8 bebe 3155 ebbe ff22 38bf 42dd 3b3f
0.3150005 0.73675036 -0.16675597 0.43967205 0.36883095 -0.075289726 0.81371385 0.5444701
0.39348722 -0.54535943 -0.10133654 0.46324328 -0.2910516 0.05438272 0.19140172 -0.5579248
-0.39687467 -0.5281162 -0.08590731 0.56553715 0.7152238 0.38546792 -0.19699982 -0.8946876
0.3835475 0.38582104 0.48992512 0.2844396 -0.3723801 -0.45963433 -0.719284 0.7338449

emb_net.v_lin0.bias f4 [32]
00000000: 5bb3 08be f87d e7be 94e4 7fbe ff50 563f
00000010: d563 9dbe 3ecc 6ebf 5596 84bd c47b 253f
00000020: 22ee 0d3f 4354 ffbe 016b 373e d0bb edbe
00000030: 18a0 473f 22e0 3ebf b90b 1cbf c3d5 56bf
00000040: bc75 5dbf b454 e23e 2ccc 843e c02e eabe
00000050: ba08 293f 6344 003f 9cdb a8be c963 78bf
00000060: c29a 27bf efd0 ef3d f24a 7abf 879a 3d3f
00000070: e4ec d73e ce51 7b3f e1cb df3e 7ffe 163f
-0.13349669 -0.45213294 -0.2498954 0.8371734 -0.30740228 -0.932804 -0.06473986 0.64641976
0.55441487 -0.49868974 0.17911913 -0.46432352 0.7797866 -0.7456075 -0.6095539 -0.83919924
-0.86507773 0.44205248 0.2593702 -0.45738792 0.6602894 0.5010435 -0.3298005 -0.9702726
-0.65470517 0.11709773 -0.9777061 0.74063915 0.4217292 0.981717 0.43710235 0.5898208

emb_net.v_lins1.0.weight f4 [32, 32]
00000000: e2e9 1cbe 43d9 093d b16a b4bd ff09 243e
00000010: 9f7d 6b3b 44d0 38bd e3ec 9bbd 1531 293e
00000020: f64b 59bc e3c9 ff3d 5e43 b9bd d65a b3bd
00000030: 52bd ddbd cb8f 913d 13f3 30be ed1f 52bd
00000040: ee09 07bd 40a0 0f3e f84e c2bd d9e2 df3d
00000050: 433b df3c 3536 313e 8849 293e 7bb2 153e
00000060: 958b bb3d c457 c7bd 818e 0fbe a95a 803d
00000070: 80f1 2ebe 2c3f 8cbd c22c 2f3d 5e62 acbd
00000080: 9d00 cbbd d54b c0bd f3da 3dbd 2681 f9bd
00000090: 7b43 343d c747 3c3b 49a3 933d c066 0cbe
000000a0: 904a 29be e1a3 f03d 8724 083c 3f41 1f3e
000000b0: 08e3 693d 1fff 163e 088a b53d db3a b6bd
000000c0: 06da e9bd e432 16be 3d0c 803d ec13 0a3e
000000d0: 1baa 32be 8524 093e 8933 ec3d a4ed 013d
000000e0: 7a82 1c3e 4250 f5bd 6d22 1d3e 8cd2 5c3d
000000f0: 1939 cebd ea71 a13d b92d e4bd 11e3 293e
00000100: 4e6c ef3d 5f68 0a3d 83ea 07be bad7 54bc
00000110: c838 253d 06e5 9d3d 703b c63a 5ac9 41bd
00000120: 208a 273e cbe4 bf3b 6de9 febd 8642 c73d
00000130: b370 353d c389 843d 334e 84bd f3c3 0bbe
00000140: 938e 073d 4c38 1bbe 6bcf d13d 68d8 883d
00000150: e78d 363d 32a8 fa3d 49c2 363e 04f4 36be
00000160: 3455 0cbe 0bf2 e4bd dacc a0bc ea15 f63d
00000170: 1671 97bc e855 00bd 4df1 093e f711 263e
00000180: 4696 a93d 65ac a43d b78e d2bd 502e 1a3d
00000190: d8cd 12be e88a c2bd 1f30 e63d f4af 8abd
000001a0: d63d 223e 0f59 5ebd 69d9 b0bc 569f afbd
000001b0: e5fb 17be 08eb a53d 4781 eebc 1d5c 03be
000001c0: 9c7e 05ba 3ed9 a6bd d752 b93d de3e b93d
000001d0: 4d08 6cbd 9616 9d3d c8c0 1fbd b852 05bd
000001e0: 0f53 04be 97d9 2abe 24ec 253e 3599 333d
000001f0: 4c35 0dbe de49 86bc 316e 023e defd c43d
00000200: edcf 283e 55a2 29be 9259 70bc 7195 24be
00000210: 8793 6c3d fafe 52bc 5fa9 c4bc 530a bfbd
00000220: 01cd 2dbe 7df7 04be 2d55 1c3d 8c73 033d
00000230: be47 553d a676 fabd c391 413d f028 27be
00000240: ea06 903d 64b6 24be 4e71 d33d f15a 90bb
00000250: 8a7a 83bd d625 e23d 950b 77bd 453e cabb
00000260: 4d86 3f3d 9f95 08bd 72b9 bc3c c317 e93d
00000270: 2346 edbd 0caf cd3d 34b1 1abe b7e4 8ebd
00000280: 3469 bdbd f9e4 08be 6aef 0b3e 625a f53d
00000290: c273 38be 6597 c93d 1cd4 253c f67a 063d
000002a0: 4044 9c3d 9cb5 873b a436 0e3e 0680 07bd
000002b0: aa60 eebd 2c52 07be 063d 17bd fc69 873d
000002c0: 80a6 8f3d ae14 0cbe 1ef5 273e 7b55 5e3c
000002d0: 4a4e b13d 507a 153e 7fd9 7abd 0cc8 c2bc
000002e0: 0ff7 4fbc da72 25bd 3bdf e2bd 0e64 ebbd
000002f0: c8bd a5bd e90d 353d db1c 3b3e 70f3 953c
00000300: 81ac 953d 7c90 2c3e 20e1 0fbe 75c3 eabd
00000310: 8f33 ea3d bbd5 ad3c 674f 07be 9da8 eabd
00000320: 3e6e 2cbd 08bb 8e3c 8f79 96bd 7e84 febd
00000330: e703 87bd e4dd e7bd 4e78 4cbd 7aff dfbd
00000340: a824 18be 966b af3c e4a9 d4bc f797 23be
00000350: f1a9 09bd 3a46 b63c f455 3bbd 3c20 b5bd
00000360: 2a8c d7bd 0a7b f53d b91b b03d 573b d7bd
00000370: 6c2d 493d 2cee 693d cc0a 783d 594a e13d
00000380: fa31 54bc 3cea acbd 7db7 333e 3afc fd3d
00000390: edcd 19bc 6a7a bebc b9e9 063e c6f4 02bd
000003a0: 55a2 263e 55c8 aebd 2028 82bd 01ad 8b3d
000003b0: c16c 0e3e 28b6 933d af1c 9abd e3c6 67bd
000003c0: bbf8 9d3b 0c53 bcbc 8621 1c3e 1a4f 0bbd
000003d0: 1ab1 1c3e 0708 0ebd 3839 15be c184 c93b
000003e0: cb9a 17be 36f5 31be 12d1 f03b b55b 06be
000003f0: 1d15 193e 485b 0d3e 0900 b6bd 55ec 41bd
-0.15323594 0.033654463 -0.08809412 0.16019438 0.003593303 -0.045120493 -0.07613542 0.1652263
-0.013262739 0.12489679 -0.090460524 -0.0875756 -0.108271256 0.071075045 -0.17280225 -0.051299978
-0.032968454 0.14025974 -0.09487718 0.1093194 0.027249938 0.17305835 0.16531956 0.14618866
0.091574825 -0.09733537 -0.14019205 0.06267292 -0.17084312 -0.068479866 0.042767294 -0.084171996
-0.09912226 -0.09389464 -0.046351384 -0.12182836 0.044009667 0.0028729306 0.072088785 -0.13711071
-0.1653235 0.117500074 0.00830949 0.15552233 0.05710128 0.14745758 0.08864218 -0.088979445
-0.11418538 -0.1466785 0.06252334 0.13484162 -0.17447703 0.13392837 0.11533267 0.031720772
0.15284148 -0.119781986 0.15345164 0.05391173 -0.10069484 0.078830555 -0.111415334 0.16590525
0.11690579 0.033790942 -0.13273053 -0.012990886 0.040337354 0.077096984 0.0015123915 -0.047311164
0.16361284 0.0058561317 -0.12446866 0.09729485 0.04429693 0.064715885 -0.06460228 -0.13648967
0.033094954 -0.15158194 0.1024464 0.06681901 0.044568922 0.12239112 0.17847551 -0.17866522
-0.13704377 -0.111789785 -0.01962893 0.120158985 -0.01848654 -0.031331927 0.13470955 0.1621779
0.082806155 0.08040694 -0.10281127 0.037641823 -0.14336336 -0.094991505 0.11239647 -0.06771842
0.15843901 -0.05428415 -0.021588044 -0.08575313 -0.14842184 0.08101469 -0.029114379 -0.12828107
-0.00050924136 -0.081469044 0.090490036 0.09045194 -0.057625104 0.076703236 -0.03900221 -0.03254959
-0.1292231 -0.16684566 0.16203362 0.04384728 -0.13789862 -0.016392644 0.12737347 0.09618734
0.16485567 -0.16565831 -0.014669793 -0.16072632 0.05775788 -0.012878174 -0.024006544 -0.09328141
-0.16972734 -0.12985034 0.038167167 0.032092616 0.05207037 -0.12229662 0.04725815 -0.1632421
0.07032569 -0.16085202 0.103243455 -0.0044053723 -0.06419857 0.11042373 -0.06031378 -0.006171974
0.04675894 -0.033345815 0.023037646 0.11381485 -0.11585643 0.10043153 -0.1510666 -0.06977218
-0.092485815 -0.13368596 0.13665548 0.1198013 -0.18012908 0.09843329 0.010121372 0.03283211
0.07630205 0.0041415226 0.13888031 -0.033081077 -0.11639531 -0.1321494 -0.03692343 0.06612012
0.07014179 -0.13679764 0.16402099 0.013570185 0.086575106 0.1459744 -0.061242577 -0.02377703
-0.012693181 -0.040392734 -0.11077734 -0.11493693 -0.080928385 0.04420272 0.18272726 0.018304557
0.07308293 0.16851991 -0.14050722 -0.11463062 0.11435615 0.021220079 -0.13213883 -0.11457942
-0.042097323 0.017423168 -0.07347404 -0.12427615 -0.06592541 -0.11321619 -0.04991942 -0.109374
-0.14857733 0.021413606 -0.025959916 -0.15975939 -0.033609334 0.022250284 -0.04573627 -0.08844039
-0.10524781 0.119863585 0.08599038 -0.10509365 0.049115583 0.057111904 0.06055717 0.11000509
-0.0129513685 -0.08443114 0.17550464 0.12401624 -0.009387475 -0.023251731 0.13175096 -0.031971715
0.16272862 -0.08534304 -0.063553095 0.06820107 0.13908674 0.07212478 -0.07525002 -0.056586158
0.0048209107 -0.022988819 0.15247163 -0.034010984 0.15301934 -0.034675624 -0.14572608 0.0061498587
-0.14805143 -0.17378697 0.007349142 -0.13120921 0.1494946 0.13804352 -0.088867255 -0.047344524

emb_net.v_lins1.0.bias f4 [32]
00000000: f40a f93c bdad f1bd db37 08bd ce65 d83d
00000010: bc2b 1dbe 9693 b73d f45b 91bd 65c2 bbbd
00000020: e562 2a3e 54b8 073e 5c69 0dbe d362 193e
00000030: f0e8 85b9 e42e 203e 8004 b53d 3e31 0d3e
00000040: d9ed d4bc c0e0 18be 2036 093e 186e 75bc
00000050: bf79 983d e009 42bc b7a8 92bd dda5 ab3c
00000060: af56 903d b665 efbd dadd 243e e934 843d
00000070: c2a9 2e3e 6cd7 dc3a 2833 f13c 7b24 783c
0.03040073 -0.11800716 -0.033256393 0.10566293 -0.15348715 0.08963697 -0.07097617 -0.09167937
0.16639288 0.1325391 -0.13809723 0.14979105 -0.0002554129 0.15642887 0.08838749 0.13788316
-0.02599232 -0.14929485 0.13399553 -0.014979862 0.07445096 -0.011843175 -0.07161086 0.020953113
0.070477836 -0.11689322 0.16100255 0.06455404 0.17056945 0.0016848869 0.029443339 0.015145416

emb_net.v_lins1.1.weight f4 [32, 32]
00000000: 81a7 82bd 1ddc 653d e87a 403d 6243 02be
00000010: 03e3 023d fcb9 2cbd e97c 163d a700 7cbd
00000020: 236f afbc 73b5 d53d 8e87 abbd 1c69 c9bd
00000030: 61e9 a23d e947 803c 9513 efbd 66ef 2b3e
00000040: 3685 223d c98c 0ebe 985a a7bd 47ba 93bd
00000050: e180 043e 2e11 263e 37c6 5d3d 9dac 143e
00000060: a288 603c 5bbb 843d 717c ad3d b59e ea3d
00000070: 95d2 393d 63c5 213e 9d15 32bb af66 afbd
00000080: a77d 18bd 1493 16bd 0b77 0bbe 1406 05be
00000090: c0a3 283e 841f 08be fb2d 86bd 9a33 b8bd
000000a0: 8a23 303d 9b93 ee3c 36eb e73d 187f 7f3c
000000b0: a080 ca3d dc9d 9bbc 13cf 633c 0423 9c3d
000000c0: 55b5 243e 570c 04be 17fc 303d 63c6 033e
000000d0: f8d2 a83c ae4f 8dbd 14b9 8ebd 3e7b 33bd
000000e0: da5d b83d 03bb 50bd fd4b 083e 73c2 8fbb
000000f0: 6fd5 073e 7c84 0fbe 40bf c73d 499b 403c
00000100: a024 fb3b ac50 df3d c976 b23d 15eb b0bd
00000110: dad9 b63d 0758 0f3e 472a 03be 2b95 0c3e
00000120: 8a6e 08be d281 20be c1d0 f63d 9336 833d
00000130: 091b 14bd 51c8 313e 6bc5 25be dfa7 1c3d
00000140: 96d2 1c3e d9f5 2abe 1380 53bd 2543 073e
00000150: 802a 9bbd 4586 0dbc 31f4 143e 1639 2ebe
00000160: b83b c9bd c930 673d 4659 2a3d 5163 40bd
00000170: 9897 70bd bf6e 11bb a0bd 12be 059c 30be
00000180: cfac adbd cf4c 36be fea3 bd3d 03ba 9dbd
00000190: a771 85bc 488f ff3d 3f69 f7bd fdf1 28be
000001a0: 4f52 273e 8f0a 273e 95fd debd decb babd
000001b0: 6da4 1dbe 47a2 8d3d 5e09 29bd 946f b63d
000001c0: d116 923c 65e2 19be 4a1f d63d c2c8 87bc
000001d0: b2c7 09be f509 e9bd 2579 b63d 76c5 893b
000001e0: a42d 07be 04c5 2cbd 14ee 963d db38 56bd
000001f0: dcf7 1e3e c446 c93d a5f3 02be 7bcd 83bd
00000200: 219e 023e db2d 173e 691b c3bd 417e a0bd
00000210: b190 573d 4082 af3d ec68 86bc 4d35 23be
00000220: 6b7c a53d ed85 78bd d214 b9bd 6b42 a1bc
00000230: 8668 013e de78 dcbd aae7 843c 952a 08be
00000240: 0483 07be 3dbb fc3d d10b ccbb 48e7 923c
00000250: fdfe 8b3d 6245 77bd c636 0fbe 1ccb d63d
00000260: 11e1 d9bc 06f8 9c3c 088e d5bd a284 ff3d
00000270: 0d94 493d 606c fb3d 1861 e7bd e238 5b3d
00000280: ba4b f33d 1687 1dbe 8670 3f3c 80be 183d
00000290: ea82 02be af04 e23c e35b a33c 730a 1a3d
000002a0: 082e e8bd 9893 3abc cc64 a7bd 94c6 a9bc
000002b0: 0c72 b6bc 006a 1ebe cc96 d1bd 7c26 353e
000002c0: 8f64 673c 7ea0 65bc 5511 2b3e aeff 803d
000002d0: 278d 50bd b990 243e b96a 04be de3d 29be
000002e0: 1fb8 12be 2e0a 053d afca 2e3d 16c8 82bb
000002f0: f187 d53c 21e2 38be 9c78 0f3e 78c9 8ebc
00000300: 562b 2ebe a8e7 ddbd 0b0d 16be 340f 0b3d
00000310: 7d1c 30be 45ca 023e c30b 24bc 140b 0c3e
00000320: b391 cfbd d957 a9bc 085d 02bd 4224 18be
00000330: 62f1 113e 4a66 20be e084 2d3d d51f 1bbe
00000340: 6775 1abd 9cfc 13bd f980 1ebe 57e6 703d
00000350: 616a d73c dbc0 623d 242d 0ebd 645d 27bd
00000360: 04be 9fbd 328b 243e 363c 32bc 0a57 85bc
00000370: 7bd0 1a3e bfe1 ea3d 4f04 0d3e 8c46 a4bc
00000380: 101d f13d cfe2 f93d 361b fdbd 8579 d8bd
00000390: 7b37 1ebe b4bb 4cbd b309 eabd 9de7 f6bc
000003a0: 292a b8bd f7ff 99bd a466 6a3c 19bb 23bd
000003b0: 391c da3d 364e 10be 283b 733c 383a afbd
000003c0: a509 7b3d c4b4 0cbe 32b5 f0bc 1343 cb3d
000003d0: 185a a3bd aeca 043d 553c 38be ecb9 3bbc
000003e0: 0fcf 46be 1d33 113e 24a6 11be 8e1f 8036
000003f0: cefc 0abe 907c edbc 9f90 273e 235f 193e
-0.06379605 0.05611812 0.046992213 -0.12721017 0.031954776 -0.042169556 0.036740217 -0.06152406
-0.021415299 0.10434999 -0.083754644 -0.09834501 0.0795467 0.01565929 -0.11673657 0.16790542
0.03967782 -0.13920893 -0.08171576 -0.07213264 0.12939788 0.16217491 0.05414411 0.14518972
0.013704451 0.06481048 0.08471001 0.11456052 0.045366842 0.15797953 -0.0027173527 -0.08564507
-0.037229206 -0.03676136 -0.1361963 -0.129906 0.16468716 -0.13293272 -0.06551739 -0.08994217
0.043002643 0.029123118 0.1132416 0.015594266 0.098878145 -0.018996172 0.013904351 0.07623866
0.16084798 -0.12895332 0.04320916 0.12868647 0.02060841 -0.06899963 -0.069688946 -0.043818705
0.09002276 -0.0509596 0.13310237 -0.004387194 0.13265012 -0.14015383 0.09753275 0.011755773
0.007664278 0.10904059 0.08714063 -0.08638588 0.08928271 0.13998424 -0.12809096 0.13728778
-0.13323417 -0.15674523 0.120515354 0.064068936 -0.036158595 0.17361571 -0.1618859 0.03824603
0.15314707 -0.16695346 -0.051635813 0.13209207 -0.075764656 -0.008637969 0.14546277 -0.17013964
-0.098258436 0.05644301 0.041589044 -0.046969716 -0.05873832 -0.0022191254 -0.14330149 -0.17247017
-0.08480226 -0.17802738 0.09259795 -0.077014945 -0.016289545 0.124785006 -0.12080621 -0.16498561
0.16339992 0.16312622 -0.10888211 -0.09120916 -0.15394755 0.069157176 -0.0412687 0.089080006
0.017833145 -0.15027769 0.10455187 -0.016575221 -0.13455084 -0.11378852 0.08909825 0.0042044474
-0.13201004 -0.042180076 0.073696285 -0.052300315 0.15524238 0.098279506 -0.12788256 -0.06435677
0.12755634 0.14763586 -0.095267124 -0.07836581 0.052628223 0.08569765 -0.016407453 -0.15938301
0.080803715 -0.060674597 -0.09037174 -0.01968499 0.12637529 -0.10765241 0.016223747 -0.13297494
-0.13233572 0.123404 -0.0062269946 0.01793255 0.068357445 -0.060368903 -0.13985738 0.10487959
-0.026596578 0.019161236 -0.10427481 0.124764696 0.049213458 0.1227653 -0.11297816 0.053521045
0.11879678 -0.15383562 0.0116845425 0.03729105 -0.12745252 0.027590124 0.019941276 0.03760762
-0.11336905 -0.011387728 -0.08173522 -0.020724572 -0.022271179 -0.15470123 -0.1023384 0.17690462
0.014123096 -0.014015315 0.1670583 0.06298767 -0.050915863 0.16070832 -0.12931336 -0.16527507
-0.14328049 0.03248041 0.042673763 -0.0039911373 0.026065798 -0.18055011 0.14010853 -0.017430052
-0.17008719 -0.108352005 -0.14653413 0.033950046 -0.17198367 0.12772472 -0.01001257 0.13676101
-0.10135212 -0.020671772 -0.031827003 -0.14857581 0.14252236 -0.1566402 0.042363048 -0.15148862
-0.03770962 -0.03612958 -0.15478887 0.05881342 0.026295843 0.055359703 -0.03471102 -0.04086055
-0.077999145 0.16068724 -0.010878613 -0.016276855 0.15118591 0.11468839 0.13771175 -0.02005317
0.11773121 0.122014634 -0.12358706 -0.10570053 -0.15450852 -0.049983695 -0.11427631 -0.030139739
-0.089924164 -0.075195245 0.014306698 -0.039973352 0.10649914 -0.14092335 0.014845647 -0.08556026
0.061288495 -0.13740832 -0.029383276 0.09924903 -0.079761684 0.032419853 -0.17991765 -0.011457901
-0.19414924 0.14179654 -0.14223534 3.8183707e-06 -0.13573 -0.02899006 0.16363762 0.14977698

emb_net.v_lins1.1.bias f4 [32]
00000000: 7079 f7bd 46df a1bc d7b0 023e 51eb 44bd
00000010: 69f5 cb3c fdb2 01bc faee 5d3d 1b4f 6fbb
00000020: 0c4b 933d 0ebf a5bd 2bc3 333b 6c50 c9bd
00000030: cf1b 48bc 2692 5abd b479 9abd 2c04 d83d
00000040: 2d72 e13d 5fb5 093d 1e6b 2ebe ddcc 263b
00000050: 9728 aebd e025 6ebd fb44 2cbe b391 0cbe
00000060: a6ff 9c3d 0b57 ffbd 2f22 123e c2d8 29be
00000070: 7202 0ebe ea00 fe3c f2da f6bd 605b 853c
-0.12083709 -0.019759785 0.12762772 -0.048075978 0.024897294 -0.007916209 0.054182984 -0.0036515656
0.071920484 -0.080930814 0.0027429562 -0.098297924 -0.012213661 -0.053362034 -0.07542744 0.10547671
0.110081054 0.033620235 -0.1703305 0.0025451698 -0.08503836 -0.05814159 -0.16823189 -0.13727455
0.076659486 -0.12467774 0.14270853 -0.16586593 -0.1386812 0.031006295 -0.12053479 0.016278923

emb_net.v_lins1.2.weight f4 [32, 32]
00000000: 3564 94bd 2e6a 053e 86f2 96bd 6f6e f0bd
00000010: c709 f4bc bf15 673d ae74 23be 92bb ccbd
00000020: 2e2a c0bd 2912 a6bd f447 353e 8c63 0cbc
00000030: 3da3 a5bd dfa2 5b3d f03f 933d 06c0 0f3e
00000040: 7421 0d3e 2ac9 37be 253e e53c 9306 e93d
00000050: 04b4 093e 637e 183d b84d ba3b 26f3 02be
00000060: 7072 623c 36bf 0b3e 38cc cdbd 677b c2bd
00000070: 9ba9 6cbc 5908 0d3e 6e58 16be bd9e 013d
00000080: 3123 88bd 9223 e93d 52a3 0abd 1464 2d3d
00000090: 28df 23be e46b a03c a3a0 16be 78fb 263d
000000a0: 6acb c73d 6817 083e 99be 27be 7c50 5b3d
000000b0: eaac 113e a5f7 debd 9db5 f73d 0578 c8bd
000000c0: de6d 9d3d be38 b2bd 4a04 abbd 70c6 073e
000000d0: 6d62 b93d 0754 183e 88cb 003b 4eae f3bb
000000e0: 97c2 3a3c 7096 72bd 2168 b73d 3380 b83d
000000f0: 2ce5 013e 7004 18be df88 1abc 5228 dd3d
00000100: 8e84 02bd 06d5 85bd 9526 903d 0abe c43d
00000110: 27f4 b03d 40a5 a13d 5876 f93c 6ffb acbd
00000120: 7dfd 80bd f1ac fe3d 5c17 78bc c0e5 d53c
00000130: a3c3 80bd 084d edbd 6637 34bc 1d08 3ebe
00000140: 64b4 003e 0edb 1d3e a346 eb3d abe3 86bd
00000150: 46a0 ea3d b7bb 5c3a 5a81 a73d 780f 2ebd
00000160: e8c1 03bd 8c2a 83bd 9493 043d d7d9 d4bc
00000170: 0cee 33be 491b 43be dbf2 14be 1a02 84bd
00000180: b13d 6c3d 9301 febd 9168 333e 0b62 933d
00000190: b277 f43c e31b 0abd 5948 11bd 805e c6bd
000001a0: 2736 d3bd 73fd efbd cddd bdbd cd94 1ebe
000001b0: 541b c33d 3981 943d 5262 9e3d e371 94bc
000001c0: 2ebc 10be 97f3 133e 9849 ebbd 0fdd 773c
000001d0: f105 bb3c 03fb e1bd b5f4 2f3c 83eb 893d
000001e0: e79a 24bd b819 df3d 7773 a73d 51a2 633d
000001f0: 3355 ddbd 9abc c43d 6502 0c3c ae86 41bd
00000200: d5b1 3abd f9d6 10be 8c4b 61bd 0942 bfbd
00000210: 0faf cc3d de4d b83c 529a d3bc a22a 153e
00000220: fa0d 67bd 3a9b 10be 939e 43bd 5afc 1b3e
00000230: 951e 263e 2240 92ba 6d20 993d e932 2c3e
00000240: e50a 2cbe 226b 883a f9c0 103e 1752 dd3c
00000250: ad7d d2bc cde5 0e3d d562 c83d be8f 2a3d
00000260: 7b59 9cbd 6213 f03c 88c4 80bb d2be 273e
00000270: 0fbc c33c 0ab2 32be 1c75 0c3e 5264 32bd
00000280: 8a76 86bd 6eac c73c 9524 b23d c7b5 f83d
00000290: 755d 413d f128 fe3d 40d6 c43d dc97 c5bd
000002a0: c0b3 d8bc ef7b 49bb 7d89 f6bd 3067 9ebc
000002b0: c62b 02bb 2d4b 383c f0bb f6bd 33a9 353d
000002c0: a93a a43d 43d6 1ebe 2b9e 9fbd 638e adbd
000002d0: c53b 3cbe 2bec d7bd 1fa0 323e f443 f9bd
000002e0: 663b 663d 1f7b 31be d951 f6bd e744 ebbb
000002f0: 3d49 00bd 2b48 cb3d 7c9d f8bd eb5c b63d
00000300: 3547 ee3d 136b 1e3e 434b 043e e6e3 49bd
00000310: d8f9 233e 240a 60bd 3c2b 203d 6d6d 113e
00000320: f47a fe3d 9528 dbbd 3064 77bc 2c55 303e
00000330: 46e0 31be 5302 7dbd e9c6 d83d b505 0fbe
00000340: fa24 0f3e 8296 353d 7f53 0a3e 80e3 87bc
00000350: 36ce 20be 8b51 113c 4786 803d f30c aabd
00000360: 50af 08be 25a0 4cbd 06b5 253e a06f 833d
00000370: 4f2c 62bb cebe 0dbe bdeb 143e 5985 26be
00000380: 5fff 19be f062 c8bd 7c69 8e3d 641f 073e
00000390: 15ae 613d dfbe 36be 1629 20be 3b03 0c3e
000003a0: 6903 23be a89a 3dbd af55 243c c26e 85bd
000003b0: 93e6 83bd 2578 663d f095 2a3e 3012 dc3d
000003c0: 7052 96bd 49e8 d53d 2045 41be 6b17 083d
000003d0: 3801 d2bd 4162 fa3d 3bc5 6e3c 7d02 28bd
000003e0: e716 0c3e b74d 91bd dac9 c83d e49e 673d
000003f0: 6711 08be 1f59 2cbd adcd 093d 0d6a 8f3d
-0.072456755 0.13028786 -0.073704764 -0.117398135 -0.029789818 0.056417223 -0.15962479 -0.09996714
-0.09383045 -0.081089325 0.17703229 -0.008568656 -0.08087776 0.053622123 0.071899295 0.14038095
0.13782293 -0.17947832 0.027983734 0.11378207 0.13447577 0.037229907 0.0056855343 -0.12788066
0.013821229 0.1364716 -0.10048717 -0.094961934 -0.014444734 0.13772716 -0.14682171 0.031645525
-0.06647337 0.113837376 -0.03384716 0.04233177 -0.16003096 0.019582696 -0.14709716 0.040767163
0.09755595 0.13290179 -0.16381301 0.053543553 0.14226118 -0.10887078 0.12095187 -0.09788517
0.07686971 -0.08702229 -0.083504274 0.13259292 0.09051976 0.14875804 0.0019652564 -0.00743655
0.011398933 -0.0592255 0.08955408 0.09008827 0.12685078 -0.14845443 -0.009432047 0.10798706
-0.031864695 -0.065347716 0.07038609 0.096065596 0.08640318 0.07892847 0.030451939 -0.08446395
-0.06298349 0.1243533 -0.015142288 0.02611053 -0.06287315 -0.11586958 -0.010999536 -0.18557782
0.12568814 0.15415594 0.11488082 -0.06586393 0.11456351 0.00084203057 0.08178969 -0.04249522
-0.032167345 -0.064045995 0.032367304 -0.02598278 -0.17571276 -0.19053377 -0.14545767 -0.06445713
0.05767602 -0.12402644 0.17520358 0.071964346 0.029842231 -0.033718 -0.035469387 -0.09685993
-0.10313063 -0.117182635 -0.09270821 -0.1548645 0.09526697 0.0725121 0.07733597 -0.018120712
-0.14134285 0.14448391 -0.11488646 0.015128388 0.022829982 -0.11034205 0.010739495 0.067343734
-0.04018679 0.10893577 0.0817632 0.05557472 -0.10807266 0.096062854 0.008545493 -0.04724758
-0.04557975 -0.14144506 -0.055003688 -0.09338767 0.09994327 0.022498067 -0.025830422 0.14567044
-0.056409813 -0.14121714 -0.04775865 0.15232983 0.16222604 -0.0011158029 0.07476888 0.16816296
-0.16801031 0.0010407905 0.14136113 0.027016683 -0.025694693 0.034887124 0.09784476 0.04164099
-0.076342545 0.029306117 -0.0039296784 0.16381386 0.023893384 -0.17450729 0.13716549 -0.043552704
-0.06565578 0.024374213 0.08698384 0.12144046 0.04720827 0.12410153 0.096111774 -0.096481055
-0.026452899 -0.0030744036 -0.120379426 -0.019336313 -0.0019862517 0.011248392 -0.12047565 0.044350814
0.08019001 -0.15511422 -0.0779384 -0.08474424 -0.18382175 -0.10543092 0.17443894 -0.12171164
0.05620899 -0.17332123 -0.1202733 -0.0071798447 -0.031319845 0.09925874 -0.12139413 0.089044414
0.116346754 0.15470533 0.12919335 -0.049289607 0.16013277 -0.05469717 0.03910373 0.14201899
0.12425795 -0.107011 -0.01509957 0.1721999 -0.1737071 -0.061769795 0.10584814 -0.13967021
0.13978949 0.04433299 0.13508414 -0.016587973 -0.15703663 0.008869539 0.06275611 -0.08303251
-0.13348126 -0.049957413 0.16182336 0.06417775 -0.0034511273 -0.13842317 0.14543052 -0.16261806
-0.15038823 -0.09784496 0.06953713 0.13195568 0.05509766 -0.17846249 -0.15640673 0.13673107
-0.1591927 -0.04629007 0.010030194 -0.06515266 -0.06440463 0.056266923 0.16658759 0.107456565
-0.073399425 0.104446955 -0.18874025 0.033225458 -0.10254139 0.12225772 0.014573391 -0.041017998
0.13680612 -0.07094901 0.09804125 0.056548014 -0.13287888 -0.04207718 0.033643413 0.070026495

emb_net.v_lins1.2.bias f4 [32]
00000000: 6a0c 9cbc f2d2 97bc d7bb f2bb 99af 063e
00000010: cdc9 c8bd 716a 5bbc 50eb 123e bba0 febd
00000020: 3dd6 7a3d 1dcd 033e c622 973b bc2c e43d
00000030: 214b 733c e610 9ebd 7046 f4bb 49d6 123d
00000040: d7a0 2a3d 53ac 2ebe c616 a9bc 9978 33bd
00000050: a126 22be a543 debc 49d6 ef3d a0ea 813a
00000060: cb9b 93bd 4ff3 0bbe e29f a5bd 47de 21be
00000070: ccb2 17be caca 96bd 41d0 c53c f94e b9bb
-0.019048888 -0.018533204 -0.007407646 0.13152923 -0.098041154 -0.013392077 0.14347577 -0.12433001
0.06123947 0.12871213 0.0046122996 0.11141345 0.014849455 -0.07718067 -0.007454686 0.03584889
0.041657295 -0.17057924 -0.020640742 -0.043816183 -0.15835048 -0.027131865 0.117107935 0.0009911843
-0.072074495 -0.13667034 -0.08087136 -0.15807448 -0.148143 -0.07362898 0.024147155 -0.005655166

emb_net.v_lins1.3.weight f4 [32, 32]
00000000: f6c9 39bb 0183 00be 1dc0 4ebc 2f8c 1abe
00000010: 2d85 d03d 1660 bdbd f41c ecbd 7644 22be
00000020: d63b 15be 8757 7ebd 1449 d0bc 9948 aa3d
00000030: 8105 5f3d 6243 fc3d df58 25be f03b 01bd
00000040: 7f91 fcbd 9353 893d ce43 2d3e 4a38 d73d
00000050: b72e 4ebd 63b6 10bd 491d e43b 233d 3dbe
00000060: 38f7 053e dd74 773d 8bc0 10be 3c31 5d3d
00000070: 763c ee3d 5641 2c3e 0afe 703c 46b6 183d
00000080: 60f2 08be 745b 83bd 9e1d 8dbd 9fa2 8c3c
00000090: c9aa 433d ca86 1d3e 7c0a 04bd 114d 553d
000000a0: 3ce5 e2bc 9910 26be df6e 37bd 9b39 3a3e
000000b0: ceea d63c a585 1abe 9863 d53c 57c9 253e
000000c0: 6ed1 27bd 134e a63d 5f23 c73d ec1a c7bd
000000d0: ed62 873d 03e0 143e 61dc 073d 343e 85bd
000000e0: 4451 833c 6fe0 443c 31bd 403d c41b 513c
000000f0: 9cb1 8c3d 8f3c dcbd c261 fb3c 6c69 76bd
00000100: 0942 f6bd d9a7 7b3c f1cc b1bd f492 993c
00000110: 7a6f 6dbd 4ca2 1cbe 9a1f 093d 6578 8ebd
00000120: ec63 c7bd e03f 86bd 7a3c 85bd 5122 0fbd
00000130: f10d 93bd 5910 3bbd 41c3 a7bd dc51 553d
00000140: 3e39 d83c 0cdc 3bbe 396b 0cbe ea7b b13d
00000150: 5445 813d 1d5f 0a3d 74fd 343e 1ddd d23c
00000160: 0397 703c 0a74 883d eb9e 70bd 4968 26bd
00000170: fdad 223e 51d8 2dbc 8ad8 febd 8fee 393e
00000180: 7345 18bc c7f7 a4bd cdfe 28bd 1b17 1fbe
00000190: 50ba bdbd 4fc9 023e 85f6 18bd 54af ec3d
000001a0: f527 d9bd cdad 43be 57f3 113e 558c a5bd
000001b0: a4de 283e 2d9f 27be c283 033e 7a87 d23d
000001c0: 65b6 cebd 9fc7 193e 7821 0c3e a83b 703d
000001d0: 11bd a9bd 06e8 073e f88a 32be 0fc1 2bbe
000001e0: 05d6 c23c 949a 023d 0133 d33d 2313 0ebd
000001f0: 1216 db3c 825a 143e 0f6b 2b3e 4f57 063e
00000200: 9212 33be c469 12be c4b1 babd 74f7 413d
00000210: deb4 c2bd 339f d43c b8d2 b6bd e783 27bc
00000220: 85a0 1ebd f92e 1ebe c5fe 223e b018 82bd
00000230: 4b8e 9cbd f441 e1bd aacd 9cbd aa8f 1e3e
00000240: cfce 27be 3223 023e 1083 fe3d 2ef7 013e
00000250: 983f 06be 8cd6 6f3d 269c 0ebe b95b e7bd
00000260: 677b 1a3d a1b8 9b3d 1fb9 233e 5e83 bf3c
00000270: 35c7 bc3d 8e6f 833d cf93 f0bb 3401 21be
00000280: 3811 85bc 2bc3 96bd 2f39 37bd f3b0 c33c
00000290: a5f7 acbd fca0 27be 8d49 f83d 736e eebb
000002a0: 9f78 efbd d1ee dd3d 407b ec3d 8002 1e3e
000002b0: d731 21bd fca3 313c 5b02 ce3b 0854 e23d
000002c0: fb4a ca3d 7af5 0e3e 839d 06be 2c80 a13d
000002d0: fbad 08bd 054f b83c 275f ec3d 4144 3d3e
000002e0: 4754 063e 7031 a5bd a6c7 21be cf5d 2fbe
000002f0: f341 d5bd da97 38be b532 12be e54e 013e
00000300: 7d66 60bd b862 923d 90d7 a5bd e294 1ebe
00000310: aa39 08be 0604 e9bd e03e f93d 004e 1cbe
00000320: 77d3 13be 3b6e 19be c708 20bd e00a b13d
00000330: feaf d63c 7498 88bc 7d91 b83d d25d 163e
00000340: 9df2 163e b2e4 2ebd d3bc 893d d361 7fbd
00000350: a7da e7bd 9d7c d63d fff7 8abd b3a1 613d
00000360: 8c11 b5bd c842 e6bd 3f1f 82bd 4cb4 b43d
00000370: ae1e 43be 9f7e fe3d 9c3f 9dbd 4e3a 1abd
00000380: 706b be3d 2bed 1f3e 5c92 dfbd 7c98 213b
00000390: 9b4b 933d 9ff0 463d fb92 3b3e 55d3 e5bd
000003a0: 629a bdbd f217 b03d 5e11 d0bc 632b a33d
000003b0: 296d 813d 2887 a13d 051a 5cbd 6ee5 cfbd
000003c0: 854b 5c3b bc92 66bd 1b43 98bd 1b6e 333e
000003d0: fcb1 ea3d 9de0 b4bd e890 a9bd 95e3 2abe
000003e0: 8102 ddbd 8f1f 9fbd c5c3 203c ee65 c03c
000003f0: 2966 c7bc 19f2 36bd 5a3c ee3d 23be dfbd
-0.0028349138 -0.12549974 -0.012619046 -0.15092538 0.10181651 -0.092468426 -0.1152896 -0.15846428
-0.14573607 -0.06209519 -0.025425471 0.08314628 0.05444861 0.1231754 -0.16147183 -0.0315513
-0.12332439 0.06705394 0.16920397 0.10508783 -0.05033752 -0.035330188 0.006961499 -0.18480353
0.13082588 0.060414184 -0.1413595 0.05400203 0.11632626 0.16821799 0.014709005 0.037283204
-0.13373709 -0.06413928 -0.06890415 0.017167388 0.047770295 0.15383449 -0.03223656 0.05207545
-0.027697198 -0.16217269 -0.04478347 0.18186037 0.02623501 -0.15090044 0.026048467 0.16190086
-0.040971212 0.0812036 0.097235434 -0.09721932 0.066106655 0.14538579 0.033169154 -0.06506005
0.016029961 0.0120164 0.047055427 0.0127629675 0.06869814 -0.10753738 0.030686263 -0.060159132
-0.12024314 0.015359842 -0.086816676 0.01874683 -0.05796764 -0.15296286 0.033477403 -0.06956557
-0.097358555 -0.06555152 -0.065056756 -0.034944836 -0.071803935 -0.045669887 -0.081915386 0.05208002
0.026394483 -0.1834566 -0.13712777 0.08666213 0.063120514 0.033782113 0.1767481 0.0257402
0.0146844415 0.06662758 -0.058745306 -0.040626798 0.15886684 -0.010610656 -0.12443645 0.18157409
-0.009293902 -0.08055072 -0.041258622 -0.15536158 -0.09264052 0.12772106 -0.037344474 0.11556879
-0.10603324 -0.19109268 0.14252983 -0.08083407 0.1649118 -0.16369314 0.1284323 0.10279746
-0.10093383 0.15017556 0.13684642 0.058650643 -0.08288015 0.13272104 -0.17435825 -0.16772865
0.023783693 0.0318857 0.103124626 -0.03468622 0.026743922 0.14487651 0.16740058 0.13119243
-0.17487553 -0.14298159 -0.09115937 0.04735513 -0.09507154 0.025954818 -0.0892691 -0.010224319
-0.038727302 -0.15447606 0.159175 -0.06352365 -0.07644328 -0.10998908 -0.07656415 0.15484491
-0.16387485 0.12708738 0.12427342 0.12691948 -0.13110197 0.058554217 -0.13926753 -0.112967916
0.037715342 0.076035745 0.15988587 0.02337807 0.09217683 0.06417762 -0.007341839 -0.15723115
-0.016243562 -0.07361444 -0.04473227 0.023888087 -0.08445672 -0.16370004 0.12123404 -0.00727635
-0.116929285 0.10836566 0.115469456 0.15430641 -0.03935417 0.01084232 0.006286902 0.11051184
0.09877583 0.1396083 -0.13146023 0.07885775 -0.033369046 0.022498617 0.11541586 0.18483068
0.13118087 -0.0806607 -0.15798816 -0.17125629 -0.104129694 -0.18026677 -0.14277156 0.12627752
-0.05478524 0.07147735 -0.08097756 -0.15486482 -0.13303247 -0.113777205 0.121701956 -0.1526413
-0.14436136 -0.14983456 -0.03907087 0.08644652 0.026206966 -0.016674258 0.09012125 0.14684227
0.14740987 -0.04269857 0.067254685 -0.06234915 -0.113210015 0.10472987 -0.06785583 0.05508585
-0.088412374 -0.11243206 -0.06353616 0.088234514 -0.19054672 0.12426495 -0.07678148 -0.03765326
0.09297836 0.15617816 -0.10916588 0.0024657538 0.07192155 0.048569318 0.18317787 -0.11221949
-0.09257962 0.08598317 -0.025398906 0.0796726 0.06319649 0.07887107 -0.05373575 -0.10151182
0.003361435 -0.05629228 -0.07434674 0.1752247 0.11459729 -0.08831904 -0.08279592 -0.16688378
-0.10791493 -0.07769691 0.0098123 0.023486104 -0.024340706 -0.044664476 0.11632605 -0.109249376

emb_net.v_lins1.3.bias f4 [32]
00000000: 7060 46bc ab89 ba3d faa3 0cbc b5f0 393d
00000010: 5e00 1dbe f60c 99bd 993c e5bd 4329 91bd
00000020: c15e 23bd ddba 253e bf6f 943d 5030 30be
00000030: 7ad7 cabd 971f babb f70b ef3c 4b8f ab3c
00000040: b2e5 293e c6fe 76bd c6b3 a8ba d907 5cbd
00000050: 326f cd3d ce66 d5bd b9c9 02be 0582 1a3d
00000060: 1ddf a93d 121e ffbd 500a 93bd 2596 06be
00000070: a796 293e 6fed 58bd 16c8 03be 05c2 f53b
-0.012107953 0.09108289 -0.008584017 0.04539557 -0.15332171 -0.07473175 -0.11193199 -0.07087948
-0.039885286 0.16184564 0.072478764 -0.1720593 -0.0990438 -0.0056800353 0.02918051 0.02094235
0.16591528 -0.060301565 -0.001287096 -0.05371842 0.100309744 -0.10419999 -0.12772264 0.037721653
0.082945086 -0.12456907 -0.07179701 -0.13143213 0.16561376 -0.05296081 -0.12869295 0.0074999356

emb_net.v_lins1.4.weight f4 [32, 32]
00000000: 2cb1 093e b073 75bd 9b8c c03d d3ec 823d
00000010: 50ab 293e 9264 97bd 3e8f 95bd f90d c43d
00000020: ac8e 803c cc9e 8b3d 0ed4 11bd ce40 233e
00000030: df00 233e 627b 24be 5325 463d fe3a 1cbe
00000040: 07f7 90bb 0b7f 25be dfae 4dbd 9785 16be
00000050: 8ebc 2fbe aca4 9c3b d3ee e93d 890f c4bd
00000060: 1dcb c6bb 9cf3 c7bd 1e5b 1bbe d49a 0d3e
00000070: b393 90b7 d5f8 58bd fd50 ab3d 840b 6b3d
00000080: a05f 1b3e 6a18 0dbe 8403 90bd 7665 e6bd
00000090: 56ea 69bd 078f aa3d a618 093e 57d6 9dbd
000000a0: f333 98bd 81e2 443e fc0c 253e f6b1 54bd
000000b0: 4b7e cb3d 9d95 62bd e2ef 25bc 80da efbd
000000c0: 1ed0 d4bd 3ccc 1f3e 85c4 65bd 0048 06bd
000000d0: 993f 573d 2294 643d d2b1 09be 57bf 04be
000000e0: 0cb9 0cbe 5313 f03d 8471 3fbe 8f2e bb3d
000000f0: 7264 bcba 191e 09be 2967 d33d e21b b2bd
00000100: 0386 ab3c cfef f83d 382e 013e 2584 3ebd
00000110: e924 21be 1258 043e 9c04 fb3d f66c e23d
00000120: a885 0f3e 034d f43d 5082 ef3d 1790 d53d
00000130: 8760 fa3d 9860 0b3e 74ad 2e3e 9ba9 f9bd
00000140: dfbc 10be 0f3e cf3d a197 abbb adac 6bbd
00000150: 7a21 343c 7120 07be c687 b03d 953d c4bd
00000160: 5a8e aabd 80a6 e13d 7b34 e9bc f59e 17be
00000170: 9345 2dbe 7189 0cbd 4a79 993c 7524 dcbd
00000180: 438e 73bd 9c3b a83a 7d8c 24be 8aea ac3d
00000190: ad84 0b3c 9055 adbd 912b ad3c 3be5 753d
000001a0: 6201 10be 877d a33d d65f 8e3c 8126 b13d
000001b0: 3132 20be 78ae c03d 5b3f 0fbe 2177 d2bd
000001c0: 39b6 053c 3558 1b3e 7958 193b 59de 72bd
000001d0: 8564 8b3d f421 173e 2b20 0abe 4b04 81bd
000001e0: 78a2 113e c946 a7bd 8805 78bd f047 953c
000001f0: 346a 74bc 33ee 98bd dee1 5e3d ece8 cebd
00000200: c40f 27be b1e7 fdbd d0e5 f43c 78a5 68bd
00000210: a334 973c 8eae e33d 45e6 353e 3f20 043e
00000220: aa9a 883b 14db f43d 8924 19be 168c de3d
00000230: ee09 8fbd 4d91 16be 594f f9bc 67d7 06be
00000240: cf29 c7bc de31 dd3d 26ac 9e3d 2360 373e
00000250: 2c74 5e3b c654 91bc d1c7 023e 7668 9e3d
00000260: 2d8c 2f3e ce2f 8f3c 8ae9 703d beb1 2e3e
00000270: cb4d af3c 1e0f 6dbd b85a ca3d 1ae5 2abd
00000280: 9c8f 04be cccf a3bc aa31 db3d 2ad3 37be
00000290: 2b40 ed3d df4e 113e dfb5 f53c 0a7b dbbd
000002a0: 6c2a ceba c557 06be 3499 b63d 7272 d23d
000002b0: 5e41 c13c 4430 efbc afb0 843c 6849 853d
000002c0: 3c60 163e 1883 3dbd 2d99 b93d c472 5bbd
000002d0: 0977 02be 1a10 8dbd 64fd 11be a4d8 863d
000002e0: 9a84 ecbd ca3a 00be f018 69bc 5832 51bc
000002f0: aec3 f13c c488 7c3c b427 ae3d 6670 0bbe
00000300: dc32 c9bd 4eba 793d f0ae 363e dcf4 1abe
00000310: 5258 8d3d f22e 12bd f3a8 2ebe e412 81bd
00000320: eb0e 14be a41f 37be 8b42 cebd d260 7f3d
00000330: 1995 c2bd 403d 7d3d 6ab7 033e f0d6 89bd
00000340: e76d 5dbd 5ab4 b0bd ac02 afbd e8bc b1bd
00000350: 0b86 903d e34e 9c3d 2d7f 16be 6d56 b13d
00000360: 38dc 363c e31b 103d 710c 173e 0406 72bd
00000370: da53 273e 8a43 b43d 579b 2bbd 1640 81bd
00000380: a2fc f03d cffa bebd 84fd 863d 3632 653d
00000390: bc04 1ebe ff21 a0bd cec6 2b3e f84a e1bd
000003a0: a27e fbbd 7777 30be 6971 20bc a90f 98bb
000003b0: b790 d13b 1881 953d ba0b 943d 48ba ebbd
000003c0: dbb9 f43d a8f9 05be 7d83 f33d e7c8 9b3d
000003d0: a4ec 293e 57cb e73d 5ec4 043d 904d 99bd
000003e0: 082e 84bd a817 58bc e781 cd3d 34f8 1cbe
000003f0: d8a9 b9bc 1cee a83d 442b 3a3d 2375 edbd
0.13446492 -0.05992478 0.09401818 0.06392827 0.16569257 -0.07392229 -0.07302712 0.095729776
0.015693031 0.068173975 -0.03560262 0.1594269 0.15918301 -0.16062692 0.04837544 -0.15256879
-0.004423979 -0.16161744 -0.0502156 -0.14699398 -0.17161772 0.0047803726 0.11422505 -0.095732756
-0.0060666935 -0.09763262 -0.15171477 0.13828593 -1.7234916e-05 -0.05297168 0.08365057 0.05738403
0.15173197 -0.13778844 -0.070319206 -0.11249821 -0.057108246 0.083280616 0.13388309 -0.07706898
-0.074317835 0.1922703 0.16118234 -0.05192753 0.09936198 -0.055318464 -0.010127993 -0.117115974
-0.10391258 0.15605253 -0.05609562 -0.03278351 0.052550886 0.055805333 -0.1344674 -0.12963615
-0.13742465 0.11722436 -0.18695647 0.0913974 -0.0014373197 -0.13390388 0.103224106 -0.086967245
0.020937925 0.12155115 0.12615287 -0.04651274 -0.15736736 0.12924221 0.122567385 0.11055939
0.1401583 0.11928751 0.11694777 0.104278736 0.122254424 0.13611066 0.17058355 -0.12190553
-0.14134549 0.101192586 -0.0052365814 -0.057537723 0.01099431 -0.13195969 0.08619647 -0.09582058
-0.08327933 0.110180855 -0.028467407 -0.14806731 -0.16921072 -0.03431076 0.018734593 -0.10749141
-0.059461843 0.0012835148 -0.16069217 0.08443172 0.008515519 -0.084635854 0.021138938 0.060033064
-0.14063028 0.07982927 0.017379683 0.08649922 -0.15644147 0.09408277 -0.13989012 -0.10276628
0.008161121 0.15170367 0.002339868 -0.05929408 0.06806282 0.14759046 -0.13488834 -0.06299647
0.14222133 -0.08167798 -0.06055215 0.018222779 -0.014917899 -0.07467308 0.054414622 -0.1010302
-0.16314608 -0.12397707 0.02989474 -0.05679843 0.018457716 0.11117278 0.17763622 0.12902926
0.004168828 0.11955848 -0.14955343 0.10866563 -0.06984316 -0.14703865 -0.030433344 -0.13168107
-0.024311928 0.10800527 0.077476785 0.17907767 0.0033943756 -0.017740618 0.12771536 0.07734768
0.17143317 0.01747885 0.05881647 0.17059991 0.0213994 -0.057875745 0.098805845 -0.041722395
-0.12945408 -0.019996546 0.10702832 -0.17951646 0.11584505 0.14190243 0.02999395 -0.10716827
-0.0015729195 -0.13119419 0.0891594 0.10275735 0.02359074 -0.02919782 0.01619753 0.06508142
0.14685148 -0.0462676 0.09062419 -0.053576246 -0.12740721 -0.06887837 -0.14256817 0.0658429
-0.11548729 -0.12522426 -0.014227137 -0.012768351 0.029512253 0.015413467 0.085036665 -0.13617095
-0.09824154 0.06096869 0.17840171 -0.15132469 0.069016114 -0.0356893 -0.17056637 -0.06302431
-0.14458816 -0.17883164 -0.10071286 0.062348194 -0.09501094 0.06182599 0.12862936 -0.06730449
-0.05405989 -0.08628149 -0.085454315 -0.08678609 0.07056817 0.07632234 -0.14696951 0.086590625
0.011160903 0.035182845 0.1475084 -0.05908777 0.1634058 0.088019446 -0.04189619 -0.063110515
0.11766936 -0.09325182 0.06591323 0.055956088 -0.15431494 -0.07818984 0.16775057 -0.11000627
-0.12280013 -0.17233072 -0.009792664 -0.0046405387 0.006395425 0.07300013 0.07228799 -0.1151014
0.119495116 -0.13083518 0.11890314 0.076066785 0.16594177 0.11318081 0.032413833 -0.07485497
-0.06454092 -0.013189234 0.100345425 -0.15329057 -0.022663996 0.08248541 0.045451418 -0.11594608

emb_net.v_lins1.4.bias f4 [32]
00000000: b010 febd b97d 5cbb 6bd6 7a3d 607d 70bd
00000010: 00ad 913c afee a7bd 1ddd 963d 79ec e53d
00000020: 5b20 25be 8a57 1abc 14cf 343b 9aee f73d
00000030: ffbc 333e bd60 d4bd 7831 e5bd 851c df3a
00000040: 8c5d be3d ccd2 87bd 5fd2 2fbe 0a52 1f3e
00000050: 525f 85bd 22f7 593d a8be b93c 5fd9 333e
00000060: c932 443d 63d1 c13d 233c 1abd 7349 12be
00000070: e4ad f93d b8d7 76bd b938 12be 0948 98bd
-0.12405527 -0.0033644272 0.06123964 -0.058713317 0.017782688 -0.08199822 0.07366393 0.11226744
-0.16125624 -0.009420285 0.0027589248 0.121060565 0.17552565 -0.10370014 -0.11191076 0.0017022049
0.092951864 -0.06632003 -0.17170094 0.15558639 -0.065123215 0.0532142 0.02267392 0.17563389
0.047899995 0.094637655 -0.037655007 -0.14285831 0.1219137 -0.06026432 -0.1427945 -0.074356146

emb_net.v_lins1.5.weight f4 [32, 32]
00000000: 7b32 053e a6ed e83d 6bbd d13d abaf 2d3c
00000010: 07d5 d93b c88a f2bd c273 23bd 88f1 9ebc
00000020: 61c1 bb3d 88e7 843c 7fb0 243e 129e edbc
00000030: 09ad 20be e93c a73c a36e 10be 69ba 333e
00000040: e0fc 6f3d 178a b03d f9ee 13be 9dce b53d
00000050: 3f1d 2d3d 2e5e 6d3d 2c6d ba3d f245 bd3d
00000060: aa74 453d 1579 0abe 66fa 943d 5817 933d
00000070: 4eed 99bc 116c 2c3e 4d29 153e 20e4 c0bd
00000080: 9249 1fbe 22b3 a23d 6e5b 06be 5ea7 b53c
00000090: 68f2 2a3e 7bea 373e 3976 dfbd 437a 2c3e
000000a0: 6f04 b73d 978f a23d fd94 24be fa8f 01be
000000b0: 2cd1 9d3d 354e 6ebd 386d 2c3e 79bf ff3d
000000c0: 8617 70bd 5a13 bdbd e271 18bd 4069 013e
000000d0: 386a 7dbd c609 58bd 12ed 133e 05c9 00be
000000e0: 3835 033b 2f2e 0d3e 6f10 bc3d b38a 073e
000000f0: 03b3 b9bd d41b 583d cbd6 29be b97a b23d
00000100: 342e a83d dbe9 af3d e9d3 2e3e 1bf4 2b3e
00000110: b447 803d b10e dc3d 3e92 f93d b23f a1bd
00000120: ba56 2d3d bb88 0fbe d7a7 c73d 34ff a9bd
00000130: b722 293e 1d17 403c 3ccc 99bd 63db 143e
00000140: d1e4 1d3e 0c37 f8bc 9d5e 173e 4f18 05be
00000150: 5da0 dbbd 00ed 23bc 45c0 28be 26b6 01be
00000160: f68a 9c3c 42c9 0fbe 90ec ae3d 0c75 17be
00000170: 1b28 273e 70a3 ff3d ab2f b1bd e720 193e
00000180: e71a 343e 95d2 513d f5ca e6bd 4328 dd3c
00000190: 3cd5 0dbe 3151 d03d 9bf3 1b3d d6ee 8abd
000001a0: bafe a43d e905 c63d ca5b b03d 47ca 0cbe
000001b0: c8a4 bf3c 423f ffbd 65ff 15be 0de7 2ebe
000001c0: 0157 6ebd 57d3 9cbd 5648 b8bc f029 95bd
000001d0: ce3f 243e 6026 39bd 2107 6dbd b3c0 343c
000001e0: 376c eebb 746a afbc 82d8 d3bd d7d3 833d
000001f0: 74ac 1fbe fa6e a4bd c372 91bd 6877 8dbb
00000200: d8cf eebd 1475 bb3d 6114 05be c549 dbbb
00000210: 7e46 5e3d add6 c63d 30ec 0fbe 319e fe3d
00000220: 527d f5bd f76b 193d 7321 1b3c 4809 92bc
00000230: 0a3c 903d 2ff9 263d ad2f 6cbd 0df6 73bd
00000240: 92b7 42bd 2ccf 5fbd 6f9d 883d 3cb2 053e
00000250: fe0f b8bd 5f98 dcbd d321 9bbd 2d60 1a3e
00000260: 9c08 26be 101b 07bd e33d 173e 5dee 123e
00000270: b73a cbbd a827 e2bd 21a1 febd 6d51 3dbd
00000280: 48f3 bd3d 7a2f 49bd 2d3a aebd f178 96bd
00000290: 44c3 a5bd 64ba 243c f6f5 0c3e 1e10 bd3d
000002a0: efc6 b8bd f6b7 c43d 6635 0abe 6ee7 50bd
000002b0: 21be b4bb d721 d83c 7fb8 8b3d 3138 923d
000002c0: 316b 1b3c c61e 9fbd 3206 093e 7922 07be
000002d0: 564c 49bd 0db4 a8bd 6b4a 3dbe 42c7 98bd
000002e0: 41c8 01be 27db 453d 57f7 22be 8376 c9bd
000002f0: 0ac1 2abd faa0 d1bc 99ed b5bd 608a 65bd
00000300: 79ef 07bd 0588 e33d 1fc2 643c beb2 37ba
00000310: 18ac 09be d0cd 4c3c fa5a 3a3d 79a5 363e
00000320: eaaa 81bd 0ca7 8a3d 3094 b8bc be1e 6d3d
00000330: c667 24be 16a4 ff3d d338 9abd c31a edbd
00000340: b530 73bd 0869 243e 9cc2 d13d 33d8 a9bd
00000350: 3f80 063e bae1 c1bc e356 bdbc 2839 193d
00000360: 0d6d 20bc a132 b93b 9df4 d6bd 31ba 613d
00000370: b10c 9b3d faf3 d3bd b02c 623d 86dc 79bc
00000380: c426 4bbd 1026 02be 74ff 223e 46a2 2fbc
00000390: 0da6 59bd 85b8 273e 6a2d 05be 5db6 a1bd
000003a0: 2a1a f7bd 4041 5abd cd2d 07be f312 9d3d
000003b0: b9c4 443d fdef 213e 9900 96bd 2cbd ed3c
000003c0: a2c6 0a3d fd70 94bd 45d6 32be b141 1bbe
000003d0: b876 8d3d d74f 463c 997e 1a3e e4a4 3abe
000003e0: 3a8b f93c a993 acbd cb10 f43d 5d57 d33d
000003f0: c740 2cbe 2a5d 30be e6f4 063d 3bd3 373d
0.13007538 0.11373453 0.10241207 0.010600965 0.0066477093 -0.11842877 -0.039905317 -0.01940228
0.091677435 0.016223684 0.16082953 -0.029006038 -0.15691008 0.020414786 -0.14104705 0.17551579
0.05859077 0.086200885 -0.1444663 0.08877299 0.04226422 0.057951145 0.09102854 0.09241857
0.048206963 -0.13522752 0.07274322 0.07182187 -0.018789914 0.16838099 0.14566536 -0.094185114
-0.15555409 0.07944323 -0.13120815 0.022174533 0.16694033 0.17960541 -0.10911221 0.16843514
0.089363925 0.07937544 -0.1607246 -0.12652579 0.07705912 -0.058180053 0.16838539 0.124876924
-0.058616184 -0.09232207 -0.037217982 0.12637806 -0.061868876 -0.052743696 0.14445904 -0.12576683
0.0020020735 0.13787149 0.09182822 0.13236503 -0.09067347 0.052760914 -0.16585843 0.08714814
0.082119375 0.08589526 0.17073025 0.16792338 0.06263676 0.1074499 0.121860966 -0.07873477
0.042319037 -0.14017002 0.0974881 -0.08300629 0.16517149 0.011724261 -0.07509658 0.14536814
0.15419318 -0.030299686 0.14782186 -0.12997554 -0.10723946 -0.010005236 -0.16479595 -0.1266714
0.01910923 -0.14041618 0.085412145 -0.14790744 0.16323893 0.12482345 -0.0865167 0.14953957
0.17588387 0.051226217 -0.1126918 0.026996737 -0.13850874 0.10171736 0.038074117 -0.067838356
0.08056398 0.09669096 0.086112574 -0.13749038 0.023394004 -0.12463237 -0.14648207 -0.17080326
-0.058188442 -0.076574974 -0.02249543 -0.072833896 0.16039965 -0.045202613 -0.057868127 0.011032271
-0.007276084 -0.021413065 -0.1034403 0.064368896 -0.1559313 -0.080289796 -0.07101967 -0.004317213
-0.11660737 0.0915319 -0.12996055 -0.0066921436 0.054266445 0.09708915 -0.14054942 0.12432516
-0.119867936 0.03745648 0.009468424 -0.017826691 0.070427015 0.040764984 -0.057662655 -0.059560824
-0.047538348 -0.054640934 0.06670653 0.13056272 -0.08987425 -0.1077125 -0.07574811 0.1507575
-0.16214222 -0.032984793 0.14769702 0.14348741 -0.09923308 -0.1104272 -0.12433077 -0.04622023
0.09274918 -0.049117543 -0.0850719 -0.073472865 -0.080938846 0.010054205 0.13765702 0.0923159
-0.090223186 0.096054 -0.13496932 -0.05100196 -0.005515829 0.026383324 0.06822299 0.07139624
0.009486006 -0.077695414 0.1338127 -0.13196744 -0.049145065 -0.08237467 -0.1848542 -0.074598804
-0.12674047 0.048304703 -0.15914665 -0.098370574 -0.041688003 -0.025589455 -0.08883209 -0.056040168
-0.033187363 0.11109928 0.013962298 -0.00070075307 -0.13444555 0.012500241 0.04549692 0.1783656
-0.063314274 0.06770143 -0.022531599 0.057890646 -0.16055211 0.12482469 -0.075303696 -0.1157737
-0.059372623 0.16055691 0.10242197 -0.0829319 0.1313486 -0.023667205 -0.02311272 0.037408024
-0.009791625 0.0056517874 -0.10495875 0.055109207 0.0757078 -0.10349269 0.0552184 -0.015250331
-0.049597517 -0.12709832 0.1591776 -0.010719841 -0.053136874 0.16378982 -0.13005605 -0.07896111
-0.12065537 -0.053284883 -0.13201065 0.0766963 0.04803917 0.15814205 -0.07324333 0.029020868
0.033880837 -0.07248113 -0.1746455 -0.15161778 0.069074094 0.012103996 0.15087356 -0.18226963
0.030461896 -0.084266014 0.119172655 0.103193976 -0.16821586 -0.1722304 0.032948397 0.04487918

emb_net.v_lins1.5.bias f4 [32]
00000000: b16c d03c 5f72 8d3b 79b2 27bc 7395 f23d
00000010: 3109 03be df6f d4bd db04 f3bd 4e03 8fbd
00000020: 17b2 05bd 3c68 0bbe 183a 573d 01f6 83bc
00000030: b594 f83d 6c96 f83d 38d2 b93d a5a5 c33c
00000040: e10f efbd e21f 09be 10f7 bd3d b9f9 1d3d
00000050: a9cd 6abd 0019 2bbe d74d a93d 707d cc3d
00000060: ab0c 76bd bc34 9bbc 2e46 c3bd a22d d43d
00000070: 7ef8 f13d e7ce 7bbd 28c4 28be aaa8 dabd
0.025442453 0.0043166126 -0.010235422 0.118449114 -0.12796475 -0.103729 -0.118661605 -0.06983052
-0.032640543 -0.13613981 0.052545637 -0.016108515 0.121377386 0.12138066 0.09073299 0.023882696
-0.116729505 -0.13391069 0.09275639 0.038568232 -0.05732504 -0.16708755 0.082668 0.09984863
-0.060070675 -0.018946044 -0.0953487 0.10360266 0.11814974 -0.061476614 -0.16481078 -0.10676701

emb_net.v_lins1.6.weight f4 [32, 32]
00000000: 73fc b03c 7da3 ca3d 8222 7bbd 7e0c dcbd
00000010: 0dc5 553d a3b7 913d 1fa7 983d 35aa 9c3c
00000020: a590 c5bd 2751 b93c be68 fc3d 5894 1d3d
00000030: 396f 0ebe 5e27 7abb 71ae ff3d 4360 3abe
00000040: e69d f0bd eb5c 97bd 47b7 adbd 7228 a73d
00000050: a8d8 a7bd c83d 0f3e c69f 53bc 8522 f53c
00000060: 889a d6bd e436 c43c 6692 233c 18a5 e33d
00000070: c637 24bc 944a bf3d 45e2 43bd 9a3f 243e
00000080: dc85 09be 6142 f6bd c92b 3ebe 32b2 eebd
00000090: 1b1a dbbc 4c1d 80bd ec1a 69bd cb19 d7bd
000000a0: d4a1 10be c387 3b3e 64f0 f3bd 328a cd3b
000000b0: 8b1f c33c 57d8 b1bd ea9a 8abd 9d61 2cbd
000000c0: d099 e7ba 047f 033e 4ef0 e5bc 519a 45bd
000000d0: 46ee c0bc ab2a 063d 9ea2 29be 1b1c 833d
000000e0: 6105 d7bc b249 143e 0778 40bd 9660 b6bd
000000f0: 61a4 233e aaed e2bc 86bc be3c a088 253c
00000100: b238 1c3e 2974 ba3d 43af 8fbb f544 3cbd
00000110: 858a 8b3b f6c5 bcbc 7bd5 97bd 92a8 e03d
00000120: 2f12 863d c4e1 263e 7dfe 17ba 760d 64bd
00000130: 65aa 243e 0207 a73d 8f6f d4bc 22e4 f73c
00000140: 9895 26be 5447 ff3c 6a9e 01be f8db 423e
00000150: c82d 213e 8374 b33b d428 09bd ad67 0abd
00000160: 184e c6bd 636a babd 9627 4b3c 5681 f03d
00000170: 71d8 bdbd 0a71 24be 18f2 1ebe 05b5 d73d
00000180: acb4 29be df82 08be 2fa4 1ebe 54d2 36be
00000190: d825 0e3d 1423 753d c6ff ca3d 9675 b63c
000001a0: c4e1 20be 94fd d5bd dc96 15bc 5659 693d
000001b0: eeb6 7bbd bff3 f03b 0625 87bc 3344 29ba
000001c0: 6fa5 953c 3d20 453e 9e86 c23d a5f7 843d
000001d0: 4ab8 d0bd 18d9 483d 5c68 a03d 3649 0e3e
000001e0: ffbf e33d 4573 3bbe 1201 e6bd 8046 5dbd
000001f0: 562f 00be 141d a0bd 7b48 b73d 81af de3d
00000200: 5712 233e a965 063e 75a2 993d 6ad6 8c3d
00000210: eca1 703c 23ef 20be 97bd 0c3d e10f 6cbd
00000220: a6ee 2c3d 8c55 693d 9963 10be 49d8 20be
00000230: 122f 01bc 002c 543c 868a b0bd b79b a53c
00000240: 158a 623d e163 763d c5e5 dd3d 0926 223e
00000250: 397c e73b d516 98bb 9189 2e3e af19 403d
00000260: f2b3 12bd b094 533c 0046 0ebe 8c57 15be
00000270: a321 773d 1d5b 0abe 047d 283e 1f93 e23c
00000280: e39b 083e 0c77 12bb 77ba ee3d f25c f83d
00000290: b12b d23d a629 0fbc 96dd b3bc 0d4a 5cbd
000002a0: c59d 213e 391f 7a3d 4021 2f3d af49 d9bd
000002b0: 96ea 2a3d 2135 aa3d 742c 52bd 1a9e 73bc
000002c0: 1105 00bd a2b0 e03d ce44 073e a148 7a3d
000002d0: 1b0c 8a3b 4aec c0bd 225a d1bd a814 ce3d
000002e0: d1c2 60bd a302 a0bd 5b68 67bd 2084 423d
000002f0: 1074 8f3d 2b77 963d cf36 4cbc c5ec f8bd
00000300: 610b bbbd 94e2 22be a902 913d ea34 093e
00000310: 1e5b 62bc 4a71 ff3d 1541 2bbe d86f 583d
00000320: 1acb 1e3e 2259 113e 618f c73c b834 1ebb
00000330: 5aa0 bebd 1e89 b6bd 636c 2abe 61e1 2ebe
00000340: 8929 993d 9d5d 16be f395 2bbe 4c44 c1bd
00000350: 8431 1d3e 1442 1dbd 3ffd 1d3e 164f 6fbd
00000360: 7137 b3bd e9b0 7cbb d5e4 b03d 35a7 773d
00000370: b794 bcbb 743a 393e 5a62 043e 466c 2fbd
00000380: 5f04 223e 2298 28be f479 cd3d 0af7 01be
00000390: 48ee 22be 52b3 c3bc 16a4 8bbc 79df 05be
000003a0: 510d 0d3e fa36 fbbd fc9f 20bd 7788 0fbe
000003b0: 3f53 1d3d 77b0 afbd c31c c6bc 6f46 773d
000003c0: cb09 a33d bcb8 953d 16b2 253e 9ba0 973d
000003d0: fab3 ddbd a4b1 2a3e 9760 ecbd 0a5c bd3d
000003e0: 97f5 01bd 8cc4 34be 1d89 693d 9325 4abd
000003f0: 13af 30be 716d e03d 535b 23be 6b5d 343e
0.021604752 0.09894464 -0.061312206 -0.1074457 0.052189875 0.07115104 0.07453751 0.01912413
-0.096467294 0.022621704 0.123246655 0.03847155 -0.13909616 -0.0038170437 0.12484444 -0.18200783
-0.11748867 -0.073907696 -0.08482223 0.08162011 -0.08195621 0.13988411 -0.012916511 0.029923687
-0.10478693 0.023951955 0.009983635 0.111154735 -0.010023063 0.093403965 -0.04782321 0.16039887
-0.1342997 -0.120243795 -0.1857139 -0.11655082 -0.026745846 -0.06255588 -0.05691044 -0.105029665
-0.14124233 0.18313508 -0.11911085 0.0062725777 0.023818752 -0.08683842 -0.06767829 -0.04208528
-0.0017669741 0.12841421 -0.028068688 -0.04824287 -0.023551118 0.032755535 -0.1656594 0.06401845
-0.026247682 0.14481238 -0.046989467 -0.08905141 0.15980674 -0.027701218 0.023283254 0.010103375
0.15256003 0.09104187 -0.0043849065 -0.0459642 0.004258456 -0.023043614 -0.07413765 0.10969652
0.06546437 0.1629706 -0.00057981146 -0.0556769 0.16080625 0.081556335 -0.025932102 0.03026015
-0.16268003 0.031161942 -0.12658086 0.19029224 0.1574012 0.0054765358 -0.033486202 -0.03379028
-0.09682864 -0.09102323 0.012399575 0.11743419 -0.092697985 -0.16058746 -0.15522039 0.105325736
-0.16572827 -0.13331173 -0.15492319 -0.17853671 0.03470406 0.059847906 0.09912066 0.022272866
-0.15711123 -0.10448757 -0.009130206 0.056969963 -0.061453752 0.0073532755 -0.016497146 -0.0006457001
0.018267361 0.19250579 0.094983324 0.06492547 -0.101914 0.04903516 0.07832405 0.13895115
0.11120605 -0.1830569 -0.11230673 -0.054022312 -0.12518057 -0.07818046 0.089493714 0.108733185
0.15924965 0.13124718 0.07501689 0.06876834 0.014687043 -0.15716223 0.034360494 -0.05763233
0.04221978 0.05696635 -0.14100493 -0.15707506 -0.007884758 0.012949944 -0.08620171 0.020215852
0.055307467 0.060153846 0.10834841 0.15834822 0.007064369 -0.0046413937 0.17044665 0.046899494
-0.03581614 0.012913868 -0.1389389 -0.14584178 0.060334813 -0.1351132 0.1645394 0.027658043
0.13340716 -0.002234879 0.11656659 0.12127103 0.1026224 -0.008737957 -0.021956246 -0.053781558
0.1578284 0.061064932 0.04275632 -0.10609757 0.041727625 0.08310915 -0.051311925 -0.014869237
-0.03125483 0.1097119 0.1320984 0.06110442 0.004212869 -0.094200686 -0.102222696 0.100625336
-0.05487329 -0.07813003 -0.056496006 0.047489285 0.07004559 0.07346948 -0.012464239 -0.12154535
-0.0913303 -0.15906745 0.070805855 0.13399091 -0.013815669 0.1247278 -0.16724046 0.052841038
0.15507165 0.14194158 0.02436036 -0.002414031 -0.093079284 -0.08912872 -0.16642909 -0.17078163
0.07478625 -0.14684148 -0.1675642 -0.09436855 0.1535092 -0.038393095 0.15428637 -0.05842503
-0.08750809 -0.0038557595 0.08637396 0.060462195 -0.005755033 0.18088704 0.12928143 -0.042827867
0.1582198 -0.16464284 0.10033026 -0.12691894 -0.1591121 -0.023889218 -0.017046016 -0.1307353
0.13774611 -0.12266345 -0.039215073 -0.14016901 0.038409468 -0.0857858 -0.024183637 0.060369905
0.07960852 0.07310626 0.16181216 0.0740368 -0.108253434 0.16669327 -0.115418606 0.09246071
-0.031728353 -0.17653102 0.057015527 -0.04935224 -0.17254286 0.10958374 -0.15952806 0.17613761
