pretrained/op/op100.pt (torch, 372263 bytes, 230 tensors)

emb_net.v_lin0.weight f4 [32, 2]
-0.10544907 0.23415954 0.36025485 0.027784972 -0.5178765 0.008233525 0.17994845 0.37451854
-0.63255894 0.47717807 0.1870641 0.22894081 0.28014016 -0.038796596 0.00336437 -0.6118165
0.23130578 -0.35015872 0.6473496 0.5844429 0.26320857 0.0784981 0.36129203 -0.082509615
-0.07068528 0.4968917 0.124439456 -0.047455695 -0.4118637 0.6445278 -0.6699642 -0.36339444
0.15340891 0.3980148 -0.16546457 -0.6458886 0.49744874 -0.579757 -0.05006051 -0.33601266
-0.20804076 0.6076567 0.49360776 0.3261974 -0.65230036 -0.24773242 0.5260156 0.48321363
0.5978546 0.017797435 -0.19946963 0.62393963 -0.27456775 -0.37710854 0.41858315 -0.38674897
-0.52351373 -0.36900333 0.6089887 0.5071115 -0.03617147 -0.34804413 0.6909768 0.4111565
00000000: aff5 d7bd 85c7 6f3e 5373 b83e 4f9d e33c
00000010: 8e93 04bf e8e5 063c 6844 383e e5c0 bf3e
00000020: 62ef 21bf af50 f43e bb8d 3f3e 766f 6a3e
00000030: 886e 8f3e 2ee9 1ebd c37c 5c3b 02a0 1cbf
00000040: 6cdb 6c3e 0148 b3be b4b8 253f 0d9e 153f
00000050: 46c3 863e 9dc3 a03d 45fb b83e cdfa a8bd
00000060: 72c3 90bd 9768 fe3e 1dda fe3d e760 42bd
00000070: cddf d2be c6ff 243f c682 2bbf d60e babe
00000080: 3a17 1d3e 99c8 cb3e 8b6f 29be f558 25bf
00000090: 9ab1 fe3e f46a 14bf 400c 4dbd da09 acbe
000000a0: a308 55be 648f 1b3f 28ba fc3e 5803 a73e
000000b0: 28fd 26bf 91ad 7dbe f5a8 063f c767 f73e
000000c0: 000d 193f edcb 913c c441 4cbe 82ba 1f3f
000000d0: 2594 8cbe 5f14 c1be 8850 d63e f603 c6be
000000e0: ff04 06bf 01ee bcbe afe6 1b3f 0fd2 013f
000000f0: 8928 14bd d732 b2be dbe3 303f 1b83 d23e

emb_net.v_lin0.bias f4 [32]
0.16051158 -0.5473353 -0.18038714 0.27335238 -0.660225 0.52023315 0.6063389 -0.49472225
-0.19462755 -0.5083758 0.23146637 -0.66209656 -0.22155648 -0.28454012 0.17164321 0.3717777
-0.12751676 -0.14876138 0.23810586 -0.121794134 -0.5379915 -0.037776075 0.4368537 -0.34593835
-0.29125673 0.00068982644 0.006967449 0.113307364 -0.36627698 -0.042735092 -0.5260659 -0.18681543
00000000: 265d 243e 2b1e 0cbf 68b7 38be d8f4 8b3e
00000010: 8104 29bf 002e 053f 0739 1b3f 3c4c fdbe
00000020: 724c 47be eb24 02bf 8505 6d3e 297f 29bf
00000030: b4df 62be 3eaf 91be 3dc3 2f3e a659 be3e
00000040: c193 02be e754 18be 06d2 733e 346f f9bd
00000050: d0b9 09bf 16bb 1abd 4aab df3e d51e b1be
00000060: 9a1f 95be 78d5 343a 334f e43b b10d e83d
00000070: a888 bbbe fe0a 2fbd 41ac 06bf 8b4c 3fbe

emb_net.v_lins1.0.weight f4 [32, 32]
-0.026883664 -0.15528002 -0.06968573 0.07779751 -0.09939205 -0.050297864 0.12403687 0.04279291
0.14697129 -0.07011828 -0.072216615 -0.058860395 -0.1424684 -0.04649513 0.13117194 -0.0769965
0.05248272 -0.13778153 0.16014522 -0.11074235 0.17119443 0.17689225 -0.14784834 -0.02596985
0.054234773 0.144805 -0.13589294 -0.025526088 0.14573647 0.16370521 -0.049859833 0.021566944
-0.062187746 0.005116486 -0.091518894 -0.15947293 -0.14616132 -0.16559336 -0.14272434 0.13697745
-0.105414495 0.08063502 0.112195894 -0.0021072817 0.101983435 -0.12981527 0.09384194 -0.07764499
0.09815441 0.0046527833 -0.061192717 0.09001171 0.115795806 0.17470546 -0.07152896 -0.08220007
-0.0122402385 0.07682564 0.09700523 -0.15051356 -0.12266535 0.11799406 -0.018380543 -0.08900476
-0.13423 -0.083804265 0.12906648 -0.15902746 -0.15393363 0.028780868 -0.041888442 -0.08847622
0.05138711 -0.011583608 0.05491906 0.17516279 -0.021728225 -0.027733961 -0.035979837 0.0078169005
0.062696666 -0.036973406 -0.13803476 0.15165815 0.09689567 0.02002054 -0.10123802 -0.021538977
0.13276048 -0.14155027 0.16140556 -0.14584655 0.008840627 -0.012999001 -0.18222892 0.114562675
0.027367448 0.12199385 0.11838369 0.07841732 -0.07191761 -0.010146999 0.10678864 -0.020007076
-0.05209084 0.0839924 -0.08796439 -0.103373155 -0.171572 0.15850288 -0.07810269 -0.01036289
-0.010319133 -0.057456963 -0.15746629 -0.09536783 -0.020141535 0.0683624 -0.14782847 0.022075724
0.10474913 -0.14756607 0.090061896 -0.051056214 0.053214695 0.059793815 0.16597554 0.016518688
-0.13962659 -0.019578343 -0.12296122 0.130802 0.09257536 -0.14829166 0.024982143 0.1024481
-0.14097522 0.096110426 0.17190728 -0.09706061 -0.15619193 -0.071831204 -0.086529605 0.023515642
0.055828176 0.13370003 -0.085074574 0.1280727 -0.15379335 0.111941494 0.061862852 -0.071331635
0.098418415 -0.10352377 -0.012249593 -0.104602456 0.12351294 -0.16509515 0.14771175 0.063090995
0.06209473 -0.10002331 -0.023832375 0.15849721 -0.050023634 0.09780474 -0.17009774 -0.15719156
0.1414183 -0.06512571 0.17263919 0.14014521 0.05357608 -0.06351027 0.04260922 -0.07350719
-0.15374584 0.07947242 -0.16889225 -0.046093598 0.07074752 0.12451783 0.06074307 -0.105978385
0.15586637 0.16832197 0.032227684 0.15669861 -0.10064442 -0.10060718 0.09941851 -0.1445391
0.12137629 0.13910876 -0.096056506 -0.118677154 0.08322358 -0.126821 -0.10237142 0.07588617
0.028748684 -0.0257805 -0.15030354 0.1589157 0.07970453 0.10906333 -0.059040986 0.04683249
0.11092875 -0.12716699 -0.15669799 0.08495342 0.05596203 -0.0025925064 -0.050341625 -0.13320161
-0.027084514 0.005673531 -0.1687746 -0.16364183 0.07667776 0.16303113 -0.15032373 -0.14258777
-0.12676612 0.07341961 -0.044612724 0.0011363272 -0.045339324 -0.088945165 -0.12128048 0.07475348
-0.1459886 0.123548836 -0.1399887 -0.010180629 -0.15270686 -0.07837091 0.17228632 0.06046398
0.09112902 0.10388997 -0.09923398 0.11177908 -0.10850222 0.028904978 -0.018862816 0.17192675
-0.049703516 0.17119667 -0.1484017 0.08065431 0.013104203 -0.021046923 -0.0754592 -0.16595115
00000000: 213b dcbc ba01 1fbe 64b7 8ebd 4d54 9f3d
00000010: 0f8e cbbd 2205 4ebd 0b07 fe3d 9e47 2f3d
00000020: a47f 163e 2c9a 8fbd 4ee6 93bd 9917 71bd
00000030: 3ce3 11be ad71 3ebd f051 063e 57b0 9dbd
00000040: 1ff8 563d 9a16 0dbe 1cfd 233e e3cc e2bd
00000050: 984d 2f3e 3e23 353e 8e65 17be b9be d4bc
00000060: 4825 5e3d c347 143e 8527 0bbe 161c d1bc
00000070: f13b 153e 57a2 273e d339 4cbd 29ad b03c
00000080: 94b8 7ebd 32a8 a73b 426e bbbd df4c 23be
00000090: 50ab 15be 4e91 29be 5426 12be d143 0c3e
000000a0: 8ee3 d7bd f923 a53d f6c6 e53d 521a 0abb
000000b0: b1dc d03d 4bee 04be 3430 c03d 5604 9fbd
000000c0: 2e05 c93d 6076 983b 37a5 7abd 0f58 b83d
000000d0: 5a26 ed3d fde5 323e c67d 92bd 8358 a8bd
000000e0: 488b 48bc c356 9d3d aeaa c63d 3a20 1abe
000000f0: f937 fbbd dfa6 f13d cb92 96bc 2148 b6bd
00000100: 9773 09be 92a1 abbd 012a 043e 18d8 22be
00000110: c7a0 1dbe dbc5 eb3c 3793 2bbd 0533 b5bd
00000120: 4a7b 523d 2cc9 3dbc cff2 603d e05d 333e
00000130: 64ff b1bc 5532 e3bc 985f 13bd 7512 003c
00000140: 1c67 803d 6d71 17bd fc58 0dbe 464c 1b3e
00000150: 3d71 c63d 1e02 a43c e155 cfbd 8272 b0bc
00000160: 5df2 073e 8ef2 10be 8047 253e cc58 15be
00000170: 47d8 103c c3f9 54bc 389a 3abe d69f ea3d
00000180: b331 e03c e9d7 f93d 2673 f23d 4399 a03d
00000190: 8a49 93bd 993f 26bc 01b4 da3d e1e5 a3bc
000001a0: 345d 55bd 3504 ac3d ad26 b4bd 4eb5 d3bd
000001b0: 92b0 2fbe 944e 223e 4ef4 9fbd 1cc9 29bc
000001c0: 9511 29bc fe57 6bbd d83e 21be 3550 c3bd
000001d0: dcff a4bc 9601 8c3d 5960 17be 26d8 b43c
000001e0: b686 d63d 8f1b 17be 5f72 b83d 5220 51bd
000001f0: a7f7 593d 5cea 743d 7ef5 293e 3352 873c
00000200: 46fa 0ebe c362 a0bc 18d3 fbbd f6f0 053e
00000210: 2698 bd3d c5d9 17be 5aa7 cc3c 4fd0 d13d
00000220: cf5b 10be 8bd5 c43d 7608 303e b7c7 c6bd
00000230: c7f0 1fbe 3d1c 93bd 6f36 b1bd e0a3 c03c
00000240: 16ac 643d a9e8 083e 943b aebd 7d25 033e
00000250: 017c 1dbe 9541 e53d e763 7d3d 5216 92bd
00000260: 988f c93d 4504 d4bd 84b2 48bc d039 d6bd
00000270: 5af4 fc3d b40e 29be c041 173e da35 813d
00000280: 0b57 7e3d 05d9 ccbd 1d3c c3bc 184d 223e
00000290: 95e5 4cbd da4d c83d 1a2e 2ebe d3f6 20be
000002a0: f5cf 103e a160 85bd 54c8 303e 3a82 0f3e
000002b0: 9772 5b3d ac11 82bd 0187 2e3d f08a 96bd
000002c0: 8d6f 1dbe 70c2 a23d 17f2 2cbe a4cc 3cbd
000002d0: 13e4 903d 3403 ff3d bacd 783d 320b d9bd
000002e0: 6f9b 1f3e 985c 2c3e 2d01 043d 9a75 203e
000002f0: a91e cebd 230b cebd ef9b cb3d 0f02 14be
00000300: 2294 f83d 8772 0e3e 46b9 c4bd 020d f3bd
00000310: 2071 aa3d 5ddd 01be 1ba8 d1bd 356a 9b3d
00000320: 5c82 eb3c a131 d3bc 2ce9 19be ccba 223e
00000330: 213c a33d 985c df3d f6d4 71bd 6dd3 3f3d
00000340: 9d2e e33d 1038 02be 7075 20be 0ffc ad3d
00000350: 7138 653d 0ae7 29bb 0533 4ebd 0166 08be
00000360: 58e0 ddbc 07e9 b93b 40d3 2cbe b991 27be
00000370: 3b09 9d3d a2f1 263e 77ee 19be 8702 12be
00000380: face 01be 055d 963d d5bb 36bd d0f0 943a
00000390: bab5 39bd e228 b6bd e661 f8bd 5a18 993d
000003a0: 097e 15be 2c07 fd3d 3359 0fbe a7cc 26bc
000003b0: 305f 1cbe ed80 a0bd d36b 303e 14a9 773d
000003c0: daa1 ba3d 44c4 d43d 2f3b cbbd 6eec e43d
000003d0: 6936 debd 22ca ec3c 3186 9abc 910d 303e
000003e0: ea95 4bbd 2e4e 2f3e 9ef6 17be 162e a53d
000003f0: 03b3 563c 996a acbc 5a8a 9abd 19ef 29be

emb_net.v_lins1.0.bias f4 [32]
0.08263998 -0.14178284 0.069640785 -0.091362335 -0.16112566 0.15421376 0.034305096 0.036720045
0.01879607 0.011552509 0.011763036 -0.009637522 0.03660729 0.07533041 -0.06931052 0.1170516
-0.10260784 0.059164252 -0.070133165 -0.16246335 0.1277885 0.049639072 -0.035620313 0.0073142494
0.023285467 0.102239005 0.093340114 0.16795403 0.10550888 -0.13610664 0.11985481 0.16817348
00000000: 263f a93d 852f 11be d49f 8e3d 2d1c bbbd
00000010: 20fe 24be 36ea 1d3e 8083 0c3d c267 163d
00000020: 37fa 993c bc46 3d3c c0b9 403c b2e6 1dbc
00000030: 87f1 153d d446 9a3d adf2 8dbd c0b8 ef3d
00000040: 0f24 d2bd 3756 723d faa1 8fbd cb5c 26be
00000050: fdda 023e 5752 4b3d 9be6 11bd 5fac ef3b
00000060: 2ac1 be3c af62 d13d 1a29 bf3d 24fc 2b3e
00000070: 0a15 d83d 8a5f 0bbe 7076 f53d ab35 2c3e

emb_net.v_lins1.1.weight f4 [32, 32]
0.08338624 -0.018147783 -0.13561517 0.14970087 -0.12358194 -0.09998614 -0.10937033 0.10430986
0.07448532 0.112100594 0.16233832 -0.088709004 0.086609386 0.029189432 -0.17068568 -0.1561397
-0.18631734 0.0653974 -0.034886707 0.0017250379 -0.07640584 0.0007248561 0.019898584 0.1003727
0.011499007 -0.09330736 -0.13594499 -0.029902663 -0.066893645 -0.018980073 -0.17757593 0.1423084
-0.13434814 0.052751392 0.16922107 0.07794054 -0.06452411 0.16617896 0.13922265 -0.16368537
0.06614696 -0.10668092 0.117853716 -0.13855575 -0.034485627 -0.0552895 -0.1388742 0.111339934
0.025443405 -0.17544565 0.036318347 -0.14824618 -0.07571849 -0.08922678 -0.14051041 -0.070994936
0.056716334 -0.10995437 -0.12568283 -0.028393464 -0.17373233 0.1231013 0.1479545 0.0044853054
-0.18629438 0.00889273 0.017441401 -0.1263763 0.110180594 0.069737144 0.06448365 -0.050670303
0.116133735 0.11365802 -0.045789767 0.04031267 0.06182498 0.050781995 0.02857012 0.0075572757
-0.1748061 0.1373434 -0.073156685 -0.14795473 0.12707347 -0.0036172743 -0.008394727 0.03296274
-0.11856425 -0.053371534 0.023064543 0.07605237 -0.039204415 -0.06841169 -0.17363352 0.09652966
0.13998342 -0.045015216 0.017514182 0.1596576 0.1573179 0.08234076 0.086026035 -0.15377064
-0.01595575 0.15932421 0.06394712 0.02758036 0.09371248 -0.14402185 -0.088191114 0.103790246
0.0035158123 0.026197162 -0.0878393 0.0038152812 -0.048234165 0.13306406 0.02991331 -0.09644302
-0.11080894 -0.01618689 -0.09227857 0.04776197 -0.04198894 -0.17271723 0.08077565 -0.0539378
-0.14981996 -0.05988527 0.11355643 0.1433475 0.042161368 -0.16377302 0.05285282 0.033732675
0.06609028 -0.048545174 -0.12689939 0.063669346 -0.16605479 -0.15480751 -0.11515306 0.04416438
-0.11872144 7.3884614e-05 0.02543483 -0.14420584 -0.14331624 0.022999296 0.022407733 0.093182854
-0.10377793 -0.08753324 -0.05348413 0.06299843 -0.06345728 -0.12765199 -0.16227256 -0.059544735
-0.05395345 -0.007716573 0.10617725 0.0035155201 -0.12692724 -0.11629382 0.0387599 -0.0775398
-0.17014502 -0.1550104 -0.06283668 -0.1659599 -0.14146973 -0.009614875 0.06924914 -0.11170541
0.068210915 0.17835908 0.021431826 -0.06891956 0.09571592 -0.119240396 -0.14320607 -0.094380245
0.014183623 -0.10353287 0.1671185 0.09751179 0.030007621 -0.06468586 0.04306464 0.09106079
0.03599292 0.100270495 -0.089423075 -0.014752439 0.1608368 0.15704773 -0.056567356 0.09388994
-0.14596304 0.021485439 -0.07807764 -0.14090331 -0.16086197 -0.10354136 -0.10196523 -0.044878244
0.07718872 0.031392418 -0.047920812 0.13130736 -0.1302942 -0.06373688 0.10890862 -0.017613774
0.12598017 0.01658077 -0.14543504 -0.099492125 -0.075789504 0.14436604 -0.14031404 -0.1504406
0.10845697 0.119342856 0.13178861 -0.020637907 -0.14749019 -0.084551185 -0.07894442 -0.15792693
-0.017159628 0.04159961 -0.14712743 0.045011904 0.06838482 0.12762907 -0.11628422 0.07498625
0.05350467 0.05118549 -0.079054154 -0.15888093 0.07601407 0.11532653 -0.15150265 -0.1379642
0.03521356 -0.06285299 0.14760384 0.13711455 0.13322406 -0.10598108 0.08970383 -0.15855365
00000000: 68c6 aa3d a9aa 94bc b4de 0abe 2f4b 193e
00000010: 8718 fdbd 89c5 ccbd 8dfd dfbd 68a0 d53d
00000020: c28b 983d ff94 e53d 043c 263e 11ad b5bd
00000030: 4360 b13d ad1e ef3c 3ac8 2ebe 16e3 1fbe
00000040: f9c9 3ebe 12ef 853d 5de5 0ebd ab1a e23a
00000050: aa7a 9cbd 4504 3e3a 5b02 a33c 3490 cd3d
00000060: 5566 3c3c ee17 bfbd 2a35 0bbe 6ef6 f4bc
00000070: 89ff 88bd 197c 9bbc 77d6 35be 4bb9 113e
00000080: 8f92 09be d811 583d 4a48 2d3e 4a9f 9f3d
00000090: 3725 84bd d12a 2a3e 6290 0e3e 239d 27be
000000a0: 0f78 873d 877b dabd 4a5d f13d 8fe1 0dbe
000000b0: cd40 0dbd 3e77 62bd 0a35 0ebe 3106 e43d
000000c0: b06e d03c 06a8 33be 8cc2 143d d9cd 17be
000000d0: 4c12 9bbd 88bc b6bd f6e1 0fbe cb65 91bd
000000e0: 634f 683d c22f e1bd 00b3 00be 6999 e8bc
000000f0: e3e6 31be 891c fc3d 6281 173e 78f9 923b
00000100: f4c3 3ebe d0b2 113c 45e1 8e3c ca68 01be
00000110: 5da6 e13d 59d2 8e3d 0110 843d aa8b 4fbd
00000120: 86d7 ed3d 89c5 e83d 0d8e 3bbd e61e 253d
00000130: 313c 7d3d c800 503d e20b ea3c 06a3 f73b
00000140: 5f00 33be c0a3 0c3e 2cd3 95bd 7281 17be
00000150: 8c1f 023e cb0f 6dbb 098a 09bc f003 073d
00000160: d0d1 f2bd 1c9c 5abd daf1 bc3c 58c1 9b3d
00000170: cf94 20bd 6e1b 8cbd fccc 31be 58b1 c53d
00000180: d057 0f3e e061 38bd e779 8f3c 487d 233e
00000190: f217 213e 46a2 a83d 6b2e b03d 0d76 1dbe
000001a0: a2b5 82bc e325 233e b5f6 823d 35f0 e13c
000001b0: 54ec bf3d 777a 13be 8b9d b4bd fb8f d43d
000001c0: 8b69 663b 6e9b d63c 17e5 b3bd cc09 7a3b
000001d0: 3091 45bd f241 083e c20c f53c eb83 c5bd
000001e0: ccef e2bd 5e9a 84bc 8cfc bcbd 0ea2 433d
000001f0: 98fc 2bbd c9dc 30be b46d a53d e2ed 5cbd
00000200: 676a 19be 424a 75bd 4690 e83d b0c9 123e
00000210: 66b1 2c3d 1db4 27be 337c 583d 462b 0a3d
00000220: 575a 873d 4ed7 46bd eaf1 01be 1365 823d
00000230: 440a 2abe dc85 1ebe 5ed5 ebbd b5e5 343d
00000240: 3a24 f3bd 80f2 9a38 b45c d03c b2aa 13be
00000250: 7ec1 12be 0569 bc3c 6c90 b73c a7d6 be3d
00000260: 8689 d4bd a144 b3bd 2d12 5bbd 5205 813d
00000270: e4f5 81bd 34b7 02be c72a 26be 2ee5 73bd
00000280: 4bfe 5cbd 4edb fcbb 7573 d93d a464 663b
00000290: 37f9 01be 742b eebd b3c2 1e3d 30cd 9ebd
000002a0: 7f3a 2ebe 0cbb 1ebe 84b0 80bd 64f1 29be
000002b0: 71dd 10be b587 1dbc 7ed2 8d3d cec5 e4bd
000002c0: 2ab2 8b3d c3a3 363e cc91 af3c b325 8dbd
000002d0: b506 c43d 4f34 f4bd 9da4 12be 6e4a c1bd
000002e0: 6d62 683c 0b09 d4bd 1d21 2b3e 43b4 c73d
000002f0: 8bd2 f53c 057a 84bd 8c64 303d 147e ba3d
00000300: 506d 133d 9e5a cd3d 7223 b7bd 37b4 71bc
00000310: 67b2 243e 1fd1 203e 2cb3 67bd 5e49 c03d
00000320: 5677 15be 3b02 b03c 2be7 9fbd f548 10be
00000330: 00b9 24be 7e0d d4bd 26d3 d0bd 40d2 37bd
00000340: 1f15 9e3d 5695 003d 9d48 44bd 7075 063e
00000350: d86b 05be 7b88 82bd 7c0b df3d c34a 90bc
00000360: f200 013e 65d4 873c ecec 14be 87c2 cbbd
00000370: 8737 9bbd b1d4 133e 7cae 0fbe 1a0d 1abe
00000380: b01e de3d 076a f43d 98f3 063e d410 a9bc
00000390: ab07 17be 2c29 adbd 9dad a1bd 99b7 21be
000003a0: 5992 8cbc 5a64 2a3d 93a8 16be 675e 383d
000003b0: 570d 8c3d 32b1 023e 6c26 eebd 6492 993d
000003c0: b627 5b3d e0a7 513d 25e7 a1bd afb1 22be
000003d0: 44ad 9b3d 5130 ec3d 8323 1bbe 7d46 0dbe
000003e0: 183c 103d 12b9 80bd 7625 173e c267 0c3e
000003f0: e36b 083e 9c0c d9bd a4b6 b73d e35b 22be

emb_net.v_lins1.1.bias f4 [32]
-0.1495469 -0.01659666 -0.07997365 0.022247685 0.1522919 0.14731844 0.16929108 -0.13040136
-0.14420035 0.15134175 0.11459389 0.08903852 -0.038442824 -0.08086467 -0.026050216 0.0786154
-0.1676029 0.11107052 -0.11787083 0.002471673 0.17049594 0.05380601 0.08208528 0.11854729
-0.10285181 -0.015956199 0.111763746 -0.07606242 0.16238478 0.056707393 0.15757924 0.04545026
00000000: d322 19be b8f5 87bc 3ac9 a3bd c740 b63c
00000010: 68f2 1b3e a5da 163e a45a 2d3e ef87 05be
00000020: 42a9 13be 55f9 1a3e 34b0 ea3d d459 b63d
00000030: 3976 1dbd 609c a5bd 4367 d5bc 1c01 a13d
00000040: 18a0 2bbe f178 e33d 4366 f1bd cbfb 213b
00000050: 7d96 2e3e b163 5c3d 541c a83d ecc8 f23d
00000060: f8a3 d2bd 93b6 82bc 64e4 e43d 9dc6 9bbd
00000070: 3248 263e 0346 683d 745c 213e 0d2a 3a3d

emb_net.v_lins1.2.weight f4 [32, 32]
0.10377696 0.0039315643 0.042715453 -0.1145574 -0.060158707 -0.039693303 0.056874506 -0.14677793
-0.015593205 -0.09018629 0.043941237 0.06231429 -0.18295646 0.13136949 -0.014842239 0.15516469
-0.028285492 -0.045828756 0.015949076 0.0769688 0.13543679 -0.07508427 -0.09091718 0.07778011
0.09111762 -0.06616359 0.006746356 0.14572634 -0.1481475 -0.026083238 0.18273 0.16593224
-0.08931419 -0.049459703 -0.07919669 -0.054043796 0.13557525 0.14270233 -0.17411166 0.12325631
-0.10239016 -0.09721715 -0.108712725 -0.034658335 0.089173414 -0.11225788 0.11257793 0.08423633
0.011092142 -0.17234337 0.088249475 -0.01415663 -0.09606567 -0.108817264 0.09357674 -0.034215316
0.11251894 -0.055009443 0.0085126795 0.14706138 -0.028422741 -0.0101328865 -0.06713522 0.106590696
-0.10144729 -0.013792396 -0.04321508 0.16446136 -0.05302491 0.124018006 0.113264166 -0.042261582
0.053385943 0.15650137 -0.0097428085 -0.0553143 0.11533623 0.12915233 -0.004474841 -0.0028149465
0.018343115 0.009432912 0.04960003 0.08287555 -0.11936103 0.06943315 8.11388e-05 -0.15239334
0.14645989 0.17646775 -0.115304485 -0.06403635 0.14369549 -0.05271641 0.09538668 -0.121096104
0.038422123 -0.10258205 0.11225587 -0.1678497 -0.1274803 -0.1485505 -0.028344788 -0.10151188
0.088900454 0.10660212 -0.12603706 -0.054889936 0.00317318 -0.038798828 0.07887744 -0.08057525
0.098842956 0.05927961 0.13126497 -0.0072140773 0.031786688 -0.042159498 0.119148456 -0.10167664
-0.016039453 -0.17270803 -0.050619695 0.0033205946 -0.025348438 0.06697108 -0.05430535 0.039416354
-0.005881495 0.028249798 0.021984521 -0.15109813 0.028489677 -0.13852303 0.09088533 0.059266448
-0.1285491 -0.09029991 0.043878373 0.12361213 0.08112072 0.16487849 -0.16560769 -0.16520156
-0.113355845 -0.05660655 -0.1458077 0.08091869 -0.15391475 0.14029792 -0.10734131 -0.09526905
-0.12610716 0.16314708 0.043619733 0.12925889 -0.01646593 0.018327931 0.026917644 -0.0022524402
-0.14364758 0.028428067 -0.120162405 -0.10478225 -0.03660507 0.020525333 0.033166375 0.17406183
0.16260163 -0.15972699 0.017892288 0.069749676 0.1225961 -0.044206064 -0.14648709 -0.001394233
0.0017453387 -0.012441372 -0.08371372 -0.025190517 -0.09659982 -0.027398497 0.09783623 0.13490003
-0.07519173 -0.059035063 0.040015616 0.098379046 -0.10811937 -0.15037945 -0.041428585 -0.1271984
-0.10050282 -0.06056457 0.04540722 0.15639348 -0.074943006 -0.1697073 -0.15289754 -0.00824149
0.08461928 0.035810344 -0.11348993 -0.0832929 0.007796884 0.04426052 0.14155507 -0.03381482
0.109423056 0.13036837 0.06592788 -0.070507035 -0.1160986 -0.14889356 -0.055480756 -0.13273814
-0.14535272 0.04107005 0.14509054 0.03301682 -0.0029336535 0.12013487 0.13032953 -0.046996336
0.09736714 -0.07082209 -0.10977026 -0.15415326 0.14889038 -0.15153198 0.10394674 -0.17399651
-0.1332489 -0.079977766 -0.15146178 0.037304398 -0.10652438 -0.055980045 -0.11017836 -0.13956204
0.073369615 0.11320466 0.051665843 -0.07239885 -0.07084563 -0.03571205 -0.11784833 0.08484105
0.111825794 -0.07133933 0.03569591 -0.055525813 -0.06859243 -0.07981128 0.14015256 0.08065973
00000000: 0489 d43d 5ad4 803b 66f6 2e3d 129d eabd
00000010: fa68 76bd 7295 22bd 3ef5 683d f44c 16be
00000020: a47a 7fbc 97b3 b8bd bafb 333d 453d 7f3d
00000030: f058 3bbe b985 063e dd2c 73bc 7ee3 1e3e
00000040: fab6 e7bc efb6 3bbd a3a7 823c d1a1 9d3d
00000050: f1af 0a3e c8c5 99bd c932 babd 2e4b 9f3d
00000060: e09b ba3d c780 87bd 8910 dd3b 4939 153e
00000070: fab3 17be 84ac d5bc 931d 3b3e 24ea 293e
00000080: 5cea b6bd 4296 4abd e031 a2bd 075d 5dbd
00000090: 3dd4 0a3e 8f20 123e 544a 32be ce6d fc3d
000000a0: efb1 d1bd c919 c7bd c7a4 debd e6f5 0dbd
000000b0: 8da0 b63d 76e7 e5bd 428f e63d 1984 ac3d
000000c0: d1bb 353c c87a 30be 24bc b43d 36f1 67bc
000000d0: 14be c4bd 96db debd 29a5 bf3d 5c25 0cbd
000000e0: 5470 e63d 9551 61bd c478 0b3c 4297 163e
000000f0: cfd6 e8bc 6804 26bc 317e 89bd 394c da3d
00000100: 99c3 cfbd 80f9 61bc 4c02 31bd 8f68 283e
00000110: a630 59bd 27fd fd3d 0bf7 e73d 7b1a 2dbd
00000120: 38ab 5a3d e541 203e 4da0 1fbc 3f91 62bd
00000130: 6735 ec3d 8240 043e b0a1 92bb f77a 38bb
00000140: 4d44 963c 808c 1a3c 6729 4b3d a8ba a93d
00000150: 8e73 f4bd f832 8e3d 1029 aa38 000d 1cbe
00000160: 95f9 153e f6b3 343e c224 ecbd 7d25 83bd
00000170: e924 133e 2aed 57bd 175a c33d 3c01 f8bd
00000180: 8460 1d3d 8a16 d2bd 68e6 e53d cbe0 2bbe
00000190: 328a 02be 9f1d 18be 5433 e8bc 76e5 cfbd
000001a0: 7111 b63d 3652 da3d dc0f 01be 45d4 60bd
000001b0: 20f5 4f3b 85eb 1ebd 7f8a a13d a304 a5bd
000001c0: 2d6e ca3d 2dcf 723d 536a 063e 1164 ecbb
000001d0: c232 023d 70af 2cbd 1b04 f43d d83b d0bd
000001e0: 2c65 83bc 60da 30be 9956 4fbd 559e 593b
000001f0: 87a7 cfbc 2228 893d 496f 5ebd 0b73 213d
00000200: 8eb9 c0bb 1f6c e73c e218 b43c 78b9 1abe
00000210: 2f63 e93c fbd8 0dbe 1722 ba3d 60c1 723d
00000220: 60a2 03be 29ef b8bd cfb9 333d 5b28 fd3d
00000230: 9f22 a63d e8d5 283e 1095 29be 992a 29be
00000240: 1c27 e8bd 45dc 67bd 9d4e 15be b3b8 a53d
00000250: d49b 1dbe 42aa 0f3e c3d5 dbbd 6b1c c3bd
00000260: 3c22 01be 0710 273e 9baa 323d 715c 043e
00000270: 8fe3 86bc 7524 963c 6482 dc3c ad9d 13bb
00000280: 5a18 13be fae1 e83c b517 f6bd 1498 d6bd
00000290: 33ef 15bd be24 a83c 77d9 073d 443d 323e
000002a0: 0b81 263e 798f 23be d992 923c ebd8 8e3d
000002b0: aa13 fb3d 6b11 35bd b600 16be b2be b6ba
000002c0: d9c3 e43a e5d6 4bbc 1972 abbd 585c cebc
000002d0: 20d6 c5bd d072 e0bc 5d5e c83d 3c23 0a3e
000002e0: 1ffe 99bd c0ce 71bd 6ae7 233d f47a c93d
000002f0: b06d ddbd 12fd 19be 05b1 29bd 4c40 02be
00000300: 6cd4 cdbd 8e12 78bd ecfc 393d 9d25 203e
00000310: b87b 99bd c0c7 2dbe 2c91 1cbe 5107 07bc
00000320: e04c ad3d dead 123d 696d e8bd 7895 aabd
00000330: 017d ff3b 854a 353d d0f3 103e 6981 0abd
00000340: 3219 e03d 497f 053e 3205 873d fe65 90bd
00000350: 1ac5 edbd 8e77 18be ca3f 63bd 82ec 07be
00000360: 58d7 14be 1239 283d 9d92 143e a53c 073d
00000370: 8a42 40bb 4509 f63d 1b75 053e 3b7f 40bd
00000380: 6c68 c73d 2c0b 91bd 3bcf e0bd 5ada 1dbe
00000390: b876 183e 332b 1bbe 07e2 d43d 242c 32be
000003a0: 6672 08be 62cb a3bd cc18 1bbe 7fcc 183d
000003b0: 7429 dabd 554b 65bd 31a5 e1bd 5ae9 0ebe
000003c0: cf42 963d d8d7 e73d 909f 533d d945 94bd
000003d0: 8317 91bd cc46 12bd 775a f1bd 25c1 ad3d
000003e0: ec04 e53d 5b1a 92bd e035 123d 096f 63bd
000003f0: 307a 8cbd 1974 a3bd 2784 0f3e ee30 a53d

emb_net.v_lins1.2.bias f4 [32]
0.064683855 -0.115707785 -0.014154443 -0.061093774 -0.06277874 0.12634486 -0.16805474 -0.009722263
0.016563976 -0.0048514823 -0.061602 0.0955437 0.026105149 -0.035130534 -0.06742692 -0.16181746
-0.11259646 -0.071114115 -0.015209838 -0.15741356 0.14858708 0.13712034 0.086779155 -0.11342563
0.13180858 -0.11073896 0.08891741 0.112964235 0.13188282 0.012438204 0.004447292 -0.15404743
00000000: f878 843d 34f8 ecbd 09e8 67bc 773d 7abd
00000010: 2492 80bd 8c60 013e 8b16 2cbe 204a 1fbc
00000020: 2db1 873c 2ff9 9ebb 6152 7cbd 6aac c33d
00000030: 77da d53c 09e5 0fbd 2017 8abd 7ab3 25be
00000040: f998 e6bd 47a4 91bd af32 79bc 0531 21be
00000050: 3627 183e 4669 0c3e 45b9 b13d b24b e8bd
00000060: d4f8 063e 1ccb e2bd 551a b63d cb59 e73d
00000070: 4a0c 073e 9cc9 4b3c 97ba 913b 9cbe 1dbe

emb_net.v_lins1.3.weight f4 [32, 32]
-0.17953616 -0.045783184 -0.016751606 0.11856225 0.11866618 0.034239452 -0.079293855 0.12824604
-0.0477608 -0.048067484 -0.14690025 0.0630077 0.055619456 0.04843538 -0.120357245 -0.15276496
-0.0071981587 -0.09863603 0.13545623 0.07218535 -0.045581095 0.15254243 0.05377698 0.05092369
0.14908513 0.031466737 -0.071754776 -0.04368558 -0.0030839588 -0.14512858 -0.027689673 0.019132616
0.019285783 -0.139977 -0.16804494 0.062456448 -0.12505326 -0.14410025 0.026620094 0.0895052
-0.17260058 -0.042914998 0.0076759364 -0.014576214 0.04049694 -0.14976218 -0.13269207 0.055323493
-0.053352293 0.009813105 -0.08098492 0.07175402 -0.0840616 0.055297256 -0.14460671 -0.12991764
-0.08606868 0.120634265 0.13649006 0.10409465 -0.16454275 0.14848484 -0.044071693 0.059759606
0.111061215 0.15072867 0.13915232 0.14478122 0.10351989 -0.17315413 -0.05585169 -0.049387325
-0.03969705 0.14437073 -0.09985385 0.14857545 -0.03692741 0.0627267 -0.15865435 -0.02122587
0.083345555 -0.040580615 0.10031113 -0.14990161 0.10292987 0.09350893 -0.12554637 0.16259778
0.14030619 -0.007689883 -0.049881343 0.05519387 0.012367843 0.12998386 -0.082786754 0.010120185
-0.061319944 0.029042728 -0.094381176 0.113564454 -0.0043276376 -0.08952027 0.040227372 -0.07498819
0.080277175 0.008794052 0.115968205 0.02743914 -0.17611244 -0.0942495 0.093111016 -0.111880265
-0.14708778 0.10824795 -0.14431825 0.052108437 -0.09667856 -0.16762209 0.04437443 0.0562585
0.010243084 -0.14949353 -0.13660735 -0.033541366 -0.0615148 0.082609385 0.14050041 0.06944011
-0.13113108 0.068862736 -0.16332397 0.042890426 0.12819907 0.010376879 -0.097718224 -0.15181117
0.15849993 0.0643512 0.1133424 -0.1547742 -0.12665598 -0.16512905 0.17271633 0.078141935
-0.1789016 -0.1352972 -0.1673538 -0.13153467 0.14867097 -0.031057633 0.05493003 0.1323458
-0.020017805 0.16522078 -0.031664085 -0.051877543 0.0044372827 0.16418642 -0.04727001 0.1403627
-0.030285511 0.011677447 0.14107838 -0.020278776 0.039533816 -0.09456932 -0.08793134 -0.13061123
-0.1570051 -0.07689377 0.12423151 0.08504135 -0.044491045 0.101234965 -0.16816045 -0.010403854
0.084627405 0.16322449 0.012869549 0.08856871 -0.07523783 -0.15502323 -0.025580822 0.090135105
0.1502171 -0.09714129 0.0052955314 0.07124876 0.09902568 0.11571499 0.06656312 -0.07244822
0.07366213 -0.113244675 -0.07065214 0.057670433 0.034267757 -0.06572805 0.12133336 -0.12849638
0.08826089 0.13128224 0.015730087 0.04360132 -0.03864626 0.07687052 -0.03474724 0.13720201
0.10102096 0.06452104 -0.14353149 -0.02679987 0.072714604 -0.08324861 0.072428495 0.00079548743
0.049466353 0.023065452 0.0604831 0.12191047 0.1326866 0.12051507 0.063385926 -0.013863815
-0.115991645 0.040442456 -0.009180922 0.0037567622 0.14939107 0.016652636 0.039233405 -0.005184697
0.108397365 -0.04215521 -0.022198455 0.022159802 -0.1502976 0.098062396 -0.015118861 0.0669244
0.14062692 -0.08221975 -0.10766143 -0.13956095 0.09369096 0.11157335 -0.055264097 -0.15690172
0.04446451 0.11717928 0.07365246 -0.057933085 0.069577396 -0.0014737627 0.051749624 -0.1258455
00000000: 54d8 37be 2687 3bbd aa3a 89bc c4d0 f23d
00000010: 4107 f33d ab3e 0c3d d164 a2bd ee52 033e
00000020: d4a0 43bd 69e2 44bd 056d 16be 2e0a 813d
00000030: 3ad1 633d 2d64 463d dc7d f6bd 6b6e 1cbe
00000040: 88de ebbb b001 cabd 0ab5 0a3e ead5 933d
00000050: 3eb3 3abd 1534 1c3e 4045 5c3d 5c95 503d
00000060: c6a9 183e 44e3 003d 2bf4 92bd a7ef 32bd
00000070: 3e1c 4abb 969c 14be 74d5 e2bc 01bc 9c3c
00000080: 38fd 9d3c 2156 0fbe f913 2cbe 55d2 7f3d
00000090: f60d 00be 048f 13be 6212 da3c 814e b73d
000000a0: 35be 30be a3c7 2fbd 6c86 fb3b 13d1 6ebc
000000b0: 1fe0 253d 425b 19be 6ee0 07be e39a 623d
000000c0: ef87 5abd 25c7 203c 6cdb a5bd c6f3 923d
000000d0: 7d28 acbd 607f 623d c813 14be 2109 05be
000000e0: c744 b0bd 190f f73d 0dc4 0b3e 932f d53d
000000f0: e57d 28be 690c 183e 8584 34bd 7dc6 743d
00000100: 1074 e33d 9e58 1a3e f27d 0e3e 8741 143e
00000110: 3c02 d43d 514f 31be bec4 64bd 5d4a 4abd
00000120: 6099 22bd ecd5 133e 2d80 ccbd 2a24 183e
00000130: 3241 17bd db76 803d 4976 22be e0e1 adbc
00000140: 13b1 aa3d dc37 26bd ec6f cd3d cf7f 19be
00000150: e5cc d23d 9c81 bf3d 3a8f 00be 0880 263e
00000160: 6dac 0f3e 6afb fbbb 6150 4cbd f812 623d
00000170: 7ea2 4a3c 7d1a 053e 1a8c a9bd 22cf 253c
00000180: 9f2a 7bbd 04eb ed3c eb4a c1bd 7b94 e83d
00000190: dbce 8dbb 6756 b7bd 75c5 243d 6893 99bd
000001a0: 5c68 a43d ed14 103c bd80 ed3d 0cc8 e03c
000001b0: d256 34be e205 c1bd fdb0 be3d 7b21 e5bd
000001c0: 2e9e 16be 1ab1 dd3d 2ac8 13be a86f 553d
000001d0: 69ff c5bd 20a5 2bbe f6c1 353d 506f 663d
000001e0: 9cd2 273c d514 19be cce2 0bbe ac62 09bd
000001f0: f1f6 7bbd 1c2f a93d 57df 0f3e 9e36 8e3d
00000200: 3a47 06be e807 8d3d 663e 27be dfad 2f3d
00000210: 9e46 033e c903 2a3c 7e20 c8bd 6374 1bbe
00000220: ce4d 223e 90ca 833d 0f20 e83d 217d 1ebe
00000230: 1bb2 01be 9717 29be 8ddc 303e e108 a03d
00000240: fb31 37be 598b 0abe cb5e 2bbe 06b1 06be
00000250: 343d 183e 946c febc 50fe 603d a885 073e
00000260: 61fc a3bc a32f 293e 33b2 01bd 8c7d 54bd
00000270: a066 913b 7c20 283e 339e 41bd 3dbb 0f3e
00000280: 5219 f8bc c352 3f3c da76 103e ad1f a6bc
00000290: 36ee 213d 8fad c1bd 5915 b4bd f3be 05be
000002a0: f2c5 20be 7b7a 9dbd 176d fe3d 292a ae3d
000002b0: 3e3c 36bd 4754 cf3d 4132 2cbe ed74 2abc
000002c0: 2251 ad3d 5224 273e cdda 523c 8363 b53d
000002d0: 4b16 9abd 69be 1ebe df8e d1bc c198 b83d
000002e0: 83d2 193e 03f2 c6bd 2386 ad3b dfea 913d
000002f0: facd ca3d fbfb ec3d 3f52 883d bb5f 94bd
00000300: 2cdc 963d d3ec e7bd 12b2 90bd d537 6c3d
00000310: 595c 0c3d 6e9c 86bd a07d f83d 8e94 03be
00000320: 20c2 b43d da6e 063e 62dc 803c 4c97 323d
00000330: 8a4b 1ebd 4b6e 9d3d 1f53 0ebd af7e 0c3e
00000340: 14e4 ce3d 9b23 843d ebf9 12be 678b dbbc
00000350: 65eb 943d 3f7e aabd 6455 943d 4288 503a
00000360: 3b9d 4a3d c2f3 bc3c 21bd 773d 32ac f93d
00000370: ffde 073e 9bd0 f63d 7bd0 813d 0e25 63bc
00000380: 078d edbd fda6 253d 946b 16bc 0334 763b
00000390: f9f9 183e 1c6b 883c 35b3 203d 64e4 a9bb
000003a0: 70ff dd3d f1aa 2cbd 89d9 b5bc 7988 b53c
000003b0: 9de7 19be f0d4 c83d 19b5 77bc a90f 893d
000003c0: 8100 103e d462 a8bd 997d dcbd 11e9 0ebe
000003d0: 0ce1 bf3d 9280 e43d 9b5c 62bd d8aa 20be
000003e0: 6b20 363d b1fb ef3d 1ad7 963d 3e4b 6dbd
000003f0: 987e 8e3d 452b c1ba 6af7 533d a5dd 00be

emb_net.v_lins1.3.bias f4 [32]
0.077516034 0.14557008 0.049289253 0.1403063 -0.060599156 -0.025062455 0.093735576 0.15969823
0.06509042 -0.051665977 0.047932804 0.06220046 -0.02900194 -0.09152235 0.04684274 -0.022451263
-0.0679775 -0.13720363 -0.12363946 0.051563088 -0.10475159 -0.040054325 -0.07311354 0.026419621
0.06079484 -0.16074744 0.07703988 0.053711273 -0.018986514 -0.0977605 0.07547173 0.009867315
00000000: bac0 9e3d 5310 153e 87e3 493d 74ac 0f3e
00000010: d236 78bd c74f cdbc 70f8 bf3d ef87 233e
00000020: 204e 853d b49f 53bd 3055 443d e9c5 7e3d
00000030: 7a95 edbc 1270 bbbd 2cde 3f3d b6eb b7bc
00000040: ca37 8bbd 1c7f 0cbe af36 fdbd d133 533d
00000050: 0088 d6bd 0110 24bd 8dbc 95bd f66d d83c
00000060: 0304 793d fa9a 24be 16c7 9d3d 5a00 5c3d
00000070: 9b89 9bbc a836 c8bd ec90 9a3d 85aa 213c

emb_net.v_lins1.4.weight f4 [32, 32]
0.053075645 -0.12364626 -0.16053665 0.041870046 -0.0005027193 -0.050435446 0.1306866 -0.063069016
-0.06383825 -0.037878845 -0.07996296 -0.011022069 0.13749172 0.12258623 -0.015204642 0.15093602
-0.0018807898 -0.17522396 -0.0075873863 -0.12196912 0.036761735 -0.050438657 -0.09136169 0.15728652
0.10646024 0.017741958 -0.088009864 0.14511822 -0.0035921377 0.029333578 -0.11951456 -0.16315313
-0.04831879 0.09220459 0.026278311 0.08625431 0.056662276 -0.15745808 -2.0594625e-05 -0.0023374693
0.07625918 -0.16592911 -0.15234216 0.050732438 0.17092292 0.0435504 -0.046183415 0.10016004
-0.15984803 0.1569183 -0.11038187 -0.0005967613 -0.014714194 0.04078128 -0.06895514 -0.0051243743
-0.13623384 0.13514793 0.06814524 -0.05776493 0.17362946 0.012788145 -0.0061377925 0.13335985
0.09832591 0.024798814 0.08568689 0.11013252 -0.037068497 -0.14560224 0.0026607462 -0.17192124
0.10509612 -0.034665592 0.14226156 -0.031301446 -0.15093409 0.15212838 -0.010904755 0.15334375
0.1700746 -0.12593812 -0.035071705 -0.08031051 0.034815036 0.16341604 -0.06173594 0.0072120586
-0.13953552 0.034826428 0.022003254 -0.07247817 -0.15119831 0.12788269 -0.06749411 -0.04778013
-0.1568868 -0.06911398 0.11646383 -0.009445571 0.14196 -0.03192538 -0.1253485 -0.102037705
-0.05641956 0.056805648 -0.101856135 0.076104686 -0.17388408 0.10475467 0.10737963 -0.13354269
0.17558177 -0.10022595 0.018289205 0.12110684 0.065838166 0.12183695 0.027922645 0.09226092
-0.1586231 0.11330964 0.08632192 0.102900825 -0.15743196 0.0074850796 -0.0079100905 -0.009218124
-0.06460342 -0.1748697 0.023505539 -0.099954896 -0.07940722 0.026704025 0.033784617 0.028245026
-0.020104257 -0.13559428 0.12053794 -0.12494375 -0.15969051 -0.11582418 0.030257432 0.06084885
-0.12027516 0.15910725 -0.08800057 0.1543625 0.09516759 -0.05757713 -0.079390235 -0.032721404
-0.17095782 0.18324272 0.0662548 0.05818598 0.051046632 0.11128873 -0.013955829 -0.0022827603
-0.11743685 0.08812716 0.18333824 0.06403452 -0.035355933 -0.15686297 0.0991465 0.1556592
0.04819089 0.15997723 0.0015554136 -0.08640124 -0.024615685 0.075617805 0.13208103 0.04385068
0.12380742 -0.11300538 0.09486506 0.06386686 -0.10284347 0.004046682 0.017577764 -0.09957427
0.08314121 -0.018717928 0.07377817 -0.16497765 -0.031484656 0.17563222 -0.039092798 -0.051825125
-0.057905484 -0.16718754 -0.111128725 -0.11763737 -0.14461778 0.16479003 0.03303287 0.026906693
-0.015179645 -0.013569429 0.13502485 0.1306485 -0.01365989 -0.085981734 -0.012799037 -0.07940805
-0.0826561 -0.127251 0.15115887 -0.14405607 -0.015730202 -0.011008648 0.1776966 0.13380586
0.092168994 -0.12423123 -0.023623163 0.098491155 -0.10192094 -0.118668325 0.06402484 0.1375864
0.11145738 -0.10575785 0.054848567 -0.15335879 0.06666278 0.13005663 -0.1572491 0.029125432
-0.009936697 0.02106312 0.090477124 0.12642482 -0.1482924 -0.1618114 0.13189416 0.054381937
0.16599813 -0.12528595 -0.027522326 -0.12975056 -0.042871296 -0.15421534 0.16387388 -0.04835204
-0.06168201 -0.013085703 0.1070061 0.043770906 -0.16270138 0.012761943 -0.05336977 -0.085153796
00000000: d965 593d 403a fdbd b863 24be ed7f 2b3d
00000010: ecc8 03ba 6695 4ebd b5d2 053e 542a 81bd
00000020: a1bd 82bd d926 1bbd 9fc3 a3bd e895 34bc
00000030: a1ca 0c3e 7d0e fb3d e41c 79bc f98e 1a3e
00000040: d584 f6ba e96d 33be 9c9f f8bb f2ca f9bd
00000050: 7993 163d c498 4ebd d61b bbbd b80f 213e
00000060: d407 da3d 9557 913c 843e b4bd df99 143e
00000070: 126a 6bbb f94c f03c 0dc4 f4bd 9d11 27be
00000080: ece9 45bd c3d5 bc3d 9d45 d73c 1aa6 b03d
00000090: b416 683d b13c 21be 9fc2 acb7 3a30 19bb
000000a0: c62d 9c3d 52e9 29be 95ff 1bbe d1cc 4f3d
000000b0: 6b06 2f3e e761 323d d22a 3dbd b520 cd3d
000000c0: 34af 23be 31af 203e e40f e2bd f96f 1cba
000000d0: ce13 71bc 450a 273d 5a38 8dbd 5eea a7bb
000000e0: e280 0bbe 3864 0a3e bb8f 8b3d eb9a 6cbd
000000f0: eccb 313e 5e85 513c 891f c9bb 7c8f 083e
00000100: 185f c93d e226 cb3c 9c7c af3d 298d e13d
00000110: 23d5 17bd c118 15be ea5f 2e3b 1f0c 30be
00000120: a23c d73d 82fd 0dbd 04ad 113e f235 00bd
00000130: 778e 1abe 8bc7 1b3e dca9 32bc 2506 1d3e
00000140: 0928 2e3e ecf5 00be 59a7 0fbd d679 a4bd
00000150: 369a 0e3d 8956 273e d3de 7cbd 2253 ec3b
00000160: 66e2 0ebe 28a6 0e3d 2b40 b43c 6f6f 94bd
00000170: bbd3 1abe aef3 023e 5a3a 8abd 19b5 43bd
00000180: efa6 20be a18b 8dbd 9784 ee3d 99c1 1abc
00000190: f65d 113e 30c4 02bd 5b5b 00be 25f9 d0bd
000001a0: 3218 67bd 0aad 683d f399 d0bd c6dc 9b3d
000001b0: ab0e 32be 9e89 d63d dae9 db3d 6abf 08be
000001c0: b5cb 333e 4343 cdbd 3ed3 953c dd06 f83d
000001d0: 29d6 863d a785 f93d 08be e43c 4bf3 bc3d
000001e0: 186e 22be e20e e83d 8cc9 b03d abbd d23d
000001f0: d835 21be 6645 f53b 5399 01bc 9d07 17bc
00000200: cc4e 84bd 0b11 33be b08e c03c 27b5 ccbd
00000210: 41a0 a2bd 66c2 da3c bd61 0a3d 1d62 e73c
00000220: afb1 a4bc 3ad9 0abe 98dc f63d 82e2 ffbd
00000230: e985 23be 3a35 edbd 6fde f73c a53c 793d
00000240: d352 f6bd 03ed 223e a539 b4bd 3411 1e3e
00000250: 3ae7 c23d ffd5 6bbd 5997 a2bd e106 06bd
00000260: 910f 2fbe fba3 3b3e 99b0 873d 6c54 6e3d
00000270: 4616 513d 58eb e33d fda6 64bc 5d9a 15bb
00000280: bb82 f0bd 037c b43d 05bd 3b3e 8824 833d
00000290: 62d1 10bd b0a0 20be 520d cb3d 2065 1f3e
000002a0: d063 453d 12d1 233e 05df cb3a 22f3 b0bd
000002b0: d5a6 c9bc 82dd 9a3d 4040 073e c59c 333d
000002c0: bf8e fd3d 5d6f e7bd 9d48 c23d a1cc 823d
000002d0: 999f d2bd 079a 843b 3eff 8f3c 98ed cbbd
000002e0: f045 aa3d 5756 99bc 0219 973d e7ef 28be
000002f0: 0ef6 00bd efd8 333e c51f 20bd 9546 54bd
00000300: 4d2e 6dbd 3633 2bbe 7597 e3bd ddeb f0bd
00000310: af16 14be b8be 283e 7a4d 073d 6d6b dc3c
00000320: 0cb4 78bc 4f52 5ebc f443 0a3e b8c8 053e
00000330: bbcd 5fbc 3117 b0bd 0db3 51bc b0a0 a2bd
00000340: 9a47 a9bd 164e 02be 64c9 1a3e 6f83 13be
00000350: a0dc 80bc 9e5d 34bc 19f6 353e 6704 093e
00000360: 19c3 bc3d f16c febd 5d85 c1bc bbb5 c93d
00000370: edbb d0bd 6108 f3bd 751f 833d 73e3 0c3e
00000380: c443 e43d 9297 d8bd e4a8 603d 160a 1dbe
00000390: 7f86 883d 912d 053e e805 21be 7598 ee3c
000003a0: 87cd 22bc 908c ac3c 124c b93d 8275 013e
000003b0: f7d9 17be e3b1 25be 430f 073e 98bf 5e3d
000003c0: 6afb 293e f64a 00be 8076 e1bc 55dd 04be
000003d0: d099 2fbd a0ea 1dbe 8ece 273e ca0c 46bd
000003e0: 46a6 7cbd 6b65 56bc 0426 db3d 1f49 333d
000003f0: 319b 26be 7817 513c 439a 5abd 1d65 aebd

emb_net.v_lins1.4.bias f4 [32]
-0.08959154 0.11434148 -0.032592602 0.16856155 0.025142163 0.04997033 -0.01975673 0.071967654
-0.11876215 -0.15000027 0.060930967 -0.09754256 -0.13546658 -0.15891159 -0.12165436 -0.009288504
0.06232375 -0.051336396 0.16838524 -0.12024816 -0.030196156 0.0871655 0.12517247 0.027423957
-0.10384073 -0.067992955 -0.055900645 -0.061326817 -0.09756958 -0.0010480649 0.024392692 -0.032963794
00000000: c57b b7bd de2b ea3d d27f 05bd 669b 2c3e
00000010: f0f6 cd3c b0ad 4c3d ded8 a1bc c763 933d
00000020: 9239 f3bd ac99 19be c092 793d 65c4 c7bd
00000030: c0b7 0abe b8b9 22be ec25 f9bd cf2e 18bc
00000040: 3047 7f3d 1d46 52bd 2e6d 2c3e ab44 f6bd
00000050: ee5d f7bc d383 b23d 362d 003e 35a8 e03c
00000060: 73aa d4bd e43f 8bbd 13f8 64bd d431 7bbd
00000070: 8fd2 c7bd 395f 89ba 2fd3 c73c 0b05 07bd

emb_net.v_lins1.5.weight f4 [32, 32]
0.14200787 0.035992164 0.08165292 0.10741932 -0.030927315 0.059219953 0.10091783 0.10908757
0.022754978 -0.001427079 0.12763184 0.15855826 0.08973005 -0.13025212 0.02341091 -0.08964166
0.1832197 0.053342693 -0.07104253 0.07190101 -0.05822688 0.09555895 -0.05054393 0.12548952
0.0785495 0.18583229 -0.098620124 -0.13402772 0.115585074 0.08574133 0.047623303 0.043834556
0.10594163 -0.046629846 0.0885566 0.046709176 -0.11072453 0.018470172 -0.13984175 -0.04147489
-0.035779186 0.11444617 0.062024016 0.078867264 0.16396649 -0.11698735 -0.1356403 -0.12523457
0.038382262 0.11836234 -0.16232456 -0.020594042 0.022246178 0.09266253 0.057822004 -0.1368651
0.043982584 -0.085477926 0.030285167 0.14304389 -0.006905276 0.09652568 0.05257004 0.05476454
-0.16610296 -0.14863375 0.057751443 0.083856024 0.042991154 -0.14020388 -0.03909007 -0.026212294
0.110198446 0.022932818 0.0911692 -0.061566122 -0.07248128 0.109744616 -0.0804415 -0.0651399
0.14650308 0.0057615363 -0.19199035 0.11781465 0.06854169 -0.10130399 -0.08413646 -0.01595839
-0.1321788 0.092187956 0.07813981 0.093863636 -0.069847055 0.018655133 -0.07114148 -0.09319097
-0.16654618 -0.12631567 -0.11222201 0.12075563 0.10134731 -0.10564481 0.013753628 -0.1878719
-0.09809144 -0.11482957 0.05724414 0.105138764 -0.10678676 -0.114057586 -0.11767087 0.17298517
-0.11146384 0.12837797 -0.01932056 0.05919851 -0.052912768 0.10044067 0.019736968 -0.03124568
-0.14802621 -0.0070952424 0.11828776 0.019567233 0.13690968 -0.12588818 0.054971337 -0.079634614
-0.1101769 -0.14697003 0.14585757 -0.028393572 0.17069855 -0.015984053 0.14950246 0.1343083
0.078182034 -0.09810148 0.15617985 -0.011577327 0.06333304 -0.010648081 0.1656817 0.058218688
0.18619181 -0.051148422 -0.032472342 0.036262307 -0.16209526 -0.15115179 -0.12164409 0.040617585
-0.04225161 -0.0038166118 -0.15007687 0.039066397 0.09423995 -0.11432808 0.06243534 0.016254958
0.061902665 0.038961966 -0.17987216 0.09791284 -0.06273422 0.11967369 0.05074287 0.06022882
0.014390975 0.03169498 0.050209574 -0.049079835 0.12234057 0.04011843 0.012204105 -0.17036262
-0.15030347 -0.15124944 0.0816394 0.065454975 0.08478847 0.1071281 -0.020293262 0.1756918
0.09770005 0.09054117 -0.05646453 0.027624525 -0.14172089 0.017294118 0.07436522 0.06524143
0.11214868 0.17519866 0.09665855 -0.18253453 0.16690257 -0.18082498 0.15055788 -0.0950653
-0.0039380216 0.109398164 -0.11517845 0.11385503 0.093078785 -0.07586543 -0.072258264 0.124276
-0.07237694 -0.16413267 0.012248291 -0.14872387 0.027456356 -0.12895142 -0.07650835 0.13292027
0.050038952 0.110686064 0.15799606 0.07477214 0.091215394 -0.008587731 0.16423528 -0.04983028
-0.06702213 0.08748067 -0.06235177 0.1174891 -0.101431996 0.07866207 -0.15455839 -0.03732697
-0.02308153 -0.048857536 0.12588423 -0.031752285 0.1564968 -0.14557037 -0.18108845 0.029451435
0.11405123 -0.014618034 0.14552692 -0.110136464 -0.15778919 -0.06710964 0.0034817655 0.022908447
0.095746465 -0.060219068 -0.05659266 -0.089537755 -0.14646539 -0.064151764 -0.17448649 -0.08739518
00000000: 836a 113e 856c 133d a539 a73d a9fe db3d
00000010: 485b fdbc 9f90 723d 02ae ce3d 4e69 df3d
00000020: a668 ba3c d30c bbba ecb1 023e 195d 223e
00000030: 63c4 b73d d060 05be 3dc8 bf3c 0c96 b7bd
00000040: f29d 3b3e de7d 5a3d bf7e 91bd d640 933d
00000050: 4f7f 6ebd 69b4 c33d 2707 4fbd 5380 003e
00000060: 8fde a03d d24a 3e3e 59f9 c9bd 903e 09be
00000070: deb7 ec3d 2799 af3d a710 433d dd8b 333d
00000080: edf7 d83d f0fe 3ebd 2a5d b53d 1f52 3f3d
00000090: 8bc3 e2bd c24e 973c ad32 0fbe 93e1 29bd
000000a0: 328d 12bd c162 ea3d e50c 7e3d 2985 a13d
000000b0: d5e6 273e 1097 efbd 4ae5 0abe 7e3d 00be
000000c0: b836 1d3d f467 f23d 6938 26be d6b4 a8bc
000000d0: 9e3d b63c dac5 bd3d c4d6 6c3d 5d26 0cbe
000000e0: 1527 343d 0d0f afbd 9918 f83c 197a 123e
000000f0: a745 e2bb 41af c53d af53 573d c850 603d
00000100: e516 2abe 7233 18be c78c 6c3d b5bc ab3d
00000110: 7e17 303d 9b91 0fbe e91c 20bd 2abb d6bc
00000120: b9af e13d 9bdd bb3c ebb6 ba3d c22c 7cbd
00000130: 1171 94bd c9c1 e03d 83be a4bd 1168 85bd
00000140: e704 163e 45cb bc3b 1e99 44be cf48 f13d
00000150: 965f 8c3d 7778 cfbd bd4f acbd 2bbb 82bc
00000160: e159 07be 0acd bc3d c407 a03d 943b c03d
00000170: f90b 8fbd a6d2 983c a0b2 91bd e8da bebd
00000180: 158b 2abe e558 01be a7d4 e5bd ba4e f73d
00000190: 2e8f cf3d 4e5c d8bd e656 613c 7e61 40be
000001a0: 2ae4 c8bd c42b ebbd d578 6a3d fe52 d73d
000001b0: 04b3 dabd 0697 e9bd 6dfd f0bd 0623 313e
000001c0: 2747 e4bd 8475 033e 2746 9ebc 237a 723d
000001d0: 0fbb 58bd d7b3 cd3d 6caf a13c f1f6 ffbc
000001e0: 2f94 17be 357f e8bb da40 f23d 764b a03c
000001f0: 0d32 0c3e d5e8 00be a029 613d 7917 a3bd
00000200: 6da4 e1bd 507f 16be b05b 153e a399 e8bc
00000210: 9acb 2e3e fdf0 82bc 2c17 193e 1d88 093e
00000220: e71d a03d 6ee9 c8bd 9ced 1f3e d4ae 3dbc
00000230: c1b4 813d 4a75 2ebc 77a8 293e b876 6e3d
00000240: 11a9 3e3e 0281 51bd b801 05bd c987 143d
00000250: 4dfc 25be 89c7 1abe 8920 f9bd a05e 263d
00000260: 0610 2dbd 1f20 7abb c0ad 19be 1604 203d
00000270: e000 c13d d724 eabd 33bc 7f3d 1e29 853c
00000280: a68d 7d3d 9596 1f3d 6830 38be 8786 c83d
00000290: cc7a 80bd 7b17 f53d c1d7 4f3d 7fb2 763d
000002a0: 20c8 6b3c 98d2 013d 8ea8 4d3d f007 49bd
000002b0: b18d fa3d 3953 243d baf3 473c 8a73 2ebe
000002c0: 27e9 19be 22e1 1abe 8f32 a73d 420d 863d
000002d0: 94a5 ad3d fa65 db3d 0e3e a6bc 8de8 333e
000002e0: f716 c83d a66d b93d 5a47 67bd d44c e23c
000002f0: 481f 11be 65ac 8d3c cb4c 983d 4d9d 853d
00000300: 35ae e53d 4767 333e ebf4 c53d 55ea 3abe
00000310: 82e8 2a3e 2f2a 39be d82b 1a3e 99b1 c2bd
00000320: 850a 81bb 250c e03d aee2 ebbd d32c e93d
00000330: 17a0 be3d 565f 9bbd 24fc 93bd 6a84 fe3d
00000340: 5c3a 94bd 6512 28be 0ead 483c 124b 18be
00000350: 27ec e03c d70b 04be 69b0 9cbd 401c 083e
00000360: a5f5 4c3d 60af e23d b8c9 213e 2322 993d
00000370: 23cf ba3d 8eb3 0cbc 4b2d 283e d61a 4cbd
00000380: e642 89bd 1129 b33d 9264 7fbd 209e f03d
00000390: 94bb cfbd 9419 a13d 8e44 1ebe 2ae4 18bd
000003a0: 7a15 bdbc d71e 48bd cce7 003e af0e 02bd
000003b0: b240 203e 6610 15be 406f 39be 2344 f13c
000003c0: b193 e93d 7a80 6fbc 0205 153e 3a8f e1bd
000003d0: 7d93 21be c770 89bd 552e 643b 7faa bb3c
000003e0: b916 c43d 45a8 76bd b4cd 67bd 925f b7bd
000003f0: 06fb 15be 0062 83bd 96ac 32be 3efc b2bd

emb_net.v_lins1.5.bias f4 [32]
-0.10109108 -0.15952805 0.032300644 0.0948257 -0.053332318 -0.06374465 -0.04584211 -0.10347753
0.05490058 0.17094271 0.11441611 -0.13787946 -0.0008665334 -0.14976236 0.17439342 0.029970717
-0.098768376 0.09410319 0.00021844171 0.076820254 0.025707485 0.056514837 0.0213581 0.124012135
0.05588332 0.037621148 0.011332126 0.10300272 0.04778151 0.06476641 0.13174146 0.09673029
00000000: d708 cfbd 525b 23be ae4d 043d fa33 c23d
00000010: fd72 5abd 8e8c 82bd f0c4 3bbd 07ec d3bd
00000020: 6edf 603d 9b0b 2f3e fe52 ea3d 4630 0dbe
00000030: 1228 63ba 4e5b 19be 3094 323e 2685 f53c
00000040: 1347 cabd 2cb9 c03d 800d 6539 f053 9d3d
00000050: 8198 d23c 1a7c 673d 2ff7 ae3c 13fa fd3d
00000060: e8e5 643d a218 1a3d 62aa 393c 17f3 d23d
00000070: 8bb6 433d 40a4 843d 3ce7 063e 881a c63d
