pretrained/op/op200.pt (torch, 372483 bytes, 230 tensors)

emb_net.v_lin0.weight f4 [32, 2]
00000000: e05d 0c3f 3516 193f a2f7 d9be c5bd cd3e
00000010: 81e0 883e 154f 11bf 8f61 a9be c673 933e
00000020: 787c eb3e dad7 973e 3430 e4be 98a1 1c3f
00000030: 901f 01be 8729 eebe 2bf4 cabe f370 a83e
00000040: 15d7 44be 7674 d4bd 8203 e63d a40e 203f
00000050: 055a 643e 8425 06bf f5c1 f1be 4676 2abf
00000060: dc37 1fbf 9740 353d 33df 2abd 6687 dd3e
00000070: 1c3f 06bf e533 c43e f0b2 de3d 3da5 27bf
00000080: dc18 d43d ec67 863c 1abc 0b3f c428 dcbe
00000090: 2710 c83d ca54 d93e 7487 8a3e 1572 223f
000000a0: a817 06be 69fd fa3e cd9f 2a3f 4fb6 2c3e
000000b0: 3853 333e 131b 093f 930a 913d 94b9 f2be
000000c0: a27d e8be 3887 e8be efb1 45be e071 1bbd
000000d0: 4c65 333c fa0e 41ba 20f9 17bf d3be eabe
000000e0: efc9 bcbc 4e4f e63c 552a f2bd 61aa fe3e
000000f0: bb7c 49be 8007 003f e084 40be b8a9 853c
0.5483074 0.5979951 -0.4257174 0.40183845 0.26733783 -0.56761295 -0.33082244 0.28799266
0.459934 0.2965687 -0.44568026 0.6118407 -0.12609696 -0.46516058 -0.3963941 0.32898673
-0.19222672 -0.10373776 0.11231138 0.6252234 0.22299965 -0.52400994 -0.4721829 -0.6658672
-0.6219461 0.04425105 -0.041716766 0.43267363 -0.5244005 0.38320842 0.10873973 -0.6548651
0.10356304 0.016406976 0.54583895 -0.42999852 0.09768706 0.424475 0.27056468 0.63455325
-0.13094962 0.49021462 0.66650087 0.1686642 0.17512214 0.53556937 0.07082095 -0.4740721
-0.4540835 -0.45415664 -0.19306158 -0.037950397 0.010949444 -0.00073645974 -0.5936451 -0.45848712
-0.023045508 0.028113987 -0.118244804 0.49739364 -0.19676487 0.50011444 -0.18800688 0.01631628

emb_net.v_lin0.bias f4 [32]
00000000: 2378 6e3e 76a4 d33d 3ed5 f13e d6b0 14bf
00000010: 2362 c63e 7b99 113f 7eeb c7be 71fc c1be
00000020: ab75 ee3d 2214 60be 886f 153f 9615 bfbe
00000030: ddeb cabe 00f5 d5bd bcd9 8f3e 7fa3 afbe
00000040: f914 093e 3356 073f fd91 6abe 22da 8cbe
00000050: 2db6 95be 22cf 25bf 4b1f 103f 21d3 9dbe
00000060: 27c8 d83e 9da6 20be a04e 30be 995b 3d3e
00000070: 9612 31be fdd2 9abe 550b 13be 6682 eb3b
0.23288016 0.10334103 0.47233003 -0.5808233 0.38746747 0.5687482 -0.39046854 -0.3788791
0.11643537 -0.2188268 0.5837331 -0.37321156 -0.39633074 -0.10447121 0.28095806 -0.34304425
0.13386907 0.52865905 -0.22907253 -0.27510172 -0.29240552 -0.64769185 0.5629775 -0.3082514
0.42340204 -0.15688558 -0.17217493 0.18491973 -0.17292246 -0.30239096 -0.14359792 0.0071871756

emb_net.v_lins1.0.weight f4 [32, 32]
00000000: bcce d93d bb40 413d 839e 723d b275 07be
00000010: 6733 c9bb 986a 203e de13 053e 5621 d23d
00000020: 453e 093e b426 e9bc a090 ddbd 49b1 b53c
00000030: 1087 063e 9e9d 9ebd 444f 063e 3b1d 9e3c
00000040: c2bc d23d dd53 c83c 0f77 a13d 22f8 b83d
00000050: 78c2 e53d ac61 2bbc 81dd 0a3e ae6d 5abd
00000060: 2615 b23d aeba 3ebd 0e08 153e c8c6 5abb
00000070: e6b5 c53d 0740 30bd c5e8 363d 865e debd
00000080: 9a32 9a3d 3ecf b5bd 48d7 f8bd 5ef0 eb3c
00000090: 29c5 71bd 33e9 ebbd b75c 993c 9628 dc3d
000000a0: 8417 babd 805e 0cbd 663f 8bbd e193 8cbc
000000b0: 9cd7 26bc 8ba1 dabd 0f8f adbd 5cd6 04be
000000c0: 3ecf 2c3d a17c 5dbb 3272 fab9 e180 653d
000000d0: fae7 3a3b fa26 683c 9d0e ecbc aeba 893d
000000e0: f63d 7e3b e2d1 203e db10 dabc f865 e53d
000000f0: 297e c9bc a953 a7bd 8534 cf3d 16ce 8cbc
00000100: 6383 553c bf3a f4bd 0207 16be 3db9 2a3e
00000110: 8540 913d ba8b 07be d8e2 2a3d 6a1b fd3d
00000120: 0fce 8fbd 665e bdbd a819 8fbc 360b 8e3c
00000130: 7141 183e 6b63 653d e90d bd3d 4aef 393e
00000140: 4a40 093d 2b00 0abd 7942 d8bd 3cc3 d0bd
00000150: e8c6 cb3d f9e6 17be ce1b 033e f140 143d
00000160: 5dfb cfbd b3d3 313d f36f 1bbe 2140 2b3e
00000170: f0df 59bd 5178 a23d 9f0b 683d faad 8bbc
00000180: d81a a23d 78c4 75bd 0e5c 8ebd 9251 18be
00000190: 2b0a fabd b14a debd 2449 ccbb 7811 30be
000001a0: 4096 17be c090 213c 9b7e a73d b0b9 c7bc
000001b0: 5430 e83d f0bd fc3d 40c1 6ebc 6d01 fb3d
000001c0: 46c2 87bd a8fb 1a3e ee9b 08be 9a65 ed3d
000001d0: 7ddf d5bd 53ef 9f3d 23d2 33bd 895b 02be
000001e0: 6624 233e dd5b af39 986b ee3d d8b5 0abe
000001f0: f7c9 123d 2e86 d63c f4c8 c8bc 0b24 2fbe
00000200: 47da 153e 699d 143e 5803 173d a66d 8cbc
00000210: 79b2 09be 983c 413d 8736 e43c d8d6 93bd
00000220: e1c3 303e fe4a 05bd 6486 d93d a36b 6abd
00000230: bbbb d03d 6731 01be bdec 033e 3692 10bd
00000240: 7491 913d 58f4 6bbd 9748 b0bd f256 f33b
00000250: 99f0 88bd 1cdd 12bd 3501 c9bd 8e2e 96bc
00000260: 82fd ff3d 91f7 3a3d 27a8 eb3c eea8 a93d
00000270: 66da acbd aa90 64bd 77d9 9cbd eea8 573d
00000280: 9146 d23d 6958 4a3b e871 41bd 628a 0a3d
00000290: 03f4 fa3d 60b9 043d 2113 b3bd d5b2 0cbe
000002a0: efd6 263e c69e 02be eeb0 01be b707 8c3d
000002b0: 7c9c 0abd beea d53d 9b19 b23d 1aad f23d
000002c0: b1e7 f83d 1038 abbd 1b37 2abe dab6 283e
000002d0: fdaa 60bc e58d 233e 04c0 0fbe b698 d53d
000002e0: 2f31 2e3d 8eca 263e 61af 93bd c424 12be
000002f0: faf4 f1bd f137 653c 15d5 213e e044 ec3d
00000300: 8ee5 5b3c c4f0 163d 195b efbc 7f80 47bd
00000310: 9f70 933d 860d 1a3e 5028 183e e70f d63d
00000320: 8dd9 07bd 6491 bcbc 8240 21be ede0 08be
00000330: ccd2 203e 42d8 25be 0579 253d 2edc 133e
00000340: a955 583d f714 e83d 13b3 0cbc b380 c63d
00000350: aa76 203e 17bf 9e3d 70d5 313e 285d dfbc
00000360: fabf 10be 3252 2ebe 856e 2d3e e6a6 d83d
00000370: a00b 9e3d 4b5e 133d cd91 29bd d0e2 d83d
00000380: fe9f 023e a9e0 9a3d b4d9 69bd 2269 0f3b
00000390: 96a1 183e 0d44 93bd e7de 09be 5c9b 6bbd
000003a0: 667b 903d 50a0 1a3e 91fe 633d 1616 63bd
000003b0: 4101 b0bd 4c38 b7bb 6e0c 0abe 1740 be3d
000003c0: 6f37 b03d 1b98 16bd c7f4 773d e5b6 c63d
000003d0: 3139 093e a0f1 7c3c 84cc fe3d e75c 23bc
000003e0: 31a7 00be 52f8 8b3d 000b 153e bfc3 1e3e
000003f0: 8ee2 933d 1dcc f5bd ccb9 8cbd c928 0e3e
0.106351346 0.047180872 0.0592332 -0.13228491 -0.006140161 0.15665662 0.1299586 0.102602646
0.1340266 -0.028460838 -0.10818601 0.022179263 0.1313746 -0.07744907 0.13116175 0.019301048
0.10289909 0.024454052 0.07884037 0.090317026 0.112187326 -0.0104602985 0.1356106 -0.053327255
0.0869544 -0.04656475 0.14553854 -0.0033382643 0.09653835 -0.04302981 0.04465558 -0.10857873
0.07529183 -0.08877419 -0.12150437 0.02880114 -0.059025917 -0.115190886 0.018720968 0.10749929
-0.090865165 -0.03426981 -0.06799202 -0.017160358 -0.010183241 -0.10675343 -0.08474552 -0.12972397
0.04218983 -0.0033796208 -0.00047768798 0.05603111 0.0028519616 0.014169449 -0.028815562 0.067250594
0.0038794256 0.15705064 -0.026619365 0.112010896 -0.02459629 -0.08170254 0.10117439 -0.017188113
0.013031813 -0.119252674 -0.14651111 0.16672225 0.07092384 -0.13236895 0.04172024 0.123587444
-0.070217244 -0.09246521 -0.017468289 0.01733933 0.14868714 0.056003015 0.09231169 0.18157688
0.033508576 -0.033691566 -0.10559554 -0.10193488 0.09950048 -0.14834203 0.12803575 0.036194745
-0.101553656 0.043414783 -0.15179424 0.16723682 -0.05319208 0.07933105 0.056651708 -0.017050732
0.07915276 -0.06000182 -0.06951152 -0.14874867 -0.12208971 -0.1085409 -0.006234305 -0.17194164
-0.1480341 0.009861171 0.08178445 -0.024380535 0.11337343 0.12340915 -0.014572442 0.12256131
-0.066288516 0.15135062 -0.13340732 0.115916446 -0.10443018 0.07809319 -0.043901574 -0.1273023
0.15931854 0.00033447045 0.11641616 -0.1354593 0.03583714 0.026187029 -0.024509884 -0.17103593
0.14634047 0.14513172 0.036868423 -0.017142128 -0.13446988 0.047176927 0.027858032 -0.072187126
0.17262222 -0.03254222 0.10621336 -0.057231557 0.10192057 -0.12616502 0.12883277 -0.035295688
0.07107821 -0.05760607 -0.086075954 0.007426136 -0.06686515 -0.035855398 -0.09814683 -0.018332746
0.12499525 0.045646254 0.028766705 0.08284174 -0.08440094 -0.055802025 -0.076586656 0.05265134
0.10267366 0.003087545 -0.04722777 0.03382338 0.12253573 0.03240335 -0.08743883 -0.13740094
0.16292928 -0.1275588 -0.1266515 0.06837409 -0.03384064 0.10445164 0.0869629 0.11849423
0.12153567 -0.083603024 -0.16622584 0.16476002 -0.013712642 0.15972097 -0.14038092 0.10429518
0.042527374 0.16288206 -0.07211185 -0.14271837 -0.11814304 0.013990388 0.1580394 0.11536574
0.013421429 0.036850706 -0.029218243 -0.048706528 0.07199215 0.15044221 0.14859128 0.10452252
-0.033166457 -0.023018546 -0.15747264 -0.13367052 0.15705413 -0.16195777 0.040398616 0.1443946
0.052816067 0.11332124 -0.0085876165 0.09692516 0.15670267 0.07751291 0.17366576 -0.0272661
-0.14135733 -0.17023543 0.16936691 0.10578708 0.07717061 0.035978597 -0.041398812 0.10590136
0.12756345 0.07562382 -0.057092384 0.0021882732 0.1490539 -0.07190714 -0.13463937 -0.05752121
0.070547864 0.15100217 0.055662695 -0.055440985 -0.08593989 -0.005591428 -0.13481304 0.09289568
0.08604323 -0.036766153 0.060536172 0.09702853 0.13400723 0.015438467 0.12441352 -0.00997088
-0.12563778 0.06834473 0.14554977 0.15504359 0.07220946 -0.12001822 -0.068713754 0.13882746

emb_net.v_lins1.0.bias f4 [32]
00000000: c943 8cbd 9ca9 f9bd afbc 9a3d 1205 a0bd
00000010: 2b71 06be 5871 833d 91be 35be 17ae 2f3e
00000020: 5802 903d c00d d73d 1366 cabd d2c4 083e
00000030: 6708 fa3d 8101 853d aab9 fdbd 64f4 c33d
00000040: d1f0 303e 063c 693d 8d7e 353d 2a1d 69b9
00000050: b2c7 a3bc 2511 d13d 8e03 5fbd b0dc df3d
00000060: d4f3 0cbe 6ebe 613d d7a2 1bbe 1062 86bd
00000070: b61e 22bd 5800 ffbd 026e b8bd 2be8 f0bd
-0.068488665 -0.121905535 0.0755552 -0.07813467 -0.13129108 0.06418103 -0.17748477 0.17156254
0.07031697 0.105006695 -0.0988275 0.13356331 0.12208634 0.064944275 -0.12388928 0.09568098
0.17279364 0.05694201 0.04431014 -0.00022231476 -0.019992683 0.10208348 -0.05444675 0.10930765
-0.13764888 0.05511325 -0.15198837 -0.06561673 -0.03958007 -0.124512374 -0.09005357 -0.117630325

emb_net.v_lins1.1.weight f4 [32, 32]
00000000: a638 9b3d ab54 223e c73b 5cba c0e6 783d
00000010: c0e7 ddbd bab0 3abd 2e7e 2bbe 90e6 033d
00000020: ddb8 cdbd 6776 133e e031 a2bd 22ce d7bd
00000030: 906a 08be 0abd 213e a59c 173e c689 1dbd
00000040: d8f8 313e 1cad 11be 9ef1 a8bd a6a0 c33b
00000050: c1e3 173d 748b 5ebc aed0 0d3e 3af5 1b3e
00000060: bcdc 043e 30df 163e dd93 e6bd a68d 103e
00000070: 4629 083d a400 33bd 8f18 dc3d bc6d 22be
00000080: 2ff7 aabd 1f2a 0d3e d992 bcbd ba48 39bc
00000090: fa5d adbd ecb1 2cbd dd59 953d 4a4b 82ba
000000a0: 5d61 6c3d 2cd5 bebd 15af 313e 61bb bd3d
000000b0: 6bc9 6e3d f563 1bbe f051 653d 7b2a 35be
000000c0: 324d d7bc 1118 883c 47cb 58bd 65af 9bbd
000000d0: b8fe f238 8ce6 dabd 7f7f 9c3d 58dc 483d
000000e0: 93f7 813d 21e3 d73d d954 95bd ec04 fa3d
000000f0: 2d1c e13c cb0d 063e a392 e0bd 0231 a43d
00000100: 4626 bb3c 296a f0bc d8e9 123e b87e 16be
00000110: d2ac d73d de5c c13d 9d48 e43d 31fd 9ebd
00000120: d24e a03d 32f7 dd3d 72f8 f8bd 0fcb afbc
00000130: 0d0c 2ebe 8726 0ebe adb4 2fbe fb4a 123e
00000140: 26a1 99bd 8c1b 0bbd ef19 03be ab1c 8f3d
00000150: 839d b4bd f2e0 45bd c9e8 de3d 4aeb 83bd
00000160: 83c0 8dbd 4408 713d d09f 183e 67de f0bc
00000170: 9f7b f5bb 312b 26bc c51a b3bd 7f04 7dbc
00000180: cf59 b73b 5e57 3dbd 335a a23c b101 003e
00000190: bbe0 22bd 13dd 28be 0006 60bc 3f83 d53d
000001a0: ef8f ee3c 58ea 54bd 40fb ff3d a651 1dbe
000001b0: ad90 28be baa6 6f3c fb71 0cbe 749b 81bc
000001c0: c844 a53c 4890 1c3e 88a8 17be c9c6 963d
000001d0: 14b0 1c3e 2bcb 01be c165 66bd 7ffe 26bd
000001e0: 18af 7b3d ab60 0bbe e6fe 0b3c 30b6 06bd
000001f0: b22f f2bd be6f 173e a7e1 1f3e 7029 0cbe
00000200: a868 babd 6751 3b3e a5cf 943c bf3d 7d3b
00000210: 5956 8cbd 300d 0bbc 6f18 153e 77ee 9abd
00000220: c619 da3d 3165 af3d d989 b7bc 6070 2e3e
00000230: aaa2 a6bd 4211 2c3e 0c13 ba3c 7ae7 0e3e
00000240: 33cf 12be edf1 9d3d 2e91 0c3e 3a7b babd
00000250: e4db c63c 134a eb3d 28b8 09be 5ee0 d33d
00000260: 2850 08be 81f7 d03d 5207 1b3d 0c38 7ebd
00000270: e350 8cbd b9f7 853d ca66 0abc 3d9e e53d
00000280: c60d b03d 13d3 22be 610f 203e 1639 c23b
00000290: 102b c13d 9697 573d 4b11 fe3d 473c debd
000002a0: cd93 313e dded a73c c76d 073e c041 37be
000002b0: b75a a1bd fce1 003e 5a14 11bc 9086 f0bd
000002c0: 84a8 673c c05b ae3d 495c 1f3e 537a d83d
000002d0: 92b1 f2bd cfbd 22be dd63 1a3e 15ce ffbd
000002e0: a92a e83d e1f7 d3bd 37a1 0c3d 2a71 c4bd
000002f0: fd31 17be 00fa 01be 98bb 1cbe 4d96 edbd
00000300: 5ca1 23be 38b2 5bbb e7cb 15be e9c1 8e3d
00000310: 6eb2 15be babb ae3d 89f7 ffbd 2c5a ddbd
00000320: e09c b3bd 9f10 953b 95fa ae3c 3675 933c
00000330: 91e7 bf3c 0f19 02be 7798 2c3d b309 23be
00000340: 401b 133e a5f6 e53d 66c7 223e da3d e43d
00000350: 0434 073e a266 1f3e 01f3 bebd 2e64 9c3c
00000360: f5c3 113d 2e4c 24be aa6e c43c 55fc c4bd
00000370: 5fe9 abbd 085b 3abe 85ce c7bd c15c dc3d
00000380: f37c 093e 47ea 2d3c 1dd5 a63c 7933 cc3c
00000390: 35e5 d73c 08c3 33bd e0c6 78bd a438 cabd
000003a0: 6111 84bd 9369 b7bd b3c1 29be 6c92 adbd
000003b0: 96d1 47bd e835 303e 2aec efbd 8e72 17be
000003c0: a250 863d e648 a13c 7060 3d3d ba19 8abc
000003d0: 2023 a33c 1f6c afbd 81b3 1f3e 7ffe a73c
000003e0: 9db7 21bd c3b5 c5bd e09e 263e 4f4c 1dbe
000003f0: f2f6 c9bd a9a1 343e c325 06bd 91cd c73d
0.07579164 0.15852611 -0.00084012415 0.060766935 -0.108352184 -0.045578696 -0.16747352 0.032202303
-0.100450255 0.14400636 -0.07919669 -0.105373636 -0.133219 0.15794769 0.14805849 -0.03846147
0.17380083 -0.14226192 -0.0824921 0.0059700785 0.037082437 -0.013583053 0.13849136 0.15230265
0.12974828 0.14733577 -0.112586714 0.14116535 0.033242486 -0.043701783 0.10746872 -0.15862173
-0.08347928 0.13785599 -0.092076965 -0.011308843 -0.0846519 -0.042161867 0.07292531 -0.0009940651
0.05771004 -0.09318003 0.17351945 0.09264255 0.058297556 -0.1517485 0.055986345 -0.17691986
-0.026281927 0.016613038 -0.052928235 -0.07601813 0.00011586904 -0.106885046 0.076415055 0.04903826
0.06346049 0.10541368 -0.07291574 0.1220797 0.027479256 0.13091199 -0.10965469 0.0801716
0.022845399 -0.029347496 0.14347017 -0.14696777 0.1053101 0.09441541 0.111466624 -0.07763136
0.07827534 0.108381644 -0.12156762 -0.02145913 -0.16996785 -0.13881885 -0.17158766 0.14286415
-0.0750144 -0.033961818 -0.12802862 0.0698789 -0.088191055 -0.048310228 0.10884244 -0.06441362
-0.06921484 0.058845773 0.14904714 -0.029402925 -0.0074915434 -0.010142134 -0.0874534 -0.0154429665
0.005595423 -0.046225898 0.019818401 0.12500645 -0.0397651 -0.16490583 -0.0136733055 0.10425424
0.029121367 -0.0519813 0.12499094 -0.15363178 -0.1646144 0.014627153 -0.13715355 -0.015821196
0.020174399 0.15289414 -0.14810383 0.07362134 0.15301543 -0.12675159 -0.056249384 -0.04077005
0.06144628 -0.13611095 0.008544659 -0.03288859 -0.118255034 0.1478872 0.15613423 -0.13687682
-0.09101993 0.18292771 0.018165419 0.003864154 -0.06852407 -0.008487031 0.14560102 -0.07565015
0.10649447 0.085642226 -0.022404598 0.17035055 -0.081364945 0.16803458 0.02271416 0.13955489
-0.14336853 0.07712159 0.13727257 -0.09105535 0.024274774 0.11488738 -0.13449156 0.10345529
-0.13311827 0.102034576 0.037848778 -0.06206517 -0.068513654 0.0654139 -0.008447358 0.11211822
0.08596377 -0.15900831 0.15630867 0.0059272153 0.09432042 0.052634798 0.12405642 -0.10851341
0.17341538 0.020499164 0.1322547 -0.17896175 -0.078786306 0.12586206 -0.00885495 -0.11744416
0.014139298 0.08513594 0.15562548 0.105702065 -0.11850275 -0.15892719 0.15077157 -0.12490479
0.11336262 -0.103500135 0.034333434 -0.09591897 -0.14765163 -0.12693024 -0.15305936 -0.11600933
-0.15979522 -0.0033522975 -0.14628564 0.06970579 -0.14618847 0.085319 -0.124983855 -0.108082145
-0.08770156 0.0045491005 0.021359721 0.018000226 0.02342585 -0.12704872 0.04213759 -0.15921669
0.14365864 0.11228684 0.15896377 0.1114461 0.13203436 0.15566495 -0.09323693 0.019090738
0.03558727 -0.16044685 0.02397855 -0.09618441 -0.083941214 -0.18198788 -0.09756187 0.10759879
0.1342657 0.010614938 0.020365292 0.024926888 0.026354412 -0.04388717 -0.060736537 -0.098740846
-0.06448627 -0.089556836 -0.16577797 -0.084751934 -0.04878386 0.17208064 -0.117149666 -0.14789793
0.06558348 0.019688081 0.046234548 -0.01685797 0.01991421 -0.08565544 0.15595819 0.020507095
-0.039481748 -0.09653809 0.16271544 -0.1536114 -0.09861554 0.17639793 -0.032750856 0.097560056

emb_net.v_lins1.1.bias f4 [32]
00000000: 1c32 34be 6f99 33bb 9253 f2bd c1bd bbbd
00000010: ee48 ba3d 2ee5 d23c b37b 8fbc 1c5c 35be
00000020: 3206 c0bd a404 fdbd 76ab 1eba 1c7f e23c
00000030: 6e62 703d 44bc 0dbd 7402 043e 010e 09be
00000040: 5fdc 31bc f612 5dbc 305d 563d 4eec d7bd
00000050: 294c 37be bdd4 1bbe 1dde 9b3d efa0 13bd
00000060: ca9d 113e b63e 0b3e 3b72 0bbe 880b 70bd
00000070: 2e9a 39bd aa08 08bd 077e 903d cf52 c63d
-0.1759724 -0.0027404686 -0.11832346 -0.09167052 0.090959415 0.025744047 -0.01751504 -0.17710918
-0.09376182 -0.12354401 -0.00060527714 0.027648501 0.05868762 -0.034603372 0.12891561 -0.13384248
-0.010855763 -0.01349329 0.052334964 -0.105431184 -0.17900147 -0.15217872 0.07610724 -0.03604215
0.14220348 0.13598141 -0.13617794 -0.058604747 -0.045313053 -0.033211388 0.07055288 0.09683763

emb_net.v_lins1.2.weight f4 [32, 32]
00000000: 72dc d6bd ea9e 8dbd efb9 283d 5c3b 62bd
00000010: fe58 c4bb 05b9 d0bd 482d 05be e059 c53c
00000020: 0dba 48bd 3fe6 733c d03a a9bd f09c 03be
00000030: 4434 8cbd 003c 3ebe 2bf8 0f3e eabb a4bd
00000040: 50e1 9b3c 2ffb 063e ceed 65bd cb51 be3d
00000050: 8a25 1fbd d15a 063e f7f0 a93d 91b8 6e3d
00000060: dedb 40bc b79d 373d 445c 19be d836 fabd
00000070: 680f 33be 8aea d23d 31bc 77bb 5a06 153e
00000080: 5c22 d83c f969 063e a048 e2bd b36b 30be
00000090: 45c2 d33d 0b9f 9e3d c4ef 28be 5e0b e2bd
000000a0: 1385 263d 604f 643d d708 dd3c eaf0 0c3d
000000b0: b6ee d33c f875 de3d 6e5d e1bd 142d 9fbc
000000c0: 6c4c 873d aab0 3fbe fdca acbd b20d b0bc
000000d0: d058 9fbd 911e 183d b0f4 7d3c 72b0 d33d
000000e0: cd01 203e 29f3 8fbc 4e12 f03d cb3f a6bd
000000f0: 82ed 2d3d 223b 113e 8037 253e daf2 963d
00000100: 2d0d 2dbe 4243 32be 8b7f ba3d a7cd b7bd
00000110: 183d 923b 3006 afbc 1cc8 bcbc 5d2b c1bd
00000120: 8be5 39be 8cf5 05be 6117 803d 6842 363e
00000130: 34e6 f13d bb14 16be 1a58 10be 0c3c 203d
00000140: f36c 863d a1b6 073e a12c fc3d 7d9a d0bd
00000150: 4c13 f4bd f464 813d f1f3 96bc 43dd 1cbe
00000160: f73f a93d 9a2b 233e af62 4dbd 19f6 00be
00000170: dd23 a1bd 144f 72bd 15c7 d13c 0dab 0bbe
00000180: 6298 943c 69e8 1ebe 7a6f fabd 1a64 063e
00000190: 0e50 e8bd 0e16 1ebe 2265 fc3d c8ff 16bd
000001a0: 944b 7439 fe50 273e bda6 1cbe b3cf e83d
000001b0: bf35 c7bc b6b9 3dbd 9cc8 1c3e a170 8c3d
000001c0: 3838 e3ba 282a bc3d ab74 843d 3cf7 943c
000001d0: e3cd 163e 7315 f1bc bf6f 5cbd 3d70 09be
000001e0: f659 133e 4fe9 80bd 9da5 2cbc e158 9bbd
000001f0: 9b87 1f3e c2dc 543d e39c ecbc ce15 bcbd
00000200: d496 52bd b37e 283e 9d8e aabc fd20 69bd
00000210: 962b 3bbd f342 1c3e 730d 0abe 5094 323e
00000220: 290b 56bd be75 9ebd d55f 193e 46df b03d
00000230: 23ca 053d fe41 92bd 8455 b5bd dedc 9fbd
00000240: 5633 ecbd 2853 123e de41 2bbe 0433 213e
00000250: 1de9 e2bd e32b 50bc df52 58bd 66d0 5d3d
00000260: 2b42 09be 883e 693a cec8 23be 1c76 28be
00000270: 133c c93c 9744 98bc e0c1 0abd d253 7cbd
00000280: 7c7a 0fbe 8c39 1f3e 5317 d3bc 5c1b c43c
00000290: 58d9 e8bd 4db2 fd3d 5309 1c3d 6660 37be
000002a0: 3ee7 45bd 38fc 253d f927 f5bb 606a ecbd
000002b0: e477 c03d 331b cf3d 5e77 3b3c 1343 d83d
000002c0: 554e b0bd 3b3a de3d 7cce d1bd b555 123d
000002d0: 9954 a33d b85b 02be 267c 05be ce6b 03bd
000002e0: dd60 ee3b 51a1 ecbd c53e d23b d6bb 4f3c
000002f0: 795e 31be 71d1 0dbe 2c45 3abd 9dfa 0dbe
00000300: 107d 1f3e 4bce dcbd c87f da3d c867 f6bb
00000310: 457c b23d 62f7 2ebe d8bf 6dbb 36a1 853a
00000320: eb99 113e 7b9c f13d 9913 133e ca68 96bc
00000330: 7521 e23d 9b4e c63d 68bf 87bd 8c93 9c3d
00000340: a8f5 f4bc eede 6f3b 3572 1ebe 0bb1 87bd
00000350: e35d e43c 20c9 08bd d489 1cbd 8271 7bbd
00000360: 06d6 383d 7a20 d13d 4c67 db3d 9c50 07be
00000370: 21a5 1c3e 8191 bbbc 33c2 013e 36be ab3d
00000380: 768a 133e 67df bfbc 0c55 20bc ca64 8cbc
00000390: 258e f5bd c930 93bd aef8 1d3e a137 26bd
000003a0: 7a94 1fbe ef8b 34be 9d47 eb3d fb3b 26be
000003b0: ff8e edbd 009f 3abd 7c3d 11be 305c 093d
000003c0: cf72 0dbd c83a c1bd 2e5f 173c e8b8 373d
000003d0: 2e6d 08be a00d 223d 473f d13d 095b 0bbe
000003e0: bfc9 32be c41c 36be d967 103e 37d6 dfbd
000003f0: e362 313d 9410 03be a730 66bc 1f73 823c
-0.10491265 -0.06915076 0.041192945 -0.05523239 -0.005992054 -0.1019154 -0.13005555 0.024090707
-0.049005557 0.014886438 -0.08263171 -0.12852836 -0.068459064 -0.18577576 0.14059512 -0.08043654
0.019028336 0.13181756 -0.05613499 0.092929445 -0.03885416 0.13120581 0.082979135 0.058281485
-0.01177117 0.044828143 -0.14976603 -0.12217492 -0.17486346 0.10298641 -0.003780138 0.14553204
0.026383571 0.13126363 -0.11049008 -0.17228584 0.10339788 0.07745179 -0.16497713 -0.11037324
0.040654253 0.05573976 0.026981754 0.03440944 0.025870662 0.108623445 -0.110041484 -0.019430675
0.06606373 -0.18719736 -0.084371544 -0.021490905 -0.077806115 0.037138525 0.015500233 0.10336389
0.15625687 -0.017572002 0.11722241 -0.08117636 0.042462833 0.14182714 0.16134453 0.07370539
-0.16899557 -0.1740847 0.09106358 -0.08974772 0.0044628493 -0.021365255 -0.023044638 -0.09432099
-0.1815397 -0.1308195 0.06254459 0.1779877 0.11811486 -0.14656346 -0.14096108 0.039119765
0.06563749 0.13253261 0.123132 -0.10185716 -0.11917743 0.063180834 -0.018426867 -0.1531878
0.082641535 0.15934601 -0.05014294 -0.12593879 -0.078681685 -0.059157446 0.025607625 -0.1363947
0.018139068 -0.15518345 -0.12228294 0.13124123 -0.11343394 -0.154381 0.12323977 -0.036865026
0.00023297808 0.1633949 -0.1529798 0.113677405 -0.02431762 -0.046319686 0.15310901 0.0685742
-0.001733548 0.09187728 0.06467565 0.018184297 0.14726977 -0.029429173 -0.053817507 -0.13421722
0.14389786 -0.062945 -0.010537532 -0.07585312 0.15579073 0.051968344 -0.028883403 -0.091838464
-0.051413372 0.16454582 -0.020819956 -0.056916226 -0.045695864 0.15259914 -0.13481693 0.17439389
-0.052256737 -0.07737301 0.14977963 0.08636336 0.032663476 -0.07141493 -0.088542014 -0.07805799
-0.11533229 0.14289534 -0.16724345 0.15742117 -0.11079619 -0.012705776 -0.052813407 0.054153822
-0.13404147 0.00088975625 -0.1599457 -0.16451305 0.024564778 -0.018587394 -0.0338763 -0.061603375
-0.14011568 0.15549296 -0.025767958 0.023938827 -0.1136958 0.12387524 0.03809483 -0.17907867
-0.048316233 0.040523738 -0.0074815718 -0.11543727 0.09397867 0.1011261 0.011442034 0.105596684
-0.08608691 0.1085095 -0.10244462 0.035726268 0.0797512 -0.127303 -0.1303564 -0.032085232
0.0072747306 -0.11554206 0.006416174 0.012679061 -0.17321195 -0.13849427 -0.045476124 -0.13865133
0.15575051 -0.10781535 0.106689036 -0.007519696 0.08715109 -0.17086557 -0.0036277678 0.0010195139
0.14218871 0.117974244 0.14362945 -0.018360514 0.11041538 0.096829616 -0.06628305 0.0764533
-0.029902294 0.0036601382 -0.15473254 -0.06625565 0.0278768 -0.033394933 -0.03821738 -0.061387546
0.045125984 0.102112725 0.10713062 -0.13214344 0.15297367 -0.02289653 0.12671737 0.08385889
0.14408287 -0.023421956 -0.009785902 -0.017137904 -0.119900025 -0.071870394 0.15426895 -0.040580396
-0.15583983 -0.17631505 0.114882685 -0.16233818 -0.1159954 -0.04556179 -0.1418361 0.033535182
-0.034533318 -0.0943504 0.009239001 0.044854075 -0.13322899 0.039563775 0.10217147 -0.13608946
-0.17459773 -0.1778441 0.14102115 -0.1092953 0.043307196 -0.12799293 -0.014049686 0.015924035

emb_net.v_lins1.2.bias f4 [32]
00000000: b742 e43d 6199 d0bb edfc dbbc e4d4 3bbd
00000010: 765c 0bbc 1b87 8d3c ad00 a73c 735e 843a
00000020: be57 d9bd 41b4 c6bc 8efb 313d b96d c33d
00000030: 568c 053b 24ac 023e 08a3 8cbc fdd0 2bbe
00000040: 2e8c edbd 7e1a f93d 4aa5 a73c be50 80bd
00000050: bd16 bd3c c6ab f53d bf2b b63d b81b fdbd
00000060: 67cb f8bd de31 2e3e 48d2 aabc d61f 0b3d
00000070: 1d34 f1bd 46e9 98bd 1898 1a3e 41d0 843d
0.11145537 -0.0063659404 -0.026854003 -0.045857325 -0.008505931 0.017276337 0.020386064 0.0010098949
-0.106124386 -0.024255874 0.043452792 0.09542412 0.0020377836 0.12760979 -0.017167583 -0.16778941
-0.11599003 0.12163256 0.020464558 -0.062654 0.023082132 0.11995654 0.08895063 -0.123588026
-0.12148171 0.1701121 -0.020852223 0.033965908 -0.11777518 -0.074663684 0.15097082 0.06485034

emb_net.v_lins1.3.weight f4 [32, 32]
00000000: 1757 90bd c01b 7d3c 7d9b 85bd 3c4a 33be
00000010: b556 3fbd af9f 08be 2635 a43d d39c cbbd
00000020: 2e56 af3d deeb 06be 88f6 1e3e 4554 9e3d
00000030: 78f3 adbd 98d4 9cbc 46e4 9ebd 711c 72bd
00000040: cf14 88bd 2d22 d4bd 1c63 e4bb 9e74 75bd
00000050: de2d 3fb9 0b52 b53d 3dcb 37be 46c7 5e3d
00000060: 56d1 093e 3105 ee3d 4031 34be 27be f13c
00000070: d0f1 113e 9eef 2a3e 0233 0cbe 4273 853d
00000080: 1018 b8bd 9aee f43d b6d0 ccbc f6ef 83bd
00000090: e87a 12be f475 203d 2084 43bc f86d ba3d
000000a0: 5ca1 b23d 2580 ccbc f8f4 25be 4147 3bbe
000000b0: b05f b1bd 8d31 c13d c3a2 14bc a7c4 5fbd
000000c0: 6133 3fbc e424 d53d 89c5 e83d 1467 25be
000000d0: 29b3 cdbd dbca 81bd 1e27 4fbd 0826 edbc
000000e0: 941f e43d 95a7 14be 66b8 e7bd 9323 f3bd
000000f0: 2a80 abbd a8f9 a4bd d158 7ebd 4376 0ebe
00000100: 3072 12bd 0ac9 b4bd e7b0 78bd afc9 183e
00000110: 6833 f1bb 6c5c 7dbc 8b04 c83d f061 fcbd
00000120: 324c 693c 34e1 25be 1557 d33c 9a4c 5dbd
00000130: 1976 8dbd c46f a23b 36d8 823c 5111 4e3d
00000140: 3849 d83d 1140 0bbd 29c5 033e d592 d63d
00000150: 66c8 e2bc 718b bbbd 4d95 24be e653 973d
00000160: 3493 783c 7dca 723d 2679 1b3e 4e51 093e
00000170: e609 453e a7e5 913d fdd7 043e 1732 973d
00000180: e54b 11be 447a 30bc 2052 8fbd d7f4 053d
00000190: 9c6f 1bbd 499f d63c d357 2c3d 6e7d 7abc
000001a0: f59a fc3d 9cf7 543d 02c7 d6bc 2732 273e
000001b0: 33e7 f53c efc6 14bd 746d 08be 6a62 9a3d
000001c0: ec76 f7bd 70b7 97bd a1e2 303d 44b5 bfbd
000001d0: a3c1 4c3d af0d 2abe 5da5 9bbc 97d0 0abe
000001e0: 1e6d 1abc 5d2c 41bd 3317 fcbd edb1 a3bd
000001f0: cef1 05be b967 163d ada8 35bd f2b6 25bc
00000200: 5416 e93d be4e ac3d fc9a 97bd 7efa 393d
00000210: 2f09 09be 64f9 a4bd 1bdf 853d 21b2 333e
00000220: 02f4 283e 06bf 82bd 4f65 ca3d 49a8 583d
00000230: d236 63bd 8fe2 9fbc 9b87 0ebe eae6 1bbe
00000240: 80dc e33d 0ced c73c f507 25be f43c a4bd
00000250: e00c 5e3d 19ac 17be 0731 153d 4245 bebb
00000260: e597 45bd be42 89bd 4b38 0dbe b5f9 f7bd
00000270: 8eb9 ee3c 52d5 9f3d 0a31 f93c 807e bb3d
00000280: aede 823d f3b1 313e d58b 983d ce46 d03d
00000290: b9d9 443d e4f2 ea3d e81a d3bd d695 b73d
000002a0: 7ff9 023e 602c 363e 7082 d8bd 6f9c 61bc
000002b0: 8757 c5bd 70d5 69bc 6fb9 94bd 7ef2 a73b
000002c0: 2643 11be 12bf ce3d 9e60 493d dfcc 20be
000002d0: 4c48 e8bd 7a24 383d b36c 6d3d 4049 a23d
000002e0: f1ba 8a3d 0213 9d3c e49b eebd f04b b8bd
000002f0: bd9c 5fbd 11c2 1bbe ac2a c0bd 2a75 b3b9
00000300: f595 e03d 6509 153e 2d10 dabb 2ff2 54bd
00000310: 05b2 43bd 59f6 73bc e089 1e3e eca5 20be
00000320: a4df f1bd d899 8d3b 15cd bf3d 32e6 11be
00000330: 65db fbbd ea4a 60bd 1ca8 eb3d f35d 033e
00000340: 4e44 37be 213c 2bbe 81b3 cd3d 1254 f0bd
00000350: b303 503d bc37 2dbd 4b61 d1bd 9547 203d
00000360: 1b0c 89bd 8efd 07be f8d5 003d 31ce d43c
00000370: de64 34bd 4ae5 6cbd e7ec dd3d af75 be3d
00000380: a613 dbbd 87ce a6bd daf2 9b3d 1f94 173e
00000390: 8e76 a33d 36ce d63c f3f7 043e c8ed b5bd
000003a0: 8782 1b3e dab0 51bb 08cc 953d fa49 d23c
000003b0: 3d30 903c db9a 513d c7e1 8dbd d5e3 b13d
000003c0: d7d6 b53d df79 eb3d f2a2 133e 8bbd 163e
000003d0: 910c 19be e36d ae3d 70fe 25bd 2c41 08be
000003e0: 1c2a c03d e2ca 013e 3423 253e 8851 6dbd
000003f0: 2317 263e 0dff 3fbc 8737 4dbd 880b c53d
-0.07047861 0.015448511 -0.06523798 -0.17508787 -0.04671355 -0.13342164 0.0801795 -0.09942021
0.08561359 -0.13175914 0.15523732 0.07730917 -0.084937036 -0.019144341 -0.077583835 -0.059109155
-0.06644594 -0.10358081 -0.0069698226 -0.059925668 -0.00018232266 0.08853539 -0.17948623 0.05438926
0.13458762 0.11622084 -0.17596912 0.029509617 0.142524 0.16692969 -0.13691333 0.06516124
-0.089889646 0.11959572 -0.025001865 -0.06442253 -0.14304698 0.03917499 -0.0119333565 0.09103006
0.08722183 -0.024963448 -0.1620673 -0.182889 -0.08660829 0.09433279 -0.009072009 -0.0546309
-0.0116699645 0.10407427 0.11365802 -0.16152602 -0.10043938 -0.0633752 -0.050574414 -0.028948799
0.111388355 -0.14517052 -0.11314468 -0.118720196 -0.08374055 -0.08055431 -0.06209642 -0.13912301
-0.03575343 -0.08827408 -0.060715582 0.14920686 -0.0073608644 -0.01546393 0.097664915 -0.123233676
0.014239358 -0.1619919 0.02579836 -0.05402813 -0.06907291 0.004957171 0.015972238 0.050309483
0.1056084 -0.033996645 0.1286818 0.10477225 -0.027683448 -0.09157456 -0.16072579 0.07389049
0.015171815 0.05927514 0.15182933 0.13409922 0.19242057 0.07123881 0.12973018 0.07382601
-0.14189108 -0.010771338 -0.06998086 0.0327042 -0.037948236 0.026199 0.042075943 -0.015288694
0.12334243 0.05199395 -0.026217941 0.16327725 0.030017471 -0.03632253 -0.13323003 0.07538302
-0.120832294 -0.07408035 0.04318488 -0.093607455 0.049989354 -0.16606782 -0.01899975 -0.13556133
-0.00942543 -0.04716145 -0.123091124 -0.07992921 -0.13080522 0.03672001 -0.044350315 -0.010114418
0.11381212 0.084134564 -0.07402608 0.045404904 -0.1338241 -0.0805538 0.065366946 0.1754842
0.16499332 -0.06384091 0.09882604 0.052894864 -0.055472203 -0.019517211 -0.13918917 -0.15224805
0.111260414 0.024405025 -0.16116317 -0.080194384 0.054211497 -0.14811744 0.03642371 -0.005806596
-0.04824056 -0.06702183 -0.13791005 -0.12108175 0.029141214 0.078043595 0.030418891 0.09154987
0.06390129 0.17353038 0.07448546 0.10169755 0.0480592 0.11472109 -0.10307866 0.08964126
0.12790488 0.17790365 -0.10571754 -0.013770207 -0.09635835 -0.014272079 -0.07261931 0.005125343
-0.14185771 0.100950375 0.049164407 -0.15703152 -0.113419145 0.04495666 0.05796499 0.079241276
0.067739375 0.019174103 -0.116508275 -0.08998859 -0.054592837 -0.15210749 -0.09383139 -0.00034228835
0.10966102 0.14554365 -0.0066547603 -0.051988777 -0.047777195 -0.014890277 0.15482283 -0.15688294
-0.11810234 0.004321318 0.09365288 -0.14247969 -0.122977056 -0.054758944 0.11506674 0.12828808
-0.1789715 -0.16722156 0.10044003 -0.11734785 0.050784778 -0.04228948 -0.10223635 0.039130766
-0.06691762 -0.13280317 0.031454057 0.025977226 -0.044041507 -0.057835855 0.10836201 0.0929979
-0.10697107 -0.08144861 0.0761468 0.14802597 0.07981597 0.026221376 0.1298521 -0.08883244
0.15186511 -0.003199628 0.073143065 0.02567004 0.017601127 0.051173072 -0.06927829 0.08686034
0.08878868 0.114978544 0.14417627 0.14720742 -0.149462 0.08517053 -0.040525854 -0.13306111
0.09383032 0.1267505 0.1612671 -0.057939082 0.16219763 -0.011718524 -0.050101783 0.0962134

emb_net.v_lins1.3.bias f4 [32]
00000000: 9d44 dd3d 8f7c ffbd b0af ecbd 04aa 1dbe
00000010: e154 41bd 3047 d7bd 14cf e33d 230d e1bc
00000020: eaf3 23be 76a8 d73d c184 783c c3cd fcbc
00000030: 08ba 6cbd 98d1 d1bd f52d 6c3c 94c0 abbd
00000040: e1f7 2b3e 0e92 d8bd 3067 85bd 2a20 3bbd
00000050: d4df c3bd 49b4 fc3d 4583 a9bd 442f 363c
00000060: 9c2d 0bbc fe0f cbbd 8046 b5bd 8971 fbbd
00000070: 414a d7bd 42c3 c93c d719 213e 0182 223c
0.108041026 -0.124749295 -0.11556947 -0.15396887 -0.047200087 -0.10511625 0.111234814 -0.027472084
-0.16011015 0.10530178 0.01516837 -0.030859834 -0.0577946 -0.10245055 0.014415254 -0.08386341
0.16793777 -0.10574733 -0.06513822 -0.04568497 -0.09564176 0.12339074 -0.08276991 0.011119667
-0.008494761 -0.0991516 -0.088513374 -0.122775145 -0.1051221 0.024629239 0.15732513 0.009918691

emb_net.v_lins1.4.weight f4 [32, 32]
00000000: 83ed ecbd c680 643c bb03 31bd 6510 2cbe
00000010: ad0f 363b 42e6 03be 8164 eb3d 7278 9cbd
00000020: c85f 193e ade8 e23d f642 543d 3a10 3b3d
00000030: 1923 103e 1fce 0ebd 3683 8fbd ded8 24bd
00000040: f436 a73d d327 d3bc a2f2 6e3d 8008 0abe
00000050: ea6d eb3d 1d2d f4bb b0e1 44bd e5c4 ba3d
00000060: b49b 12be 8e65 173e 7da7 c93d a43c 95bd
00000070: 8e60 86bd d8d7 203e 56d6 18be c056 053e
00000080: 559f e1bd ed03 7d3d 03d8 263e e2f8 6e3d
00000090: d2bd a9bd 9d6c d53d 14d5 0f3c b3cc 2fbe
000000a0: f3b7 1fbd 9fb5 24bd 21bb 12be 8883 28be
000000b0: 114e f73d 533b 22be f765 8ebc 80a7 fb3d
000000c0: 5693 e7bd 372e 28bd c8a1 133e cbbe 34be
000000d0: 19af 1f3e 5327 1dbe 8eea a1bd 9ec5 33be
000000e0: 927a 943d a05e 183e 2a66 ddbd 04a4 503d
000000f0: 447c 24bc 3d2d 173e c927 f3bd 329c 37be
00000100: 939e fbbd 7772 89bd 7e49 febd 0e90 13be
00000110: 1721 26bd 2183 c7bc 7446 ff3c 6fd4 73bc
00000120: cd50 d53d 5e65 6d3d 4433 f13d 8430 ef3d
00000130: a21c 833d 4ecc e93d f50b d8bd 8e4b 823b
00000140: 5762 80bd 3588 64bc a4d4 50bc e3cd f93d
00000150: ffbb bebd 935e 083e 9ed7 33bd 656d af3d
00000160: a630 1dbd 6f69 153e 1303 4abd 23be 47be
00000170: dba1 39be f496 8b3b 415a dbbd cdff e9bd
00000180: f194 b13d ef40 26be 350b 803c 09cf 0abe
00000190: 99bb 19be 5185 a13d ff7d 323d 62be 9fbd
000001a0: 1d03 09be 0830 84bd 7306 0abe 122d e93c
000001b0: dc1f 993d d736 89bd 83d2 3abe d460 66bc
000001c0: 2bb4 26be cae7 323e 4f59 c73c 9fcc 9f3c
000001d0: 076a 1e3e 523b f13d a248 523d 80c0 a9bd
000001e0: c8cb d0bd f63c 633d f661 07bd 03c7 9ebd
000001f0: f9a0 99bb 03ed 14be b7c8 d13d fd4f 633d
00000200: 8a7c 3abd 2255 1b3e f1e9 12bd db5b 1c3a
00000210: 7769 8d3d 09ad 81bd 4ba3 97bd 02fc 0cbe
00000220: f38e de3d 8614 373e 5cc6 0b3e 6b76 993d
00000230: 0e33 053e b760 89bd c5c7 ce3d 767b c73d
00000240: 704e 85bc 03f9 143e 4591 0d3e 7e23 5ebd
00000250: fa25 76bc 668d e5bd 205a 073e 2ca0 83bc
00000260: 3714 233e b9f2 f33d 66e0 363e 5978 05be
00000270: 5316 d33d b5bf c83d 5aae 0abe 9d8b b43d
00000280: 3a62 00bd e5ac d1bd c91a 2dbd 17c3 d1bd
00000290: ff82 29be ddea 23be 8df8 0a3d 87a8 38be
000002a0: 5592 d8bd 98e3 023e 7bb0 aa3d 6b82 1cbd
000002b0: 9ebf 44bc 7746 58bc b699 c13d 4131 08be
000002c0: bb9f 32be 6ab5 2dbe f10a 21be d48b b03d
000002d0: 2ade 1cbe dd1e ff3c 4ae0 183d 4947 543d
000002e0: 8954 9e3d 61ac e9bc 0d3e dcbd d372 debd
000002f0: 8207 c03c 2e11 0cbe c224 d73c 2eaf 2dbe
00000300: 9a2a 393d bb85 27be 20a3 83bd d7c4 d6bd
00000310: 7fd2 a0bd bfe5 823c f2fe 33be 1172 8cbc
00000320: e514 b83d 08c5 e1bd 4bda 2b3e ba50 0c3d
00000330: 5afa 9e3d 8e3e 1fbe d997 9e3d 5404 833d
00000340: 0333 ee3d df6e 1b3e 8aa2 4a3c 0c4b e43d
00000350: 147b d7bd b8a9 d83d 1aff 87bd dee3 21bd
00000360: e879 15be af45 aebc eaa6 2f3d 9191 58bc
00000370: 1e1b 87bb f579 0b3e 3ece 5d3d 2008 e93d
00000380: efb8 793d 86ad c43d 9464 d4bd 8d7d 423d
00000390: 24f7 903d 9569 2dbe f912 20be acc0 253e
000003a0: 3f42 d7bd 8708 f2bc 2d4c c23c e546 b03b
000003b0: 6d50 97bd 1f5b 1fbe 7dc0 e33d be61 febd
000003c0: d0de a33d 37a5 c8bb 1b9c 0fbe 6fbc 353e
000003d0: 0e57 0fbc 8b8a f8bd 6461 05bd f022 08be
000003e0: a8c2 b43d 1d1c a83d e908 043d e7d1 e73d
000003f0: ff81 383d adb4 1abe 959f 573c 8d4f 303e
-0.11568739 0.013946718 -0.04321645 -0.16803129 0.002778034 -0.12880805 0.11493779 -0.076401606
0.14977944 0.11079536 0.05182167 0.04566977 0.14075889 -0.03486454 -0.070074484 -0.040245883
0.08164778 -0.025775826 0.05833686 -0.13479805 0.11495574 -0.007451667 -0.048066795 0.09119586
-0.14317209 0.14784834 0.09846399 -0.07286957 -0.06561385 0.15707338 -0.14925513 0.13021374
-0.11016718 0.061771322 0.1629334 0.058342822 -0.082881585 0.10421107 0.008778829 -0.1716793
-0.038993787 -0.04021227 -0.14329197 -0.16456425 0.12075437 -0.15842943 -0.017382605 0.122878075
-0.11307399 -0.0410597 0.14417183 -0.17650907 0.15594138 -0.15347032 -0.07906066 -0.17555854
0.07249941 0.14879847 -0.10810502 0.050937667 -0.010039393 0.14763351 -0.11872823 -0.17930678
-0.12286105 -0.067112856 -0.12416361 -0.14410421 -0.0405589 -0.02435452 0.031161524 -0.014882191
0.10415802 0.057958 0.11777356 0.116791755 0.06401946 0.11415921 -0.105491556 0.003976292
-0.06268757 -0.01394849 -0.01274601 0.12197473 -0.09313201 0.13317327 -0.0439068 0.08565787
-0.038376473 0.14591001 -0.049319338 -0.19506125 -0.18128149 0.0042599384 -0.10710574 -0.11425743
0.086709864 -0.16235708 0.015630344 -0.1355554 -0.15012969 0.07886756 0.04357719 -0.077999845
-0.13380094 -0.06454474 -0.13479023 0.028463874 0.0747678 -0.06699913 -0.18244366 -0.014061172
-0.16279666 0.17471233 0.024334578 0.01950675 0.15470134 0.117788926 0.0513388 -0.082886696
-0.10195118 0.05547806 -0.033052407 -0.07752802 -0.004688379 -0.14543538 0.102433614 0.055496205
-0.045528926 0.15169194 -0.035867635 0.0005964615 0.069048814 -0.06331832 -0.074041925 -0.13768008
0.10867109 0.17878923 0.13649887 0.074932896 0.13007757 -0.067079 0.10096697 0.09740345
-0.016272753 0.14548115 0.13824947 -0.054233067 -0.015023703 -0.1120861 0.13217974 -0.016067587
0.1592568 0.1191153 0.17859039 -0.1303419 0.103069924 0.0980219 -0.13543072 0.088156916
-0.031343676 -0.10238055 -0.042261872 -0.102422886 -0.16553877 -0.16007562 0.033928443 -0.18033038
-0.105747856 0.12782133 0.08334442 -0.038210314 -0.012008576 -0.013200394 0.09453146 -0.13300039
-0.17443745 -0.16963735 -0.1572683 0.0862042 -0.15319124 0.031142646 0.037323274 0.051825795
0.077309676 -0.02852458 -0.10754023 -0.10861745 0.02344108 -0.13678429 0.026262645 -0.16961357
0.045206644 -0.16359608 -0.06427598 -0.10486763 -0.07852649 0.015978692 -0.17577723 -0.017144235
0.0898836 -0.11023909 0.16782491 0.034256674 0.077625945 -0.15551206 0.077438064 0.0639731
0.116308235 0.15179013 0.012367854 0.111471266 -0.10521522 0.10579246 -0.06640454 -0.03952395
-0.14597285 -0.021273462 0.04288379 -0.0132182995 -0.0041231057 0.13620742 0.054151766 0.11378503
0.060967382 0.096034095 -0.10370746 0.047483016 0.07078388 -0.16934808 -0.15632237 0.1618678
-0.10510682 -0.029545082 0.023717964 0.005379545 -0.07388387 -0.15562104 0.111206986 -0.124209866
0.080014825 -0.006123211 -0.14024393 0.17747663 -0.008748783 -0.121358 -0.032563582 -0.13294578
0.0882619 0.08208487 0.03223506 0.113193326 0.04504585 -0.15107985 0.013160606 0.17217846

emb_net.v_lins1.4.bias f4 [32]
00000000: 4f0c 0ebe 289d b8bd 7e02 a2bd 7379 3bbe
00000010: 1af6 063e 388f 27be 8cbf ac3d dbb8 70bd
00000020: 9dc7 9fbd c686 2c3e 6249 f8bb 87f7 00be
00000030: 2b02 093e 2c0d 5cba cbac 80bd 832a a33d
00000040: dbae 2f3e bd8c bfbc 0d97 d13c 02f5 88bd
00000050: 1f45 dbbd 3b0c b63b 64bd ddbd 10bf 05be
00000060: b7e9 193b 686e 063e 1cc9 5e3c f9bc e33d
00000070: 2417 11be a9b5 12bd 6355 f5bc c674 083d
-0.13871883 -0.0901435 -0.079106316 -0.18308048 0.13179818 -0.16363227 0.08434972 -0.058770042
-0.07801745 0.16848287 -0.0075771073 -0.12594424 0.13379733 -0.0008394297 -0.06282958 0.07967093
0.17156546 -0.023382539 0.025584722 -0.066873565 -0.10706543 0.005555657 -0.10827139 -0.13061166
0.0023485252 0.13128054 0.013597753 0.11120028 -0.14168984 -0.035817776 -0.029947942 0.03331449

emb_net.v_lins1.5.weight f4 [32, 32]
00000000: 0a20 98bd d266 223d ac06 b23d ee4a f33d
00000010: 7a67 f4bd 2e2a e13d 83ed 0b3e a264 5a3d
00000020: de31 07be 9084 96bd c4cc 20be eeee 893d
00000030: 108b 2ebe d329 eabd 440f 80bd 2859 27be
00000040: d3d4 41be 5787 d2bd 6f6c 2abe 5856 18be
00000050: 7142 fbbd 1dab b8bd d397 9d3c 0415 873c
00000060: 3b4a bd3c a57f bdbd 2dc6 0fbc 25c3 adbd
00000070: 63cd ecbd 04ff 5fbd d770 5bbd c6e7 1cbe
00000080: 5330 133e bf30 dcbd b077 e23c 7596 04be
00000090: 75ee 1abe 04b8 3c3d f059 3abc fcf2 76bd
000000a0: 5926 3dbe 208e 363e fcfa 1e3e ba71 20be
000000b0: c958 a8bb 3e73 24bd 0f5c 083e 1a3f 893c
000000c0: e65f 223e efc4 25be 596a e2bd b9cd 5abd
000000d0: 6748 cabd e92a 5cbd dc3f 2cbe 7c3e f43d
000000e0: 1434 ac3d e388 7dbd 9dd0 b63d d2a5 77bc
000000f0: 6f03 82bd f95b bb3d 1270 33be aba2 37bd
00000100: ddc3 f7bd e98e e6bc 1c47 89bd f2ba 07be
00000110: 29a5 bc3d 037e dcbd 92e0 9e3d 000c cd3d
00000120: 2042 0abd 7f54 5c3c fad1 0fbe a6f3 6ebd
00000130: 073e b0bc 01c9 11be e42a 2ebe de9e 943c
00000140: 567d bb3d 1b98 063e 390c 183e 75c7 c73c
00000150: a7e9 c1bc de3a a93c 966b b53d 3e61 d3bc
00000160: 0a62 cf3d efe3 29be 7da6 22be 11f7 04be
00000170: 67ad f0bd c985 203e 0114 cfbd 5bde 2a38
00000180: 670e a13d 9ad7 f5bc 31bf 0ebe 28cf 043e
00000190: 8de3 2e3e 9313 dd3c 4170 72bd 47a3 d73d
000001a0: 1632 60bd dd72 2e3e ab31 2fbe d788 8abd
000001b0: d1a1 3abe 418d 1f3e 78ff ef3d fd69 833d
000001c0: 5974 33bc 3b40 c03d 9710 9fbc 70c8 4c3d
000001d0: 0558 2fbe 680d d3bd 7a81 b03d e6fc 303d
000001e0: 30fc 383d 8ddf edbd d26e 27be 24e1 a9bd
000001f0: 938e 133a faa7 f9bd 1b0b e9bd f3a3 8fbd
00000200: 13e8 bdbd 90e5 a13d 022b 53bc c076 9dbd
00000210: 50e6 d53d 8c2d c63d d147 273e 1720 0abd
00000220: ab98 adbd d766 be3d 5051 8a3d 957c e6bd
00000230: b01c cbbc da7e 1a3d f754 06be d74b e73c
00000240: cc17 c5bd 7721 243d 2664 35be fad5 02be
00000250: 7504 c6bc 6872 e53d 2aea 0c3e 1225 ee3b
00000260: dacf 343d 8a6a 2c3d a4f7 d6bb d846 da3d
00000270: 498c dcbd 45d8 b1bc 0008 3e3d b14d ee3d
00000280: 04ec 0fbd a31d 063e b57a 04bb e5f1 a73c
00000290: ced4 023c ecd3 5dbd 17c7 0fbe 5836 1c3b
000002a0: 35f1 a63d 1fce ccbd c3fd 83bd 246b 54bc
000002b0: 0d10 723d 0c26 fbbd 0565 903d 2896 323d
000002c0: 9678 d93c 760e cbbc 6232 33be be07 0b3e
000002d0: 34fa 013e e27e 1cbe bc10 803d a92a 003e
000002e0: d4fb 143e a862 71bc 6eb6 28be 1458 f23c
000002f0: 64ad d7bc 4db2 023e 7a58 86bd bb47 523d
00000300: 9f6e df3c fa93 473d 2cc7 0ebe 9fd9 a93d
00000310: 09c6 31be ae51 dabd d911 0dbe 26d8 17be
00000320: 33b7 82bc 2c65 413d 3bcb 17be 46c1 d3bd
00000330: 9e6d 953d 0aeb 023e a1ef 0c3d ef3f 49bd
00000340: 9f90 d63d 54d9 763d eafa 1f3e 39c6 fabd
00000350: 221c 08be 6148 5e3d 581f 163e 81a2 a0bc
00000360: ddfc 2f3d 497b 013e 56fd 4cbd 0893 c3bd
00000370: a1c7 583c 8595 18be 85e9 0cbe 59da e7bc
00000380: 41da 863d 5460 5cbd daad 283e 6a76 013d
00000390: f403 0ebe 0889 cd3d 3453 28be e2e9 1e3d
000003a0: 3352 1bbe b45a 243c 9c7c 5fbd c88e fc3d
000003b0: 7386 3d3c 96a7 373c f65f 72bd f298 9fbc
000003c0: a354 813c a87c aa3b a9c0 51bd b74e 283e
000003d0: fb77 dd3d c90f 1dbe 0ad8 c33d cfee 6dbd
000003e0: bc53 403d 143e c73c 309d 973b ea4b d33d
000003f0: 5dbb 2c3c 809d 38bc 5b9e 93bc bf6f 283c
-0.07427986 0.03964884 0.08692679 0.11879526 -0.11933799 0.10994373 0.13664822 0.053318627
-0.13202617 -0.07349503 -0.15703112 0.06735025 -0.17045236 -0.114337586 -0.06252912 -0.16342604
-0.18928842 -0.1027972 -0.16642927 -0.14876688 -0.12268532 -0.09017012 0.019237434 0.016489513
0.023106685 -0.09252862 -0.008775276 -0.084844865 -0.11562612 -0.05468656 -0.05357441 -0.1532279
0.14373903 -0.10751485 0.027644962 -0.1294802 -0.15130027 0.04607393 -0.011373982 -0.06029032
-0.1847166 0.17827654 0.1552543 -0.15668383 -0.005137537 -0.040148966 0.13316368 0.016753722
0.15856895 -0.16188405 -0.110554405 -0.05341885 -0.09877091 -0.05375186 -0.16821235 0.119259804
0.084083706 -0.061898123 0.089265086 -0.015115218 -0.06348311 0.09148402 -0.1752322 -0.044832867
-0.12097905 -0.028144317 -0.06703016 -0.13254908 0.09211189 -0.10766222 0.07757677 0.100120544
-0.033754468 0.01344788 -0.14044943 -0.05833783 -0.021513952 -0.14236833 -0.17008549 0.01814216
0.09154765 0.13143961 0.14848413 0.0243871 -0.023670984 0.020657953 0.08858411 -0.025803205
0.10126121 -0.16590856 -0.15883823 -0.12984873 -0.11751824 0.15676035 -0.10111237 4.0738243e-05
0.07864075 -0.030010033 -0.13940121 0.12969649 0.17078991 0.026986873 -0.059189085 0.105291896
-0.054735266 0.17036004 -0.1710879 -0.067643814 -0.1822579 0.15581228 0.11718649 0.064167
-0.010953032 0.09387251 -0.01941709 0.04999584 -0.1712342 -0.103052914 0.08618446 0.043209933
0.04516238 -0.116149046 -0.16350868 -0.08294895 0.000562885 -0.12190242 -0.11379071 -0.07013693
-0.0927278 0.07905114 -0.012888672 -0.076886654 0.10444319 0.09676656 0.1633599 -0.03372201
-0.08476385 0.09296959 0.067537904 -0.11254231 -0.024793953 0.03771863 -0.13118349 0.028234405
-0.096236795 0.040070977 -0.17713985 -0.12776938 -0.024172047 0.11203462 0.13761202 0.0072676027
0.044143535 0.04209379 -0.006560283 0.106580436 -0.10768945 -0.02170957 0.04639435 0.11635912
-0.03513719 0.13097243 -0.002021474 0.020501086 0.007985307 -0.054157183 -0.1404079 0.0023836102
0.08151475 -0.10000252 -0.064448856 -0.012964997 0.05909734 -0.12263116 0.07050518 0.04360023
0.026546758 -0.024787169 -0.17499688 0.13577172 0.12693101 -0.15282777 0.06253192 0.12516274
0.1454919 -0.014732994 -0.16475841 0.029583015 -0.026327796 0.12763329 -0.06559844 0.05133794
0.027274428 0.048725106 -0.13943166 0.08293461 -0.173607 -0.106601104 -0.1377634 -0.14828548
-0.015956497 0.047215626 -0.1482362 -0.10339598 0.072962984 0.12784973 0.034408215 -0.049133237
0.10476803 0.060265854 0.1562306 -0.12244839 -0.13291982 0.054268245 0.14660394 -0.019608738
0.04296576 0.12644686 -0.050046287 -0.09549528 0.013231189 -0.14900787 -0.13760956 -0.028302358
0.065845974 -0.053802803 0.16472569 0.03160707 -0.13868695 0.10035902 -0.1643799 0.038797267
-0.15168075 0.010031391 -0.054562196 0.12331921 0.0115677 0.011209389 -0.059173547 -0.01948211
0.015787428 0.0052028485 -0.051209126 0.16436277 0.108139 -0.15338053 0.095626906 -0.058089074
0.046954855 0.024321593 0.0046268925 0.10317214 0.010542718 -0.01126802 -0.018019846 0.010280549

emb_net.v_lins1.5.bias f4 [32]
00000000: baaf 35be 0f51 973c fee1 3abe 3614 123e
00000010: 7974 283e 6385 f0bd cd32 84bd fd28 c03c
00000020: 9695 f2bd f75e 19be 6dcd 223e 1094 303e
00000030: 1323 73bd 93c3 f2bd 72bf dabd 6513 0f3d
00000040: 9a59 30be 2928 a9bd 875b 94bc c8ab e4bd
00000050: 1212 2fbe 2445 0abe 99b7 2d3e 6ff6 823d
00000060: 8a65 09be 1cb5 f5bd 26e0 efbd 276f c9bd
00000070: 49ec 253c 9834 d53d de65 b13c 48eb 32be
-0.17742816 0.018471269 -0.18250272 0.14265522 0.16450681 -0.117441915 -0.06455002 0.023457045
-0.118449375 -0.14977632 0.15898676 0.17243981 -0.05935962 -0.11853709 -0.106810465 0.034930605
-0.1722168 -0.08259613 -0.01811005 -0.11165577 -0.17096737 -0.13502938 0.16964568 0.0639466
-0.1341764 -0.119974345 -0.11712675 -0.09835654 0.010127136 0.10410422 0.02165502 -0.17472565
