pretrained/op/op300.pt (torch, 372505 bytes, 230 tensors)

emb_net.v_lin0.weight f4 [32, 2]
0	0xbee8095e	-0.45319647
1	0x3e851e6f	0.2599978
2	0x3ecac96a	0.39606792
3	0xbe1db20c	-0.1539995
4	0x3ea2492f	0.3169646
5	0xbf244b6a	-0.6417757
6	0x3e7b8058	0.24560678
7	0xbd347039	-0.044052336
8	0x3f0c6799	0.5484558
9	0x3d96ee1d	0.07369635
10	0x3ee68522	0.45023447
11	0x3e13276a	0.14370504
12	0x3f194dc5	0.5988429
13	0x3f2a6b2f	0.665698
14	0xbea44797	-0.3208587
15	0x3cee1dea	0.029066999
16	0xbe8a8093	-0.2705122
17	0xbf084f06	-0.5324558
18	0x3f2df5d9	0.6795326
19	0x3e877ee2	0.2646399
20	0x3eeecffc	0.46643054
21	0x3d42c053	0.047546696
22	0x3dc17061	0.09445263
23	0xbe376351	-0.1790898
24	0xbe151f7b	-0.1456279
25	0x3f04c051	0.5185595
26	0x3e521658	0.20516336
27	0xbea6fb83	-0.32613763
28	0x3edfce95	0.43712297
29	0x3f1852ad	0.59501153
30	0x3f2e9999	0.6820312
31	0x3d8234de	0.0635774
32	0xbe843934	-0.25824893
33	0xbf0b8c57	-0.54511017
34	0xbf1eb8d6	-0.6200079
35	0x3f2a8d25	0.6662162
36	0x3ef8be62	0.4858275
37	0xbe8b1cfa	-0.27170545
38	0xbd999d32	-0.07500686
39	0x3e443aa1	0.1916299
40	0x3f0b6b28	0.5446038
41	0x3e5bea32	0.21476057
42	0xbe971f24	-0.29515946
43	0x3e3f8acc	0.1870529
44	0xbcf71f5d	-0.030166322
45	0xbf14a6ef	-0.5806722
46	0x3e5ae936	0.21378025
47	0xbf2796f3	-0.65464705
48	0xbe0111e3	-0.1260448
49	0xbf18abce	-0.59637153
50	0xbec0d162	-0.37659746
51	0x3e9f7522	0.31144053
52	0x3f275d46	0.653767
53	0x3f23e028	0.6401391
54	0xbea98664	-0.33110344
55	0xbf15a612	-0.5845653
56	0x3ebd34bd	0.369543
57	0x3d2b8cd5	0.041882355
58	0xbeb97973	-0.3622547
59	0x3ea1fd6a	0.31638652
60	0xbf30f337	-0.69121116
61	0x3e90c9f4	0.28279078
62	0xbe2ad7ae	-0.16683838
63	0x3f14c8e7	0.5811905

emb_net.v_lin0.bias f4 [32]
0	0xbe896f61	-0.26842788
1	0x3eaa39db	0.33247265
2	0x3e8b87e4	0.27252114
3	0xbda6f574	-0.08152285
4	0xbeeb8017	-0.45996162
5	0x3c3d78da	0.011564458
6	0xbdb2d4e5	-0.08732013
7	0x3ee49224	0.44642746
8	0xbec3ed96	-0.382672
9	0xbe8694ca	-0.26285392
10	0xbeb203e2	-0.34768587
11	0xbee79fff	-0.45239255
12	0x3f1e9381	0.61943823
13	0x3f2f5131	0.68483263
14	0xbe99463b	-0.29936394
15	0x3f187f82	0.5956956
16	0xbe002ac2	-0.12516311
17	0xbeeb7af1	-0.45992234
18	0x3dbbabde	0.091636404
19	0xbef49ba6	-0.47775
20	0x3eaf5fee	0.34252876
21	0xbf248503	-0.6426546
22	0x3eb517b5	0.3536965
23	0x3ec340fa	0.3813551
24	0x3eb97366	0.36220855
25	0xbd952faf	-0.072844855
26	0xbdf72b93	-0.12068858
27	0xbec4f8a8	-0.3847096
28	0xbeab7af9	-0.33492258
29	0xbf01fac0	-0.5077324
30	0xbf2f9253	-0.6858265
31	0xbf1e823c	-0.6191747

emb_net.v_lins1.0.weight f4 [32, 32]
0	0xbd4429e9	-0.04789153
1	0xbdd6b3ba	-0.10483499
2	0xbe2ef973	-0.17087345
3	0xbe0bc621	-0.13649799
4	0x3e24b074	0.16082937
5	0x3ca7153c	0.020395868
6	0x3dc34903	0.0953541
7	0x3db2bc07	0.087272696
8	0xbe002fd8	-0.12518251
9	0xbca489cb	-0.020085236
10	0xbe262127	-0.16223584
11	0x3d9824c2	0.07428886
12	0x3babbd62	0.005241082
13	0xbe085068	-0.13311923
14	0xbd25f817	-0.0405198
15	0x3dcfbc2e	0.10143314
16	0xbca876a1	-0.02056438
17	0xbdf256e2	-0.11832978
18	0xbdb9cfc5	-0.09072832
19	0x3c3ce7b3	0.011529851
20	0xbd6f4b2b	-0.058421295
21	0xbe303bc1	-0.17210294
22	0xbda606eb	-0.08106788
23	0x3ddbbe88	0.107297
24	0xbdc9cbe1	-0.0985334
25	0x3c4e3ac5	0.012587254
26	0x3ccff2d2	0.02538434
27	0xbe27cfb7	-0.1638783
28	0x3dd0c30c	0.10193452
29	0xbdbcc084	-0.09216407
30	0xbe18a28c	-0.14905757
31	0x3ca17daf	0.01971325
32	0x3e268142	0.16260245
33	0x3e00e1fa	0.12586203
34	0x3e1c07ce	0.15237352
35	0x3c94f367	0.01818247
36	0xbe0dc736	-0.13845524
37	0x3d31b1bd	0.043382395
38	0x3cd70355	0.026246706
39	0x3daa3a5d	0.08311913
40	0x3db9e595	0.090769924
41	0xbdfd5174	-0.123690516
42	0xbde43c5d	-0.11144326
43	0x3e05503e	0.13018891
44	0x3cbfeb27	0.023427559
45	0xbcac1d87	-0.021010173
46	0xbd996574	-0.07490054
47	0x3d2b93ac	0.041888878
48	0xbd830a52	-0.06398453
49	0xbcbfc8fb	-0.023411265
50	0x3db48b05	0.08815578
51	0xbd12cb48	-0.035838395
52	0xbd91f081	-0.071259506
53	0x3d4acc98	0.049511522
54	0x3dc27e0f	0.094967
55	0x3dcd897f	0.10035991
56	0xbe0694b0	-0.13142657
57	0xbdeb11de	-0.11478017
58	0xbe1e4961	-0.1545768
59	0xbd0bc266	-0.03412094
60	0x3e0a4282	0.13501933
61	0xbdc7ad2e	-0.09749828
62	0x3e21e4c5	0.15809925
63	0xbda37474	-0.07981196
64	0xbdd40fac	-0.10354552
65	0x3e1ce981	0.1532345
66	0x3ce7d473	0.028299546
67	0x3dea242d	0.11432681
68	0x3d5727ad	0.052528072
69	0x3be52300	0.0069926977
70	0xbae4dbc0	-0.001746051
71	0x3dfad771	0.122481234
72	0xbda97df4	-0.08275977
73	0x3e0d888c	0.1382162
74	0xbe12a857	-0.14322029
75	0x3e1e2b20	0.15446138
76	0x3e19c480	0.15016365
77	0xbdbea1f8	-0.09308237
78	0x3db7bbed	0.08971391
79	0xbdd6b182	-0.10483076
80	0x3dcf1cf2	0.10112943
81	0x3e07c1de	0.13257548
82	0x3dcadf46	0.09905867
83	0x3e32cba5	0.17460497
84	0x3b27a2dd	0.0025579252
85	0x3da2cd6c	0.07949337
86	0xbe08c739	-0.13357247
87	0xbd6a9a69	-0.057276163
88	0xbe281574	-0.16414434
89	0xbc46d882	-0.01213658
90	0xbd9f240c	-0.07770547
91	0x3e276b8d	0.16349621
92	0x3ded171d	0.11576674
93	0x3d88e584	0.06684402
94	0xbe341b76	-0.175886
95	0x3d8bae69	0.068203755
96	0xbdb931f8	-0.09042734
97	0xbd338092	-0.043823786
98	0x3d919f62	0.07110478
99	0x3df293c2	0.11844589
100	0xbdabe69f	-0.08393597
101	0xbe1bc8db	-0.15213339
102	0xbdd99e59	-0.106259055
103	0xbe190456	-0.1494306
104	0x3cfd2756	0.030902546
105	0x3e20b57d	0.15694232
106	0x3e09206f	0.13391279
107	0xbe3dccb6	-0.18535122
108	0xbe12fe5b	-0.14354841
109	0xbe1b36ac	-0.15157574
110	0xbe1a3f57	-0.15063225
111	0xbd327d00	-0.04357624
112	0x3d4448d0	0.047921002
113	0xbdc659c8	-0.09685093
114	0x3d20edeb	0.039289396
115	0xbe1558a2	-0.14584592
116	0xbe1cfbf2	-0.15330485
117	0x3e135122	0.14386418
118	0xbe3565a0	-0.17714548
119	0xbe095126	-0.13409862
120	0x3d87ebbb	0.06636759
121	0xbe179d31	-0.14806058
122	0xbde5994c	-0.1121088
123	0xbd87bda2	-0.066279665
124	0xbd6f1162	-0.058366187
125	0xbcf27cd4	-0.029600538
126	0xba842748	-0.0010082508
127	0x3d4ac9e2	0.049508937
128	0xbe1ce0ac	-0.1532008
129	0x3e1b16a2	0.15145352
130	0x3db566fe	0.08857535
131	0xbde99e72	-0.11407174
132	0x3cd01a8b	0.025403282
133	0xbdcb55c7	-0.0992847
134	0x3e0d2d8f	0.1378691
135	0x3da427a2	0.08015372
136	0x3e1d236d	0.15345545
137	0xbe28614b	-0.16443364
138	0x3dbfa568	0.093577206
139	0xbba4e1b3	-0.0050317883
140	0xbe0e9284	-0.13923079
141	0xbd6baacf	-0.057535943
142	0xbd78424d	-0.060610104
143	0x3dbd9757	0.092573814
144	0xbd15cdd9	-0.036573265
145	0xbe08de51	-0.13366057
146	0xbe085057	-0.13311897
147	0x3d4b3f81	0.04962111
148	0xbe05d731	-0.1307037
149	0x3cee15b9	0.029063093
150	0xbe087ae0	-0.13328123
151	0x3d9411c9	0.07229955
152	0xbd83035c	-0.06397125
153	0x3e0a96d8	0.13534105
154	0xbd252ab9	-0.040323947
155	0xbe0cc44b	-0.13746755
156	0xbe374d4c	-0.1790058
157	0x3e0567ca	0.13027874
158	0x3e0ac1fe	0.13550565
159	0xbda51993	-0.080615185
160	0x3c60634c	0.013695549
161	0xbcb227fc	-0.021747582
162	0xbdb2e5e1	-0.08735252
163	0x3e016077	0.12634455
164	0x3dfaeafe	0.122518525
165	0xbcee8d7a	-0.029120196
166	0x3df28a04	0.11842731
167	0xbd6af9e8	-0.057367235
168	0x3d7bf432	0.06151218
169	0x3e1fd237	0.15607534
170	0x3e22bca2	0.1589227
171	0xbcbb2038	-0.022842512
172	0x3d394be1	0.04523838
173	0x3e17cbec	0.14823884
174	0x3c3c1988	0.0114806965
175	0x3e290362	0.16505197
176	0x3ba89830	0.0051450953
177	0x3c81f421	0.01586348
178	0xbcebb252	-0.028771553
179	0x3dd64aac	0.10463461
180	0x3d91f9d7	0.07127731
181	0xbd74d9ff	-0.05977821
182	0xbde060e2	-0.10955979
183	0xbe078d81	-0.13237573
184	0xbdc39e35	-0.0955166
185	0x3dd2bc44	0.10289815
186	0xbe09a924	-0.13443428
187	0xbd3b2a8b	-0.04569487
188	0x3e0e72b7	0.13910948
189	0xbba112ef	-0.004915587
190	0x3e14f71b	0.14547388
191	0xbc8f743f	-0.017511485
192	0x3db04320	0.08606553
193	0x3d741476	0.059589826
194	0x3bdee6bd	0.0068024085
195	0x3dc31d36	0.09527056
196	0xbc72fd03	-0.0148308305
197	0x3df8aaea	0.12141974
198	0xbc85e4d5	-0.016344467
199	0xbd1f712a	-0.03892628
200	0xbcdc314a	-0.026878972
201	0x3d9e9f9b	0.07745286
202	0x3ddd84ec	0.108163685
203	0x3d831649	0.06400735
204	0xbdbbe21e	-0.09173988
205	0xbd94b49a	-0.072610095
206	0x3e049416	0.12947115
207	0xbd97c0af	-0.07409798
208	0xbb8bb3b5	-0.004263366
209	0x3e2c5df3	0.16832714
210	0x3dae256b	0.08503231
211	0x3d6f2b6c	0.05839102
212	0xbe0e4ec2	-0.13897231
213	0x3dbbe9a8	0.09175426
214	0xbde408fc	-0.11134526
215	0x3d362d4c	0.044476792
216	0x3d8a89df	0.06764578
217	0x3c5da72a	0.013528625
218	0x3e344af8	0.17606723
219	0x3c30e88c	0.010797631
220	0x3dc5b0a4	0.09652832
221	0xbd1aff41	-0.037841085
222	0x3d4f23f4	0.050571397
223	0xbc8b45f2	-0.017001126
224	0x3e349a1c	0.17636913
225	0x3d959a5d	0.07304833
226	0xbe225db6	-0.1585606
227	0x3e2d3b1b	0.16917078
228	0x3e0b6038	0.13610923
229	0x3d3e3e3e	0.046446078
230	0xbe0906e4	-0.13381535
231	0xbe119819	-0.14218177
232	0xbde334d7	-0.11094063
233	0xbdd94371	-0.106085666
234	0x3d85a21a	0.06525059
235	0xbdd42474	-0.103585154
236	0x3de648c4	0.11244348
237	0xbdf5ea48	-0.12007576
238	0xbe212a10	-0.15738702
239	0xbcf3bbc9	-0.029752629
240	0xbdf61333	-0.12015381
241	0xbc2ac9cd	-0.01042409
242	0x3df77da3	0.1208451
243	0x3d4a9bb4	0.049464896
244	0x3d2ca091	0.042145316
245	0xbd368622	-0.044561513
246	0x3d8ea923	0.06965854
247	0xbcc1fe13	-0.023680722
248	0x3e05b147	0.13055907
249	0x3c1ee4dd	0.00969812
250	0xbd591171	-0.05299515
251	0xbdd07347	-0.101782374
252	0xbde3a8c8	-0.11116177
253	0xbd46d083	-0.048538696
254	0xbdaab073	-0.08334436
255	0xbceaa40c	-0.028642677

emb_net.v_lins1.0.bias f4 [32]
0	0xbe291afd	-0.16514201
1	0x3e0aa6e0	0.1354022
2	0x3ceb0105	0.02868701
3	0xbda58229	-0.08081467
4	0x3cb7085f	0.022342859
5	0x3c6307c2	0.01385683
6	0xbdaf4e25	-0.08559827
7	0x3e2cac4c	0.16862601
8	0xbdb7a754	-0.08967462
9	0x3bea83f1	0.007156842
10	0x3e2c2bc0	0.16813564
11	0xbe01d861	-0.12680198
12	0x3df278c3	0.1183944
13	0xbe37bb60	-0.17942572
14	0x3dc01baa	0.093802765
15	0xbe25b886	-0.16183671
16	0xbe20aa08	-0.15689862
17	0xbd95f1f4	-0.073215395
18	0x3e0bf617	0.13668095
19	0xbe04c7c4	-0.1296683
20	0xbdc2cb85	-0.095114745
21	0x3d229c9b	0.039700132
22	0x3db42dc5	0.08797792
23	0x3d0d4e81	0.034498695
24	0x3dd1356a	0.10215266
25	0xbcff78f0	-0.031185597
26	0x3e15d232	0.14630964
27	0xbe209dc6	-0.15685186
28	0x3e1f61e6	0.15564689
29	0x3e162497	0.14662395
30	0xbe089d38	-0.13341224
31	0xbe14be42	-0.14525703

emb_net.v_lins1.1.weight f4 [32, 32]
0	0x3da357f7	0.07975762
1	0xbc9feb95	-0.019521514
2	0x3d851c3e	0.064995274
3	0x3ba9db8d	0.005183643
4	0xbe0bc8b0	-0.13650775
5	0x3e13ad8b	0.1442167
6	0xbe1a223e	-0.15052125
7	0x3e0f4dcc	0.13994521
8	0x3c5740fb	0.013138051
9	0xbd827765	-0.06370429
10	0x3dfe363c	0.12412688
11	0x3e32d626	0.17464504
12	0x3c0c3ea8	0.00855986
13	0xbe1b064c	-0.15139121
14	0xbc296211	-0.010338322
15	0xbdebd220	-0.115146875
16	0x3de80b98	0.11330336
17	0x3d5bbfd0	0.053649724
18	0x3d35dd01	0.04440022
19	0x3e12dd32	0.14342192
20	0x3cd6b19c	0.026207738
21	0xbcf3466a	-0.029696662
22	0x3e1a0b37	0.1504334
23	0x3cf65317	0.030068917
24	0x3d5328e5	0.051552672
25	0x3dc546a2	0.09632613
26	0xbe0a9934	-0.13535005
27	0xbe2c7081	-0.16839792
28	0x3df3f1a7	0.11911326
29	0x3e1d6379	0.15369977
30	0xbdb95dbf	-0.09051084
31	0xbb1f50e8	-0.0024309698
32	0x3e37631a	0.17908898
33	0xbd352d6c	-0.04423277
34	0x3e131402	0.14363101
35	0xbe1dad1d	-0.15398069
36	0xbe1c2d78	-0.1525172
37	0x3c53a934	0.012918759
38	0x3d1e704f	0.038681325
39	0x3d4db8c4	0.050225034
40	0x3d5f3c27	0.054500725
41	0x3e27d584	0.16390043
42	0x3de84f1b	0.11343213
43	0x3de69c6f	0.11260306
44	0x3dc255b0	0.09489
45	0x3c08214b	0.008308719
46	0xbdc8503c	-0.097809285
47	0x3bcfe0a7	0.0063439193
48	0xbc5c69a6	-0.013452923
49	0xbdd96e85	-0.10616783
50	0xbe1b6c35	-0.15177996
51	0xbe05ccc5	-0.13066395
52	0xbd8273fb	-0.06369778
53	0xbe1b0557	-0.15138756
54	0xbd8be413	-0.06830611
55	0x3df0ff14	0.11767402
56	0x3dfd8b5f	0.123800986
57	0xbbe447b4	-0.0069665555
58	0x3e241c8f	0.16026519
59	0xbda490f5	-0.08035461
60	0x3e1f6221	0.15564777
61	0xbe0a2fca	-0.13494793
62	0xbde99fdd	-0.114074446
63	0xbd0f4cff	-0.03498554
64	0xbe076163	-0.13220744
65	0xbd3e14d5	-0.046406586
66	0xbddc94ff	-0.10770606
67	0xbcc5d8f6	-0.024151307
68	0xbe1cbe18	-0.1530689
69	0x3e0953fc	0.13410944
70	0xbd9374de	-0.07200025
71	0xbcc22f57	-0.023704214
72	0xbe023e7e	-0.12719151
73	0xbaa27e8c	-0.0012397333
74	0x3ddf7d05	0.109125175
75	0x3d824d4e	0.06362401
76	0xbd82d892	-0.06388964
77	0x3d8b27d8	0.06794709
78	0xbe014478	-0.12623775
79	0x3d62a053	0.05532868
80	0x3d8900f4	0.06689635
81	0xbcc3ce26	-0.02390201
82	0x3d3e1fcc	0.046417043
83	0xbdde7cc3	-0.1086364
84	0xbe1e7c72	-0.1547716
85	0xbc927c71	-0.017881604
86	0x3d2b55be	0.041829817
87	0xbd3c8166	-0.04602184
88	0xbcf0fd52	-0.029417668
89	0xbdd2f8c4	-0.103013545
90	0x3dedba4f	0.11607801
91	0x3da77cbb	0.08178087
92	0x3d190fda	0.037368633
93	0xb9a62272	-0.0003168765
94	0x3dcf6cd8	0.10128182
95	0xbdf87f74	-0.12133685
96	0xbd10a90a	-0.03531746
97	0xbc017f22	-0.007903846
98	0x3cb93cee	0.022612061
99	0x3d8b2fc2	0.067962185
100	0xbe16872b	-0.147
101	0x3d407633	0.046987724
102	0x3d2ba781	0.04190779
103	0x3db37e36	0.08764307
104	0x3c4c3e8b	0.012466083
105	0x3c86ae42	0.016440514
106	0x3e274a09	0.16336836
107	0xbd2d5436	-0.042316638
108	0x3e0eb56f	0.13936399
109	0x3e0d0478	0.13771236
110	0x3df4a4b0	0.11945474
111	0x3ccb2772	0.024799082
112	0x3d2b5fcf	0.041839417
113	0x3d70bc18	0.05877313
114	0xbdef6148	-0.11688477
115	0x3e04ce2a	0.1296927
116	0x3d273ab0	0.040827453
117	0xbd61b266	-0.055101775
118	0xbd476283	-0.048677932
119	0xbe165756	-0.14681754
120	0xbdcc88c6	-0.09987025
121	0x3e0375e1	0.12837936
122	0xbcc58f47	-0.024116172
123	0x3d58925d	0.052873958
124	0x3e1f2ba8	0.15543997
125	0xbe080bb2	-0.13285711
126	0x3aff76ee	0.00194904
127	0xbe13ae94	-0.14422065
128	0x3e0ad310	0.13557076
129	0x3c70cbaf	0.014696999
130	0xbcc483bf	-0.023988603
131	0xbdcc8c3d	-0.09987686
132	0xbc4d3c05	-0.012526517
133	0xbdfa79d8	-0.12230271
134	0xbdb506c6	-0.088391826
135	0x3e1dc849	0.15408434
136	0xbc35fa0f	-0.011106982
137	0x3d64a558	0.055821747
138	0x3e1dfe9b	0.15429156
139	0xbdbc5942	-0.09196712
140	0x3d95eac7	0.07320171
141	0x3dc7f132	0.09762801
142	0xbe14bc7b	-0.14525025
143	0xbdf8ffbf	-0.12158155
144	0x3d79ad91	0.06095654
145	0x3d944c94	0.072411686
146	0x3de8d843	0.11369374
147	0x3b09eb68	0.0021044854
148	0xbb52713f	-0.0032110957
149	0xbe3aeac2	-0.18253615
150	0x3d70ec4c	0.0588191
151	0x3d9f105e	0.07766794
152	0xbcda78ae	-0.026668873
153	0x3d6f4b42	0.05842138
154	0xbcdd9832	-0.027050111
155	0x3d829c50	0.063774705
156	0xbdb6a1e7	-0.08917599
157	0x3e14fb47	0.1454898
158	0x3e16ac81	0.14714243
159	0xbe0ffbca	-0.14060894
160	0x3e10ba9c	0.14133686
161	0xbe18fe52	-0.14940766
162	0x3a621039	0.0008623633
163	0x3d65c406	0.056095146
164	0xbe17aae3	-0.14811282
165	0xbc1a7ba9	-0.009428897
166	0xbdc45093	-0.09585681
167	0x3e1436ab	0.14473979
168	0xbe2f46f5	-0.17116912
169	0xbc8cf42a	-0.01720627
170	0x3d0c7327	0.034289505
171	0xbd3fd2bf	-0.046831843
172	0x3df5a856	0.11994998
173	0xbd218f99	-0.039443586
174	0x3cd64f18	0.026160762
175	0xbe2cb469	-0.16865696
176	0x3dbea3b9	0.09308571
177	0x3c9e30b7	0.019310338
178	0x3dc129ba	0.09431787
179	0x3cb5613f	0.022141097
180	0x3dba7d8a	0.09105976
181	0xbe0e5ec6	-0.1390334
182	0xbd9557f4	-0.07292166
183	0xbdb1bd2f	-0.08678662
184	0x3cc0829c	0.02349978
185	0x3e4acb4e	0.19804117
186	0x3e31277c	0.17300218
187	0x3dfe4822	0.12416102
188	0x3dc9ce76	0.098538324
189	0x3d72cb37	0.059275832
190	0xbce4d375	-0.027932862
191	0xbccfd136	-0.025368314
192	0xbc19e47a	-0.009392852
193	0xbc899102	-0.016792778
194	0x3e0524c8	0.13002312
195	0x3d8b92bc	0.06815097
196	0xbe0dc887	-0.13846026
197	0xbd8e0de6	-0.06936245
198	0x3dbfe5f9	0.09370036
199	0xbd583336	-0.052783214
200	0xbd8e7a20	-0.06956887
201	0xbdf049c6	-0.11732821
202	0x3bd343fc	0.0064473134
203	0x3e026ed3	0.12737589
204	0x3e052062	0.13000634
205	0x3dc5e61c	0.096630305
206	0xbc3a26c7	-0.011361784
207	0xbdf7aec6	-0.12093882
208	0x3da574ac	0.08078894
209	0xbd10877a	-0.03528545
210	0xbdd7d5e2	-0.10538842
211	0x3cd0816f	0.025452344
212	0xbc97b2d3	-0.018517887
213	0xbe0d5b41	-0.13804342
214	0xbcb0f9fc	-0.021603577
215	0x3df4e53f	0.11957788
216	0x3defd207	0.117099814
217	0xbdb2ee6c	-0.087368816
218	0xbd55b539	-0.05217478
219	0x3e01278b	0.1261274
220	0xbe013b5f	-0.12620305
221	0xbbdd4035	-0.006752039
222	0xbd8a14c5	-0.06742243
223	0x3c117ae0	0.008879393
224	0x3d3faef8	0.046797723
225	0xbd9c24d8	-0.07624215
226	0x3d12b0a7	0.035813
227	0x3da1b594	0.078959614
228	0x3e3138da	0.17306843
229	0xbcdbd5ae	-0.026835289
230	0x3ca244fe	0.019808289
231	0x3d443269	0.047899637
232	0xbd86823c	-0.06567809
233	0xbd6ef1e0	-0.05833614
234	0xbd364196	-0.04449614
235	0x3d9c2c61	0.07625652
236	0xbdfa2b3e	-0.12215279
237	0x3e2dbcae	0.16966507
238	0x3e1e2fcc	0.1544792
239	0xbe070a44	-0.1318751
240	0x3d0b02e2	0.033938296
241	0xbe025173	-0.12726383
242	0x3e1b47bd	0.15164085
243	0xbe1cd515	-0.1531566
244	0xbc885b54	-0.016645111
245	0xb93c8ed1	-0.0001798228
246	0x3d50b349	0.05095223
247	0xbbeb9935	-0.0071898946
248	0x3e28ab96	0.16471705
249	0x3e1fb5d7	0.1559671
250	0x3d869f12	0.06573309
251	0x3e02ccca	0.12773433
252	0x3bc9ae13	0.0061547845
253	0xbdac7914	-0.08421531
254	0x3c95cb68	0.018285468
255	0x3e170098	0.1474632

emb_net.v_lins1.1.bias f4 [32]
0	0x3e00b7df	0.12570141
1	0x3c9c3730	0.019069284
2	0x3d62606c	0.055267736
3	0x3d9658d0	0.073411584
4	0x3cbb302b	0.022850117
5	0xbd8e0899	-0.069352336
6	0x3dff61ea	0.124698475
7	0xbe076ea3	-0.13225798
8	0x3be77be2	0.0070643285
9	0x3df27db1	0.1184038
10	0x3de7bf97	0.1131584
11	0xbd00225d	-0.03128277
12	0xbc981e5a	-0.01856916
13	0xbe2c609b	-0.16833727
14	0x3e2fbe15	0.17162354
15	0x3e14825d	0.14502855
16	0xbe3ad484	-0.18245131
17	0x3d75029b	0.059816938
18	0x3d80a901	0.06282235
19	0xbd5aa0b3	-0.05337591
20	0xbde7ad98	-0.11312407
21	0x3defa8a4	0.117020875
22	0xbd903a9e	-0.0704243
23	0x3d9a54de	0.075357184
24	0x3e2c4249	0.16822161
25	0xbe243fa1	-0.16039898
26	0x3d23481a	0.039863683
27	0xbd94561b	-0.07242986
28	0xbd9dfbef	-0.07714068
29	0xbd827663	-0.06370237
30	0x3df42f95	0.11923138
31	0x3cc31ceb	0.0238175

emb_net.v_lins1.2.weight f4 [32, 32]
0	0x3d1523b3	0.036411
1	0xbe00d72f	-0.12582086
2	0x3cff44e7	0.031160785
3	0x3dd17e36	0.10229151
4	0x3c70b380	0.014691234
5	0x3e0e5dcd	0.1390297
6	0xbde9de63	-0.1141937
7	0xbc206465	-0.009789561
8	0x3df14814	0.11781326
9	0xbe27099f	-0.16312264
10	0xbdac21b4	-0.08404866
11	0x3d2b72f0	0.04185766
12	0xbc906378	-0.017625555
13	0xbdc17bf6	-0.09447472
14	0x3dd0f27c	0.102025
15	0x3db5d87d	0.088791825
16	0xbddc4f60	-0.10757327
17	0x3e2066be	0.15664193
18	0xbe405965	-0.18784101
19	0xbdcf09c9	-0.10109288
20	0x3de5acc8	0.11214596
21	0x3cfed878	0.03110908
22	0x3dbce4d5	0.09223334
23	0xbdc0fa32	-0.09422721
24	0x3d19cce3	0.03754891
25	0x3d037318	0.032092184
26	0xbda1b739	-0.07896275
27	0x3c01f6ca	0.007932374
28	0xbdea8a1e	-0.11452125
29	0xbd88591b	-0.066576205
30	0xbc83fb91	-0.016111167
31	0xbbc850a3	-0.0061131283
32	0x3df8b556	0.12143962
33	0x3db1310d	0.08651934
34	0xbdfa80f1	-0.12231625
35	0x3dc457d6	0.09587066
36	0xbdd37756	-0.10325496
37	0xbe2ddf4b	-0.16979711
38	0xbe22dd7d	-0.15904804
39	0x3dd53181	0.10409833
40	0x3e00c13e	0.12573716
41	0x3dc21c8a	0.094781
42	0xbb41088e	-0.0029454562
43	0x3d62cc72	0.055370755
44	0xbd1aaeae	-0.037764244
45	0xbd7f1ed4	-0.06228526
46	0xbe29a3d5	-0.16566403
47	0x3cba5c6a	0.022749145
48	0x3e19ef03	0.15032582
49	0x3b91090f	0.0044261287
50	0xbdd54045	-0.10412649
51	0x3e0faf35	0.1403168
52	0xbdbdee0b	-0.09273919
53	0x3dc40c27	0.095726304
54	0x3d9b77a8	0.07591182
55	0xbe193fbc	-0.14965719
56	0xbe052d01	-0.13005449
57	0x3deead5b	0.11654159
58	0x3de94ef2	0.11392011
59	0xbe2527e5	-0.161285
60	0xbd68a009	-0.056793246
61	0x3e0cbd61	0.13744117
62	0x3dc678f8	0.09691042
63	0x3e12d75c	0.14339966
64	0x3db44361	0.08801914
65	0xbdc8d63e	-0.098064885
66	0xbe01cbcd	-0.126754
67	0xbd5f9979	-0.054589722
68	0x3e17c924	0.14822823
69	0xbdc71389	-0.09720523
70	0xbd839c5c	-0.064263076
71	0xbe055a7c	-0.13022798
72	0xbe0fbb55	-0.14036305
73	0xbd280696	-0.041021906
74	0xbaa92aa7	-0.0012906388
75	0xbde88826	-0.11354093
76	0xbd216bae	-0.039409332
77	0xbe0fe9f4	-0.1405409
78	0x3cc564eb	0.024095973
79	0x3a8626a2	0.0010234902
80	0xbd216cad	-0.039410282
81	0xbde439b7	-0.11143821
82	0xbd2a3672	-0.04155583
83	0x3e20d1ca	0.15705028
84	0x3dbea70b	0.09309205
85	0x3e27a1ad	0.16370268
86	0x3c9221ef	0.017838446
87	0xba2c7d07	-0.000657991
88	0x3de5b6b0	0.112164855
89	0xbde7d7bc	-0.11320445
90	0xbe13a6f1	-0.14419152
91	0x3dd2b93c	0.10289237
92	0xbe2c6e81	-0.16839029
93	0xbdba3706	-0.09092526
94	0x3d9bb035	0.07601968
95	0xbe26cc6d	-0.1628892
96	0xbce81fec	-0.028335534
97	0xbe0de6d7	-0.1385759
98	0x3da3d441	0.079994686
99	0xbe3a9593	-0.1822112
100	0x3d8c3e2e	0.06847797
101	0x3e1d5c0c	0.15367144
102	0x3de99302	0.11404993
103	0xbe3e6023	-0.18591361
104	0xbe152454	-0.1456464
105	0xbd912212	-0.070865765
106	0x3ca459f6	0.020062428
107	0xbd7284bd	-0.05920862
108	0xbd642427	-0.05569854
109	0xbc7f2a97	-0.015574119
110	0xbd51ecb4	-0.05125113
111	0xbdbc759f	-0.09202122
112	0xbdee78ab	-0.11644109
113	0xbdb328be	-0.08748005
114	0x3dfc415a	0.12317152
115	0x3db6a481	0.089180954
116	0xbc12d32e	-0.008961482
117	0xbc39829f	-0.011322646
118	0xbdb2be75	-0.08727733
119	0x3de40cf0	0.1113528
120	0x3dffc934	0.12489548
121	0xbe34eb3b	-0.17667858
122	0xbe2f4f15	-0.17120011
123	0x3d9db8ae	0.077012405
124	0xbe2fd50f	-0.17171119
125	0xbe0d3670	-0.13790298
126	0x3db8828e	0.09009276
127	0x3e146384	0.14491087
128	0x3ced324e	0.028954651
129	0xbdc0fff0	-0.09423816
130	0xbdf56e0e	-0.11983882
131	0x3dc507bf	0.09620618
132	0x3de6b255	0.11264483
133	0xbc3e2eb4	-0.011607815
134	0xbe18e2e0	-0.14930296
135	0xbdd5eca4	-0.10445526
136	0xbe0965b4	-0.13417703
137	0xbdcba6f6	-0.09943955
138	0x3c83c02a	0.016082842
139	0x3daf7c04	0.08568576
140	0xbd8d41d3	-0.068973206
141	0x3d0de4b0	0.03464192
142	0x3d9fc299	0.078007884
143	0xbce3679e	-0.02775937
144	0x3d805fdc	0.06268284
145	0x3e2e5156	0.17023215
146	0x3dc1d4b3	0.09464397
147	0x3d867e19	0.0656702
148	0xbe308d18	-0.17241323
149	0x3d55b157	0.052171078
150	0xbdfa1f86	-0.12213044
151	0xbe00629e	-0.1253762
152	0x3e14546d	0.14485331
153	0x3dbc6975	0.09199802
154	0x3dbf1293	0.093297146
155	0xbd9e1343	-0.07718518
156	0xbd5d9fdc	-0.054107532
157	0x3cfd414e	0.030914929
158	0x3d1d431b	0.038394075
159	0xbdebb247	-0.11508613
160	0x3db32386	0.0874701
161	0x3d95e04d	0.073181726
162	0x3d0c7313	0.03428943
163	0x3d2816b8	0.04103729
164	0x3d3595f3	0.044332456
165	0xbe145987	-0.14487277
166	0x3c3d277f	0.011545061
167	0xbe16e580	-0.14735985
168	0x3b8ea75f	0.0043534483
169	0x3d5f15d2	0.05446417
170	0xbd9e66d6	-0.07734458
171	0xbcd561e1	-0.026047649
172	0x3e199bec	0.15000886
173	0xbde186cf	-0.11012041
174	0x3dfba197	0.1228668
175	0xbdb1e7b3	-0.08686771
176	0xbe30ef6c	-0.17278832
177	0x3bec6184	0.007213773
178	0xbbb47676	-0.0055072857
179	0xbc54fc36	-0.012999585
180	0x3d11a578	0.035558194
181	0x3d86dc8c	0.06585035
182	0xbe105ef1	-0.14098717
183	0x3da9f213	0.08298125
184	0x3d57aeb7	0.052656855
185	0xbd181cb4	-0.03713675
186	0x3d53ad5c	0.051679
187	0xbcd3a26d	-0.025834287
188	0x3da43680	0.080182076
189	0x3e3aa98f	0.18228744
190	0xbdafa899	-0.08577079
191	0x3e2ca73f	0.16860674
192	0x3cb8e8fb	0.022572031
193	0xbd4fb7e2	-0.050712474
194	0x3ddd96db	0.10819789
195	0xbde755ba	-0.11295648
196	0x3dc60b3f	0.09670114
197	0x3d93bc6e	0.072136745
198	0x3d976edc	0.073941916
199	0xbccc29b2	-0.024922226
200	0xbdbaecac	-0.09127173
201	0xbd3146ad	-0.043280292
202	0x3ce7df80	0.028304815
203	0xbc0b2515	-0.008492728
204	0x3e03ed30	0.12883449
205	0x3e0b4c68	0.13603365
206	0x3daaef3e	0.08346413
207	0x3e07d3ab	0.13264339
208	0xbdd862c3	-0.10565712
209	0x3ce0cdcc	0.027441882
210	0x3e281cb3	0.16417198
211	0x3ca7fb22	0.020505492
212	0xbc807581	-0.01568103
213	0x3d2b446d	0.041813303
214	0x3e19b14c	0.1500904
215	0x3e06c859	0.13162364
216	0xbe188a54	-0.14896518
217	0x3e1d6037	0.15368734
218	0xbdbb01eb	-0.09131225
219	0x3cae48c7	0.021274937
220	0x3db68c50	0.08913481
221	0x3d35c773	0.044379663
222	0x3da0028e	0.07812987
223	0x3db23edb	0.08703395
224	0x3e093e43	0.13402657
225	0x3dd32890	0.10310471
226	0x3d4f263a	0.050573565
227	0xbe02c231	-0.1276939
228	0x3df8aa15	0.121418156
229	0x3bd0efff	0.006376266
230	0xbda46501	-0.080270775
231	0xbcbe10dc	-0.023201399
232	0xbcd8b848	-0.02645506
233	0xbe494fb9	-0.19659318
234	0xbba05ad4	-0.00489364
235	0x3e1e38f4	0.15451413
236	0xbdb7b348	-0.08969742
237	0x3e2553aa	0.16145197
238	0x3db9729b	0.090550624
239	0xbce11b09	-0.027478712
240	0xbe343f73	-0.17602329
241	0xbd5a4ead	-0.053297687
242	0x3e11fee3	0.14257388
243	0xbd6915da	-0.056905605
244	0x3cd01f04	0.025405414
245	0x3e1eacad	0.15495558
246	0x3e079c98	0.1324333
247	0x3d894c95	0.0670406
248	0xbd9e840a	-0.07740028
249	0xbd561b61	-0.052272204
250	0x3dca29c3	0.09871247
251	0xbe3abaab	-0.1823527
252	0x3d8c5cdb	0.06853648
253	0x3cf5be45	0.029997954
254	0x3dcf9900	0.10136604
255	0x3e250cb0	0.16118121

emb_net.v_lins1.2.bias f4 [32]
0	0x3d88e2b7	0.066838674
1	0xbc3f5bbe	-0.011679588
2	0xbe21193c	-0.15732282
3	0xbe0d0932	-0.13773039
4	0xbd0d031a	-0.034426786
5	0x3e346bb5	0.17619212
6	0x3d0f9eca	0.035063542
7	0xbd8c9be3	-0.068656705
8	0xbd0d1e15	-0.034452517
9	0x3d67d8ba	0.05660317
10	0xbe2b22ad	-0.16712447
11	0x3da7e2bd	0.08197544
12	0x3d07e0ec	0.033173487
13	0x3d5e6a7f	0.05430078
14	0xbe2d83d6	-0.16944823
15	0xbe128432	-0.14308241
16	0xbd089fad	-0.033355404
17	0x3afbe89e	0.0019219106
18	0x3ddfdf04	0.10931209
19	0xbe32d654	-0.17464572
20	0xbbf058f4	-0.007334823
21	0xbd02059f	-0.031743642
22	0xbda8e51c	-0.08246824
23	0xbda35345	-0.07974867
24	0xbe2a58a1	-0.16635372
25	0x3dbd697b	0.092486344
26	0x3db1185e	0.08647226
27	0x3c807866	0.01568241
28	0x3d33c684	0.04389049
29	0xbda6d1d6	-0.08145492
30	0xbd1b2bf4	-0.037883714
31	0x3d20b841	0.03923822

emb_net.v_lins1.3.weight f4 [32, 32]
0	0x3d6a95e8	0.057271868
1	0x3e318293	0.17334966
2	0x3c7edf42	0.0155561585
3	0xbdb23cec	-0.08703026
4	0xbd056754	-0.032569245
5	0xbda0d702	-0.078535095
6	0x3e22a72d	0.15884085
7	0x3d9c2016	0.076233074
8	0x3dd11993	0.10209956
9	0xbd2e111b	-0.04249678
10	0xbda43731	-0.080183394
11	0x3d4a482c	0.049385235
12	0xbd6fb44b	-0.05852155
13	0x3e2b9ba8	0.16758597
14	0xbdb6f7eb	-0.08934005
15	0xbe2326bc	-0.15932745
16	0xbe30c105	-0.17261131
17	0x3d6cf31b	0.05784903
18	0xbd791e55	-0.060819943
19	0xbde955bc	-0.11393306
20	0xbdff72e8	-0.124730885
21	0x3da2fff1	0.07958973
22	0x3e18838a	0.14893928
23	0xb999fbbd	-0.00029369994
24	0x3d059f9e	0.032622926
25	0xbdb06564	-0.08613089
26	0xbcba4bdc	-0.02274125
27	0xbe0532c6	-0.1300765
28	0xbdfbc55a	-0.12293501
29	0xbd26d85f	-0.04073369
30	0x3dd02681	0.10163594
31	0xbdb18506	-0.0866795
32	0xbdfa8d6f	-0.122340076
33	0xbbe5f1d3	-0.007017353
34	0x3dc31835	0.095261015
35	0xbe2ee2f0	-0.17078757
36	0x3c258b02	0.010103943
37	0xbe2cc38e	-0.16871473
38	0xbd9b4d79	-0.07583136
39	0x3e05bde9	0.13060726
40	0x3e21f472	0.15815905
41	0x3d2acfe4	0.041702166
42	0x3dca37ad	0.098739006
43	0x3db93e24	0.090450555
44	0x3d7144ad	0.058903385
45	0xbda005f6	-0.07813637
46	0x3cffb5de	0.03121465
47	0x3d3f0529	0.04663578
48	0xbe04813e	-0.12939927
49	0x3e194f80	0.14971733
50	0x3d83633f	0.06415414
51	0x3ddce9dd	0.107867934
52	0xbd8272e9	-0.063695736
53	0x3db67c58	0.089104354
54	0xbdb25b65	-0.087088384
55	0xbd4ac6a9	-0.049505863
56	0xbe044a24	-0.12918907
57	0xbd9e8ed2	-0.077420846
58	0x3cc24b85	0.023717651
59	0xbdfd7a08	-0.12376791
60	0x3e10ef8e	0.14153883
61	0x3d308e81	0.043104652
62	0x3d5d5b0a	0.0540419
63	0x3e367a35	0.17820056
64	0xbd85f3fb	-0.06540676
65	0xbdadb9ef	-0.0848273
66	0x3deb5fcf	0.114928834
67	0x3d70af4d	0.05876093
68	0xbe0645d3	-0.13112573
69	0x3e07cf8e	0.1326277
70	0x3d0255a2	0.031819947
71	0x3c2f8418	0.010712646
72	0xbdd8a325	-0.10577992
73	0xbc9cceac	-0.019141518
74	0x3a3a170b	0.00070987706
75	0xbe00a2db	-0.12562124
76	0xbd1e52d8	-0.038653225
77	0xbb563162	-0.0032683243
78	0x3d97b87d	0.07408235
79	0xbdb77059	-0.089569755
80	0xb8daa820	-0.00010426366
81	0xbe3e8d11	-0.186085
82	0x3c7bdf0b	0.015373002
83	0x3dc314d7	0.09525459
84	0x3d4c3d6b	0.04986326
85	0x3d5aff9a	0.053466417
86	0x3b5e4340	0.0033914596
87	0xbe08adfe	-0.13347623
88	0xbd1a0daf	-0.037610706
89	0x3de36a88	0.111043036
90	0xbd6a256a	-0.057164587
91	0xbdfa9b54	-0.12236658
92	0xbd0cba1b	-0.03435717
93	0xbe1ccae0	-0.15311766
94	0x3d1e59d4	0.038659886
95	0xb92099c7	-0.00015316076
96	0xbdbe6100	-0.09295845
97	0xbda65488	-0.08121592
98	0x3df6b8d3	0.12046971
99	0x3ddc61b8	0.10760826
100	0xbd96289a	-0.07331963
101	0x3c4cbfe3	0.012496921
102	0x3e11b2d1	0.1422837
103	0x3da17f7e	0.07885645
104	0x3c951f0d	0.018203283
105	0xbdf7e862	-0.121048704
106	0x3e0d9188	0.13825047
107	0xbdd221ef	-0.102603786
108	0x3e1b736e	0.15180752
109	0xbde59af7	-0.11211198
110	0x3e00fe2b	0.12596957
111	0x3dd6ef29	0.10494835
112	0x3dfd0f69	0.12356455
113	0xbd998f9a	-0.07498093
114	0xbc6e85c6	-0.014558261
115	0x3e08ce2a	0.13359895
116	0x3e38cdb8	0.18047225
117	0x3da286b3	0.07935848
118	0xbdc55697	-0.09635656
119	0x3da77044	0.0817571
120	0x3e0c0959	0.13675441
121	0x3d8cbea5	0.068723
122	0xbcc823b6	-0.02443109
123	0x3dc1633f	0.09442758
124	0xbd9fd2ec	-0.07803902
125	0xbce62930	-0.028095812
126	0xbbcfb19c	-0.0063383114
127	0xbd8cf041	-0.06881762
128	0x3da7b17e	0.08188151
129	0xbdc56963	-0.096392415
130	0x3e062dde	0.13103434
131	0x3db1ca73	0.08681192
132	0xbcfbc488	-0.030733362
133	0xbe20f8af	-0.15719865
134	0xbe1a0a20	-0.15042925
135	0xbd25f88e	-0.040520243
136	0xbddb40ff	-0.107057564
137	0xbd72ff81	-0.0593257
138	0x3e20a0dc	0.15686363
139	0x3df16851	0.11787475
140	0xbc4183ee	-0.01181124
141	0x3e2cad18	0.16862905
142	0x3e186f30	0.14886165
143	0x3e216dd0	0.15764546
144	0x3df9bf7e	0.12194727
145	0x3d4ebf37	0.050475325
146	0xbe1f45ac	-0.15553921
147	0xbd2bee82	-0.041975506
148	0x3dbc6bea	0.092002705
149	0x3e03d29d	0.12873311
150	0xbd4c8770	-0.04993385
151	0xbddd0f14	-0.107938915
152	0xbbecd831	-0.0072279205
153	0xbb9f8030	-0.004867576
154	0x3ae6ba39	0.0017603106
155	0x3cb44727	0.022006584
156	0x3d31932b	0.04335324
157	0x3d183ede	0.03716933
158	0xbd8894d1	-0.066690095
159	0xbd876939	-0.066118665
160	0xbdafdafc	-0.0858669
161	0x3e0ed8c7	0.13949881
162	0x3d33ee82	0.04392863
163	0x3ce168c3	0.027515775
164	0x3e358050	0.17724729
165	0x3dac18aa	0.08403142
166	0xbdf8fdea	-0.12157805
167	0xbde94fd3	-0.113921784
168	0xbdd57787	-0.10423189
169	0x3e069ba7	0.13145314
170	0x3da89e5f	0.08233332
171	0x3e1ee187	0.1551572
172	0x3de54cb6	0.11196272
173	0xbe0f106d	-0.1397111
174	0x3e03f06c	0.12884682
175	0xbc6ff871	-0.014646635
176	0xbdcf8d2a	-0.10134347
177	0xbd2d1f0a	-0.04226593
178	0xbe46fbc5	-0.1943198
179	0xbd2a1b23	-0.041529786
180	0x3e035000	0.12823486
181	0x3e03d893	0.12875585
182	0xbe12b127	-0.14325391
183	0x3d15a1b3	0.03653116
184	0xbd9ebf0e	-0.077512845
185	0x3c82f3e7	0.015985442
186	0xbe24dbe1	-0.16099502
187	0x3dfb073c	0.12257239
188	0xbd078f5a	-0.033095695
189	0x3ba5ab73	0.0050558387
190	0xbda8f416	-0.08249681
191	0x3e0c36d5	0.13692792
192	0xbe1963fb	-0.14979546
193	0xbdc889e3	-0.09791925
194	0x3ddb2095	0.10699574
195	0xbde4e9b9	-0.111773916
196	0x3e2321ad	0.15930815
197	0x3d8665f7	0.06562417
198	0x3dbe4342	0.09290172
199	0xbe05e994	-0.13077384
200	0x3d1c85d9	0.038213585
201	0x3daaeb3a	0.08345647
202	0xbe26bdf1	-0.16283394
203	0xbe26016c	-0.1621148
204	0x3db16589	0.086619444
205	0x3c465e55	0.012107451
206	0xbc93b02e	-0.018028345
207	0x3e1f27c7	0.15542518
208	0x3e18d891	0.14926364
209	0xbce695bf	-0.028147576
210	0xbddcf102	-0.10788156
211	0xbc4e0947	-0.012575454
212	0x3d726079	0.059174035
213	0x3df367f9	0.118850656
214	0xbdb16ab5	-0.08662931
215	0x3d89c514	0.06727043
216	0xbe219620	-0.15779924
217	0x3da09839	0.07841534
218	0xbd143b88	-0.036189586
219	0xbc931c38	-0.017957792
220	0xbd2f2746	-0.042762063
221	0xbe33e4ad	-0.17567702
222	0x3e004a4e	0.12528345
223	0x3e01b225	0.12665613
224	0x3d97c48d	0.07410536
225	0x3df4c928	0.1195243
226	0xbdf78a57	-0.12086933
227	0x3c92c7cc	0.017917536
228	0x3d8475a0	0.06467748
229	0xbe00417c	-0.1252498
230	0x3e29093c	0.16507429
231	0xbe3a60c1	-0.18200971
232	0xbd1c17ce	-0.03810864
233	0xbd65e25b	-0.056124073
234	0x3d2a5657	0.041586246
235	0x3d2906dc	0.041266307
236	0xbdd41545	-0.10355619
237	0x3d9fcb85	0.0780249
238	0x3d2314a7	0.039814617
239	0xbcb1fc30	-0.021726698
240	0x3e21d0dc	0.1580233
241	0x3ce215b4	0.02759824
242	0x3b5734ec	0.003283794
243	0x3d7feb8d	0.062480498
244	0xbdd99ca9	-0.10625584
245	0x3d1179d3	0.03551657
246	0x3de9968d	0.114056684
247	0x3d494eb6	0.04914733
248	0xbce65701	-0.028117659
249	0x3db8a32e	0.09015499
250	0x3bb78803	0.0056009307
251	0x3d8efe39	0.06982083
252	0xbd332fc7	-0.043746736
253	0xbe4bf9c2	-0.19919494
254	0xbdbf4ea5	-0.09341172
255	0x3dd3784a	0.10325678

emb_net.v_lins1.3.bias f4 [32]
0	0x3d8132ab	0.06308492
1	0x3dd9317b	0.10605141
2	0xbe0e2353	-0.13880663
3	0x3dba113a	0.09085317
4	0xbde2c020	-0.11071801
5	0x3e085dc2	0.13317016
6	0xbd8037fa	-0.06260677
7	0x3dee2aa2	0.11629225
8	0xbd715f23	-0.05892862
9	0xbe0ace2c	-0.13555211
10	0x3e247957	0.16061912
11	0xbd221812	-0.039573736
12	0x3e1794d4	0.14802867
13	0x3e3435c5	0.17598636
14	0x3e2b57c3	0.16732697
15	0x3d8e59de	0.069507346
16	0xbdd18aeb	-0.102315746
17	0xbdb4e855	-0.08833376
18	0xbe11ec90	-0.14250398
19	0x3e06f10d	0.13177891
20	0xbcb72426	-0.022356104
21	0xbe26733c	-0.16254896
22	0x3d8bc540	0.06824732
23	0xbd4db969	-0.05022565
24	0x3e072422	0.13197377
25	0x3e0ce388	0.13758671
26	0x3cdff5d1	0.027338894
27	0x3de88e39	0.11355252
28	0x3c682116	0.014168045
29	0xbdd259c7	-0.1027103
30	0x3da61192	0.0810882
31	0x3db2d478	0.087319314

emb_net.v_lins1.4.weight f4 [32, 32]
0	0x3e049a45	0.12949474
1	0xbe2d7ff0	-0.16943336
2	0xbe0e02e9	-0.13868298
3	0xbe164e74	-0.14678365
4	0x3d484992	0.048898287
5	0x3d963782	0.07334806
6	0x3c9c2d51	0.019064577
7	0x3d90a44f	0.070625894
8	0xbe0b5731	-0.1360748
9	0x3d90d927	0.070726685
10	0x3c21ab1a	0.009867454
11	0xbd780817	-0.06055459
12	0x3df97b70	0.12181747
13	0xbcbf98c7	-0.02338828
14	0xbd7a1cf3	-0.061062764
15	0xbe1bf309	-0.1522943
16	0x3daa3a82	0.08311941
17	0x3e12215e	0.14270541
18	0x3e2f2f05	0.1710778
19	0xbe35a275	-0.17737754
20	0xbd11a595	-0.035558302
21	0xbc7b1282	-0.015324237
22	0x3dcf453b	0.101206265
23	0xbd9465a6	-0.072459504
24	0xbe059af5	-0.13047393
25	0xbbfb125e	-0.0076621016
26	0xbd6982cd	-0.057009507
27	0xbe17802b	-0.14794986
28	0x3dcc8c4d	0.09987698
29	0x3e119940	0.14218616
30	0x3bace012	0.0052757347
31	0xbd271ed6	-0.04080089
32	0xbe00e24c	-0.12586325
33	0x3d8d16f5	0.06889144
34	0x3e16ccab	0.14726512
35	0xbd2022aa	-0.03909556
36	0x3de37a33	0.11107292
37	0xbdfa7aa3	-0.12230422
38	0xbd77e844	-0.06052424
39	0x3c82b33f	0.015954612
40	0x3ddbb8dc	0.107286185
41	0x3d3a6e83	0.04551555
42	0x3d78bfbb	0.060729723
43	0xbe355d3e	-0.1771135
44	0x3d80f8d2	0.06297459
45	0x3d7a79db	0.061151367
46	0xbdaff6b9	-0.085919805
47	0xbe24267b	-0.16030304
48	0xbdcb8213	-0.09936919
49	0xbdb8014a	-0.08984621
50	0x3cbf534c	0.023355149
51	0xbd00bff5	-0.031433064
52	0xbe095286	-0.13410386
53	0x3e1b8230	0.15186381
54	0x3d14e77c	0.036353573
55	0xbdf996d3	-0.121869706
56	0xbde83c96	-0.11339681
57	0xbd028993	-0.031869482
58	0x3cb0b16f	0.021568982
59	0x3e13d090	0.14435029
60	0x3e0eecd4	0.1395753
61	0xbda3630b	-0.07977875
62	0x3dc165ee	0.0944327
63	0xbdaf81de	-0.08569692
64	0xbd25668e	-0.040381007
65	0x3c729250	0.014805391
66	0xbd9fd628	-0.07804519
67	0xbd99573d	-0.074873425
68	0xbd0093de	-0.031391017
69	0xbde87245	-0.1134992
70	0x3da3f6d1	0.08006061
71	0x3e1819bc	0.14853567
72	0xbcdb8e90	-0.026801378
73	0xbdb6b234	-0.08920708
74	0x3d23f4de	0.040028445
75	0xbdca78ee	-0.09886347
76	0xbd90f0ef	-0.070772044
77	0xbe1f38b3	-0.15548973
78	0xbc8913ce	-0.016733076
79	0x3bc83a16	0.00611044
80	0x3e03f262	0.1288543
81	0xbe369c6c	-0.17833108
82	0xbc70fce5	-0.014708732
83	0x3cb17f52	0.021667156
84	0xbd0d6fec	-0.034530565
85	0x3dab4d73	0.08364382
86	0x3db20147	0.0869165
87	0x3daeed45	0.08541349
88	0xbd1ba6ec	-0.038000986
89	0xbd7b0889	-0.061287437
90	0xbe054f17	-0.13018452
91	0xbe269c00	-0.16270447
92	0x3d97873e	0.07398842
93	0xbdfef05b	-0.12448188
94	0xbdd82b4e	-0.10555135
95	0xbe1e8080	-0.15478706
96	0x3d8dacad	0.06917701
97	0x3dbd3ca7	0.09240084
98	0x3da6b0df	0.08139204
99	0x3e1f4918	0.15555227
100	0x3dcb5307	0.099279456
101	0xbd9fc48d	-0.07801161
102	0xbdfacc3e	-0.12245987
103	0xbb715af7	-0.00368279
104	0xbd893fad	-0.06701598
105	0xbe13a552	-0.14418533
106	0xbe23a163	-0.15979533
107	0x3d51067b	0.05103157
108	0x3da27677	0.079327516
109	0x3e0802ef	0.13282369
110	0xbd81c850	-0.06337035
111	0x3e233ac4	0.15940386
112	0x3cdd4f29	0.027015286
113	0xbdcc1c8e	-0.09966384
114	0x3d063fbc	0.032775626
115	0x3d984216	0.0743448
116	0x3d605ef7	0.054778066
117	0x3d385372	0.045001455
118	0xbdc86dae	-0.09786545
119	0xbd738896	-0.05945643
120	0x3d68997c	0.056787
121	0x3d711c24	0.058864728
122	0x3dc86842	0.097855106
123	0xbde40eff	-0.11135673
124	0x3d9d95ad	0.07694564
125	0xbe18bd6c	-0.14916009
126	0xbdd34cc7	-0.103173785
127	0xbe2b037f	-0.16700552
128	0x3d664805	0.056221027
129	0xbc793f80	-0.0152128935
130	0xbe0bc73c	-0.1365022
131	0xbd4d2832	-0.05008716
132	0x3d0b1b0d	0.033961345
133	0x3d8abf96	0.06774823
134	0xbe137aee	-0.14402363
135	0x3ca92e7d	0.02065205
136	0x3df31404	0.11869052
137	0x3dbb59c1	0.091479786
138	0x3dc24e6c	0.09487614
139	0x3da4a82f	0.08039891
140	0x3d7a48e0	0.061104655
141	0xbe1f0ade	-0.15531489
142	0xbce50bb7	-0.027959688
143	0x3e38290c	0.17984408
144	0x3d8e6fef	0.069549434
145	0xbe1abbc3	-0.15110688
146	0xbaa5cbe0	-0.001264926
147	0x3c81864a	0.015811104
148	0xbdc1753c	-0.09446189
149	0x3daf96e8	0.08573705
150	0xbe2f7da5	-0.17137773
151	0xbe3c0d0a	-0.18364349
152	0xbdc1509c	-0.09439203
153	0x3de2bad2	0.110707894
154	0x3e0a8330	0.13526607
155	0xbd12cf21	-0.035842065
156	0x3d8eb197	0.06967466
157	0xbdd55ebc	-0.1041846
158	0xbdbd2b8d	-0.09236822
159	0xbdeaf974	-0.11473361
160	0x3dad23a7	0.08454066
161	0xbd79ac99	-0.060955618
162	0x3c594d09	0.0132629955
163	0xbdb1e313	-0.08685889
164	0xbde9b417	-0.114113025
165	0x3dceae4e	0.1009184
166	0xbe2a3fb1	-0.16625859
167	0xbd436303	-0.047701847
168	0xbdfa073d	-0.12208412
169	0x3d4bc13a	0.049744822
170	0x3e041b0e	0.12900946
171	0xbd84f36c	-0.064917415
172	0xbdf23adc	-0.11827633
173	0x3dfa2ab0	0.12215173
174	0xbe2742e2	-0.16334108
175	0x3e245666	0.16048583
176	0x3dafad81	0.08578015
177	0x3dc49c8c	0.096001714
178	0xbd9d4b2b	-0.07680353
179	0x3da067b7	0.07832282
180	0x3e166ebe	0.14690682
181	0x3d49baf3	0.049250554
182	0xbe038e65	-0.12847288
183	0x3ce6d1b6	0.02817617
184	0x3d230713	0.03980167
185	0x3e20db37	0.15708624
186	0xbd61f843	-0.0551684
187	0x3dfcbedc	0.12341091
188	0x3e0644dd	0.13112207
189	0xbce10003	-0.027465826
190	0x3c47ea2b	0.012201826
191	0x3c474af4	0.012163866
192	0xbe2b86ab	-0.1675059
193	0x3d90f354	0.07077661
194	0x3d90fd11	0.070795186
195	0x3b453b16	0.0030095032
196	0xbe0b5bbb	-0.13609211
197	0xbdcaf313	-0.09909644
198	0xbc070753	-0.008241492
199	0x3e0c29a8	0.13687766
200	0xbdcb9a1a	-0.09941502
201	0x3d20da46	0.03927066
202	0xbdefe284	-0.11713126
203	0x3ce2f008	0.027702346
204	0xbe2bb6da	-0.16768971
205	0x3e1c4387	0.15260135
206	0xbe02a4f0	-0.12758231
207	0x3e0d1b83	0.13780026
208	0x3da4f37f	0.08054256
209	0xbd53cf53	-0.05171139
210	0xbe01b21f	-0.12665604
211	0xbe31702e	-0.1732795
212	0xbe08b1f9	-0.13349141
213	0x3e07f5a5	0.132773
214	0xbdc8b224	-0.09799603
215	0xbe115c45	-0.14195354
216	0x3d88abff	0.06673431
217	0xbe0ac4fa	-0.13551703
218	0xbe24237c	-0.16029161
219	0x3d27a7df	0.04093158
220	0x3ddfd5ff	0.109294884
221	0x3c823584	0.015894659
222	0x3d8581b3	0.06518879
223	0x3cf78dcf	0.030218987
224	0x3d8a8822	0.067642465
225	0x3e2b72bd	0.16742988
226	0x3ca673e8	0.02031894
227	0x3e21cf9e	0.15801856
228	0x3d71cbf3	0.05903239
229	0xbe2eb0f1	-0.17059685
230	0xbe33475d	-0.17507692
231	0xbe265138	-0.1624192
232	0x3e277c59	0.16356029
233	0xbe25ad33	-0.16179352
234	0x3ddafc3f	0.106926434
235	0x3d6ac8c6	0.05732038
236	0xbdb23120	-0.08700776
237	0x3dc17ced	0.09447656
238	0x3d86b7cb	0.065780245
239	0x3e036c43	0.12834267
240	0x3e2f2352	0.17103317
241	0xbdded81c	-0.10881063
242	0x3ce36c74	0.027761675
243	0x3cae0e85	0.021247158
244	0x3d9534bb	0.07285448
245	0x3e0b0b46	0.13578519
246	0x3df55584	0.119792014
247	0x3d7c7ff9	0.06164548
248	0xbe122ef1	-0.14275719
249	0x3e0e30a7	0.13885747
250	0xbd2890fa	-0.041153885
251	0x3d3c33c9	0.045947824
252	0xbcea9079	-0.028633343
253	0x3e02cf96	0.127745
254	0xbdad2bf2	-0.084556475
255	0xbd4d3739	-0.050101493

emb_net.v_lins1.4.bias f4 [32]
0	0xbdb13132	-0.086519614
1	0xbe2da109	-0.16955961
2	0xbe0e0107	-0.1386758
3	0xbe0372a5	-0.12836702
4	0xbd90d9d5	-0.07072798
5	0xbd5d6a69	-0.05405656
6	0xbe017d73	-0.12645511
7	0x3c04594e	0.0080779325
8	0xbc67c7d6	-0.014146766
9	0x3cd526e2	0.026019517
10	0x3dc91760	0.098189116
11	0x3df7848f	0.120858304
12	0xbe21e9d1	-0.1581185
13	0xbe3136eb	-0.17306106
14	0xbe0aee84	-0.13567549
15	0x3dbad3e3	0.091224454
16	0x3e31e683	0.1737309
17	0x3c44290f	0.01197268
18	0xbd382685	-0.04495861
19	0xbe0d3df8	-0.1379317
20	0xbe1ac700	-0.15114975
21	0x3e08e1e4	0.1336742
22	0xbd17ba01	-0.03704262
23	0x3e3149e4	0.17313343
24	0xbc999f13	-0.01875261
25	0x3dd8c979	0.10585303
26	0xbc756129	-0.014976778
27	0x3deacb9c	0.11464617
28	0x3da892bf	0.082311146
29	0xbd77b25b	-0.060472827
30	0x3db6d634	0.08927575
31	0xbe2ce386	-0.16883668

emb_net.v_lins1.5.weight f4 [32, 32]
0	0x3e105c09	0.14097609
1	0x3e099456	0.13435492
2	0x3d716339	0.058932517
3	0xbd75e1bb	-0.060029726
4	0xbdbf0d63	-0.09328725
5	0x3dc98342	0.098394886
6	0xbda0c508	-0.07850081
7	0xbd165375	-0.036700685
8	0xbe27b8df	-0.16379116
9	0xbd85d11e	-0.065340266
10	0xbe3edead	-0.18639632
11	0xbe2faea3	-0.17156462
12	0x3dd124c2	0.10212089
13	0x3d2aac0c	0.041667983
14	0xbd382e13	-0.044965815
15	0xbd8f5929	-0.06999428
16	0x3db5a5d5	0.088695206
17	0xbd8b74d6	-0.06809394
18	0xbe038eca	-0.12847438
19	0x3d95e6de	0.07319425
20	0x3e18ed79	0.14934339
21	0x3de13411	0.10996259
22	0xbdfa2885	-0.1221476
23	0x3bdb411c	0.0066911113
24	0xbcc0cf74	-0.023536421
25	0xbe29bcd5	-0.1657594
26	0xbe110856	-0.14163336
27	0x3c9367b9	0.017993795
28	0x3dc585bd	0.09644649
29	0x3c836404	0.016038902
30	0x3e0b7008	0.13616955
31	0x3d201375	0.039081056
32	0x3e1c8c16	0.15287814
33	0xbe410da9	-0.18852867
34	0x3e246cfc	0.16057199
35	0x3daeb281	0.08530141
36	0x3d6d63a2	0.057956345
37	0xbdddf957	-0.108385734
38	0x3e05c889	0.1306478
39	0xbdec7410	-0.11545575
40	0xbd494ef1	-0.04914755
41	0x3e1c091f	0.15237854
42	0xbe0a5d13	-0.13512067
43	0xbe390d4d	-0.1807148
44	0x3dfa793e	0.12230156
45	0x3e16b01e	0.14715621
46	0x3e1f15b8	0.15535629
47	0xbe162041	-0.14660741
48	0xbde0d661	-0.109783895
49	0xbdde411c	-0.108522624
50	0xbd82b0c9	-0.06381375
51	0x3d1850ef	0.03718656
52	0xbc8eb1a2	-0.017418686
53	0x3c8c2123	0.017105645
54	0xbd56db0f	-0.052455004
55	0x3e2466c7	0.16054831
56	0xbd004053	-0.031311344
57	0xbd909c27	-0.07061034
58	0xbc06560a	-0.008199224
59	0xbda17cb9	-0.07885117
60	0xbc88bca1	-0.016691508
61	0xbe03a504	-0.12855917
62	0xbdb1bfde	-0.08679174
63	0x3dd3b5af	0.10337388
64	0xbcb0652a	-0.021532614
65	0x3e1ced7f	0.15324973
66	0x3d862734	0.06550446
67	0x3e15f26f	0.14643262
68	0xbe1444e5	-0.14479406
69	0xbd3d5512	-0.046223707
70	0xbdc59daa	-0.09649213
71	0x3e02faa3	0.12790923
72	0xbe36dc72	-0.1785753
73	0xbdf02395	-0.11725537
74	0x3dff83f6	0.124763414
75	0xbd20ce3e	-0.039259188
76	0x3dd26a74	0.102742106
77	0xbe1e843c	-0.15480131
78	0xbda7b42d	-0.08188663
79	0x3e166ee9	0.14690746
80	0xbdb006ad	-0.08595023
81	0xbde6dc90	-0.11272538
82	0x3e25e414	0.16200286
83	0xbd8ef36a	-0.06980021
84	0x3dc10e17	0.094265155
85	0xbd85b432	-0.0652851
86	0xbcc2761f	-0.023737965
87	0xbe1554c6	-0.1458312
88	0x3e1dfb39	0.15427865
89	0xbe3c4b85	-0.18388183
90	0xbd98706e	-0.07443319
91	0x3d9af737	0.07566684
92	0xbdea0b99	-0.11427993
93	0xbcc0a219	-0.023514794
94	0xbc1f8619	-0.009736561
95	0xbd191764	-0.037375823
96	0xbdcf5e78	-0.1012544
97	0xbd78acf5	-0.06071182
98	0x3e057541	0.1303301
99	0x3d53536d	0.051593233
100	0xbd72aa1e	-0.059244268
101	0xbbd2881e	-0.006424918
102	0x3cf1e386	0.029527437
103	0x3c2fe83f	0.010736524
104	0xbe30d928	-0.17270339
105	0xbcff62ea	-0.031175096
106	0xbe05ed62	-0.13078836
107	0xbd9672d9	-0.07346124
108	0xbde5eb2b	-0.11226495
109	0xbd4e9d62	-0.05044306
110	0x3e14a3b6	0.14515576
111	0xbe26d7af	-0.16293214
112	0xbe00a4c5	-0.12562855
113	0xbd0f446e	-0.03497737
114	0x3dcf077b	0.10108849
115	0x3d832bfa	0.06404872
116	0x3e1e45a5	0.15456255
117	0x3d19c491	0.037540976
118	0x3b53c7b2	0.0032315073
119	0xbd0cdf74	-0.03439279
120	0xbe36ab06	-0.17838678
121	0xbe2eed67	-0.1708275
122	0x3e00ed61	0.12590553
123	0x3d9ba68e	0.07600127
124	0x3dd2bbd2	0.1028973
125	0x3dc7b9de	0.09752248
126	0x3c88defb	0.016707888
127	0xbddec0c8	-0.10876614
128	0x3c782943	0.015146556
129	0xbd193c71	-0.037411157
130	0xbdd27c3b	-0.10277601
131	0x3c8b631d	0.017015034
132	0x3d5b12db	0.05348478
133	0x3e0527e3	0.13003497
134	0x3d67b039	0.056564543
135	0xbdfec46e	-0.1243981
136	0xbd3ada4e	-0.045618348
137	0x3db84220	0.08996987
138	0x3db53286	0.08847527
139	0xbc25f7fc	-0.010129925
140	0xbd789a64	-0.060694113
141	0x3e0125f0	0.12612128
142	0xbd8ec973	-0.06972017
143	0x3e061836	0.13095173
144	0xbe08ee11	-0.13372065
145	0xbd3aa6bf	-0.045569178
146	0x3bcb1f48	0.0061987974
147	0x3da5ed19	0.081018634
148	0x3cb43d90	0.022002012
149	0xbc8d1426	-0.017221522
150	0x3e1afde1	0.1513591
151	0x3e16b17a	0.1471614
152	0xbe1c2daf	-0.15251802
153	0x3dcf4137	0.101198606
154	0x3d030c7c	0.031994328
155	0xbcbd48df	-0.023106037
156	0xbd32822c	-0.043581173
157	0x3da98743	0.08277752
158	0xbcbad6d7	-0.022807522
159	0xbe0e413f	-0.13892077
160	0x3dd72150	0.10504401
161	0xbdc12783	-0.094313644
162	0x3df6f1d4	0.12057844
163	0xbc14ffe6	-0.009094214
164	0xbb51c62e	-0.0032008993
165	0x3ddef6d1	0.1088692
166	0xbe3809a1	-0.17972423
167	0x3cb20528	0.021730974
168	0xbd078cc3	-0.033093225
169	0x3e1d79cc	0.15378493
170	0x3d811fc8	0.0630489
171	0xbd9fd36b	-0.07803997
172	0x3d65bb06	0.056086563
173	0xbe24d760	-0.16097784
174	0xbe21b753	-0.15792589
175	0xbe04a8bc	-0.12954992
176	0x3cf0adf7	0.029379828
177	0x3d0c47ad	0.034248043
178	0xbdeba486	-0.1150599
179	0x3d7ed418	0.062213987
180	0xbdaef91e	-0.08543609
181	0x3c0e1651	0.008672313
182	0xbe248547	-0.16066466
183	0xbd865819	-0.06559772
184	0x3ce10032	0.027465913
185	0xbe26e1a6	-0.16297016
186	0x3e141bab	0.1446368
187	0xbe2c0693	-0.16799383
188	0x3cb7d4ff	0.022440432
189	0xbdfd2504	-0.12360576
190	0xbe29e931	-0.16592862
191	0xbe18b92c	-0.14914387
192	0xbc842d68	-0.016134933
193	0xbe39d91b	-0.18149225
194	0xbe22e691	-0.15908267
195	0x3e14c660	0.14528799
196	0x3de0503c	0.109528035
197	0x3dd3e9f1	0.10347355
198	0x3d920bae	0.07131134
199	0xbe3a0a1a	-0.18167916
200	0xbd8b95e4	-0.06815699
201	0xbe28a951	-0.16470839
202	0x3c546f04	0.012965921
203	0x3d0c80c7	0.0343025
204	0x3c15b3a0	0.009137064
205	0x3e166ecb	0.14690702
206	0xbda4078a	-0.080092505
207	0xbd88d377	-0.06680959
208	0xbdeaff3f	-0.114744656
209	0xbccd2d7e	-0.025046106
210	0x3dfd4f8c	0.12368688
211	0xbdfba57f	-0.12287425
212	0xbe2a2670	-0.16616225
213	0x3df7b435	0.12094919
214	0xbe0f28fa	-0.13980475
215	0x3c44a210	0.012001529
216	0x3d25e608	0.040502578
217	0x3e144807	0.14480601
218	0x3cb2aef1	0.021811934
219	0x3ddf1235	0.108921446
220	0xbde2749a	-0.11057396
221	0xbccdc102	-0.025116447
222	0x3e2433ff	0.1603546
223	0x3c03c582	0.008042695
224	0xbe2ff2db	-0.17182486
225	0xbc9937a3	-0.018703287
226	0x3c27279f	0.0102023175
227	0xbd1d6c96	-0.038433634
228	0x3ca1d6fa	0.01975583
229	0xbd886377	-0.066595964
230	0xbdc1eb8a	-0.09468754
231	0x3ba467f4	0.005017275
232	0x3dcb7391	0.09934152
233	0xbdaac649	-0.08338601
234	0x3df21211	0.11819852
235	0xbc90c8df	-0.017673908
236	0x3c93b1f0	0.018029183
237	0xbe138eee	-0.14409992
238	0xbd53c4ab	-0.05170123
239	0xbe2fcd59	-0.17168178
240	0x3e0a72d2	0.13520363
241	0x3dc7b7fe	0.097518906
242	0x3e11d09e	0.14239737
243	0xbd672eb6	-0.05644103
244	0xbe11ca55	-0.1423734
245	0xbd69cc3a	-0.05707953
246	0x3e1a4240	0.15064335
247	0x3d3a347f	0.04546022
248	0x3e0a4116	0.13501391
249	0xbd8554cb	-0.065103136
250	0xbd86d3e8	-0.06583387
251	0x3da27c16	0.07933824
252	0xbdfda666	-0.123852536
253	0x3e0c55cd	0.13704605
254	0xbe2c5e25	-0.16832788
255	0x3e03d8ea	0.12875715

emb_net.v_lins1.5.bias f4 [32]
0	0x3e11a736	0.14223942
1	0x3d92125a	0.071324065
2	0xbe10a468	-0.14125216
3	0x3d98a85e	0.074539885
4	0xbd780c50	-0.060558617
5	0xbdd94793	-0.10609355
6	0x3dea4a24	0.114399225
7	0xbd6d4700	-0.05792904
8	0x3e0e7c58	0.13914621
9	0xbda76933	-0.08174362
10	0xbdf55950	-0.11979926
11	0xbd8b9ee2	-0.06817414
12	0x3ce806e9	0.028323608
13	0x3c1b5740	0.009481251
14	0x3e0be4de	0.13661525
15	0xbbea5be3	-0.007152067
16	0x3b470b04	0.0030371556
17	0xbdc98f5e	-0.09841798
18	0x3dbb4479	0.091439195
19	0x3d98019f	0.07422184
20	0x3cd096e6	0.025462579
21	0xbe2db342	-0.16962913
22	0x3e1185da	0.14211217
23	0xbd5a0e59	-0.05323634
24	0x3c5d9e9e	0.013526587
25	0x3d38cb4f	0.045115765
26	0x3e0e0ea3	0.13872771
27	0x3e0b7e61	0.13622428
28	0xbdb851b2	-0.08999957
29	0xbd6f6a59	-0.05845103
30	0xbe0a9a6d	-0.13535471
31	0x3d0f9b4d	0.035060216
