pretrained/tsp_nls/tsp1000.pt (torch, 357771 bytes, 225 tensors)

emb_net.v_lin0.weight f4 [32, 1]
0	0x3ea0b44e	0.31387562
1	0x3f3da616	0.7408155
2	0xbe2adbbb	-0.16685383
3	0x3ee0ee88	0.43931985
4	0x3ebee2eb	0.372825
5	0xbd98aca8	-0.074548066
6	0x3f51cde2	0.8195478
7	0x3f0ba827	0.54553455
8	0x3eca0bb9	0.3946207
9	0xbf0bd8c7	-0.5462765
10	0xbdcf5891	-0.101243146
11	0x3ee9ebc6	0.45687693
12	0xbe972e22	-0.29527384
13	0x3d50a9a0	0.050943017
14	0x3e453e8a	0.19262138
15	0xbf0efda1	-0.55855757
16	0xbec9d15d	-0.39417544
17	0xbf0747f0	-0.5284414
18	0xbdb480bf	-0.08813619
19	0x3f0f971e	0.5608996
20	0x3f366367	0.71245426
21	0x3ec46f83	0.38366327
22	0xbe462301	-0.1934929
23	0xbf65566e	-0.89585006
24	0x3ec41e5c	0.38304412
25	0x3ec48151	0.3837991
26	0x3ef7c842	0.48394972
27	0x3e90c895	0.28278032
28	0xbebda2fc	-0.3703841
29	0xbee9b3c5	-0.45644966
30	0xbf378d3a	-0.7169987
31	0x3f3c3385	0.7351611

emb_net.v_lin0.bias f4 [32]
0	0xbe099b94	-0.13438255
1	0xbee59c50	-0.4484582
2	0xbe8020a2	-0.25024897
3	0x3f55ef7b	0.83568543
4	0xbe9c780b	-0.30560336
5	0xbf6fdff8	-0.93701124
6	0xbd73698d	-0.059426833
7	0x3f24dd16	0.6439985
8	0x3f101151	0.5627642
9	0xbefd88d2	-0.49518448
10	0x3e367b50	0.17820477
11	0xbef10241	-0.47072032
12	0x3f4765cf	0.7788972
13	0xbf3f79b6	-0.7479509
14	0xbf1d5b5c	-0.6146753
15	0xbf56908c	-0.8381431
16	0xbf5e3d41	-0.86812216
17	0x3ee3ddd9	0.44505194
18	0x3e83e856	0.25763196
19	0xbeed37dd	-0.46331683
20	0x3f28bc8e	0.6591271
21	0x3eff7c64	0.4989959
22	0xbea93ea1	-0.33055595
23	0xbf78984a	-0.97107375
24	0xbf27a4b5	-0.654857
25	0x3def1908	0.11674696
26	0xbf7bd08f	-0.9836511
27	0x3f3f1609	0.74643
28	0x3ed67524	0.41886246
29	0x3f7b692a	0.9820734
30	0x3eddd89e	0.43329328
31	0x3f17043e	0.5899085

emb_net.v_lins1.0.weight f4 [32, 32]
0	0xbe180544	-0.14845759
1	0x3d1d444e	0.03839522
2	0xbdbe11f3	-0.09280767
3	0x3e28e25b	0.16492598
4	0x3c086fce	0.008327438
5	0xbd4d1c18	-0.05007562
6	0xbd923f9a	-0.07141037
7	0x3e2e0a76	0.16996178
8	0xbc0bd755	-0.008535226
9	0x3df60bee	0.12013994
10	0xbdc2fe2b	-0.09521135
11	0xbda9ba9b	-0.08287545
12	0xbde75bd9	-0.112968154
13	0x3d9b41cf	0.07580911
14	0xbe2c20ef	-0.16809438
15	0xbd65bbfd	-0.056087483
16	0xbd1a8cde	-0.037731998
17	0x3e0ace8b	0.13555352
18	0xbdcc02d0	-0.09961474
19	0x3de98bd0	0.1140362
20	0x3d02fffc	0.031982407
21	0x3e36094a	0.17776981
22	0x3e24686a	0.16055456
23	0x3e1a6db6	0.15080914
24	0x3dc528eb	0.09626945
25	0xbdbdad3f	-0.0926156
26	0xbe0ab829	-0.13546814
27	0x3d8a0a64	0.06740263
28	0xbe33c542	-0.17555717
29	0xbd95e9c1	-0.07319976
30	0x3d1bda15	0.038049776
31	0xbda2b8ed	-0.07945428
32	0xbdcab4da	-0.09897776
33	0xbdc00737	-0.09376376
34	0xbd3e6a2e	-0.04648798
35	0xbdf93de7	-0.1217001
36	0x3d34d8dc	0.044152126
37	0x3b39df69	0.0028361923
38	0x3d93e916	0.07222192
39	0xbe0c43bd	-0.13697715
40	0xbe2926ac	-0.16518658
41	0x3df0588f	0.11735641
42	0x3c061330	0.008183286
43	0x3e1f6430	0.15565562
44	0x3d6963e3	0.056980025
45	0x3e172160	0.14758825
46	0x3db5d762	0.08878972
47	0xbdb6853a	-0.0891213
48	0xbdea2216	-0.114322826
49	0xbe1654c6	-0.14680776
50	0x3d7f904b	0.062393468
51	0x3e0a3556	0.13496909
52	0xbe328653	-0.17434053
53	0x3e094852	0.13406494
54	0x3debe84a	0.11518915
55	0x3d02ae0c	0.031904265
56	0x3e1ca534	0.15297395
57	0xbdf5014e	-0.119631395
58	0x3e1d4a0b	0.15360276
59	0x3d5d600b	0.05404667
60	0xbdce80e3	-0.10083177
61	0x3da12b36	0.0786957
62	0xbde47474	-0.11155024
63	0x3e2a06af	0.16604112
64	0x3dea4a62	0.11439969
65	0x3d00403d	0.031311262
66	0xbe05574a	-0.1302158
67	0xbc7cf907	-0.015440232
68	0x3d1b2226	0.037874363
69	0x3da282a6	0.079350755
70	0xba7736d1	-0.00094304705
71	0xbd4bea22	-0.049783833
72	0x3e250224	0.16114098
73	0x3c0856ea	0.008321503
74	0xbdf9dc77	-0.122002535
75	0x3dc23405	0.09482578
76	0x3d3f9407	0.04677203
77	0x3d7f1809	0.06227878
78	0xbd89647f	-0.06708621
79	0xbe0940f8	-0.1340369
80	0x3d11aac9	0.035563264
81	0xbe18b18a	-0.14911476
82	0x3dd6f627	0.104961686
83	0x3d83c45f	0.06433939
84	0x3d2c791f	0.042107698
85	0x3df58de7	0.11989956
86	0x3e394bc1	0.18095304
87	0xbe39888c	-0.18118495
88	0xbe0ee17a	-0.139532
89	0xbdea1cb5	-0.11431257
90	0xbcb57ad3	-0.022153294
91	0x3df0f5f3	0.11765661
92	0xbc82e046	-0.015976083
93	0xbcec3c1c	-0.028837256
94	0x3e0c7830	0.13717723
95	0x3e23898a	0.15970436
96	0x3dc1751c	0.09446165
97	0x3dbc8a48	0.092060626
98	0xbdea5e7f	-0.11443805
99	0x3d49e444	0.049289957
100	0xbe06e039	-0.13171472
101	0xbdda1176	-0.10647862
102	0x3dfe030c	0.12402925
103	0xbd65a71b	-0.056067567
104	0x3e2e26f1	0.17007042
105	0xbd8706ee	-0.065931186
106	0xbd0873a8	-0.033313423
107	0xbd97d94d	-0.07414494
108	0xbe23f3ca	-0.16010967
109	0x3dbdea84	0.09273246
110	0xbc8f65b5	-0.017504552
111	0xbe0f37e2	-0.13986161
112	0xbc46d4e6	-0.01213572
113	0xbdbeabe9	-0.09310133
114	0x3da14551	0.07874549
115	0x3dd10e13	0.102077626
116	0xbd3c5692	-0.045980997
117	0x3db4e04b	0.08831843
118	0xbd4fa9e2	-0.050699122
119	0xbcaa870f	-0.020816354
120	0xbdf0cc25	-0.117576875
121	0xbe1eec7b	-0.15519898
122	0x3e31d6e9	0.17367138
123	0x3d633c46	0.055477403
124	0xbe19202d	-0.1495368
125	0xbce5c795	-0.02804927
126	0x3ded088b	0.11573895
127	0x3ddcd11e	0.107820734
128	0x3e234760	0.15945196
129	0xbe2f3aed	-0.17112322
130	0xbc16fab2	-0.009215044
131	0xbe2a2cc4	-0.16618639
132	0x3d56a207	0.052400615
133	0xbbf45f5e	-0.0074576577
134	0xbcf16a49	-0.029469626
135	0xbdca3481	-0.098732956
136	0xbe336168	-0.17517626
137	0xbdfed38a	-0.124426916
138	0x3d33476d	0.04376929
139	0x3cda8bad	0.02667793
140	0x3d6becec	0.057598993
141	0xbe027742	-0.12740806
142	0x3d2b9852	0.04189331
143	0xbe21c5fb	-0.1579818
144	0x3d9b0594	0.07569423
145	0xbe1f23fa	-0.15541068
146	0x3ddeaf35	0.10873262
147	0xbc216baf	-0.009852334
148	0xbd8ea28d	-0.06964598
149	0x3dd6ff0b	0.10497864
150	0xbd60a2b9	-0.054842684
151	0xbc3dda52	-0.011587696
152	0x3d292015	0.04129036
153	0xbd1ece64	-0.03877105
154	0x3c90b1fb	0.017662993
155	0x3dddef6f	0.10836684
156	0xbde21b62	-0.11040379
157	0x3dd8d5e1	0.10587669
158	0xbe151d70	-0.14562011
159	0xbd9a0ead	-0.075223304
160	0xbdb6be4b	-0.08923014
161	0xbe059bbd	-0.1304769
162	0x3e08b0e6	0.13348731
163	0x3dfbf498	0.12302512
164	0xbe35265d	-0.17690416
165	0x3dc3214f	0.095278375
166	0x3c5a8b9b	0.013338949
167	0x3d139e11	0.036039416
168	0x3da2e59a	0.07953949
169	0x3a7154cd	0.0009206057
170	0x3e0aed2f	0.13567041
171	0xbcf46341	-0.029832484
172	0xbdf4d100	-0.11953926
173	0xbe03d54e	-0.12874338
174	0xbd09db40	-0.03365636
175	0x3d80d9da	0.06291552
176	0x3d88f86e	0.06688009
177	0xbe0f6396	-0.14002833
178	0x3e24cfab	0.16094844
179	0x3c8996ce	0.016795542
180	0x3db7e9a7	0.089801125
181	0x3e18c4ab	0.14918773
182	0xbd84057a	-0.06446357
183	0xbca739c4	-0.020413287
184	0xbc1ba2e9	-0.00949929
185	0xbd184c2b	-0.037182014
186	0xbddc2b79	-0.10750479
187	0xbde4cc04	-0.111717254
188	0xbdac521e	-0.084141
189	0x3d27e9e2	0.040994532
190	0x3e37cdff	0.17949675
191	0x3cb06380	0.02153182
192	0x3db0462d	0.08607135
193	0x3e39d587	0.1814786
194	0xbe1d1e64	-0.15343624
195	0xbdd0214d	-0.101626016
196	0x3e0267b6	0.12734875
197	0x3c0557dd	0.008138624
198	0xbdf4039b	-0.1191475
199	0xbdd007b0	-0.10157716
200	0xbcee7c25	-0.029111931
201	0x3b91645f	0.004437014
202	0xbdb115b1	-0.086467154
203	0xbde4022e	-0.11133228
204	0xbda19fcf	-0.07891809
205	0xbdcd4c2b	-0.100242935
206	0xbd179eb2	-0.037016578
207	0xbdfacc85	-0.1224604
208	0xbe255a36	-0.16147694
209	0x3c0a37fd	0.0084362
210	0xbd201728	-0.039084584
211	0xbe1658f7	-0.14682375
212	0xbca90fc2	-0.020637397
213	0x3d10585d	0.03524052
214	0xbd7082ce	-0.058718495
215	0xbd9a8a0b	-0.07545861
216	0xbdbd09e0	-0.09230399
217	0x3e0800dc	0.13281578
218	0x3dcaa9c4	0.098956615
219	0xbdbcc5ac	-0.092173904
220	0x3d141491	0.036152426
221	0x3d34c731	0.044135276
222	0x3d42ec3f	0.047588583
223	0x3dfbd449	0.122963496
224	0xbc4c3351	-0.012463407
225	0xbdabe386	-0.08393006
226	0x3e332b40	0.17496967
227	0x3dfef3fb	0.12448879
228	0xbc11a80c	-0.008890163
229	0xbcc21ed3	-0.023696339
230	0x3e0763d5	0.13221677
231	0xbd010cab	-0.03150622
232	0x3e2721ed	0.16321535
233	0xbdafbb33	-0.08580627
234	0xbd832327	-0.06403189
235	0x3d8ca414	0.06867233
236	0x3e0de596	0.13857111
237	0x3d94d6ef	0.07267558
238	0xbd9902a3	-0.07471206
239	0xbd698adb	-0.05701719
240	0x3b8d2a12	0.0043079937
241	0xbcc044a7	-0.023470236
242	0x3e1b86c4	0.15188128
243	0xbd093f8c	-0.03350787
244	0x3e1d2f91	0.15350176
245	0xbd0c0742	-0.03418661
246	0xbe15b1c8	-0.146186
247	0x3bdb81bb	0.0066988147
248	0xbe171aae	-0.14756271
249	0xbe316cfb	-0.17326729
250	0x3c00f85a	0.007871712
251	0xbe05d7f7	-0.13070665
252	0x3e18939e	0.14900061
253	0x3e0cd6c4	0.13753802
254	0xbdb6fd6e	-0.089350566
255	0xbd3febe5	-0.046855826

emb_net.v_lins1.0.bias f4 [32]
0	0x3d201f0c	0.03909211
1	0xbdf8eae0	-0.12154174
2	0xbcffcbed	-0.03122517
3	0x3ddbc662	0.10731198
4	0xbe1f9666	-0.15584716
5	0x3dbca5d9	0.092113204
6	0xbdb5caea	-0.088765934
7	0xbdd6c8dc	-0.1048753
8	0x3e2ecbb8	0.170699
9	0x3e125d01	0.1429329
10	0xbe081c6e	-0.13292095
11	0x3e1abdb2	0.15111426
12	0x3bf4c02f	0.007469199
13	0x3e16311e	0.14667174
14	0x3daf90d6	0.08572547
15	0x3e0a5fe3	0.1351314
16	0xbcae85d7	-0.021304054
17	0xbe11f3e9	-0.142532
18	0x3e07145e	0.13191363
19	0xbbcf35f4	-0.0063235704
20	0x3d9d2c3d	0.076744534
21	0xbba97ccb	-0.005172347
22	0xbd92f0a4	-0.07174805
23	0x3cfeb9ff	0.03109455
24	0x3d95ca60	0.073139906
25	0xbde945c6	-0.11390261
26	0x3e2562eb	0.16151015
27	0x3d822d68	0.06356317
28	0x3e29a508	0.1656686
29	0xbbe50541	-0.0069891517
30	0x3ce9ad91	0.028525146
31	0x3c8ca5d2	0.017168913

emb_net.v_lins1.1.weight f4 [32, 32]
0	0xbd880857	-0.06642216
1	0x3d58a076	0.052887402
2	0x3d27b2cb	0.040941995
3	0xbe09ce9a	-0.13457718
4	0x3cdcffba	0.026977409
5	0xbd3982e6	-0.04529085
6	0x3d33e773	0.0439219
7	0xbd87336b	-0.06601604
8	0xbcd3d3ce	-0.025857832
9	0x3dc92b3f	0.09822702
10	0xbda25f53	-0.07928338
11	0xbdd651a0	-0.104647875
12	0x3da7483d	0.08168075
13	0x3cb97f09	0.022643583
14	0xbde8dceb	-0.11370262
15	0x3e2f3d5c	0.1711325
16	0x3d34d5e7	0.044149306
17	0xbe14a4ef	-0.14516042
18	0xbdb315c7	-0.08744388
19	0xbd85bea6	-0.06530504
20	0x3e0ce5c0	0.13759518
21	0x3e1f2605	0.15541847
22	0x3d40ec31	0.04710025
23	0x3e0e0592	0.13869312
24	0x3b2357a5	0.0024924066
25	0x3d784444	0.06061198
26	0x3da0b633	0.07847252
27	0x3dd9b79b	0.10630723
28	0x3d120efb	0.035658818
29	0x3e24b6fa	0.16085425
30	0xbc05f19e	-0.008175282
31	0xbdbc2b8a	-0.09187992
32	0xbd0d0b04	-0.034434333
33	0xbd23065f	-0.039800998
34	0xbe0919e5	-0.13388784
35	0xbe025cba	-0.12730685
36	0x3e2d42ed	0.16920061
37	0xbe057f94	-0.13036948
38	0xbd7df4b2	-0.062000938
39	0xbdb349e9	-0.087543316
40	0x3d3d0ba5	0.046153683
41	0x3cfdb640	0.030970693
42	0x3dee4f66	0.11636238
43	0x3c937e62	0.0180046
44	0x3dd3d108	0.10342604
45	0xbc8316dd	-0.016002113
46	0x3c6c8c54	0.014437754
47	0x3d961c44	0.0732961
48	0x3e25f281	0.16205789
49	0xbe081d12	-0.1329234
50	0x3d33f070	0.04393047
51	0x3e05e5a6	0.13075885
52	0x3cc6505d	0.024208242
53	0xbd875b11	-0.066091664
54	0xbd8a8118	-0.06762904
55	0xbd449590	-0.047994196
56	0x3dc8f8f5	0.0981311
57	0xbd45c641	-0.048284773
58	0x3e09e5b3	0.1346653
59	0xbbcdfd5f	-0.0062863077
60	0x3e0d0224	0.13770348
61	0xbe075334	-0.13215333
62	0x3dccf488	0.10007578
63	0x3c7422da	0.014900887
64	0x3b48d652	0.0030645323
65	0x3def0262	0.11670376
66	0x3da8ec9c	0.08248255
67	0xbdb86418	-0.09003466
68	0x3dab7a4b	0.08372935
69	0x3e0a970c	0.13534182
70	0xbdf8f5a8	-0.1215623
71	0x3e08c6dd	0.1335711
72	0xbe0bceab	-0.13653056
73	0xbe2551cd	-0.16144486
74	0x3dfac5ec	0.12244782
75	0x3d77d944	0.060509935
76	0xbd2ad401	-0.04170609
77	0x3e2ecb01	0.17069627
78	0xbe293695	-0.16524728
79	0x3d4865fe	0.048925392
80	0x3e1bb4b6	0.15205655
81	0xbe27aaf9	-0.16373815
82	0xbd6f1999	-0.05837402
83	0x3e02a10a	0.12756744
84	0xbda0c4c9	-0.07850034
85	0xbc49286e	-0.012277706
86	0x3e102e85	0.14080246
87	0xbe2ab290	-0.16669679
88	0xbde0048d	-0.10938368
89	0x3d55705a	0.0521091
90	0x3d19cfe7	0.037551787
91	0xbd56eb87	-0.05247071
92	0xbd7c51ef	-0.061601575
93	0x3a825045	0.0009942135
94	0xbe177775	-0.14791663
95	0xbe390fa4	-0.18072373
96	0xbda88288	-0.08228022
97	0xbe3179cf	-0.17331623
98	0x3dc3060e	0.09522639
99	0xbd95190f	-0.0728017
100	0xbc7deab6	-0.015497854
101	0x3e02d0fb	0.12775032
102	0xbdf35548	-0.118815005
103	0xbe2424c2	-0.16029647
104	0x3e2a7e80	0.16649818
105	0x3e29be65	0.16576536
106	0xbde4802f	-0.111572616
107	0xbdb3720d	-0.08761988
108	0xbe28c01f	-0.16479538
109	0x3d83a727	0.06428366
110	0xbd4b9753	-0.04970486
111	0x3db958f2	0.09050168
112	0x3c43d56f	0.011952742
113	0xbe12c898	-0.14334333
114	0x3ddc2ff1	0.107513316
115	0xbcd098a4	-0.02546341
116	0xbe0e0c54	-0.1387189
117	0xbde18225	-0.11011151
118	0x3dbc1ff0	0.09185779
119	0x3c16e120	0.009208947
120	0xbe0193ac	-0.12653989
121	0xbd20f4db	-0.039296012
122	0x3d9d1456	0.076698944
123	0xbd455dce	-0.048185162
124	0x3e270787	0.16311465
125	0x3de65f15	0.11248604
126	0xbdfecf0f	-0.12441837
127	0xbd72d8fc	-0.059288964
128	0x3e02d93a	0.12778178
129	0x3e10160d	0.14070912
130	0xbdca9d27	-0.09893256
131	0xbdabb5d9	-0.08384294
132	0x3d6e0ce7	0.058117773
133	0x3db1669e	0.08662151
134	0xbca0d5ad	-0.019633139
135	0xbe2423fb	-0.1602935
136	0x3d9f7367	0.07785683
137	0xbd83e7e4	-0.06440714
138	0xbdbcb130	-0.09213483
139	0xbcb5be03	-0.022185331
140	0x3e059eb3	0.1304882
141	0xbdd52177	-0.104067735
142	0x3cace39e	0.02110463
143	0xbe0c3414	-0.13691741
144	0xbe044f06	-0.1292077
145	0x3df42c8c	0.11922559
146	0xbc17ec6a	-0.009272674
147	0x3cbb30d6	0.022850435
148	0x3d8fcea3	0.07021835
149	0xbd859fe7	-0.065246396
150	0xbe139b3e	-0.14414689
151	0x3dcb1ff3	0.09918203
152	0xbcc71444	-0.024301656
153	0x3c900bd2	0.017583761
154	0xbddd39b5	-0.10802022
155	0x3df9bde9	0.121944256
156	0x3d297f50	0.04138118
157	0x3e03041e	0.1279454
158	0xbdeebfde	-0.116576895
159	0x3d5b8d5d	0.05360161
160	0x3e0bd033	0.1365364
161	0xbe1cac28	-0.15300047
162	0x3cd1be78	0.025603518
163	0x3d8e043f	0.06934404
164	0xbdf16f5d	-0.11788819
165	0x3d1f6245	0.038912077
166	0x3c6f5cf3	0.014609563
167	0x3d4c1ebb	0.049833994
168	0xbdc1a505	-0.09455303
169	0x3a7cb73f	0.0009640343
170	0xbda9f554	-0.08298746
171	0xbc089b3d	-0.008337793
172	0xbc82921f	-0.015938817
173	0xbe226676	-0.15859398
174	0xbdd6d236	-0.10489313
175	0x3e2e03a4	0.16993576
176	0x3c31546b	0.0108233495
177	0xbc476781	-0.012170673
178	0x3e373c7a	0.17894164
179	0x3d7e1787	0.062034156
180	0xbd63dc7a	-0.055630185
181	0x3e342969	0.17593922
182	0xbdf0e98a	-0.11763294
183	0xbe264208	-0.16236126
184	0xbe09aa33	-0.13443832
185	0x3d47de99	0.04879627
186	0x3d5ca8c8	0.0538719
187	0x3b9a28d1	0.0047045727
188	0x3d06c04d	0.032898236
189	0xbe30d889	-0.17270102
190	0x3e1eff17	0.15526997
191	0xbbe6cb5d	-0.0070432858
192	0xbe2aaad8	-0.16666734
193	0xbdd6d099	-0.104890056
194	0xbe12683a	-0.14297572
195	0x3d168ade	0.036753528
196	0xbe288201	-0.16455843
197	0x3e06f45e	0.13179156
198	0xbc8ea29e	-0.017411526
199	0x3e0f2cef	0.13981985
200	0xbdc7858b	-0.09742268
201	0xbc899739	-0.016795741
202	0xbd21c896	-0.039497934
203	0xbe147160	-0.14496374
204	0x3e110653	0.14162569
205	0xbe224f85	-0.15850647
206	0x3d463f49	0.048400197
207	0xbe23cb13	-0.15995435
208	0xbd21ea12	-0.039529867
209	0xbd138796	-0.036017977
210	0xbe1ada47	-0.15122329
211	0x3d73f262	0.059557326
212	0x3cc97d9d	0.02459603
213	0x3d72636d	0.05917685
214	0xbcfe84ef	-0.031069247
215	0xbd25b4fa	-0.040455796
216	0xbda40247	-0.08008247
217	0x3e2869ed	0.16446657
218	0xbbfc1015	-0.007692347
219	0xbc58567d	-0.013204214
220	0x3e1e7921	0.15475895
221	0x3df9930f	0.12186252
222	0x3e10b156	0.14130148
223	0xbc924b61	-0.01785821
224	0x3dcf8c93	0.10134234
225	0x3e0ea9f4	0.1393202
226	0xbe0f3c39	-0.13987817
227	0xbdf4e46c	-0.119576305
228	0xbe2ee135	-0.17078097
229	0xbd913d7c	-0.07091805
230	0xbdc6366e	-0.096783504
231	0xbd2de383	-0.0424533
232	0xbdd13d98	-0.10216826
233	0xbdb51afe	-0.08843039
234	0x3ca6e4f2	0.020372842
235	0xbd47b58c	-0.04875712
236	0x3db5bc29	0.08873779
237	0xbe1a929f	-0.15094994
238	0xbac511f1	-0.0015035254
239	0xbd8809a6	-0.06642465
240	0x3d4eb06e	0.050461225
241	0xbe009a0d	-0.12558766
242	0xbd24b007	-0.040206935
243	0x3dbda231	0.09259451
244	0xbdaf45b7	-0.08558219
245	0x3cb53e53	0.022124445
246	0xbe3b4a25	-0.18290003
247	0x3a11d650	0.0005563246
248	0xbe3799cd	-0.17929764
249	0x3e00653c	0.12538618
250	0xbe1d44be	-0.15358254
251	0x3c2249ad	0.009905261
252	0xbe03bc19	-0.12864722
253	0xbc634169	-0.013870575
254	0x3e151647	0.1455928
255	0x3e0d1640	0.13778019

emb_net.v_lins1.1.bias f4 [32]
0	0xbde3b740	-0.111189365
1	0xbc5855c6	-0.013204044
2	0x3e067b2d	0.13132925
3	0xbd6df8f8	-0.058098763
4	0x3cd3418a	0.025788087
5	0xbbcf8d35	-0.006333972
6	0x3d4c167d	0.049826134
7	0x3afeead9	0.0019448652
8	0x3d92d1ca	0.0716892
9	0xbd9e2946	-0.07722716
10	0x3bbeabee	0.0058188355
11	0xbdb3573f	-0.08756875
12	0xbc6f3b4b	-0.014601539
13	0xbd8baff6	-0.06820671
14	0xbd9d1874	-0.0767068
15	0x3dd17935	0.102281965
16	0x3de91616	0.11381166
17	0x3ce360ac	0.027756058
18	0xbe2e5fff	-0.17028807
19	0x3b0b4c06	0.002125503
20	0xbdaaa144	-0.0833154
21	0xbd558d79	-0.052136872
22	0xbe2fe353	-0.17176561
23	0xbe117d08	-0.14207852
24	0x3da572d2	0.08078541
25	0xbdf048ed	-0.117326595
26	0x3e10abf1	0.1412809
27	0xbe29be00	-0.16576385
28	0xbe124122	-0.14282659
29	0x3d17f7da	0.037101604
30	0xbdf0179a	-0.11723252
31	0x3c7dee88	0.015498765

emb_net.v_lins1.2.weight f4 [32, 32]
0	0xbd9201e5	-0.071292676
1	0x3de52256	0.1118819
2	0xbd946523	-0.07245853
3	0xbdeb00b5	-0.11474744
4	0xbd3f5dfa	-0.046720482
5	0x3d6c22ce	0.05765038
6	0xbe261d0f	-0.16222022
7	0xbdcd744d	-0.10031948
8	0xbdbde5f5	-0.092723764
9	0xbdaaa087	-0.083313994
10	0x3e2fa98a	0.17154518
11	0xbba2e065	-0.0049705976
12	0xbdab33d8	-0.08359498
13	0x3d68bf57	0.0568231
14	0x3d9b3fa4	0.07580498
15	0x3e1b7592	0.15181568
16	0x3e0c01c6	0.13672552
17	0xbe3a75df	-0.18209027
18	0x3cd69c93	0.026197707
19	0x3de7b234	0.113132864
20	0x3e0c6503	0.13710408
21	0x3d20a6f7	0.03922173
22	0x3bd074fb	0.0063616014
23	0xbe010156	-0.12598166
24	0x3c023c72	0.007948982
25	0x3e0d9a3b	0.13828366
26	0xbdcf2606	-0.10114674
27	0xbdc89080	-0.09793186
28	0xbc372ea6	-0.011180555
29	0x3e0cf3ee	0.13764927
30	0xbe156e37	-0.14592825
31	0x3d06284e	0.03275328
32	0xbd6f357b	-0.058400612
33	0x3dd77f82	0.10522367
34	0xbc981cc2	-0.0185684
35	0x3d6392f5	0.05556007
36	0xbe28e2d1	-0.16492774
37	0x3ce18b91	0.02753237
38	0xbe115241	-0.14191534
39	0x3d2ce46b	0.042210024
40	0x3de969ce	0.11397134
41	0x3e03e463	0.12880091
42	0xbe264512	-0.16237286
43	0x3d735c3a	0.059414126
44	0x3e1603fe	0.1464996
45	0xbdca77ef	-0.09886157
46	0x3dfef0a7	0.124482445
47	0xbdd5b5de	-0.10435079
48	0x3dbc7c20	0.092033625
49	0xbda34894	-0.079728276
50	0xbda5057b	-0.08057686
51	0x3e0432b7	0.12909971
52	0x3dd546c8	0.10413891
53	0x3e1bf926	0.15231761
54	0x3c656fc4	0.014003698
55	0xbc1e0a23	-0.0096459715
56	0x3c098e47	0.008395738
57	0xbd53de7c	-0.05172585
58	0x3dbe4713	0.092909
59	0x3dc20c02	0.094749466
60	0x3e00c133	0.125737
61	0xbe16370d	-0.14669438
62	0xbc1698f9	-0.009191745
63	0x3ddb73e9	0.107154675
64	0xbcf9a8f9	-0.03047608
65	0xbd44c524	-0.04803957
66	0x3d90233a	0.07037969
67	0x3dc4a045	0.096008815
68	0x3db5c32a	0.08875115
69	0x3da197b9	0.07890267
70	0x3cc2e92c	0.023792826
71	0xbdaae6d5	-0.08344809
72	0xbd7dea3c	-0.06199096
73	0x3df89126	0.1213706
74	0xb9c4c9c2	-0.00037534354
75	0x3cd2fec9	0.025756257
76	0xbd81babb	-0.06334444
77	0xbdf74f81	-0.12075711
78	0xbc3e59c0	-0.011618078
79	0xbe342b96	-0.17594752
80	0x3e04d62c	0.12972325
81	0x3e1d62d8	0.15369737
82	0x3e0221c6	0.12708196
83	0xbd3b798a	-0.045770206
84	0x3de45592	0.11149134
85	0x3adc63b8	0.0016814386
86	0x3da7af32	0.08187713
87	0xbd436805	-0.047706623
88	0xbc687a4a	-0.014189312
89	0xbd85240d	-0.06501017
90	0x3d0b8805	0.034065265
91	0xbcbc3122	-0.022972647
92	0xbe31ecd3	-0.17375498
93	0xbe3bb73a	-0.18331614
94	0xbe13de21	-0.14440204
95	0xbd7f637d	-0.06235074
96	0x3d7f2a0a	0.06229595
97	0xbdf35def	-0.11883151
98	0x3e332349	0.17493929
99	0x3d98ff39	0.07470555
100	0x3cd7927d	0.026314968
101	0xbcf55f85	-0.029952774
102	0xbd14eb59	-0.036357258
103	0xbdc4fe01	-0.0961876
104	0xbdcd92f6	-0.10037796
105	0xbde49c64	-0.11162642
106	0xbdad5603	-0.08463671
107	0xbe1b67c0	-0.15176296
108	0x3da4166f	0.08012091
109	0x3d8ea413	0.069648884
110	0x3da3eabb	0.08003756
111	0xbc006554	-0.0078366585
112	0xbe146beb	-0.14494292
113	0x3e1a947c	0.15095705
114	0xbdceb8e4	-0.10093859
115	0x3cfec377	0.031099064
116	0x3ce28ae3	0.027654117
117	0xbddb1b69	-0.106985874
118	0x3c20e78d	0.009820831
119	0x3d8ab24e	0.0677229
120	0xbd30356d	-0.0430197
121	0x3de58646	0.11207251
122	0x3da09702	0.078413025
123	0x3d7503df	0.059818145
124	0xbdcefa01	-0.10106278
125	0x3dd2b6e0	0.10288787
126	0x3c4c008c	0.012451302
127	0xbd317855	-0.04332765
128	0xbd500bbd	-0.050792444
129	0xbe1cdd82	-0.15318874
130	0xbd68d81b	-0.05684672
131	0xbdc251ed	-0.09488282
132	0x3dbfa32d	0.09357295
133	0x3ca91647	0.020640505
134	0xbcfb0043	-0.030639773
135	0x3e11dba5	0.14243944
136	0xbd6e8e1e	-0.058241002
137	0xbe15eca1	-0.14641048
138	0xbd525e05	-0.051359195
139	0x3e1b721f	0.15180252
140	0x3e1952c0	0.14972973
141	0xbbf9682c	-0.007611295
142	0x3d94c380	0.07263851
143	0x3e341417	0.17585789
144	0xbe3228ee	-0.17398426
145	0xbad52ea5	-0.0016264512
146	0x3e0943a9	0.13404717
147	0x3cb9f3ca	0.022699255
148	0xbd055f7b	-0.03256176
149	0x3d057695	0.03258379
150	0x3dc68412	0.09693159
151	0x3d0c66a3	0.03427757
152	0xbdb7b5ea	-0.08970244
153	0x3ce00c9f	0.027349768
154	0xbb972a2e	-0.0046131825
155	0x3e221915	0.1582988
156	0x3cb2dc13	0.021833455
157	0xbe332f13	-0.17498426
158	0x3e093db5	0.13402446
159	0xbd3f00bd	-0.046631563
160	0xbd8430cf	-0.06454622
161	0x3c6a6645	0.0143066095
162	0x3db21e49	0.08697183
163	0x3df55f94	0.11981121
164	0x3d55e364	0.05221881
165	0x3dfa4a24	0.122211725
166	0x3dbf2375	0.09332935
167	0xbdcd85b4	-0.100352675
168	0xbcef5d80	-0.029219389
169	0x3bdcd2f3	0.0067390143
170	0xbe033643	-0.12813668
171	0xbca4bf05	-0.020110616
172	0x3b23cb76	0.0024993098
173	0x3c13f59b	0.009030725
174	0xbdf2e0a8	-0.11859256
175	0x3d2d4b1a	0.04230795
176	0x3da183a1	0.07886434
177	0xbe22d737	-0.1590241
178	0xbda211b5	-0.079135336
179	0xbdd28ec8	-0.102811396
180	0xbe4c9ae8	-0.19980967
181	0xbddb06da	-0.10694666
182	0x3e33e5bf	0.1756811
183	0xbdc797d1	-0.097457536
184	0x3d71e732	0.059058376
185	0xbe328d58	-0.17436731
186	0xbdfd9cff	-0.1238346
187	0xbc8cc4e4	-0.017183729
188	0xbd0a585e	-0.03377568
189	0x3dbb397a	0.09141822
190	0xbdfda6f1	-0.12385357
191	0x3db01f4b	0.08599719
192	0x3e030f91	0.12798907
193	0x3e146088	0.14489949
194	0x3e06fd63	0.13182597
195	0xbd371e43	-0.044706594
196	0x3e20ba15	0.15695985
197	0xbd3e4b25	-0.046458382
198	0x3d0528e4	0.0325097
199	0x3e0fbe74	0.14037496
200	0x3e06af10	0.13152719
201	0xbdd87277	-0.105687074
202	0xbc329fc5	-0.01090235
203	0x3e3682b9	0.17823304
204	0xbe3b918a	-0.18317237
205	0xbd964d87	-0.07339006
206	0x3de2c1c0	0.11072111
207	0xbe056bf7	-0.13029467
208	0x3dede434	0.11615792
209	0x3d472a51	0.04862434
210	0x3e142bb3	0.14469795
211	0xbbc95740	-0.006144434
212	0xbe179b65	-0.14805372
213	0x3c9dc078	0.019256815
214	0x3d6940d6	0.056946598
215	0xbda54b3c	-0.080709904
216	0xbe0df594	-0.13863212
217	0xbd251429	-0.04030243
218	0x3e254eaa	0.16143289
219	0x3d86f30b	0.065893255
220	0x3c009829	0.007848778
221	0xbe0051c8	-0.12531197
222	0x3e1bab0e	0.15201971
223	0xbe1f8a91	-0.15580203
224	0xbe1726b6	-0.14760861
225	0xbdd1f527	-0.10251837
226	0x3d934482	0.07190801
227	0x3e0a6569	0.13515247
228	0x3d638518	0.05554685
229	0xbe32aea7	-0.17449437
230	0xbe29626b	-0.1654145
231	0x3e0d1243	0.13776498
232	0xbe200d21	-0.15630008
233	0xbd108e96	-0.03529223
234	0x3c2e6865	0.010645007
235	0xbd77ce82	-0.060499676
236	0xbd988ccc	-0.0744873
237	0x3d80a495	0.062813915
238	0x3e30cd9c	0.17265934
239	0x3dd80a30	0.10548818
240	0xbd8a25fb	-0.067455254
241	0x3dd5479e	0.104140505
242	0xbe3b1a50	-0.18271756
243	0x3d001709	0.031271968
244	0xbdda87bb	-0.1067042
245	0x3e00a4c2	0.1256285
246	0x3c96deef	0.01841685
247	0xbceee627	-0.02916248
248	0x3e1101a6	0.14160785
249	0xbd89ebb6	-0.067344114
250	0x3dcaee10	0.09908688
251	0x3d6a6302	0.057223327
252	0xbe060ed7	-0.13091598
253	0xbd218856	-0.03943666
254	0x3d1adac7	0.0378063
255	0x3d91a6cf	0.07111894

emb_net.v_lins1.2.bias f4 [32]
0	0xbbad4288	-0.005287472
1	0xbcbe0bd0	-0.023198992
2	0xbc205b8c	-0.0097874515
3	0x3e034bff	0.12821959
4	0xbdb94377	-0.09046071
5	0xbc65576d	-0.013997895
6	0x3e1592c2	0.14606765
7	0xbdf9d4ab	-0.12198766
8	0x3d7a99b4	0.06118174
9	0x3e02c4c6	0.12770376
10	0x3bd6b8fc	0.0065528136
11	0x3de4eb3d	0.11177681
12	0x3c5dcbbc	0.013537344
13	0xbd9c7810	-0.076400876
14	0xbc27a693	-0.0102325855
15	0x3d29ab9e	0.041423433
16	0x3d2b2e4c	0.0417922
17	0xbe300f87	-0.17193423
18	0xbc870ac2	-0.016484622
19	0xbd25be11	-0.040464465
20	0xbe1daf6e	-0.15398952
21	0xbca435be	-0.020045158
22	0x3deab131	0.11459578
23	0xbb196e26	-0.00234116
24	0xbd978153	-0.073977135
25	0xbe11a3a9	-0.14222588
26	0xbd98bbb6	-0.07457678
27	0xbe24cff9	-0.1609496
28	0xbe17e21e	-0.1483235
29	0xbd98add8	-0.07455033
30	0x3cf6995c	0.030102424
31	0xbb86f344	-0.004118355

emb_net.v_lins1.3.weight f4 [32, 32]
0	0xb9d080b4	-0.00039768743
1	0xbdfdcce7	-0.12392598
2	0xbccc1087	-0.024910225
3	0xbe196e81	-0.1498356
4	0x3dc99346	0.09842543
5	0xbddfedae	-0.10934006
6	0xbdeed343	-0.11661389
7	0xbe31b9d2	-0.17356041
8	0xbe13171b	-0.14364283
9	0xbd94bbb9	-0.07262368
10	0xbcadca4a	-0.021214623
11	0x3db40ec8	0.08791882
12	0x3d4e53c8	0.05037287
13	0x3dfa3d90	0.12218773
14	0xbe243302	-0.16035083
15	0xbce6f044	-0.02819074
16	0xbdfe3d61	-0.12414051
17	0x3d72aa63	0.059244525
18	0x3e2ef2d2	0.17084816
19	0x3ddf78d8	0.10911721
20	0xbd5398df	-0.05165946
21	0xbd0ff6e4	-0.035147563
22	0x3bc3dcc1	0.0059772437
23	0xbe2f742e	-0.17134163
24	0x3e0646d2	0.13112953
25	0x3d764e39	0.060133193
26	0xbe184e68	-0.1487366
27	0x3d563823	0.05229963
28	0x3df6aff3	0.120452784
29	0x3e29b106	0.16571435
30	0xbc13f223	-0.009029898
31	0x3d1f5fa7	0.03890958
32	0xbe0c22c4	-0.13685137
33	0xbd8e9cd8	-0.06963509
34	0xbd93596a	-0.07194789
35	0x3c78ec35	0.015193035
36	0x3d2aabc0	0.0416677
37	0x3e1afb02	0.15134814
38	0xbd2d079a	-0.042243578
39	0x3d19f914	0.037591055
40	0xbcfc9a2b	-0.030835232
41	0xbe2a18ed	-0.16611071
42	0xbd4133ac	-0.04716842
43	0x3e375015	0.17901643
44	0x3cbd305d	0.02309435
45	0xbe1f8a83	-0.15580182
46	0x3ca7844b	0.020448824
47	0x3e24d982	0.16098598
48	0xbd3c60df	-0.04599082
49	0x3daa91fc	0.083286256
50	0x3dbd464c	0.09241924
51	0xbdd1ecf7	-0.102502756
52	0x3d8b8fb4	0.068145186
53	0x3e111ec1	0.14171888
54	0x3cea71bc	0.028618686
55	0xbd99b73b	-0.075056516
56	0x3c22976a	0.009923795
57	0x3c3915ed	0.011296731
58	0x3d28937b	0.041156273
59	0x3c71a62e	0.014749093
60	0x3d872cb0	0.0660032
61	0xbddff198	-0.10934752
62	0x3ce9096d	0.028446877
63	0xbd80c412	-0.062873974
64	0xbde6c2dd	-0.11267636
65	0x3caacc7b	0.020849457
66	0xbd8ebd0f	-0.06969654
67	0x3cd4b527	0.025965286
68	0xbda0e932	-0.078569785
69	0xbe167184	-0.1469174
70	0x3d0f151f	0.034932252
71	0xbd82bb54	-0.06383386
72	0xbdbe27e4	-0.09284952
73	0xbd3d0c60	-0.04615438
74	0xbd93fd25	-0.07226018
75	0xbd0d1fae	-0.03445404
76	0xbd8d1e2b	-0.0689052
77	0xbcf64912	-0.03006414
78	0xbd9be77e	-0.07612513
79	0x3d6c0a07	0.05762675
80	0x3d13cb33	0.036082458
81	0xbe3565f3	-0.17714672
82	0xbe1c1a67	-0.15244447
83	0x3da966de	0.082715735
84	0x3d49443d	0.049137343
85	0x3d3a46ab	0.04547755
86	0x3e371b0e	0.17881414
87	0x3ca57c0e	0.020200755
88	0x3a09d8f6	0.0005258465
89	0x3d8bfbd4	0.06835142
90	0xbd8f0c31	-0.06984747
91	0xbd2bbe3d	-0.041929472
92	0x3e281348	0.16413605
93	0xbc227bd0	-0.0099172145
94	0xbdccd3ae	-0.10001312
95	0x3e407f91	0.18798663
96	0xbcb56057	-0.022140665
97	0xbda2a7da	-0.079421714
98	0xbd027a3e	-0.03185486
99	0xbe1c37c8	-0.15255654
100	0xbd89c958	-0.067278564
101	0x3e0c6d97	0.1371368
102	0xbd1fcd7a	-0.039014317
103	0x3deed09f	0.11660885
104	0xbdd46c26	-0.1037219
105	0xbe3ef4db	-0.18648092
106	0x3e16c642	0.14724067
107	0xbda3cedd	-0.079984404
108	0x3e25eb14	0.16202956
109	0xbe2064ac	-0.15663403
110	0x3e06d76f	0.13168119
111	0x3dd5bbd4	0.10436216
112	0xbdc40a11	-0.095722325
113	0x3e1a13b2	0.15046576
114	0x3e17f9fc	0.14841455
115	0x3d7f461f	0.062322732
116	0xbdacd819	-0.08439655
117	0x3e0b5b01	0.13608934
118	0xbe2bdd48	-0.16783631
119	0xbe1e1a8b	-0.15439813
120	0x3d2dadf7	0.042402234
121	0x3d284da5	0.041089673
122	0x3dd7104d	0.10501156
123	0xbcacd2ca	-0.021096606
124	0x3cc3a3f8	0.023881897
125	0x3e1b8942	0.15189078
126	0x3e326e8d	0.17424984
127	0x3e096831	0.13418652
128	0xbe29953f	-0.16560839
129	0xbe112f4a	-0.14178196
130	0xbdaff0f5	-0.08590881
131	0x3d4c8e2e	0.04994028
132	0xbdc36721	-0.09541155
133	0x3d02b521	0.03191102
134	0xbdb8d812	-0.09025587
135	0xbc3a0c44	-0.011355463
136	0xbd17ca15	-0.037057955
137	0xbe2c3ea4	-0.1682077
138	0x3e2432da	0.16035023
139	0xbd788362	-0.06067217
140	0xbd94df92	-0.07269205
141	0xbde10f1f	-0.10989212
142	0xbda863ce	-0.08222161
143	0x3e21ce2b	0.15801303
144	0xbe28beb4	-0.16478997
145	0x3dfb97b5	0.12284795
146	0x3e00d7c2	0.12582305
147	0x3e026ad2	0.12736061
148	0xbe04ec92	-0.1298087
149	0x3d72e31a	0.059298612
150	0xbe0cf17a	-0.13763991
151	0xbe0026e0	-0.1251483
152	0x3cd0e560	0.0255
153	0x3d9b9f0c	0.07598695
154	0x3e267669	0.16256107
155	0x3cad51dc	0.021157198
156	0x3db3973c	0.0876908
157	0x3d888e0f	0.066677205
158	0xba15ce03	-0.0005714597
159	0xbe1f1976	-0.15537056
160	0xbcc27401	-0.023736956
161	0xbd982dd9	-0.0743062
162	0xbd43044d	-0.047611523
163	0x3cad8ffc	0.021186821
164	0xbdafecc0	-0.08590078
165	0xbe2bb25b	-0.16767256
166	0x3dfba95d	0.12288163
167	0x3c398ee4	0.011325572
168	0xbdf8205c	-0.12115547
169	0x3de0a81b	0.109695636
170	0x3ddf7312	0.1091062
171	0x3e197e33	0.14989547
172	0xbd3648eb	-0.044503134
173	0x3c56747f	0.013089298
174	0x3c13ee33	0.009028959
175	0x3ddfac28	0.10921508
176	0x3dc47773	0.09593096
177	0x3e0d2d38	0.13786781
178	0xbe0bbf30	-0.13647151
179	0x3d8e20ab	0.06939825
180	0xbd3e9947	-0.046532895
181	0x3cba6168	0.022751525
182	0x3de8b53a	0.11362691
183	0x3e351402	0.17683414
184	0x3e058c64	0.13041836
185	0xbdb2c59e	-0.08729099
186	0xbe2316a0	-0.159266
187	0xbe2e94e0	-0.17048979
188	0xbdde5c90	-0.10857499
189	0xbe3c38b5	-0.18381007
190	0xbe110ec9	-0.14165796
191	0x3dfd06bc	0.123548
192	0xbd91555e	-0.070963606
193	0x3d8c78ad	0.068589546
194	0xbdc7ceab	-0.09756216
195	0xbe2858d6	-0.16440138
196	0xbe1c5cd6	-0.15269789
197	0xbe01b9fa	-0.126686
198	0x3def32a3	0.1167958
199	0xbe1d292a	-0.15347734
200	0xbe212166	-0.15735397
201	0xbe0de6fe	-0.13857648
202	0xbd6fd10b	-0.05854897
203	0x3d96c23e	0.073612675
204	0x3c8eb68d	0.017421031
205	0xbce33e48	-0.027739659
206	0x3daf70c0	0.08566427
207	0x3e026655	0.12734349
208	0x3e13111c	0.14361995
209	0xbd2732fc	-0.040820107
210	0x3d1a979c	0.037742242
211	0xbd9b2451	-0.07575286
212	0xbdfd2355	-0.12360255
213	0x3dbedcd1	0.09319461
214	0xbda20d37	-0.07912677
215	0x3d5a40cd	0.053284455
216	0xbdc3ae4a	-0.095547274
217	0xbe06e7ea	-0.13174406
218	0xbda125cd	-0.07868538
219	0x3d982e13	0.07430663
220	0xbe4f1c8e	-0.20225736
221	0x3de11792	0.10990824
222	0xbdaf9aee	-0.08574472
223	0xbd49a49a	-0.049229242
224	0x3da42f52	0.08016838
225	0x3e1610a0	0.1465478
226	0xbdf1b9d8	-0.11803025
227	0xbb5a14b6	-0.0033276505
228	0x3d82aa55	0.063801445
229	0x3d0f7c0e	0.035030417
230	0x3e3aa45d	0.18226762
231	0xbdea6b3c	-0.114462346
232	0xbdd404c4	-0.103524715
233	0x3daf9f99	0.08575363
234	0xbd1e48ae	-0.03864353
235	0x3d890b4f	0.0669161
236	0x3d566949	0.0523465
237	0x3d937535	0.0720009
238	0xbd8783fa	-0.066169694
239	0xbddd51b4	-0.10806599
240	0xbbe49dcd	-0.006976819
241	0xbd5d9267	-0.0540947
242	0xbdabc16f	-0.08386504
243	0x3e2cb2fb	0.1686515
244	0x3deff945	0.11717466
245	0xbdcb3105	-0.09921459
246	0xbdc1495d	-0.09437821
247	0xbe299a7b	-0.16562836
248	0xbde6116b	-0.11233791
249	0xbda7233d	-0.08161018
250	0x3c38a379	0.011269444
251	0x3cdfcecb	0.027320286
252	0xbcffd36c	-0.031228743
253	0xbd5541d2	-0.052064724
254	0x3ddabfe7	0.10681134
255	0xbdf71b55	-0.1206576

emb_net.v_lins1.3.bias f4 [32]
0	0xbc576a1c	-0.013147857
1	0x3dbf9ce5	0.09356097
2	0xbc09ab64	-0.008402679
3	0x3d433cdc	0.047665462
4	0xbe1d2781	-0.15347101
5	0xbd94e23e	-0.07269715
6	0xbddc8abf	-0.10768651
7	0xbd8a7ccb	-0.067620836
8	0xbd080b01	-0.03321362
9	0x3e2154e3	0.15755038
10	0x3d98a4bc	0.074532956
11	0xbe2f72cc	-0.17133635
12	0xbdcba069	-0.09942705
13	0xbb83db35	-0.0040239342
14	0x3cf20683	0.02954412
15	0x3cac3635	0.021021942
16	0x3e2aaa80	0.16666603
17	0xbd70c3ea	-0.05878059
18	0xba82c93b	-0.0009978184
19	0xbd648db6	-0.05579921
20	0x3dcd58d3	0.100267075
21	0xbdd4fbbb	-0.10399576
22	0xbe02bfc7	-0.1276847
23	0x3d1ff6c3	0.03905369
24	0x3da9e37e	0.08295344
25	0xbdfc7e0a	-0.123287275
26	0xbd914d6e	-0.07094847
27	0xbe04859f	-0.12941597
28	0x3e2adb78	0.16685283
29	0xbd516db6	-0.05113002
30	0xbe02ab7d	-0.1276073
31	0x3b8f711e	0.0043774983

emb_net.v_lins1.4.weight f4 [32, 32]
0	0x3e0ddbf2	0.13853434
1	0xbd54a342	-0.051913507
2	0x3dd25ded	0.10271821
3	0x3d8e4cae	0.06948219
4	0x3e2b3675	0.16719992
5	0xbda2fbe6	-0.07958202
6	0xbd85c20f	-0.06531154
7	0x3dcf1208	0.10110861
8	0x3c9aae1b	0.018881848
9	0x3d020ad2	0.0317486
10	0xbd0d58b6	-0.03450843
11	0x3e36b0e5	0.17840917
12	0x3e27e850	0.16397214
13	0xbe23e669	-0.16005863
14	0x3d437e72	0.04772801
15	0xbe0a907f	-0.13531683
16	0x3b12defa	0.0022410736
17	0xbe3193b5	-0.17341502
18	0xbd306f83	-0.043075096
19	0xbe14eed2	-0.14544228
20	0xbe2a7a03	-0.16648106
21	0x3c9aa8f5	0.018879393
22	0x3df0967b	0.11747452
23	0xbddc1ba2	-0.10747458
24	0xbc842394	-0.016130246
25	0xbdc0522a	-0.093906716
26	0xbe1e9d20	-0.15489626
27	0x3e0ecb61	0.1394477
28	0x3ba8ed49	0.0051552397
29	0xbd37a6de	-0.04483687
30	0x3dae471e	0.08509658
31	0x3d6e6942	0.05820585
32	0x3e0804fc	0.13283151
33	0xbe1f284a	-0.15542713
34	0xbdadb45a	-0.08481665
35	0xbe01c856	-0.12674078
36	0xbd888bfc	-0.06667325
37	0x3d5909d5	0.052987892
38	0x3e107388	0.14106572
39	0xbd852767	-0.06501656
40	0xbddb7d93	-0.10717311
41	0x3e2477e7	0.16061364
42	0x3e139565	0.14412458
43	0xbd9cf114	-0.076631695
44	0x3dac7efc	0.08422658
45	0xbd6456fa	-0.05574701
46	0xbd1873ae	-0.037219696
47	0xbe048ea7	-0.12945043
48	0xbe05cabd	-0.1306562
49	0x3e26f880	0.16305733
50	0xbd919513	-0.07108512
51	0xbd3bd826	-0.045860432
52	0x3d8c1ab7	0.06841033
53	0x3ca5216c	0.020157538
54	0xbe28de24	-0.1649099
55	0xbe114efd	-0.14190288
56	0xbe234f4e	-0.15948221
57	0x3dc3a0ba	0.095521405
58	0xbe350ff5	-0.17681868
59	0x3dbbedfd	0.09176252
60	0xbcffc836	-0.031223398
61	0xbe1dbfbf	-0.15405177
62	0x3de74daf	0.11294114
63	0xbde3eb1f	-0.1112883
64	0x3c94d696	0.018168729
65	0x3e023f30	0.12719417
66	0x3e04de81	0.12975504
67	0xbd4c6577	-0.049901452
68	0xbe299a24	-0.16562706
69	0x3e074425	0.13209589
70	0x3dfdce58	0.123928726
71	0x3dea3b85	0.11437134
72	0x3e08fe38	0.13378227
73	0x3dfc7c79	0.12328429
74	0x3dee7c07	0.1164475
75	0x3dcda3f2	0.10041036
76	0x3df16e9a	0.11788674
77	0x3e07007c	0.13183779
78	0x3e371460	0.17878866
79	0xbdfc8b7b	-0.12331291
80	0xbe0f5421	-0.13996936
81	0x3dd49ffd	0.10382078
82	0xbc308973	-0.010774958
83	0xbd740b57	-0.059581127
84	0x3bd3ac5d	0.0064597563
85	0xbe058ed6	-0.13042769
86	0x3db2bb7d	0.08727167
87	0xbdbd2601	-0.09235764
88	0xbda0affe	-0.07846068
89	0x3dd7a632	0.10529746
90	0xbd203c9f	-0.039120313
91	0xbe15de7f	-0.14635657
92	0xbe251e3d	-0.16124816
93	0xbd01f287	-0.031725433
94	0x3c6d193f	0.014471351
95	0xbdd5178c	-0.10404882
96	0xbd5e2295	-0.0542322
97	0x3b6ec6c5	0.0036434394
98	0xbe209d1c	-0.15684932
99	0x3db48ec1	0.08816291
100	0x3ccee6c6	0.025256526
101	0xbdbf412e	-0.09338604
102	0x3ca43316	0.02004389
103	0x3d65ba8b	0.056086104
104	0xbe111d45	-0.14171322
105	0x3d8d7867	0.069077305
106	0x3c9140cd	0.017731095
107	0x3dab1a88	0.0835467
108	0xbe1d798c	-0.15378398
109	0x3db7230f	0.08942234
110	0xbe1127d8	-0.14175355
111	0xbdcbf8a5	-0.099595346
112	0x3c19a3fb	0.009377475
113	0x3e1d49d5	0.15360196
114	0x3c05e12b	0.00817136
115	0xbd57b804	-0.052665725
116	0x3da7ad10	0.08187306
117	0x3e144b36	0.14481816
118	0xbe0b47eb	-0.13601653
119	0xbd637681	-0.055532936
120	0x3e1597fd	0.1460876
121	0xbd91d24c	-0.07120189
122	0xbd717c06	-0.05895617
123	0x3ccb5b69	0.024823861
124	0xbcb23b49	-0.021756785
125	0xbd99437e	-0.07483576
126	0x3d53af7c	0.051681027
127	0xbdcc916e	-0.09988676
128	0xbe237335	-0.15961917
129	0xbe01a26e	-0.12659618
130	0x3d1327fc	0.035926804
131	0xbd54062a	-0.05176369
132	0x3ba0b780	0.0049046874
133	0x3df7e7d6	0.12104766
134	0x3e2e6d79	0.17033948
135	0x3e08b681	0.1335087
136	0x3a737f51	0.0009288686
137	0x3e071264	0.13190609
138	0xbe18cbaa	-0.14921442
139	0x3df81054	0.12112489
140	0xbd6a6458	-0.0572246
141	0xbe0fb6e0	-0.14034605
142	0xbce9638b	-0.028489849
143	0xbe025cd0	-0.12730718
144	0xbc3ad0da	-0.011402333
145	0x3dc24b67	0.09487038
146	0x3d9bc4fa	0.0760593
147	0x3e37b28d	0.17939205
148	0xbc0ef134	-0.0087244995
149	0xbbfa5e55	-0.00764064
150	0x3e08affd	0.13348384
151	0x3da6eee6	0.08151035
152	0x3e26f5bd	0.16304679
153	0x3ba56abd	0.0050481246
154	0x3d49742a	0.04918305
155	0x3e1d6f51	0.15374495
156	0x3cc2800f	0.023742704
157	0xbd46c588	-0.048528224
158	0x3dc6360d	0.09678278
159	0xbd02c6fc	-0.031928048
160	0xbe0e0067	-0.13867341
161	0xbc9be130	-0.019028276
162	0x3de4ef29	0.11178429
163	0xbe363d8c	-0.17796916
164	0x3df1cbcb	0.118064485
165	0x3e103bc5	0.140853
166	0x3ceefde2	0.029173795
167	0xbdddec2e	-0.10836063
168	0x3b5f5d6f	0.003408279
169	0xbe007eae	-0.12548324
170	0x3dbca310	0.09210789
171	0x3dd17ece	0.10229264
172	0x3ca1f58f	0.019770412
173	0xbce0ee8f	-0.027457504
174	0x3cd6b21a	0.026207972
175	0x3d8092e8	0.0627802
176	0x3e168caa	0.14702097
177	0xbd2988ec	-0.041390345
178	0x3db58736	0.0886368
179	0xbd5f9c61	-0.054592494
180	0xbe0d1f43	-0.13781457
181	0xbd8770f0	-0.06613338
182	0xbe0aa8dc	-0.13540977
183	0x3d8b1ef6	0.06793015
184	0xbde36850	-0.111038804
185	0xbe07d164	-0.1326347
186	0xbc294997	-0.010332487
187	0xbc797736	-0.015226176
188	0x3cfe412f	0.031036941
189	0x3ca916ef	0.020640818
190	0x3db680b2	0.089112654
191	0xbe0a8584	-0.13527495
192	0xbdbd3d6e	-0.092402324
193	0x3d4825f2	0.048864312
194	0x3e243d3c	0.16038984
195	0xbe2c56e2	-0.16830018
196	0x3d2ba119	0.04190168
197	0xbd60ce3a	-0.054884173
198	0xbe399154	-0.18121845
199	0xbd60bb15	-0.054865915
200	0xbe3010ba	-0.1719388
201	0xbe31a27c	-0.17347139
202	0xbdf64843	-0.120255016
203	0x3d28f6fc	0.041251168
204	0xbdd60802	-0.10450746
205	0x3d565261	0.052324656
206	0x3de28eef	0.11062419
207	0xbdaaab12	-0.0833341
208	0xbd806e1b	-0.06271001
209	0xbdb29008	-0.08718878
210	0xbddc1987	-0.107470565
211	0xbdab8bef	-0.083762996
212	0x3d9be254	0.07611528
213	0x3d59679d	0.05307733
214	0xbe279504	-0.16365439
215	0x3dc82b3d	0.09773872
216	0x3b5f9a9f	0.003411926
217	0x3d21980d	0.039451648
218	0x3e09c9c7	0.13455878
219	0xbd60ffe3	-0.054931533
220	0x3e1b288e	0.15152189
221	0x3da70699	0.08155555
222	0xbd6c53fe	-0.05769729
223	0xbda8303c	-0.08212325
224	0x3df71283	0.12064078
225	0xbdb20fae	-0.08694397
226	0x3da46be2	0.080283895
227	0x3d707737	0.058707442
228	0xbe146c62	-0.1449447
229	0xbd8b41b3	-0.067996405
230	0x3e2d4a17	0.16922794
231	0xbe009272	-0.12555864
232	0xbdd59766	-0.104292676
233	0xbe1b3997	-0.15158688
234	0xbba81737	-0.0051297206
235	0xba8aaa40	-0.0010579303
236	0x3c5bb477	0.013409725
237	0x3dabe7bd	0.0839381
238	0x3dbe99f4	0.09306708
239	0xbded8f32	-0.11599578
240	0x3e04f1ac	0.12982816
241	0xbe09da09	-0.1346208
242	0x3e036b09	0.128338
243	0x3d9ca96e	0.07649504
244	0x3e243ee0	0.1603961
245	0x3df5d1f5	0.12002937
246	0x3d51516c	0.05110304
247	0xbd98c8d5	-0.07460181
248	0xbd446da5	-0.047956128
249	0xb98332d5	-0.0002502414
250	0x3dd6067d	0.10450456
251	0xbe1f7176	-0.15570626
252	0xbc872ce7	-0.016500903
253	0x3db77a28	0.08958846
254	0x3d4f4ef1	0.050612394
255	0xbde0cfe4	-0.10977152

emb_net.v_lins1.4.bias f4 [32]
0	0xbdfe1a7c	-0.12407395
1	0xbb19a539	-0.0023444428
2	0x3d75697b	0.059915047
3	0xbd77e665	-0.060522456
4	0x3c8cbfca	0.017181296
5	0xbdaedfe4	-0.085387975
6	0x3d97512d	0.0738853
7	0x3de4ae73	0.11166086
8	0xbe277a0e	-0.16355154
9	0xbc394cac	-0.011309784
10	0x3b3266c3	0.0027221895
11	0x3dfad2ac	0.12247214
12	0x3e33c43d	0.17555328
13	0xbdd31522	-0.10306765
14	0xbde78345	-0.113043346
15	0x3b50da8e	0.003186855
16	0x3dbe6f42	0.092985645
17	0xbd8700e6	-0.06591968
18	0xbe2f9117	-0.17145191
19	0x3e1f25cf	0.15541767
20	0xbd86bd28	-0.065790474
21	0x3d569deb	0.052396696
22	0x3cbbd37a	0.022927988
23	0x3e3463c9	0.1761619
24	0x3d44dad1	0.048060242
25	0x3dc26a51	0.094929345
26	0xbd1e306c	-0.038620397
27	0xbe0e18c5	-0.13876636
28	0x3df32ec3	0.118741535
29	0xbd8490c2	-0.06472923
30	0xbe11b9b2	-0.14230993
31	0xbd9cf793	-0.076644085

emb_net.v_lins1.5.weight f4 [32, 32]
0	0x3dff88c6	0.12477259
1	0x3df0c0b9	0.11755509
2	0x3de39a9e	0.11113475
3	0x3bc0b8e1	0.0058814143
4	0xba02e834	-0.00049937074
5	0xbde52c93	-0.111901425
6	0xbd17945a	-0.037006713
7	0xbcb40afd	-0.021977896
8	0x3dc1cd79	0.09463019
9	0xbafc8f90	-0.0019268859
10	0x3e152758	0.1456579
11	0xbcb7d057	-0.022438211
12	0xbe230ca9	-0.15922798
13	0x3ca2fb20	0.019895136
14	0xbe0cf9a2	-0.13767102
15	0x3e3958b3	0.18100242
16	0x3d820a90	0.06349671
17	0x3db19038	0.08670086
18	0xbe1689ea	-0.14701048
19	0x3d9f6051	0.07782043
20	0x3d0d56b3	0.03450651
21	0x3d8b98f1	0.06816281
22	0x3dc4b0c4	0.09604028
23	0x3dab3db6	0.0836138
24	0x3d22b861	0.03972662
25	0xbe0ed056	-0.13946661
26	0x3d8e43b8	0.0694651
27	0x3d832c50	0.06404936
28	0xbc7074d2	-0.01467629
29	0x3e2e254e	0.17006418
30	0x3e1795a7	0.14803182
31	0xbdd608c5	-0.104508914
32	0xbe21e02d	-0.15808173
33	0x3db3af42	0.08773662
34	0xbe0789ce	-0.13236162
35	0x3ce00273	0.027344918
36	0x3e2e5935	0.17026217
37	0x3e3ae5a2	0.1825166
38	0xbdc90ded	-0.09817109
39	0x3e34940a	0.17634597
40	0x3daef164	0.08542135
41	0x3da94597	0.08265226
42	0xbe26cccc	-0.16289061
43	0xbdfbb03e	-0.12289475
44	0x3d97cd61	0.0741222
45	0xbd74056d	-0.059575487
46	0x3e2d18b8	0.1690396
47	0x3dfb9089	0.12283427
48	0xbd65631c	-0.05600272
49	0xbda21ca8	-0.07915622
50	0xbd247d75	-0.040158708
51	0x3defdd0d	0.11712084
52	0xbd76783b	-0.060173254
53	0xbd498de9	-0.0492076
54	0x3e15e3e6	0.14637718
55	0xbe11875f	-0.14211796
56	0xbb5e1d21	-0.0033891874
57	0x3e00f1e0	0.12592268
58	0x3dda978e	0.10673438
59	0x3e088bcf	0.13334583
60	0xbdb43d62	-0.0880077
61	0x3d451a5f	0.048120853
62	0xbe1f62cf	-0.15565036
63	0x3dc772f5	0.09738723
64	0x3db605b3	0.08887806
65	0x3db22aca	0.086995676
66	0x3e36c0e3	0.17847018
67	0x3e2a20f6	0.16614136
68	0x3d9beadd	0.07613156
69	0x3dd4a9f6	0.1038398
70	0x3ded2c31	0.115806945
71	0xbda42997	-0.08015745
72	0x3d1401be	0.036134474
73	0xbe08d87c	-0.13363832
74	0x3de19bca	0.110160425
75	0xbd8f5334	-0.069982916
76	0x3e298a90	0.16556764
77	0x3c614d37	0.01375132
78	0xbd7687bc	-0.06018804
79	0x3e11b7ae	0.14230224
80	0x3e1abccb	0.15111081
81	0xbca4931e	-0.020089682
82	0x3e1e022d	0.15430517
83	0xbdf55431	-0.11978949
84	0xbdd72953	-0.10505929
85	0xbb587dc0	-0.0033033937
86	0xbe2ad73a	-0.16683665
87	0xbdf7b411	-0.12094892
88	0x3cf77508	0.030207172
89	0xbe049eae	-0.12951156
90	0x3d9f3cad	0.07775245
91	0xbe16b40a	-0.14717117
92	0x3e30e3e0	0.17274427
93	0x3e089ee1	0.13341857
94	0xbdb578ba	-0.088609174
95	0x3e27eab2	0.16398123
96	0x3e3c0f66	0.18365249
97	0x3d4ac33c	0.049502596
98	0xbdf32425	-0.118721284
99	0x3ceff56d	0.029291833
100	0xbdfcc0a9	-0.123414345
101	0x3dc07ba6	0.09398584
102	0x3d207118	0.039170355
103	0xbd93a7d8	-0.07209748
104	0x3dd5106a	0.10403521
105	0x3dc493a6	0.09598474
106	0x3dafd5dc	0.08585712
107	0xbe0c39b9	-0.13693894
108	0x3d01fac1	0.03173328
109	0xbdefb3bd	-0.11704204
110	0xbe1746ba	-0.14773074
111	0xbe1441e1	-0.14478256
112	0xbd5c5245	-0.053789396
113	0xbdb0fea5	-0.086423196
114	0xbb2381b8	-0.0024949145
115	0xbd4e3a18	-0.05034837
116	0x3e315872	0.17318895
117	0xbd38795e	-0.04503762
118	0xbd85f4b4	-0.06540814
119	0x3cadad3b	0.021200767
120	0x3bbb7cf9	0.005721685
121	0x3b8318c8	0.004000757
122	0xbdcd8880	-0.10035801
123	0x3d906a1b	0.07051488
124	0xbe1b72e9	-0.15180553
125	0xbda1bdb8	-0.07897514
126	0xbd92f21d	-0.07175086
127	0x3acc20a9	0.0015573698
128	0xbdee08ed	-0.11622796
129	0x3db3ee14	0.08785644
130	0xbe005d08	-0.12535489
131	0xbc065e5f	-0.008201211
132	0x3d4dedd6	0.050275646
133	0x3dcd600d	0.10028086
134	0xbe185f06	-0.14879999
135	0x3df8a5be	0.12140988
136	0xbe005513	-0.12532453
137	0x3d289131	0.04115409
138	0x3bfd206a	0.0077248113
139	0xbc184bb0	-0.009295389
140	0x3d9428f2	0.07234372
141	0x3d1c1ec8	0.038115293
142	0xbd3e13c2	-0.04640556
143	0xbd85ce7e	-0.06533526
144	0xbd636abd	-0.055521715
145	0xbd695969	-0.056970034
146	0x3d886b0d	0.06661043
147	0x3e035f9d	0.12829442
148	0xbdc431d0	-0.095798135
149	0xbddcc0d7	-0.10778969
150	0xbd918769	-0.071059056
151	0x3e2325fb	0.15932457
152	0xbe271e4a	-0.16320148
153	0xbd183028	-0.0371553
154	0x3e142421	0.14466907
155	0x3e0d3571	0.13789918
156	0xbdd79b72	-0.10527696
157	0xbddb8c27	-0.10720091
158	0xbe06c05b	-0.13159315
159	0xbd5b7785	-0.05358078
160	0x3d9caba3	0.076499246
161	0xbd8e3623	-0.069439195
162	0xbd969fc1	-0.073546894
163	0xbdc4ed8d	-0.09615622
164	0xbdc7f97d	-0.09764383
165	0x3cbba32f	0.02290496
166	0x3e05211f	0.13000916
167	0x3d9e039a	0.07715531
168	0xbdbdf791	-0.09275735
169	0x3da60175	0.08105747
170	0xbe145565	-0.144857
171	0xbd438f9b	-0.047744375
172	0xbc9a3e86	-0.018828642
173	0x3d1092a6	0.035296105
174	0x3dbbc78d	0.09168921
175	0x3d88b895	0.06675831
176	0x3b5cad7f	0.0033672748
177	0xbdb78eda	-0.08962794
178	0x3dccbfad	0.09997497
179	0xbe1cd45d	-0.15315385
180	0xbd972592	-0.07380213
181	0xbd989783	-0.074507736
182	0xbe2509ad	-0.16116972
183	0xbd9e60a1	-0.07733274
184	0xbe0d7818	-0.13815343
185	0x3ccdbd84	0.025114782
186	0xbe3a9e4b	-0.18224446
187	0xbdf21285	-0.118199386
188	0xbd0c95c2	-0.034322508
189	0xbc85822c	-0.016297422
190	0xbdacbf1b	-0.08434888
191	0xbd88de93	-0.06683078
192	0xbd0051c7	-0.03132799
193	0x3ddf50ef	0.10904109
194	0x3b847582	0.0040423283
195	0xbb9375c6	-0.0045001237
196	0xbe0682f1	-0.13135888
197	0x3ae111a8	0.00171714
198	0x3d146ad5	0.036234695
199	0x3e27eea7	0.16399632
200	0xbd89a157	-0.06720226
201	0x3d88be7d	0.06676958
202	0xbc99e3af	-0.018785326
203	0x3d56fb55	0.052485783
204	0xbe24bd8c	-0.16087931
205	0x3de8ccde	0.113672
206	0xbda944ce	-0.082650766
207	0xbdf40441	-0.11914874
208	0xbd862be4	-0.0655134
209	0x3e167eab	0.14696757
210	0x3dd7752b	0.10520395
211	0xbd979ed7	-0.07403343
212	0x3e0a10dd	0.13482995
213	0xbd06488d	-0.032784034
214	0xbcc02e41	-0.023459556
215	0x3d3310c4	0.04371716
216	0x3b4edadc	0.0031563556
217	0x3c860a54	0.016362347
218	0xbdf22844	-0.11824086
219	0x3d5f7513	0.05455501
220	0x3d8a62cc	0.06757125
221	0xbdc8e5c9	-0.09809453
222	0x3d4245eb	0.04742996
223	0xbcb93bee	-0.022611585
224	0xbd4b7c7a	-0.049679257
225	0xbdff2a40	-0.124592304
226	0x3e263c95	0.16234048
227	0xbc4b50ab	-0.012409369
228	0xbd6da8a4	-0.058022156
229	0x3e25dc0b	0.16197221
230	0xbe056ca0	-0.13029718
231	0xbda79f23	-0.0818465
232	0xbdf91b08	-0.12163359
233	0xbd5db624	-0.05412878
234	0xbe08d334	-0.13361818
235	0x3da15fed	0.078796245
236	0x3d46620d	0.048433352
237	0x3e213ef0	0.15746665
238	0xbd8c4680	-0.06849384
239	0x3cccba93	0.02499131
240	0x3d11476b	0.0354685
241	0xbd975bae	-0.073905334
242	0xbe33a4db	-0.17543356
243	0xbe1e228e	-0.15442869
244	0x3d800ddf	0.06252646
245	0x3c45d08c	0.012073647
246	0x3e1c4606	0.15261087
247	0xbe3245b7	-0.17409407
248	0x3d0cf1d4	0.034410313
249	0xbdaf755f	-0.08567309
250	0x3defbf66	0.11706428
251	0x3dce992b	0.10087808
252	0xbe297029	-0.16546692
253	0xbe2eb6a4	-0.1706186
254	0x3d090318	0.033450216
255	0x3d22a9a0	0.03971255

emb_net.v_lins1.5.bias f4 [32]
0	0x3cc7690c	0.024342082
1	0x3b5c8a44	0.0033651749
2	0xbc2be462	-0.010491462
3	0x3df41bcd	0.11919365
4	0xbe02a3ee	-0.12757847
5	0xbdd50d82	-0.10402967
6	0xbdf7ef31	-0.12106169
7	0xbd87e20a	-0.066349104
8	0xbd05b02f	-0.032638725
9	0xbe08da4c	-0.13364524
10	0x3d56014c	0.05224733
11	0xbc88fb68	-0.016721442
12	0x3dfac500	0.12244606
13	0x3df62423	0.12018611
14	0x3dbd27f3	0.09236135
15	0x3cc81315	0.024423162
16	0xbdeebd10	-0.116571546
17	0xbe0679d8	-0.13132417
18	0x3db8b315	0.09018532
19	0x3d1e21bb	0.038606387
20	0xbd71b376	-0.059009038
21	0xbe2c8393	-0.16847067
22	0x3da9335d	0.0826175
23	0x3dcc5325	0.09976796
24	0xbd7a5518	-0.061116308
25	0xbc9dee79	-0.019278752
26	0xbdc810cb	-0.09768828
27	0x3dd1cf3a	0.102446035
28	0x3df3b6f0	0.11900127
29	0xbd857aed	-0.06517587
30	0xbe28f163	-0.16498332
31	0xbdd8e192	-0.10589899
