pretrained/cvrp_nls/cvrp100.pt (torch, 357771 bytes, 225 tensors)

emb_net.v_lin0.weight f4 [32, 1]
0	0x3e6fdc7a	0.23423949
1	0x3f3def8e	0.74193656
2	0x3f4b5a50	0.7943468
3	0x3f2a0482	0.6641313
4	0xbf5678c3	-0.8377802
5	0x3ec9e2bb	0.39430794
6	0xbf744459	-0.9541679
7	0x3f7824e7	0.9693131
8	0xbf2d20ae	-0.6762799
9	0xbf798dba	-0.9748188
10	0x3ee4cce6	0.44687575
11	0x3ecf2f5d	0.40465823
12	0xbeab495d	-0.3345441
13	0x3f279c5f	0.6547298
14	0x3ec0c738	0.37651992
15	0xbefc03bd	-0.49221602
16	0xbf13eade	-0.57780254
17	0x3f573379	0.84062916
18	0x3e725de1	0.23668624
19	0xbea8859f	-0.32914445
20	0x3ee7120f	0.45130965
21	0xbf713ab6	-0.9423021
22	0xbe8d09ac	-0.27546442
23	0x3edb29d2	0.42805344
24	0x3e7a533d	0.24445815
25	0x3f0b4d92	0.5441524
26	0xbe25ebe5	-0.16203268
27	0x3e6d048c	0.23146266
28	0xbf268611	-0.6504832
29	0xbf1cbb14	-0.6122296
30	0x3f19c9cf	0.6007356
31	0x3e94d319	0.29067305

emb_net.v_lin0.bias f4 [32]
0	0x3dac2273	0.08405008
1	0x3e91cf2b	0.2847837
2	0x3f76f77f	0.964714
3	0xbf3fd3bb	-0.7493245
4	0xbf57eba7	-0.8434395
5	0x3f369780	0.7132492
6	0x3f7d52e6	0.9895462
7	0x3e5e1ef3	0.21691494
8	0xbc66da9e	-0.014090208
9	0x3ef915d3	0.48649463
10	0x3eff4cf3	0.49863395
11	0x3ec62c7f	0.38705823
12	0xbe8cfe20	-0.27537632
13	0xbe89ba65	-0.2690002
14	0x3e962532	0.29325253
15	0x3f2ed141	0.68288046
16	0x3f4f170d	0.8089455
17	0xbf7638c5	-0.96180373
18	0xbe2e681f	-0.17031907
19	0x3f6dd928	0.9290948
20	0xbf60aef1	-0.8776694
21	0x3f657dec	0.89645267
22	0x3f5e388c	0.86805034
23	0xbeeac212	-0.4585119
24	0x3ec0e196	0.37672108
25	0x3e8596da	0.26091653
26	0xbeeeb248	-0.46620393
27	0x3e569c9e	0.20958182
28	0x3db336ae	0.08750664
29	0xbe6ff6b9	-0.23433961
30	0xbf34446a	-0.7041689
31	0x3f4e43f6	0.8057245

emb_net.v_lins1.0.weight f4 [32, 32]
0	0x3e32bc16	0.17454562
1	0xbdecf5ba	-0.11570306
2	0xbdcf8b13	-0.10133948
3	0x3d06d40a	0.03291706
4	0x3e1d49cc	0.15360183
5	0x3da4f18e	0.080538854
6	0x3e19c3de	0.15016124
7	0xbe2c54af	-0.16829179
8	0x3df9a290	0.121892095
9	0xbe0a6291	-0.13514163
10	0xbd7e3905	-0.062066097
11	0x3d1d8226	0.038454197
12	0xbe06b674	-0.13155538
13	0x3da1906f	0.07888877
14	0xbe1854f8	-0.14876163
15	0x3e0eade3	0.1393352
16	0x3d50e9c0	0.05100417
17	0xbde6b29a	-0.11264534
18	0x3dd1d18a	0.102450445
19	0x3de29901	0.110643394
20	0x3d1b872e	0.037970714
21	0xbdf66f9d	-0.12033007
22	0xbd3d4e9d	-0.04621755
23	0xbe270541	-0.16310598
24	0xbe0dabe9	-0.1383511
25	0x3db5b222	0.08871867
26	0x3e045a9d	0.12925191
27	0xbbe92793	-0.0071153133
28	0x3d038915	0.032113153
29	0xbd134171	-0.03595108
30	0xbd9394d7	-0.07206123
31	0x3d85c5d8	0.06531876
32	0x3e2bdac1	0.16782667
33	0x3e1beaf9	0.15226354
34	0x3dfc5034	0.12319985
35	0xbdf83d83	-0.121211074
36	0xbd53c67f	-0.051702973
37	0xbe1775db	-0.14791052
38	0x3da83437	0.08213084
39	0x3d454347	0.048159864
40	0xbd9a9744	-0.07548383
41	0x3d291347	0.04127815
42	0x3c98b361	0.018640222
43	0x3d237b8b	0.03991274
44	0x3dc8ce02	0.09804918
45	0xbdb76ba2	-0.08956076
46	0xbc921c8e	-0.017835882
47	0x3d1af381	0.03782988
48	0x3e1da4c6	0.15394887
49	0x3da96264	0.0827072
50	0x3d3400f6	0.04394623
51	0x3da58408	0.080818236
52	0xbd4a1891	-0.049339835
53	0x3e155c59	0.14586009
54	0x3ba5b9a2	0.0050575295
55	0xbd0d8998	-0.034555048
56	0x3de71bcd	0.112845995
57	0xbde7dfbb	-0.1132197
58	0xbd12dc30	-0.03585452
59	0xbd59ece5	-0.053204436
60	0x3da453ff	0.080238335
61	0xbde487c5	-0.111587085
62	0x3e185184	0.14874846
63	0xbdc20ad4	-0.094747216
64	0x3b38de1a	0.0028208555
65	0x3dda4977	0.106585436
66	0x3def44b4	0.11683026
67	0xbd4487ee	-0.047981195
68	0x3dfd69e4	0.12373713
69	0xbe192459	-0.14955272
70	0xbd164210	-0.036684096
71	0x3e2e8394	0.1704238
72	0xbcf65624	-0.030070372
73	0x3d852115	0.065004505
74	0xbe07f7fb	-0.13278191
75	0x3dfcfd25	0.12352971
76	0xbdd62057	-0.10455387
77	0xbe1f3a96	-0.15549693
78	0x3c68099f	0.01416245
79	0x3d917ab0	0.07103479
80	0xbe1a1896	-0.15048441
81	0x3d1a5742	0.03768087
82	0xbe1fb566	-0.15596542
83	0x3dffa511	0.12482656
84	0x3cd7fa28	0.026364401
85	0xbd427bd4	-0.047481373
86	0x3d1c2ed5	0.0381306
87	0xbd8f8da2	-0.07009436
88	0x3dbd7483	0.092507385
89	0x3ddbeaa4	0.107381135
90	0xbd8b1d69	-0.06792719
91	0x3e200d53	0.15630083
92	0x3dbe12fe	0.09280966
93	0x3d136a03	0.035989773
94	0xbc3d30e7	-0.011547304
95	0x3bdca38e	0.0067333644
96	0xbe0946bc	-0.1340589
97	0xbdb5e16b	-0.08880886
98	0x3b25b352	0.0025283885
99	0xbd84f96f	-0.06492888
100	0x3cf26788	0.029590383
101	0xbe1aa2bd	-0.15101142
102	0x3d0ab3e1	0.033862952
103	0xbdb65a62	-0.08903958
104	0x3de79564	0.11307791
105	0xbdf971a8	-0.12179881
106	0xbd98fb96	-0.07469861
107	0x3e29c414	0.16578704
108	0x3dd5b004	0.10433963
109	0xbd4e3e4b	-0.050352376
110	0xbd488d0b	-0.048962634
111	0xbd9bc713	-0.0760633
112	0x3e1218a2	0.14267209
113	0x3d0ac934	0.03388329
114	0xbe1aaca2	-0.15104917
115	0xbd5a3dd5	-0.053281624
116	0x3e165394	0.1468032
117	0x3e18326f	0.14862989
118	0xbe088203	-0.13330846
119	0xbe19f9e0	-0.15036726
120	0x3db60f1a	0.08889599
121	0x3da0a0e9	0.07843191
122	0x3ce46304	0.027879246
123	0xbe30913e	-0.17242905
124	0x3dc4394c	0.09581241
125	0x3d4459ae	0.047937088
126	0xbdd05f67	-0.101744466
127	0xbd2ae5fc	-0.041723236
128	0xbc82ec0a	-0.015981693
129	0xbe257d12	-0.16160992
130	0xbdcb115e	-0.09915422
131	0x3de0f23a	0.10983701
132	0xbcd68b7b	-0.026189556
133	0xbd363d91	-0.044492308
134	0x3dec5de7	0.11541348
135	0xbdde2ed9	-0.10848779
136	0x3e281e9d	0.16417928
137	0xbe1509bd	-0.14554496
138	0xbd6b0158	-0.05737433
139	0xbe1086e2	-0.14113954
140	0xbe078ede	-0.13238093
141	0xbe1077ba	-0.14108172
142	0x3e05f8c6	0.13083181
143	0x3dffbc84	0.124871284
144	0xbe070a28	-0.13187468
145	0xbe176101	-0.14783098
146	0x3c51911a	0.012790943
147	0xbda31987	-0.07963853
148	0x3de3209e	0.110902056
149	0xbdd7519d	-0.105136134
150	0x3dc62e3b	0.096767865
151	0x3cd3b3e5	0.025842616
152	0x3e01c19c	0.12671512
153	0xbdcee074	-0.10101405
154	0x3e24d7a7	0.1609789
155	0x3e0c2f04	0.1368981
156	0xbde231b0	-0.110446334
157	0x3dd6806a	0.10473712
158	0x3df39f75	0.118956484
159	0x3db391f6	0.08768074
160	0x3dce6811	0.10078443
161	0xbc976d5a	-0.01848476
162	0xbdf107a6	-0.11769037
163	0x3dede237	0.11615413
164	0x3d9d0d5a	0.07668562
165	0x3dc8cdba	0.09804864
166	0xbde36217	-0.111026935
167	0xbdb9c061	-0.090698965
168	0x3cc0c8a9	0.023533182
169	0x3e0f423b	0.13990109
170	0xbe1d2566	-0.15346298
171	0x3d15c67f	0.036566254
172	0xbdd9b326	-0.10629873
173	0x3ddbd535	0.107340254
174	0xbe0de4c4	-0.13856798
175	0x3c575d30	0.013144776
176	0xbd127fff	-0.035766598
177	0xbdecf46b	-0.115700565
178	0xbdd4f291	-0.10397828
179	0x3e24a9ea	0.16080442
180	0x3d2c2ad0	0.042033017
181	0x3dc4e832	0.096146
182	0xbc8ecfeb	-0.017433127
183	0xbcbd93f9	-0.023141848
184	0x3d1a372a	0.037650265
185	0xbe16b2de	-0.1471667
186	0x3e02aecc	0.12761992
187	0xbd18c4ba	-0.037296988
188	0xbdaf3016	-0.085540935
189	0xbd80a41e	-0.06281303
190	0xbd493104	-0.04911901
191	0xbe1c38ef	-0.15256093
192	0x3e080b1d	0.1328549
193	0xbd527a4b	-0.05138616
194	0x3d8ba54f	0.068186395
195	0x3e2b39ee	0.16721317
196	0xbd8f960e	-0.070110425
197	0x3d87c61a	0.06629582
198	0xbdc329ca	-0.09529455
199	0xbd81dba4	-0.06340721
200	0x3dd7312c	0.10507426
201	0xbda7598a	-0.08171375
202	0x3d38f24d	0.04515295
203	0x3d5ae5a5	0.053441662
204	0x3da006d9	0.07813806
205	0x3d844657	0.06458729
206	0x3e054825	0.13015802
207	0x3e11b45c	0.14228958
208	0xbc0fbb46	-0.008772677
209	0x3c710beb	0.014712314
210	0xbe233044	-0.1593638
211	0xbcbc1415	-0.022958795
212	0xbb938c4d	-0.004502809
213	0xbe1b290f	-0.15152381
214	0xbdcb0497	-0.09912985
215	0x3dc1825e	0.09448694
216	0x3dd9602e	0.10614048
217	0x3d19f676	0.03758856
218	0x3dfd3b54	0.123648316
219	0x3d480e87	0.04884198
220	0xbbd831d6	-0.006597738
221	0x3dab96e6	0.08378391
222	0xbe08320c	-0.13300341
223	0xbe132758	-0.14370477
224	0xbda28728	-0.07935935
225	0x3db81e5e	0.08990167
226	0x3d96cd5e	0.073633894
227	0x3e08883a	0.13333216
228	0x3dd8fde4	0.10595301
229	0x3e11961a	0.14217415
230	0x3d121b8a	0.035670795
231	0x3e0ae5be	0.13564202
232	0xbe0ee6e8	-0.13955271
233	0x3e18aa86	0.149088
234	0xbe15f5a6	-0.14644489
235	0x3e2a6cf7	0.1664313
236	0x3e1f5528	0.15559828
237	0x3e08823c	0.1333093
238	0x3dc31598	0.09525603
239	0x3c681269	0.014164546
240	0xbdf8f034	-0.1215519
241	0x3d3100a3	0.043213498
242	0x3d5ebca4	0.05437912
243	0xbd30aa19	-0.043130968
244	0x3d3fe201	0.046846393
245	0xbda07c00	-0.07836151
246	0xbd932ddf	-0.071864836
247	0x3d16c1cb	0.03680591
248	0x3b97cbc4	0.004632445
249	0x3c013714	0.007886667
250	0x3e3336e2	0.17501405
251	0xbc3d33ad	-0.011547965
252	0xbe204dac	-0.1565463
253	0xbe1ec39e	-0.1550431
254	0x3db8ece1	0.09029556
255	0x3da45f9e	0.0802605

emb_net.v_lins1.0.bias f4 [32]
0	0xbcd5731d	-0.026055867
1	0xbe355175	-0.17706855
2	0xbc3bb9df	-0.011457889
3	0x3d217b09	0.039423976
4	0x3d03ff9f	0.0322262
5	0x3e06c518	0.13161123
6	0x3c10083d	0.008791027
7	0xbc80a776	-0.015704852
8	0xbd99e9e9	-0.07515318
9	0x3d42b341	0.04753423
10	0xbd544d75	-0.05183168
11	0xbe2e2726	-0.17007121
12	0xbe242529	-0.160298
13	0x3d740d96	0.05958327
14	0xbe10b3d4	-0.14131099
15	0xbe277dbe	-0.1635656
16	0xbdb48737	-0.08814853
17	0xbd168ddc	-0.03675638
18	0xbe302e46	-0.17205152
19	0xbe2ea0b8	-0.17053497
20	0x3bf2398e	0.007392115
21	0xbd96d597	-0.07364958
22	0x3d4f9789	0.050681625
23	0x3d1ceffe	0.038314812
24	0xbd8961db	-0.067081176
25	0xbe10a8d0	-0.14126897
26	0x3d8ba2f9	0.06818194
27	0x3e12ebfc	0.14347833
28	0xbcb56a23	-0.022145336
29	0xbc1fcc0b	-0.0097532375
30	0x3c12f43f	0.008969366
31	0xbd9254a1	-0.07145048

emb_net.v_lins1.1.weight f4 [32, 32]
0	0xbde41240	-0.111362934
1	0xbcc77473	-0.02434752
2	0x3deeeb3c	0.11665961
3	0xbd163be4	-0.03667821
4	0xbe2d4cb0	-0.16923785
5	0xbd9c70c4	-0.07638696
6	0x3e15d64c	0.14632529
7	0xbd83ed46	-0.06441741
8	0x3e1b1136	0.15143284
9	0xbcf6d06a	-0.030128676
10	0x3d52d737	0.051474776
11	0x3e0c7308	0.13715756
12	0x3e0fb94e	0.14035532
13	0xbe0e746a	-0.13911596
14	0x3e2a42ab	0.16626994
15	0x3c32cd55	0.010913213
16	0xbe2cb6fd	-0.1686668
17	0x3dc2d64b	0.095135294
18	0xbe29251e	-0.16518065
19	0xbdd61084	-0.10452369
20	0xbd842691	-0.064526685
21	0xbddf428f	-0.10901367
22	0xbdc0f275	-0.09421245
23	0x3d8c072d	0.06837306
24	0xbcbba0fb	-0.02290391
25	0xbc4382eb	-0.011933069
26	0x3c9e2618	0.019305274
27	0xbdaa2159	-0.08307142
28	0xbc681c76	-0.014166942
29	0x3dc8242f	0.097725265
30	0x3e0f6a6e	0.14005443
31	0x3df29696	0.11845128
32	0x3d7ca3ae	0.061679535
33	0xbe34a6a2	-0.1764169
34	0xbbd6343d	-0.006536989
35	0x39c3932b	0.00037302947
36	0x3df7a371	0.12091721
37	0xbd1c1939	-0.03810999
38	0xbd060b58	-0.032725662
39	0xbd0fa356	-0.03506788
40	0x3dfd8e9b	0.123807155
41	0x3d03e3af	0.032199558
42	0x3d96e0b5	0.07367078
43	0x3d61f489	0.055164848
44	0xbe26dd1d	-0.16295286
45	0x3d5f33d4	0.054492787
46	0xbd509e01	-0.050931934
47	0x3d218040	0.03942895
48	0xbe128fcc	-0.14312667
49	0xbd96f3e0	-0.07370734
50	0x3da9932b	0.08280023
51	0x3df31f5f	0.11871218
52	0x3d8f3ae9	0.06993658
53	0xbe3453e7	-0.17610131
54	0x3e1b648b	0.15175073
55	0xbca650da	-0.020302225
56	0x3e22c6fa	0.15896216
57	0xbda6ecb9	-0.0815062
58	0xbe1eff1a	-0.15527001
59	0x3db7fca4	0.08983734
60	0x3e045eb7	0.12926756
61	0xbdc964d8	-0.098336875
62	0x3e05dce2	0.13072541
63	0xbde25f7c	-0.110533684
64	0x3dfa8a08	0.122333586
65	0x3dc54516	0.09632318
66	0x3cf3a52a	0.029741842
67	0xbd05a660	-0.03262937
68	0xbd25b4bd	-0.04045557
69	0xbe0134d9	-0.12617816
70	0x3dab2294	0.08356205
71	0xbe0cfc60	-0.13768148
72	0xbcd656ec	-0.026164494
73	0xbdeb8c22	-0.115013376
74	0xbe29c7ae	-0.16580078
75	0x3dba4458	0.09095067
76	0xbe31da49	-0.17368425
77	0xbd8bb384	-0.06821349
78	0xbddf86a4	-0.109143525
79	0xbe098ff7	-0.13433824
80	0x3dce4bd5	0.100730576
81	0x3d1c3b4a	0.03814248
82	0x3d64cf4f	0.055861767
83	0xbcecf66f	-0.028926102
84	0xbc852050	-0.01625076
85	0x3e33cc3c	0.17558378
86	0x3da013f4	0.07816306
87	0x3d3b9b2c	0.04580228
88	0x3d1d9a4d	0.03847723
89	0x3e051e17	0.1299976
90	0xbe18b953	-0.14914446
91	0xbe151f08	-0.14562619
92	0xbd8eb0d1	-0.06967319
93	0x3dbbe4f5	0.091745295
94	0xbd78c69a	-0.060736276
95	0xbe1ec59e	-0.15505072
96	0x3d852585	0.06501297
97	0xbdf1e719	-0.118116565
98	0xbd1b2adf	-0.037882682
99	0x3dce5295	0.10074345
100	0xbdc11fcb	-0.09429892
101	0x3d473532	0.048634715
102	0xbe251757	-0.16122185
103	0x3dd06714	0.101759106
104	0xbe2c7f16	-0.16845354
105	0xbd16b288	-0.036791354
106	0x3bba6dd3	0.0056893616
107	0xbdfe7853	-0.12425294
108	0x3e2b0f72	0.1670511
109	0xbe29b1b2	-0.16571692
110	0x3cdde840	0.027088284
111	0xbe2f890b	-0.17142121
112	0x3dfc075a	0.1230609
113	0x3d365552	0.04451496
114	0x3e175c60	0.14781332
115	0xbe17d6d6	-0.14828047
116	0xbc80bdea	-0.015715558
117	0xbdbd8263	-0.09253385
118	0x3dfeb371	0.124365695
119	0x3d5e4459	0.0542644
120	0xbda209fa	-0.07912059
121	0x3e267ce9	0.16258587
122	0x3db251d2	0.08707012
123	0x3cf8c53a	0.030367482
124	0x3d059be2	0.032619365
125	0xbe23764c	-0.15963095
126	0x3cb1dcd3	0.021711743
127	0xbbdd1b47	-0.0067476365
128	0xbd4db516	-0.050221525
129	0xbe129f04	-0.14318472
130	0xbd43620b	-0.047700923
131	0x3dd4692e	0.10371624
132	0x3d058c5a	0.032604553
133	0xbda3973b	-0.07987829
134	0x3d8dff61	0.06933475
135	0x3e29a5bf	0.16567133
136	0xbc0a6752	-0.008447485
137	0xbdaebc1e	-0.08531974
138	0xbd261f9f	-0.0405575
139	0x3db02e1e	0.08602546
140	0x3d4329cc	0.047647282
141	0x3e1d952e	0.15388939
142	0xbe22c916	-0.1589702
143	0xbdc8c5bd	-0.098033406
144	0xbdd19d30	-0.10235059
145	0x3e15f3e9	0.14643826
146	0xbd9ed5b3	-0.07755604
147	0x3e13bfba	0.14428607
148	0x3d7e24d6	0.06204685
149	0xbd8236cf	-0.0635811
150	0xbdc55b66	-0.096365735
151	0x3dab2630	0.08356893
152	0xbda4f821	-0.08055139
153	0x3d334266	0.043764494
154	0xbe2f8333	-0.17139892
155	0x3e0a1e6b	0.13488166
156	0xbe3375f0	-0.17525458
157	0xbe0ad78c	-0.13558787
158	0xbd9e4817	-0.07728594
159	0xbdf48080	-0.11938572
160	0x3d65455a	0.055974342
161	0xbcd898d4	-0.026440062
162	0xbdf310ac	-0.11868414
163	0x3d79edf5	0.06101795
164	0x3e07a4a7	0.13246404
165	0x3d355d7d	0.04427861
166	0x3d5894ed	0.0528764
167	0xbde62228	-0.112369835
168	0xbdf5344d	-0.11972866
169	0x3d86a78f	0.06574928
170	0xbcb382e1	-0.021912994
171	0x3db2d8da	0.087327674
172	0x3d73315f	0.059373256
173	0xbe097e07	-0.13426982
174	0xbde1947b	-0.110146485
175	0xbdec51d2	-0.115390435
176	0xbde17b82	-0.11009885
177	0x3c94b59e	0.018153008
178	0xbd6a5e69	-0.057218943
179	0x3c637428	0.013882674
180	0xbda9aa8c	-0.08284482
181	0xbdc7ff1c	-0.09765455
182	0xbd946628	-0.07246047
183	0x3e056a01	0.13028719
184	0x3e268cd3	0.16264658
185	0xbe07eb7c	-0.13273424
186	0xbe32b540	-0.17451954
187	0x3d1d6ca5	0.03843369
188	0xbdc24d68	-0.0948742
189	0x3c8b856b	0.017031392
190	0xbbd83d12	-0.006599077
191	0x3e1c8169	0.15283741
192	0xbe2c0bcb	-0.16801374
193	0x3deb86bc	0.11500308
194	0xbd245542	-0.04012037
195	0x3be1bccc	0.0068889614
196	0xbd01e643	-0.031713735
197	0xbd795e6e	-0.06088107
198	0xbe13cf41	-0.1443453
199	0xbde20509	-0.11036117
200	0x3d02d011	0.03193671
201	0xbcb9fd26	-0.022703718
202	0xbd8a95dc	-0.06766865
203	0xbdcfaff1	-0.1014098
204	0x3d384b33	0.04499359
205	0xbe2829ce	-0.16422197
206	0x3cf8b52e	0.03035983
207	0x3df0ee40	0.117641926
208	0xbe093fd5	-0.13403256
209	0x3e2a5412	0.16633633
210	0xbc7bd624	-0.015370879
211	0xbe011e33	-0.12609176
212	0x3e13c09c	0.14428943
213	0x3dce8f33	0.10085907
214	0x3e073e0c	0.13207263
215	0xbe338b60	-0.17533636
216	0xbd455e8a	-0.048185863
217	0x3d9d8530	0.07691419
218	0x3ddfc0a7	0.109254174
219	0xbdd99303	-0.106237434
220	0x3e2d6813	0.16934232
221	0xbc7a6013	-0.015281695
222	0xbdc15ffe	-0.09442137
223	0x3e0955a3	0.13411574
224	0xbd0ccf85	-0.034377594
225	0x3d4f1179	0.050553773
226	0x3e246c74	0.16056997
227	0xbe055d5d	-0.13023897
228	0xbdc94c9e	-0.09829067
229	0x3c8dd879	0.017315136
230	0xbdcc140a	-0.0996476
231	0xbd62f6ae	-0.055411033
232	0xbdf0538e	-0.11734687
233	0x3e32f170	0.17474914
234	0xbe18ed83	-0.14934354
235	0x3dadfd3c	0.08495566
236	0xbd56ec6e	-0.05247157
237	0xbd0b474a	-0.034003533
238	0xbded2088	-0.115784705
239	0x3dcf92a9	0.10135395
240	0x3c7340b7	0.014846972
241	0xbccb3cdd	-0.024809295
242	0x3d4d6f3f	0.05015492
243	0x3dc2f331	0.09519041
244	0xbe24fc13	-0.16111784
245	0xbd008efa	-0.031386353
246	0xbe2c3460	-0.16816854
247	0x3dea454a	0.11438997
248	0x3e1dc70d	0.15407963
249	0x3d8b8810	0.06813061
250	0xbe0f5af8	-0.13999546
251	0x3df9bb11	0.12193883
252	0xbe1179a8	-0.14206564
253	0xbd3a5fc2	-0.045501478
254	0x3d3feea6	0.046858452
255	0xbdaffdbc	-0.08593318

emb_net.v_lins1.1.bias f4 [32]
0	0x3e070905	0.13187034
1	0xbe122dea	-0.14275327
2	0x3d82b738	0.063826025
3	0xbdcc2282	-0.09967519
4	0xbe002eda	-0.12517872
5	0x3d5601db	0.052247863
6	0xbe147ebe	-0.14501473
7	0xbe06d0f4	-0.13165647
8	0x3db5d09b	0.08877679
9	0xbd83ee91	-0.06441987
10	0xbe302721	-0.17202426
11	0x3e24ec10	0.16105676
12	0x3e1f4270	0.15552688
13	0x3e0a1d3a	0.13487712
14	0xbc1ab900	-0.0094435215
15	0xbcb8b5af	-0.022547571
16	0xbd2b4406	-0.04181292
17	0x3db80678	0.08985609
18	0xbd9bdfa2	-0.07611014
19	0xbc898783	-0.01678825
20	0x3dfe4f4d	0.12417469
21	0xbd5a2f4b	-0.05326776
22	0xbe069572	-0.13142946
23	0xbc7d0770	-0.015443668
24	0x3ce31df5	0.027724246
25	0x3e124e4c	0.1428768
26	0xbe2d6221	-0.16931964
27	0xbd33d3d1	-0.043903176
28	0x3e204b44	0.15653712
29	0x3d81d3d8	0.06339234
30	0xbb11db14	-0.0022255825
31	0x3e27f1c9	0.16400827

emb_net.v_lins1.2.weight f4 [32, 32]
0	0x3dbb439f	0.09143757
1	0xbd4c896d	-0.049935747
2	0x3e328740	0.17434406
3	0xbddcd97a	-0.10783668
4	0xbcb397cc	-0.021922968
5	0xbd43ac0f	-0.04777151
6	0x3abf1191	0.0014577379
7	0x3ddc55f6	0.10758583
8	0xbd0cd06e	-0.03437846
9	0x3e0ec7ed	0.13943453
10	0xbd393c4b	-0.045223515
11	0xbba3bfd7	-0.0049972343
12	0xbc88553c	-0.016642205
13	0xbd808a02	-0.06276323
14	0x3dad9492	0.08475603
15	0xbdf2398c	-0.118273824
16	0xbd55ca0c	-0.05219464
17	0x3dbe344e	0.0928732
18	0x3d300602	0.04297448
19	0x3e13cff8	0.14434803
20	0x3d302901	0.043007854
21	0xbda3a4c9	-0.07990415
22	0xbc7a8d0a	-0.015292415
23	0x3dd935ed	0.10605989
24	0x3be7ea1b	0.007077468
25	0x3e085d1e	0.13316771
26	0xbd270ad3	-0.040781807
27	0x3d6846f8	0.056708306
28	0xbe2f3d8a	-0.17113319
29	0x3d00ab80	0.031413555
30	0xbe24ab2d	-0.16080923
31	0xbe3244b7	-0.17409025
32	0x3cbe700b	0.023246786
33	0x3d057d08	0.032589942
34	0x3db9a6ba	0.09065004
35	0xbdfd43bb	-0.12366434
36	0x3d911951	0.07084907
37	0xbd847050	-0.064667344
38	0x3dc24cc1	0.09487296
39	0x3dda57c2	0.1066127
40	0x3d65872e	0.05603712
41	0x3d6ac105	0.057312984
42	0xbe045e96	-0.12926707
43	0xbdd40c6c	-0.10353932
44	0x3c00c1fb	0.007858749
45	0xb9394f18	-0.0001767244
46	0x3e198114	0.14990646
47	0xbe290f57	-0.16509758
48	0xbdd37f29	-0.10326988
49	0xbdc3f24b	-0.09567698
50	0xbd2df770	-0.042472303
51	0x3e0f41a1	0.13989879
52	0x3dea44a1	0.11438871
53	0xbe127f60	-0.14306402
54	0xbcf0056d	-0.029299462
55	0xbcdcf3fd	-0.026971811
56	0x3dc57166	0.0964077
57	0xbe157473	-0.14595203
58	0xbe0b97ce	-0.13632128
59	0xbe0b203f	-0.1358652
60	0xbd462caf	-0.048382457
61	0xbddb7473	-0.1071557
62	0x3e20638e	0.15662977
63	0x3dae6ae5	0.08516482
64	0x3e20de23	0.15709738
65	0x3df0d050	0.117584825
66	0x3a6fdda5	0.0009150154
67	0x3dd3e8fe	0.10347174
68	0x3e25d84f	0.16195796
69	0x3d439e82	0.047758587
70	0xbe060cab	-0.1309077
71	0xbd7fab41	-0.06241918
72	0x3cb787bf	0.022403596
73	0x3cff33c6	0.031152617
74	0xbceb50ce	-0.028725054
75	0x3e03e9a6	0.12882099
76	0xbd1db66f	-0.03850406
77	0x3ce63c6e	0.028104987
78	0x3dbf7c17	0.0934984
79	0x3dda8d0e	0.10671435
80	0x3c922e9d	0.017844493
81	0xbe04d5fc	-0.12972254
82	0x3e0035f6	0.12520584
83	0x3c31f7cb	0.010862301
84	0x3e117a70	0.14206862
85	0xbdb5dd4e	-0.08880101
86	0xbc07a2f2	-0.008278595
87	0xbaa8e033	-0.0012884199
88	0x3d6438c8	0.055718213
89	0xbd9f96d9	-0.07792444
90	0x3e2f52da	0.17121449
91	0xbe0ede4d	-0.13951989
92	0xbdc85166	-0.097811505
93	0x3d9b436d	0.0758122
94	0x3dec6c81	0.11544133
95	0xbc6fb48a	-0.014630446
96	0xbe21ce0f	-0.15801261
97	0xbe23a6ce	-0.159816
98	0x3e1d2b58	0.15348566
99	0x3cb2b9d7	0.021817131
100	0x3d3a2a31	0.045450393
101	0x3cbbf0f2	0.02294204
102	0xbdd57b23	-0.10423877
103	0x3dc6b60a	0.0970269
104	0x3e0185b6	0.12648663
105	0xbd4efb8f	-0.050532874
106	0x3daa14ba	0.083047345
107	0x3c3ff9e8	0.011717297
108	0xbda6e0ea	-0.08148368
109	0xbcab7ad3	-0.02093259
110	0x3ddf9cb9	0.10918564
111	0xbd0d7158	-0.03453192
112	0xbdfad752	-0.122481
113	0xbe1176ad	-0.14205427
114	0xbdb1254f	-0.08649694
115	0xbd7a6383	-0.061130058
116	0xbe24f320	-0.1610837
117	0x3d960823	0.07325771
118	0xbd4d3c98	-0.050106615
119	0xbe1db182	-0.15399745
120	0x3e10584c	0.14096183
121	0xbbc39beb	-0.0059695146
122	0x3e1f6cc0	0.15568829
123	0x3daa9152	0.08328499
124	0x3addd9fb	0.0016925925
125	0x3d26276c	0.04056494
126	0xbd95fa6f	-0.07323157
127	0xbdba4f49	-0.09097154
128	0x3e25f5b1	0.16207005
129	0x3e19c88e	0.15017912
130	0xbe17cf77	-0.14825235
131	0xbdd27732	-0.10276641
132	0xbe0646e6	-0.13112983
133	0xbd5641ce	-0.05230885
134	0x37e6aaf3	2.7497741e-05
135	0x3d91d3ea	0.071204975
136	0xbe18916c	-0.14899224
137	0xbdd674f7	-0.10471528
138	0xbd2296bf	-0.039694544
139	0xbdfcee6e	-0.12350164
140	0xbdace503	-0.08442118
141	0xbe24ccb0	-0.16093707
142	0xbd2d944a	-0.042377748
143	0x3dbe1434	0.09281197
144	0xbd9f7569	-0.07786066
145	0x3e29bc6f	0.16575788
146	0xbd8d20eb	-0.06891044
147	0xbe31a406	-0.17347726
148	0xbe172f62	-0.14764169
149	0x3ced98fe	0.029003616
150	0x3dc1f3a2	0.094702974
151	0xbe19f41c	-0.15034527
152	0x3d0d5d09	0.034512553
153	0xbda5ae9a	-0.08089943
154	0x3ca9bffa	0.020721424
155	0x3e22071e	0.15823027
156	0xbd1ccd88	-0.038281947
157	0xbe234854	-0.1594556
158	0x3df37efc	0.11889455
159	0xbce6cabc	-0.028172843
160	0xbd93884c	-0.07203731
161	0xbcb50d10	-0.022100955
162	0x3e21baa5	0.15793855
163	0xbe16c33e	-0.14722916
164	0x3b43fc82	0.0029905145
165	0x3db9f567	0.0908001
166	0xbe3466b2	-0.176173
167	0xbdab5d3e	-0.08367394
168	0x3d94aca2	0.072594896
169	0x3b440641	0.0029910954
170	0x3c882a4f	0.016621737
171	0x3e2d7d9e	0.1694245
172	0xbe2d79da	-0.16941014
173	0x3dac5e16	0.08416383
174	0x3dd8d7b9	0.10588021
175	0x3c5327e0	0.012887925
176	0xbdfbbeb9	-0.12292237
177	0x3de346eb	0.11097511
178	0x3d9c07c3	0.07618668
179	0xbdaa60a9	-0.08319218
180	0xbd244c5e	-0.040111892
181	0xbde7bb33	-0.11315002
182	0xbd8ae6a8	-0.067822754
183	0x3dba3fbf	0.0909419
184	0x3dce1865	0.10063247
185	0xbd408e9c	-0.047011003
186	0xbd7d0662	-0.061773665
187	0x3d9124a5	0.070870675
188	0x3e0bd5cd	0.13655777
189	0x3d5f084b	0.05445127
190	0xbd8bc715	-0.06825081
191	0xbd8e0dea	-0.06936248
192	0x3d37980b	0.044822734
193	0x3e128c7f	0.14311408
194	0xbddc9a82	-0.107716575
195	0x3d37e82d	0.044899154
196	0xbcc82483	-0.024431473
197	0x3de4bb89	0.11168582
198	0x3e0b182d	0.13583441
199	0x3dcf18b4	0.101121336
200	0x3cbe407b	0.023224106
201	0xbdede15e	-0.11615251
202	0x3df49025	0.11941556
203	0xbdf2d03f	-0.11856126
204	0xbdf32a29	-0.11873276
205	0x3cf6ab9b	0.030111125
206	0x3b8d2fe0	0.0043086857
207	0xbdf8cd6a	-0.121485546
208	0xbd903555	-0.07041422
209	0x3e0891a2	0.13336805
210	0x3de273a9	0.11057217
211	0x3d519059	0.05116305
212	0x3d4f315b	0.05058418
213	0xbd8d7698	-0.069073856
214	0xbdad4836	-0.08461039
215	0x3e076b56	0.13224539
216	0x3d1ed87e	0.03878068
217	0xbe134ad7	-0.14384018
218	0xbdb5ce23	-0.08877208
219	0xbe1cff4c	-0.15331763
220	0xbe04a7e8	-0.12954676
221	0x3cea0638	0.028567418
222	0x3d7d59c0	0.06185317
223	0xbd2c06b5	-0.041998584
224	0x3d3fc320	0.046816945
225	0xbe1ca52a	-0.1529738
226	0xbddca47f	-0.10773563
227	0x3d99b5d5	0.07505385
228	0x3d9974d9	0.0749299
229	0xbe092e8e	-0.13396665
230	0xbe0f06ec	-0.13967484
231	0x3cebc062	0.028778259
232	0x3e151ed0	0.14562535
233	0x3e211021	0.15728809
234	0x3da372a8	0.07980853
235	0x3e17af35	0.1481293
236	0x3dbef30b	0.093237005
237	0x3de35d1d	0.11101744
238	0xbddea3ad	-0.108710624
239	0xbd4c5f1b	-0.049895387
240	0x3d462778	0.048377484
241	0x3dbea9f4	0.0930976
242	0xbdb8680f	-0.090042226
243	0x3e250e83	0.16118817
244	0x3e20e0e9	0.15710796
245	0x3d0a7981	0.03380728
246	0x3d4923ea	0.049106516
247	0x3dc12665	0.09431151
248	0x3dbeb990	0.09312737
249	0xbd55b413	-0.052173685
250	0xbd8324c9	-0.064035006
251	0xbda6f6d0	-0.081525445
252	0x3e2dd79a	0.16976777
253	0xbd467c48	-0.048458368
254	0xbd901bb8	-0.07036537
255	0xbd2dea44	-0.04245974

emb_net.v_lins1.2.bias f4 [32]
0	0xbb5ae275	-0.003339914
1	0x3cae61fb	0.021286955
2	0x3d18d42c	0.037311718
3	0xbe322151	-0.17395522
4	0xbd96e713	-0.07368293
5	0xbda5757b	-0.08079048
6	0x3e1d33e4	0.15351826
7	0xbdf4cd08	-0.11953169
8	0xbe21f437	-0.15815817
9	0xbd114c6b	-0.03547327
10	0xbe0b4f67	-0.13604508
11	0xbe116dc6	-0.14202031
12	0xbe0564eb	-0.13026778
13	0xbe1cadf1	-0.15300728
14	0xbe2bd81d	-0.1678166
15	0xbdb83f23	-0.089964174
16	0xbdb88554	-0.09009805
17	0x3cec1699	0.02881937
18	0xbdcc8554	-0.09986368
19	0xbd94deb5	-0.072690405
20	0x3db66748	0.08906418
21	0x3e1fe17c	0.15613359
22	0x3dde66af	0.10859429
23	0xbe005742	-0.12533286
24	0xbe17d24e	-0.14826319
25	0x3d16444a	0.03668622
26	0xbe09d9fa	-0.13462058
27	0xbdeb4e22	-0.11489512
28	0xbe336e77	-0.17522608
29	0x3e08a17f	0.13342856
30	0x3db599cc	0.08867225
31	0x3e19f40f	0.15034507

emb_net.v_lins1.3.weight f4 [32, 32]
0	0x3dfac35a	0.122442916
1	0xbbdef023	-0.006803529
2	0xbcd25840	-0.025676847
3	0xbc862c95	-0.01637868
4	0xbd1fd46a	-0.039020933
5	0x3c7b2265	0.0153280245
6	0x3e11e893	0.14248876
7	0xbde95285	-0.113926925
8	0xbd585a89	-0.052820716
9	0x3e309de5	0.17247732
10	0xbe11cc5b	-0.14238112
11	0x3e1a3eca	0.15063015
12	0x3db84893	0.089982174
13	0x3dedb09a	0.1160595
14	0xbce49539	-0.027903186
15	0xbe2e2504	-0.17006308
16	0xbd5eb9f3	-0.054376554
17	0xbbc221cd	-0.0059244395
18	0xbe025901	-0.12729265
19	0xbdf63b61	-0.120230444
20	0xbcb51cc7	-0.022108449
21	0x3e22561d	0.15853162
22	0xbd897f40	-0.06713724
23	0xbdb09b53	-0.08623376
24	0xbd97d855	-0.07414309
25	0x3ddc5e2a	0.10760148
26	0xbe04ceae	-0.12969467
27	0xbd70006d	-0.058594156
28	0xbdf2f2e3	-0.11862733
29	0x3bee6cdd	0.007276161
30	0xbd559e70	-0.05215305
31	0xbe305b86	-0.17222413
32	0xbdaa5d24	-0.083185464
33	0xbe2bcb58	-0.16776788
34	0x3cf3f9cb	0.029782197
35	0xbdb6914e	-0.089144334
36	0x3d025020	0.031814694
37	0x3dd87b54	0.10570398
38	0xbe019fc5	-0.12658603
39	0xbdd89c89	-0.10576732
40	0xbdb98bad	-0.09059844
41	0x3d42376e	0.047416143
42	0x3e27e9bc	0.16397756
43	0x3e036a6a	0.12833562
44	0xbb46efe5	-0.003035539
45	0x3e006362	0.12537912
46	0xbdb02e79	-0.08602614
47	0x3dcace1d	0.09902594
48	0x3df3765c	0.1188781
49	0x3da00b36	0.07814638
50	0xbd587997	-0.052850332
51	0xbd9766ba	-0.073926404
52	0x3e0f6b30	0.14005733
53	0xbdf14011	-0.11779798
54	0xbd847eb6	-0.06469481
55	0xbd622978	-0.05521533
56	0xbddb736b	-0.107153736
57	0xbe1fffab	-0.15624873
58	0x3e09b798	0.13448942
59	0x3e282714	0.16421157
60	0x3cdaca61	0.02670783
61	0x3c46416b	0.012100558
62	0xbd283da7	-0.04107442
63	0x3e0fef7f	0.14056204
64	0x3e2d29bb	0.1691045
65	0xbdc9aaf8	-0.09847063
66	0x3d9ec898	0.07753104
67	0x3b93e882	0.004513801
68	0x3dfee64d	0.1244627
69	0x3c2c9b1f	0.010535031
70	0xbdda1267	-0.10648041
71	0xbc00aeeb	-0.007854204
72	0xbe168178	-0.14697826
73	0x3cb76963	0.02238912
74	0xbe0661d4	-0.13123256
75	0x3cfd5221	0.030922951
76	0x3cecd636	0.028910737
77	0x3d8cfacc	0.06883773
78	0xbc11ce0d	-0.008899224
79	0xbde6b54b	-0.11265048
80	0x3dbb3806	0.09141545
81	0xbe1ef5d1	-0.15523459
82	0x3de43e63	0.11144712
83	0xbdccbd9d	-0.09997103
84	0x3dcede6c	0.10101017
85	0x3c3cea54	0.011530478
86	0x3e069661	0.13143303
87	0x3cfb01d1	0.030640515
88	0x3c959498	0.018259332
89	0x3daee697	0.08540075
90	0x3d83ae01	0.06429673
91	0xbe0c8b29	-0.1372496
92	0x3b972527	0.004612583
93	0x3e319f57	0.1734594
94	0x3e262fe3	0.16229205
95	0x3cf43ccd	0.029814148
96	0x3db09c43	0.086235546
97	0x3d37e402	0.04489518
98	0x3e30ac08	0.17253125
99	0x3e0c0cfa	0.13676825
100	0xbe1c42fb	-0.15259926
101	0xbda3e5fd	-0.08002851
102	0x3dfebd78	0.12438482
103	0x3e20d7a8	0.15707266
104	0xbe1ef1aa	-0.15521875
105	0xbe11ce7a	-0.14238921
106	0xbc5e0756	-0.013551554
107	0x3d9aeb7c	0.07564446
108	0xbd9ed27b	-0.0775499
109	0x3d7ea7f8	0.062171906
110	0xbdca4797	-0.09876936
111	0x3dddf46e	0.10837637
112	0x3c6987d3	0.014253574
113	0xbd3696f0	-0.04457754
114	0x3c9d6bef	0.019216506
115	0x3d64c10b	0.055848163
116	0xbdbbdc4b	-0.09172877
117	0x3de074c2	0.1095977
118	0xbe0395b3	-0.12850074
119	0x3df7de59	0.12102956
120	0x3dc1ef2a	0.09469445
121	0xbe05ab59	-0.13053645
122	0xbe0aec41	-0.13566686
123	0x3dfe296c	0.12410244
124	0x3ddf8e06	0.10915761
125	0xbc87be0b	-0.016570112
126	0xbe076a2f	-0.132241
127	0xbd19f961	-0.037591342
128	0xbdf17e85	-0.1179171
129	0xbe06a043	-0.13147072
130	0x3d3e065d	0.046392787
131	0xbd3ac77d	-0.045600403
132	0x3df41496	0.11917989
133	0xbde6f08d	-0.1127635
134	0x3de4b953	0.1116816
135	0x3ddc4249	0.107548304
136	0x3e103540	0.14082813
137	0x3e11a0d9	0.14221515
138	0x3be9f27c	0.007139502
139	0xbe1ac35c	-0.15113586
140	0x3e318683	0.17336468
141	0x3e19880f	0.14993308
142	0x3e2ff5f0	0.17183661
143	0x3bd5d8fc	0.0065261107
144	0x3d8e92c1	0.06961585
145	0x3d16ddeb	0.03683273
146	0x3e209731	0.15682675
147	0xbe0b9b57	-0.13633476
148	0xbdec922e	-0.11551319
149	0x3ddf49ff	0.109027855
150	0xbd2cb7b0	-0.042167366
151	0x3b8c7fe3	0.004287706
152	0xbb4d8dbb	-0.0031364996
153	0xbe12b845	-0.14328106
154	0xbc8ce892	-0.017200742
155	0x3ce308a9	0.02771409
156	0x3d181c3e	0.03713631
157	0xbe02f723	-0.12789588
158	0x3d050389	0.032474075
159	0xbe109732	-0.14120176
160	0x3c8b03dd	0.016969616
161	0xbe0db2da	-0.13837758
162	0x3e23203b	0.15930264
163	0xbc1f4933	-0.009722042
164	0x3e2c9bd3	0.16856317
165	0xbe313065	-0.17303617
166	0x3e0b6fd1	0.13616873
167	0x3df60a4b	0.12013682
168	0x3c814574	0.015780188
169	0x3dce22fc	0.100652665
170	0xbe07ef0d	-0.13274784
171	0x3b679efd	0.0035342567
172	0xbdd080bf	-0.10180806
173	0x3dc571b8	0.09640831
174	0x3e310b81	0.17289545
175	0xbcea7904	-0.028622158
176	0xbbe4b4e7	-0.006979573
177	0xbe113829	-0.1418158
178	0x3d599cfa	0.05312822
179	0xbd9755de	-0.07389425
180	0xbd4e2e76	-0.050337277
181	0x3dbc92a8	0.0920766
182	0x3d545bc2	0.05184532
183	0x3cba74f9	0.022760855
184	0x3dafbe73	0.08581247
185	0x3da0c2ef	0.07849681
186	0xbd4576d5	-0.04820903
187	0x3c0b9f0a	0.008521805
188	0xbe151b69	-0.14561237
189	0x3e164dee	0.14678165
190	0xbdd6afed	-0.10482774
191	0xbda576c3	-0.080792926
192	0xbe159618	-0.14608037
193	0xbd8d3bf7	-0.06896203
194	0xbd6320be	-0.055451147
195	0x3dec1d1a	0.11528988
196	0x3de59522	0.112100855
197	0x3dd55abf	0.10417699
198	0x3dd525ff	0.10407638
199	0x3d8547c4	0.06507829
200	0x3bbfa4e1	0.0058485125
201	0xba69a6c6	-0.0008913096
202	0xbe306ef1	-0.17229821
203	0xbda2ee03	-0.079555534
204	0xbd304375	-0.043033082
205	0x3d10ef25	0.035384316
206	0x3cc77ea7	0.024352385
207	0xbe1b69c1	-0.1517706
208	0x3e15fa89	0.14646353
209	0xbbe4220a	-0.0069620656
210	0xbe0b2d8c	-0.13591594
211	0xbdfa8a88	-0.12233454
212	0x3e06eb76	0.13175759
213	0xbde00d9d	-0.109400965
214	0xbd7e9a2d	-0.062158752
215	0x3e11aaa6	0.14225253
216	0xbd694dd7	-0.056959
217	0xbe08e615	-0.1336902
218	0x3cab8ac2	0.020940188
219	0x3b16bdb3	0.0023001253
220	0x3e23bb6f	0.15989469
221	0xbd363972	-0.044488378
222	0x3e050adf	0.12992428
223	0x3dad7ef3	0.08471479
224	0xbca59235	-0.020211319
225	0x3cc1f060	0.02367419
226	0x3e12cba4	0.14335495
227	0xbc2987e7	-0.010347343
228	0x3e03bf59	0.12865962
229	0x3d71400c	0.05889897
230	0x3d8612ff	0.06546592
231	0x3d94b8b9	0.072617956
232	0xbd1b79be	-0.0379579
233	0xbe1cd528	-0.15315688
234	0x3e1235eb	0.1427838
235	0x3df7dd36	0.121027395
236	0x3ddffabb	0.10936495
237	0xbe1f0130	-0.15527797
238	0xbdf982af	-0.12183129
239	0x3e22ff8c	0.15917796
240	0xbe3578c6	-0.17721853
241	0xbbe967e9	-0.0071229828
242	0xbd68a1a6	-0.056794785
243	0x3d357744	0.044303194
244	0xbe1412e7	-0.14460336
245	0x3da10301	0.07861901
246	0x3e0ad7b5	0.13558848
247	0xbdc73a35	-0.09727899
248	0x3de42a0f	0.111408345
249	0xbca8920b	-0.020577451
250	0x3e08283b	0.13296597
251	0xbdc418e7	-0.09575062
252	0x3e2ce169	0.16882862
253	0xbe1f1bee	-0.15537998
254	0xbe1f1911	-0.15536906
255	0xbc961274	-0.018319346

emb_net.v_lins1.3.bias f4 [32]
0	0xbe07c7e4	-0.13259846
1	0xbcf0b79b	-0.029384425
2	0x3dac2021	0.084045656
3	0xbda47d2b	-0.080316864
4	0xbdf08636	-0.11744349
5	0xbc26e840	-0.010187209
6	0x3be40a50	0.006959237
7	0xbbe7e844	-0.0070772488
8	0xbc9edcc8	-0.019392386
9	0x3dc89447	0.09793907
10	0x3c0899c0	0.008337438
11	0xbe1b848d	-0.15187283
12	0xbe0c8044	-0.13720804
13	0xbd0e7031	-0.034774963
14	0x3d9b730d	0.075903036
15	0xbe19babe	-0.15012643
16	0xbd31c527	-0.04340091
17	0xbd97b0d7	-0.074067764
18	0x3e0176a1	0.1264291
19	0xbe2aa28e	-0.16663572
20	0xbda02e0a	-0.07821281
21	0xbcf9282d	-0.030414665
22	0x3d031273	0.032000016
23	0x3df3ecd7	0.11910408
24	0x3cce95d9	0.025217937
25	0x3d2bb5ea	0.041921534
26	0x3d68584b	0.056724828
27	0x3d899a4c	0.06718883
28	0x3e2047d5	0.15652402
29	0x3d235b2d	0.039881874
30	0x3cd07fa8	0.025451496
31	0xbdd7a7a3	-0.10530021

emb_net.v_lins1.4.weight f4 [32, 32]
0	0xbdb19041	-0.086700924
1	0x3e16d8f0	0.14731193
2	0xbdf2738d	-0.11838446
3	0xbc0fd91f	-0.008779793
4	0xbc228232	-0.009918736
5	0x3a86672d	0.0010254137
6	0xbd426143	-0.047456037
7	0x3dbdcad5	0.09267203
8	0x3dcce69b	0.10004922
9	0x3c5da7d0	0.013528779
10	0x3e249df8	0.16075885
11	0xbe3292d8	-0.17438829
12	0x3d5e0eea	0.054213442
13	0x3db0ea19	0.086384006
14	0x3e0c77cf	0.13717578
15	0xbdcd8b13	-0.10036292
16	0xbe07e4b2	-0.13270834
17	0x3d2ed013	0.042678904
18	0xbb29c70c	-0.0025905995
19	0xbdfb8d5b	-0.12282821
20	0x3bccef24	0.0062540937
21	0xbdf9b729	-0.12193138
22	0x3df94cc5	0.12172846
23	0x3dd26a66	0.102742
24	0x3d93526a	0.071934536
25	0x3e0d9c9e	0.13829276
26	0x3e25788f	0.1615927
27	0x3c27480c	0.010210048
28	0x3d5bc034	0.053650096
29	0xbd14d4d2	-0.036335774
30	0xbe314d11	-0.17314555
31	0xbd5eb590	-0.05437237
32	0xbd94eabe	-0.07271336
33	0xbdf5286c	-0.119706005
34	0xbe068ed8	-0.13140428
35	0x3c31a492	0.010842459
36	0xbe151c74	-0.14561635
37	0xbcf9f81c	-0.030513816
38	0x3d7bc133	0.061463546
39	0x3e207cb1	0.15672566
40	0xbd52c936	-0.05146142
41	0xbdbf0970	-0.09327972
42	0x3e0b7f5f	0.13622807
43	0x3e1b0bce	0.15141222
44	0x3e227daa	0.1586825
45	0xbc32196a	-0.010870317
46	0x3db9c5fa	0.09070964
47	0x3c3ef05f	0.011653989
48	0xbdad572b	-0.084638916
49	0xbdfb39b4	-0.122668654
50	0xbdf16da1	-0.11788488
51	0xbd106588	-0.035253078
52	0xbe14b975	-0.14523871
53	0xbd71b629	-0.059011612
54	0x3c49a0e2	0.012306424
55	0xbdad3e03	-0.084590934
56	0x3e1eafc9	0.15496744
57	0xbdf61f4b	-0.120176874
58	0xbc6d9e9f	-0.01450315
59	0x3cf03989	0.02932431
60	0xbd297b61	-0.04137743
61	0xbda6cc8c	-0.08144483
62	0xbca01b40	-0.019544244
63	0xbd8031aa	-0.06259473
64	0xbcca54fd	-0.024698729
65	0x3d9688f9	0.07350344
66	0x3d588efd	0.05287074
67	0x3baf900a	0.005357747
68	0x3e2946eb	0.1653096
69	0xbd8cbfef	-0.06872546
70	0xbd6ccfca	-0.05781535
71	0xbdee2564	-0.116282254
72	0xbc96321c	-0.01833444
73	0x3d06456c	0.03278105
74	0x3dbba848	0.091629565
75	0x3defa9bc	0.11702296
76	0x3da5bce8	0.08092672
77	0xbdfb9d44	-0.122858554
78	0xbe2ea980	-0.17056847
79	0xbe094e01	-0.13408662
80	0xbda88019	-0.08227558
81	0x3d15bcc6	0.03655698
82	0x3be387ed	0.006943694
83	0xbdd14cee	-0.10219751
84	0x3e241348	0.1602298
85	0x3e12a97e	0.14322469
86	0xbe16f7a2	-0.14742902
87	0xbe25ea73	-0.16202717
88	0x3d4c32f4	0.04985328
89	0xbe2f91dc	-0.17145485
90	0x3e004070	0.12524581
91	0xbde21add	-0.1104028
92	0xbdc3f51c	-0.09568235
93	0x3e2511e2	0.16120103
94	0x3d81e3d2	0.063422814
95	0x3d4c0042	0.049804933
96	0xbdee6b37	-0.11641543
97	0x3e104184	0.14087492
98	0x3dd1732b	0.10227045
99	0xbd82794b	-0.06370791
100	0x3d212d33	0.039349746
101	0xbc0cc91f	-0.008592873
102	0x3e2d97ff	0.16952513
103	0x3c6617c7	0.014043755
104	0x3e1e71ff	0.15473174
105	0x3dd30ff4	0.10305777
106	0xbd51ec3b	-0.051250678
107	0xbe27e6f1	-0.16396691
108	0x3dbd0606	0.092296645
109	0xbd70ac90	-0.05875832
110	0x3c42e80f	0.011896147
111	0xbd2a8f12	-0.04164035
112	0xbd55e7e2	-0.052223094
113	0x3d0a10c3	0.03370739
114	0x3da5c33f	0.08093881
115	0x3cc54b48	0.024083748
116	0x3dac0c51	0.08400787
117	0x3dca6a01	0.098835
118	0x3deed26b	0.11661228
119	0xbdbaa021	-0.091125734
120	0xbd7be4a8	-0.06149736
121	0xbddd5354	-0.10806909
122	0xbe2ea346	-0.17054471
123	0x3dcb9d0c	0.09942064
124	0x3e1fae1d	0.15593763
125	0x3e106714	0.14101821
126	0x3e1bbb4e	0.1520817
127	0x3d5fed0c	0.054669425
128	0x3d9a8f47	0.07546859
129	0xbdf50f8e	-0.119658574
130	0xbe33c394	-0.17555076
131	0xbd8b632c	-0.06806025
132	0xbd884262	-0.066532865
133	0xbddac674	-0.10682383
134	0x3e2a3785	0.16622742
135	0xbd69ead3	-0.05710871
136	0x3d18ece2	0.037335284
137	0xbd46e78c	-0.048560664
138	0x3e051d6b	0.12999503
139	0xbe30f11c	-0.17279476
140	0xbdc00a04	-0.0937691
141	0x3d5e634e	0.054293923
142	0x3df8915d	0.12137101
143	0xbc4be133	-0.012443828
144	0xbce6a452	-0.028154526
145	0x3e1c0592	0.152365
146	0xbe2872cf	-0.16450046
147	0xbdf8ecc6	-0.12154536
148	0x3e10d351	0.14143111
149	0xbd9b5cc2	-0.075860515
150	0xbc432a5c	-0.011911955
151	0x3d97a057	0.07403629
152	0x3e1cc2cc	0.15308684
153	0xbc94e1f7	-0.018174155
154	0xbdce348a	-0.10068615
155	0xbe097a1b	-0.13425486
156	0xbcb6b85d	-0.022304708
157	0x3e29935c	0.1656012
158	0x3daaf0d4	0.083467156
159	0xbdc6aa48	-0.09700447
160	0x3e297f00	0.16552353
161	0x3d51ff88	0.051269084
162	0x3de64ae5	0.11244754
163	0x3df262ae	0.11835228
164	0xbbaded83	-0.0053078546
165	0x3c3cc419	0.011521363
166	0xbde78a7d	-0.113057114
167	0xbca92c77	-0.020651085
168	0xb8806b7e	-6.1235376e-05
169	0xbcfb095e	-0.030644115
170	0xbcb6022b	-0.02221783
171	0xbc04d742	-0.008107962
172	0xbe187d8a	-0.1489164
173	0xbe02cabf	-0.12772654
174	0xbe1c8a32	-0.15287092
175	0xbe28b2ee	-0.16474506
176	0xbe197e41	-0.14989568
177	0x3e1f005b	0.1552748
178	0x3db1817d	0.08667276
179	0x3e235d5b	0.15953581
180	0x3da85b56	0.08220546
181	0x3d4a5af8	0.04940316
182	0xbe16df07	-0.14733516
183	0x3dd85819	0.10563678
184	0x3e2930e6	0.1652256
185	0xbe29c813	-0.16580229
186	0xbc400b48	-0.01172144
187	0x3cb4c1eb	0.022065124
188	0xbb0f71d7	-0.0021887922
189	0xbd2a7f80	-0.0416255
190	0xbc5813e8	-0.01318834
191	0xbd6fbb4a	-0.058528222
192	0x3d8d6d49	0.0690561
193	0xbbbb0b4e	-0.0057081347
194	0xbddf738b	-0.1091071
195	0xbde7d310	-0.11319554
196	0xbe1dc30e	-0.15406439
197	0x3da6bd90	0.08141625
198	0x3df7ba45	0.12096075
199	0xbe04db26	-0.12974223
200	0x3d4c858e	0.049932055
201	0xbdd22d56	-0.102625534
202	0x3d9229f5	0.07136909
203	0x3d9564e7	0.07294636
204	0x3d8fadd7	0.07015579
205	0xbe2dc6be	-0.16970345
206	0xbcf1a11a	-0.029495765
207	0x3d5e7f31	0.054320518
208	0xbdadcc33	-0.084862135
209	0x3e2de119	0.16980399
210	0x3e25069c	0.16115803
211	0x3e10ad6f	0.1412866
212	0x3d32945d	0.04359852
213	0x3dac0198	0.083987415
214	0xbd7e653a	-0.062108256
215	0x3d8b2e5e	0.06795953
216	0x3cb31339	0.021859752
217	0xbe02a507	-0.12758265
218	0xbb7752d7	-0.0037738585
219	0xbe2747e1	-0.16336013
220	0x3de529a5	0.11189584
221	0x3cb3deda	0.02195685
222	0x3de6bef3	0.112668894
223	0xbdce1627	-0.10062819
224	0xbdff795c	-0.12474319
225	0x3c12c27b	0.008957501
226	0xbde4e556	-0.11176555
227	0x3d964e93	0.073392056
228	0x3c426dba	0.011866981
229	0x3d9dfcb7	0.07714217
230	0xbc1deb89	-0.0096386755
231	0x3e0cb28d	0.13739987
232	0xbe048df6	-0.12944779
233	0xbd11673b	-0.03549884
234	0x3dbc349f	0.09189724
235	0xbe237304	-0.15961844
236	0xbdaa8639	-0.08326382
237	0xbcff57bc	-0.031169765
238	0xbd46fe86	-0.048582576
239	0xbd09f51e	-0.033681028
240	0xbd2c076b	-0.04199926
241	0xbcb233d1	-0.021753224
242	0x3bf5ac4c	0.007497346
243	0x3d9d0919	0.07667751
244	0x3d2c4f08	0.042067558
245	0x3d8b3301	0.067968376
246	0x3e181d99	0.1485504
247	0x3df51b94	0.11968151
248	0x3c8abb59	0.016935037
249	0xbca0145f	-0.019540964
250	0x3e1275c5	0.14302738
251	0x3e2f7cc7	0.17137443
252	0x3e23d96e	0.16000912
253	0xbd922f2d	-0.07137904
254	0xbda61f42	-0.08111431
255	0xbc3d67ad	-0.011560363

emb_net.v_lins1.4.bias f4 [32]
0	0x3b8c55e8	0.0042827018
1	0xbd52e203	-0.051485073
2	0xbd025415	-0.031818468
3	0x3c4ac5c7	0.012376255
4	0xbc68d8d6	-0.014211854
5	0xbb490b17	-0.0030676776
6	0x3ccdf4e1	0.025141181
7	0xbde88087	-0.1135264
8	0x3e13561b	0.14388315
9	0x3dfdd22d	0.123936035
10	0x3c1ebaae	0.009688063
11	0x3d250341	0.040286306
12	0xbe22db59	-0.15903987
13	0xbcc101ba	-0.023560394
14	0x3e14217c	0.14465898
15	0xbc93620a	-0.017991085
16	0xbdfa3bc5	-0.122184314
17	0xbdd992b5	-0.10623685
18	0xbdddb76b	-0.10826
19	0x3d6f6ae6	0.058451556
20	0xbe1bd1cc	-0.1521675
21	0x3d7ae854	0.06125672
22	0xbd04f934	-0.03246422
23	0x3c91dc5d	0.017805273
24	0xbd64b31e	-0.055834882
25	0x3d9c6656	0.076367065
26	0xbe2c8498	-0.16847456
27	0xbdd47da1	-0.10375524
28	0xbd32306e	-0.043503217
29	0x3cf89389	0.030343788
30	0x3e0fe150	0.14050794
31	0x3dfef3b0	0.124488235

emb_net.v_lins1.5.weight f4 [32, 32]
0	0xbdbc38da	-0.09190531
1	0xbe1bbfe7	-0.15209924
2	0x3c9becca	0.019033808
3	0x3db7d188	0.08975512
4	0xbd780e74	-0.06056066
5	0x3e13ee7b	0.14446442
6	0x3d62b1fc	0.05534552
7	0x3e0321b7	0.1280583
8	0xbd1f1475	-0.03883787
9	0x3d37294c	0.04471712
10	0xbe3475cf	-0.17623065
11	0xbddab8ef	-0.106798045
12	0x3df0df9b	0.11761399
13	0xbe132f58	-0.14373529
14	0xbe27f842	-0.16403297
15	0x3da6cd5b	0.08144637
16	0x3d15587a	0.03646133
17	0xbd8257e0	-0.06364417
18	0xbc220071	-0.009887801
19	0x3e306eec	0.17229813
20	0xbd586e64	-0.05283965
21	0xbc4c8573	-0.012482989
22	0x3cb9e86a	0.022693831
23	0xbc7ed82f	-0.015554472
24	0xbde8bcbe	-0.11364125
25	0x3d0911ac	0.03346412
26	0xbe1cf15d	-0.15326448
27	0x3dc07ddf	0.09399008
28	0xbd530ba8	-0.05152479
29	0x3cda7025	0.026664803
30	0xbaacb9b7	-0.0013177906
31	0xbdf43f83	-0.119261764
32	0xbe1b5832	-0.15170363
33	0xbe2f28d1	-0.17105414
34	0xbca150cc	-0.019691847
35	0x3cad7149	0.021172183
36	0x3df65e07	0.12029653
37	0x3dea69d5	0.11445967
38	0xbc097be9	-0.008391359
39	0x3c95bbd8	0.018278047
40	0x3de51a80	0.11186695
41	0x3d561ed5	0.052275497
42	0xbd99539c	-0.0748665
43	0xbe349041	-0.17633153
44	0x3e2cc148	0.16870606
45	0xbdf7ce44	-0.12099889
46	0x3e0e4b8a	0.13896003
47	0x3e0f698b	0.14005105
48	0x3d98d76f	0.07462966
49	0xbd9e99bf	-0.077441685
50	0x3dc730a2	0.09726073
51	0xbe0c02c1	-0.13672926
52	0xbbe64cd4	-0.0070282016
53	0xbe15c424	-0.14625603
54	0x3d801391	0.06253732
55	0xbd89303a	-0.066986516
56	0xbe287951	-0.16452529
57	0x3cfd973e	0.030955907
58	0xbe05ee17	-0.13079105
59	0x3e15a820	0.14614916
60	0xbded3dc2	-0.11584045
61	0xbe161827	-0.14657651
62	0x3e2975f9	0.16548909
63	0x3dc4fc2f	0.09618413
64	0xbd267ab2	-0.040644355
65	0x3cbb46d3	0.02286092
66	0x3e2d8156	0.16943869
67	0xbda1a454	-0.07892671
68	0xbd93345c	-0.07187721
69	0xbe194005	-0.14965828
70	0xbd99ce02	-0.07509996
71	0x3d926202	0.071476
72	0xbdc07ef9	-0.09399218
73	0xbd9fd4c1	-0.078042515
74	0x3e1387ad	0.14407225
75	0xbde24ea9	-0.110501595
76	0x3e21eba7	0.1581255
77	0x3e1cf94b	0.15329473
78	0xbd9d241e	-0.076729044
79	0x3e09141a	0.13386574
80	0x3d288411	0.041141573
81	0x3c174b42	0.009234251
82	0x3d1f21d8	0.038850635
83	0xbda06088	-0.07830912
84	0xbdcb0cbf	-0.099145405
85	0xbd5f4e97	-0.05451831
86	0xbe278928	-0.16360915
87	0x3e2f30bb	0.17108433
88	0xbcf1d4bc	-0.029520385
89	0xbdb03091	-0.08603013
90	0xbc9428f1	-0.018085929
91	0x3e14e6df	0.14541195
92	0xbd89e71e	-0.06733535
93	0x3d2e398b	0.042535346
94	0xbd3ceeeb	-0.046126287
95	0xbe195c15	-0.14976533
96	0x3e180571	0.14845826
97	0x3dfb02cd	0.122563936
98	0xbe252c94	-0.16130286
99	0xbdd4a89e	-0.10383724
100	0xbc6faed0	-0.014629081
101	0x3c4de706	0.012567287
102	0xbdf9b7c0	-0.12193251
103	0x3d910e5d	0.07082818
104	0x3de75efc	0.11297414
105	0x3c2b3112	0.010448711
106	0x3c77cf9a	0.01512518
107	0xbd1b9114	-0.037980154
108	0x3cdeb5e9	0.02718635
109	0x3d2970d9	0.041367386
110	0x3cc75a36	0.024335008
111	0x3bd03470	0.0063539073
112	0xbdb38f7e	-0.08767603
113	0xbcf24369	-0.02957316
114	0xbde84a7b	-0.11342331
115	0x3bcb34a9	0.006201346
116	0x3dbfd457	0.093666725
117	0xbe144e98	-0.14483106
118	0x3e287ff9	0.16455068
119	0xbd4da6e7	-0.050208
120	0xbe2b730c	-0.16743106
121	0xbdd89ba9	-0.10576565
122	0x3d9ef344	0.07761243
123	0xbc7d0a4d	-0.01544435
124	0x3e0045be	0.12526605
125	0xbdb37d63	-0.0876415
126	0xbe2e1b45	-0.1700259
127	0x3e220f5a	0.15826169
128	0x3e29d83e	0.16586396
129	0xbd94bfa6	-0.072631165
130	0xbccdd9a5	-0.025128195
131	0x3d0fc40c	0.035099074
132	0xbd872acc	-0.0659996
133	0x3da6cd4d	0.08144627
134	0xbd4e91d9	-0.05043206
135	0x3c9211c1	0.017830731
136	0xbdd79e6a	-0.10528262
137	0xbca96b87	-0.020681156
138	0xbe307294	-0.17231208
139	0xbe1a2ef8	-0.1505698
140	0xbcd65b3f	-0.026166556
141	0x3def8577	0.11695378
142	0xbd390b28	-0.045176655
143	0x3e2c942f	0.16853403
144	0x3dc621e5	0.096744336
145	0xbca3fea7	-0.020018889
146	0xbe15fa65	-0.14646299
147	0x3dec38ef	0.11534297
148	0x3d090b18	0.033457845
149	0x3b765e0e	0.0037592682
150	0x3dfc1b78	0.12309927
151	0xbdfde838	-0.12397808
152	0x3cd3c4f4	0.02585075
153	0xbddfd684	-0.109295875
154	0xbe0708c5	-0.13186939
155	0xbdb4b103	-0.08822825
156	0x3d9679d1	0.073474534
157	0x3dcf9771	0.10136307
158	0x3d6eb6de	0.058279864
159	0x3d7cd239	0.06172392
160	0xbe2092e7	-0.15681039
161	0x3db78093	0.089600705
162	0xbdce85e7	-0.100841336
163	0xbd9c0947	-0.07618957
164	0xbd302c68	-0.0430111
165	0xbe2a3334	-0.16621095
166	0x3ccdbcd1	0.025114449
167	0xbdb78ca4	-0.08962372
168	0x3e06fcb4	0.13182336
169	0x3e1dde46	0.15416822
170	0xbd73c3cc	-0.0595129
171	0x3dac4d55	0.084131874
172	0x3e2fa19c	0.17151493
173	0x3d96392f	0.07335126
174	0x3cbf77b0	0.023372501
175	0x3ccb5673	0.024821496
176	0x3e1ac5e3	0.1511455
177	0xbd1f3055	-0.038864452
178	0x3d996b5a	0.07491179
179	0xbe01793c	-0.12643903
180	0xbdb16747	-0.08662277
181	0x3d03945b	0.032123905
182	0xbe01cb47	-0.126752
183	0x39f1e21a	0.0004613556
184	0x3dd9adcf	0.106288545
185	0x3c32e58d	0.010918987
186	0xbc463066	-0.0120965
187	0x3d6d3157	0.057908382
188	0x3e21c5a4	0.1579805
189	0xbe13eb67	-0.14445268
190	0xbaf8a880	-0.0018971115
191	0x3dfe038d	0.12403021
192	0x3e2356d4	0.15951091
193	0x3d9e9d88	0.077448905
194	0x3d1e769d	0.038687337
195	0xbb5b0749	-0.003342109
196	0x3d5d0bd1	0.053966347
197	0xbc45693f	-0.012049018
198	0xbe239ecb	-0.15978543
199	0xbce24873	-0.027622437
200	0xbdeec591	-0.116587766
201	0xbc9a5c43	-0.018842822
202	0x3e1e2352	0.15443161
203	0xbdf60316	-0.12012307
204	0x3da56d88	0.08077532
205	0xbdb787a5	-0.08961419
206	0x3d8b7721	0.068098314
207	0x3e14c62f	0.14528726
208	0xbe26f5fe	-0.16304776
209	0xbb06b94a	-0.0020557218
210	0x3e1afc9b	0.15135424
211	0xbca8bbc1	-0.02059734
212	0x3dcedfc6	0.10101275
213	0xbe260da8	-0.16216147
214	0xbb9d1202	-0.0047934065
215	0x3e17c64b	0.14821737
216	0xbd5e6266	-0.05429306
217	0xbd7a4458	-0.061100334
218	0xbdb46e5b	-0.08810111
219	0x3de50df0	0.11184299
220	0xbbda6497	-0.0066648233
221	0xbde17422	-0.11008479
222	0xbc713bcc	-0.014723729
223	0xbe052129	-0.13000931
224	0xbd597062	-0.053085692
225	0x3c7692c7	0.015049643
226	0x3d9c0763	0.076185964
227	0x3d350e2c	0.04420297
228	0xbdb1ffff	-0.086914055
229	0xbd91369f	-0.07090496
230	0xbe1cefcb	-0.15325849
231	0xbd016293	-0.03158815
232	0x3c223671	0.009900675
233	0x3c659e66	0.014014816
234	0x3dcd69f6	0.10029976
235	0x3ced350e	0.028955963
236	0x3c874f90	0.01651743
237	0x3cda0a1b	0.026616147
238	0x3deb3e8e	0.11486541
239	0x3e167f4e	0.14697
240	0xbe2fca13	-0.17166929
241	0x3e289af5	0.16465361
242	0x3e0a6ee8	0.1351887
243	0x3e30ed39	0.17277993
244	0x3e20a709	0.15688719
245	0x3e1b1d30	0.15147853
246	0x3d26b030	0.04069537
247	0xbd614e48	-0.055006295
248	0x3dc8b0e1	0.09799362
249	0x3d1d5cf8	0.03841874
250	0xbde3beb9	-0.11120362
251	0x3e131fab	0.14367549
252	0x3e00ea16	0.12589297
253	0x3ddec31f	0.1087706
254	0xbe080dbf	-0.13286494
255	0xbb9b6397	-0.0047420966

emb_net.v_lins1.5.bias f4 [32]
0	0xbda46c8c	-0.08028516
1	0x3dc95b2f	0.09831845
2	0xbabd21c8	-0.0014429623
3	0xbda9683c	-0.08271834
4	0x3d71d219	0.059038255
5	0xbd4501db	-0.048097473
6	0x3dcc9b72	0.09990586
7	0x3d10cd90	0.03535229
8	0x3dfc7275	0.123265184
9	0xbdb7b77b	-0.08970543
10	0xbda8df46	-0.08245711
11	0xbdc21883	-0.094773315
12	0xbb60705c	-0.003424666
13	0xbd4ac1db	-0.04950128
14	0xbdd29268	-0.10281831
15	0xbc9e2e5c	-0.019309215
16	0x3debc6cf	0.11512529
17	0xbd7fb409	-0.062427554
18	0xbe284c9c	-0.16435474
19	0xbba115ad	-0.004915914
20	0x3d89f8cf	0.067369096
21	0x3dd6b45e	0.10483621
22	0x3db385a9	0.08765728
23	0xbdd5ed9c	-0.10445711
24	0x3d9de832	0.07710303
25	0x3ca161be	0.019699927
26	0xbe12d28a	-0.14338127
27	0x3b1ec0a3	0.0024223707
28	0x3e29fae3	0.16599612
29	0xbdcdb80f	-0.10044872
30	0x3cad0996	0.021122735
31	0x3cb655f0	0.022257775
