pretrained/cvrp_nls/cvrp500.pt (torch, 357771 bytes, 225 tensors)

emb_net.v_lin0.weight f4 [32, 1]
00000000: d871 4ebf b82f 4d3f f762 583f d753 b5be
00000010: aaeb 633f 47c6 173f 3212 2d3f 000d 3b3f
00000020: 142d 25bf 97de 2ebf 539e 133f 8607 d3be
00000030: 1a23 65be f068 8cbe 8f60 8a3d 8b5f 17bf
00000040: 07d6 3ebc de44 3cbe 73c3 a4bd 8aae 62bf
00000050: 4558 c23e 50c5 8dbb 59e7 c2be 19dd a9be
00000060: b1fa 973e f6e9 1cbf 1e06 62bf 02cb ec3e
00000070: 5561 7d3f ba47 c3bd 47c5 e63d a732 e8be
-0.8064246 0.8015094 0.8452601 -0.35415527 0.8903147 0.5928692 0.6760589 0.7306671
-0.6452191 -0.68308395 0.5766346 -0.41216677 -0.22376671 -0.2742381 0.06756698 -0.5913016
-0.011647708 -0.18385646 -0.080450915 -0.88547575 0.3795797 -0.0043265 -0.3806713 -0.33176497
0.2968345 -0.61294496 -0.88290584 0.46248633 0.9897664 -0.09535165 0.112680964 -0.45351145

emb_net.v_lin0.bias f4 [32]
00000000: db6d 7fbf 844b 053f 02f8 7a3f 3b4b 893b
00000010: 3358 ddbe fcbf 21bf 6608 e33e a11a 273f
00000020: 1e9c 35bf 37c2 0fbf 3d4e 29bf 8a47 34bf
00000030: 97c1 d6be 0277 b73e 74ce 613f 477f 12bf
00000040: 4bc9 2f3f b340 42bf e6e8 dbbe 020a 36bf
00000050: 8721 12be 1022 8ebe 21c9 7b3f 32fa 97bd
00000060: 292c 85be 8841 8e3d e003 18bf 73c8 ffbd
00000070: b67d 95bd b7df 01bf 96d5 a03d 4f01 353e
-0.99777 0.5206835 0.9803468 0.0041898764 -0.43231353 -0.6318357 0.44342345 0.6527501
-0.7094134 -0.56155723 -0.6613501 -0.7042166 -0.41944572 0.35832983 0.8820565 -0.5722546
0.68666524 -0.75879973 -0.42951125 -0.7110902 -0.14270602 -0.27760363 0.98353773 -0.07420768
-0.26010254 0.06946093 -0.5938091 -0.124894045 -0.07299368 -0.50731987 0.07853238 0.1767628

emb_net.v_lins1.0.weight f4 [32, 32]
00000000: 4054 b63b dede 33bc 1cda c6bd 1f1f 07be
00000010: 63e5 0cbd 6463 33be 6825 203e 659b 33bd
00000020: db6e a6bc 8f87 003d 714f cfbb bb92 23be
00000030: 160f 603d a556 1e3e b541 e7bd 9a5a 32bc
00000040: c7b8 c63b a782 01be 4a88 74bd 50fc 84bd
00000050: d9fa 1e3e a6ad 66bd 560c 43bd 1a08 c7bd
00000060: 9d65 f33c b4d1 a93c c9cf 22bd 33eb 0f3e
00000070: 7716 2d3a b503 b73d e0b9 c8bd 174b 0b3d
00000080: ecc3 c2bc 3f2b 0b3d 7f3c a2bd d372 b43c
00000090: 1f41 06be 49ef bcbd 9fd8 d93d d499 acbd
000000a0: b0b1 b8bc 230f bdbd eb69 f6bd 421a 2cbe
000000b0: 4037 b2bd 1731 02be 7860 d63d e211 2a3e
000000c0: 50db c63d 1631 f23d fad7 833d 6b4b f9b9
000000d0: dd1a 47bc 2dd0 60bd 7260 e0bd 2f87 0abd
000000e0: d16b 09be e8fe b9bd 8a10 16bc efc0 643d
000000f0: 800b 28be 2304 153e 40b9 eb3d 7554 dc3d
00000100: 360b cebd 476b 923d 83fd 17be 7974 08be
00000110: 9fc0 8a3c e1af 343e 7d2e de3d 72ae 0a3e
00000120: f743 0e3e cb53 ab3d a979 733d cdb4 04bd
00000130: ada3 b0bd d463 2ebe 586c bcbc ce05 74bd
00000140: b640 f5bd c2ef 2ebe efdd 9d3d 106f 9c3d
00000150: 1a04 433d 684e cb3d aa94 113d c2ea c03d
00000160: b2d3 043c 9ee2 e33d 0de5 d0bd f82e 18bd
00000170: 6a54 093e 3479 1b3d 0a13 b43d 42c7 5e3c
00000180: f562 19be a5f4 e93d 979a 223e d7ec 433b
00000190: 0593 9a3c 4a6b ba3c da8b 0ebd 7c99 073d
000001a0: f4a7 833c a43b 753d 4ffc 73bd 0b9c 5dbb
000001b0: 9918 28be ea02 f83d 1c68 fc3c ebf8 fabd
000001c0: 3051 703d 272d f53d 62fb ee3c dfcc 623d
000001d0: f57e aa3d 23a4 dbbd 66e7 d3bd 91ba ecbd
000001e0: 15a7 9c3d 8728 d63d 7c21 043a dcee 0abe
000001f0: d34f f73d 977f c53c 9d44 ffbd 4707 253e
00000200: c65b d5bd c30b 03be 7b65 3cbd 288c efbc
00000210: 487a 1fbe 13ee c4bd d82e 293e 5371 9cbd
00000220: 56dd 283c 347a a8bd a9d2 ca3d 32d4 babd
00000230: c318 b93d 2a7b 583c bbcf c93d 5bc1 7e3d
00000240: 309b 7a3d 41f3 83bd 4a33 c0bd 77ed b33b
00000250: ce54 9b3a 29a4 823d 28fa 91bd 6a78 003e
00000260: fcae d53d 19c5 453d 4b48 abbc f04f 0fbc
00000270: 0946 0bbe 2c34 fb3d 599a 8c3c 575e 9a3d
00000280: 9c71 0cbe 6125 cd3d ed4e eb3d 2312 b1bd
00000290: 3c16 ccbd dcf1 103e a8e2 1b3e 40de a9bc
000002a0: 6dc3 2fbe f5dc f73b f3d4 05be 1274 0ebe
000002b0: 1b71 df3d b7bd 593d 1678 433b bc4f a73d
000002c0: 8a4d cbbd 3946 06bd f017 8abc 4304 c53d
000002d0: 13d9 2f3e 04b3 ca3d c9e2 e0bd 69e8 29bc
000002e0: 8528 32be d67c 1a3c 7909 26be b18f 443d
000002f0: 6f0d 34be 29f8 c0bc eb5f f53c d641 37bd
00000300: 7d21 bcbd 13a9 eb3c a434 eb3d ff12 1c3e
00000310: b06a 00be d024 b83c e80a c5bd d408 02be
00000320: a598 9ebd b57e a13d 83e8 833d 3105 2bbe
00000330: 4d21 8c3b 73c3 23be d7bb 053d d5e8 b1bc
00000340: d731 f8bd 9204 033e ac1c 0e3e 15ab 06bd
00000350: e741 e4bd 0309 3bbd d4ec d33d 4f44 1a3e
00000360: 397e 11be f532 7c3d ebfc c03d a96c 043e
00000370: ac93 8dbd 85f2 0fbd 6fb7 71b9 4dc8 3f3c
00000380: 778b 023e 91f2 1bbe 827d c9bd 3d94 72bd
00000390: 3b17 25bd ea0c bdbd cc6f 01be b6e9 e23d
000003a0: 3dec c5bd 1c60 9bbd afeb 26be 1fc8 e43d
000003b0: d98d ba3d f274 30bd cfba a7bd 3504 81bc
000003c0: 9dc8 07be a7fa 073e 0e83 d03d 0de1 153d
000003d0: a0fc f03d 92eb d03c d6c7 483d a081 f33d
000003e0: 517e 0abe 824c 6c3d 6c5f 84bd 07a9 e53d
000003f0: 6db8 823d a7b7 13be d945 b0bc 8487 1c3e
0.0055642426 -0.010978429 -0.0970957 -0.13195466 -0.034398448 -0.17518383 0.1563927 -0.043849368
-0.020316532 0.03137928 -0.006326609 -0.15973942 0.054701887 0.1546274 -0.112918295 -0.010885859
0.0060645076 -0.12647496 -0.059700288 -0.06493437 0.15525378 -0.056317948 -0.047619186 -0.09718342
0.029711539 0.020729877 -0.03974894 0.14054565 0.0006602774 0.08936254 -0.09801078 0.034007158
-0.023775063 0.03397679 -0.07921695 0.022027409 -0.13110779 -0.092253275 0.1063702 -0.08427778
-0.022545666 -0.09231403 -0.12031921 -0.16806892 -0.08701944 -0.12714039 0.10467619 0.16608384
0.09709799 0.11825769 0.06437679 -0.00047549172 -0.012152401 -0.054886032 -0.109558955 -0.033820327
-0.13420035 -0.09081823 -0.009159217 0.05584806 -0.16410637 0.1455236 0.11509943 0.107582964
-0.10060732 0.07149368 -0.14842801 -0.13325681 0.016937552 0.17645217 0.10848711 0.13543108
0.13893114 0.083655916 0.059442196 -0.032398988 -0.08624969 -0.17030269 -0.023000881 -0.05957585
-0.11975233 -0.17083648 0.07708346 0.07638371 0.047611333 0.09927064 0.035542168 0.094197765
0.008107113 0.11127208 -0.10199938 -0.037154168 0.13411108 0.037957385 0.08792694 0.013597311
-0.14979155 0.11423615 0.15879284 0.0029895806 0.018868933 0.022756238 -0.03480134 0.03310536
0.016071297 0.05987133 -0.059566792 -0.0033814933 -0.16415633 0.12109931 0.030811362 -0.122545086
0.058671176 0.11971503 0.029172603 0.05537116 0.083249964 -0.10724666 -0.1034687 -0.11559022
0.07649056 0.10456949 0.000504039 -0.1356768 0.12075772 0.024108691 -0.12464259 0.16116057
-0.10417895 -0.12797455 -0.045995217 -0.029241636 -0.1557399 -0.096157216 0.16521776 -0.076388024
0.010306677 -0.082264334 0.099034615 -0.09122504 0.09037926 0.013212958 0.098540746 0.062196117
0.061183155 -0.064428814 -0.093847826 0.0054909545 0.0011850835 0.06378967 -0.07127792 0.12545934
0.10433766 0.04828367 -0.020908495 -0.008747086 -0.13600935 0.1226581 0.017163442 0.07537525
-0.13715214 0.10016895 0.11489663 -0.086460374 -0.09965178 0.14154762 0.15223181 -0.02073586
-0.17164393 0.007564182 -0.13069515 -0.13911465 0.10910245 0.05315944 0.0029826215 0.08169505
-0.09926899 -0.032781813 -0.016857117 0.096199535 0.17172651 0.09897426 -0.10980756 -0.010370352
-0.1739827 0.009429177 -0.16214551 0.047988597 -0.1758325 -0.023555832 0.029952964 -0.04474052
-0.09186075 0.028767144 0.1148465 0.15241621 -0.12540698 0.022478491 -0.09621221 -0.1269868
-0.077439584 0.078854956 0.064408325 -0.16701199 0.0042764307 -0.15992527 0.03264984 -0.021717468
-0.12118881 0.12794712 0.13878125 -0.032878 -0.111453824 -0.04566289 0.10347906 0.1506512
-0.14208306 0.061572034 0.0942324 0.12932076 -0.06912932 -0.035143394 -0.00023051885 0.01170547
0.12748514 -0.1522925 -0.09838392 -0.059223402 -0.040305357 -0.09230979 -0.12640303 0.11079733
-0.096641995 -0.07586691 -0.16300844 0.111709826 0.091090865 -0.043080278 -0.08189928 -0.015749076
-0.13260122 0.1327921 0.10181247 0.03659158 0.117669344 0.025502954 0.049018703 0.118899584
-0.13524748 0.05769015 -0.06463513 0.1121388 0.06382833 -0.14425527 -0.021517681 0.1528607

emb_net.v_lins1.0.bias f4 [32]
00000000: c2c3 e3bd 4bac 823d fe1d 36bb ec3f f33d
00000010: 47c5 3a3d cd8a c83d 9c33 76bd ae10 7fbd
00000020: eea2 f33d 68cd 093d cbcb 9d3d 6a7f bd3d
00000030: a98c 14be 76bc d83d 6c18 be3d dcd5 eb3c
00000040: 710b 06be e59c babd 6b65 99bd 3c0f 163c
00000050: 69f1 fcbd cdc3 fe3d 66dd 2dbe f0ad 33be
00000060: b618 253e 26d9 2b3e 18cb afbd 605d 193e
00000070: 05c8 5e3d 59e4 253e 8ee3 8abd 80f4 d93c
-0.11121322 0.063805185 -0.0027788873 0.118774265 0.045598295 0.09792099 -0.060107812 -0.062271766
0.11896311 0.033643156 0.07704886 0.09252818 -0.14506783 0.10582821 0.09282002 0.0287885
-0.13090302 -0.091119565 -0.07490047 0.009158906 -0.12350733 0.1243969 -0.16978988 -0.1754682
0.16122708 0.16782054 -0.08583659 0.14977026 0.054389972 0.16200389 -0.06781684 0.026605844

emb_net.v_lins1.1.weight f4 [32, 32]
00000000: cd8f c7bd b16c 003e 3603 833c cd43 ff3c
00000010: 9a0c c5bd b001 20bc ff98 55bd 347e f0bd
00000020: c19f f73d b5ac 93bc f8f4 f73d 8123 c4bd
00000030: 39ed c1bd 3633 c7bd e8ab c7bb c9d7 273e
00000040: 804f de3b e9f6 22be 7c03 343e bee6 13bc
00000050: 1c05 8b3d 44f7 1cbe d22e 003e 697f 8dbd
00000060: dce1 09bc 6bfc 073e 9653 ae3d 218e 6ebd
00000070: f5f3 913c 7a9c c6bd 0fbf 2c3e 794f 7f3d
00000080: 33ff e4bd 4b3f fdbc a090 d13d 2135 8bbd
00000090: c0bb 3cbd 3f9a 79bd c1f5 d93d 0c13 a33d
000000a0: 2443 e6bc 3ad0 123e 64c9 d53d f8c9 99bc
000000b0: 9d72 71bd 6168 313e 75ca 1d3e 463e 96bd
000000c0: 63e5 c3bd 852e bcbc c03d df3d 05ec 253e
000000d0: 06c9 1b3e c306 0bbe b647 8a3d a858 97bd
000000e0: 94dd 6e3d c822 323e 83b8 aebd 94ca a33d
000000f0: 19c7 2c3d f0f3 96bd ad4f 7ebc 8723 0dbe
00000100: f0b6 883d 3295 10be b896 67bd b522 e3bb
00000110: abe8 ab3d 2dcd 2cbc 06dd bdbc c73d 123c
00000120: 7ba5 d2bc c219 32be 7002 40bc 3455 48bc
00000130: da86 153e 7f69 07be 1b03 513d 1e4e 1cbe
00000140: fa03 853c 87fb 07be 965a 81bc 0b7d bebc
00000150: 6fbb 0dbd 14b0 28be c334 7a3d 6529 e0bd
00000160: ec57 b4bc 1a31 323e d515 823d c7ed 093e
00000170: 8cc3 2fbe c036 fb3c 390f a53d c57d 16be
00000180: 3228 a63d a057 393d 9339 e83d 4c6d c33d
00000190: 5549 d53d 5bdb a03d 7761 d23d 6a79 d73d
000001a0: 6d46 533d a903 f6bd cdf3 ab3d 8c99 cb3d
000001b0: 3bd9 f5bc b17e 6bbd 3e2a 503d ce11 17be
000001c0: 6912 f2bd 3d64 9abc c15e 36bc 2ea6 8b3b
000001d0: 50db 1e3e ff4d 973d 9a9d 183e 3483 98bd
000001e0: fbfe 9f3d b3b5 17bd f0e0 d33b 2f53 a4bd
000001f0: b203 7cbc 8acd 94bd fc31 ea3d 5914 903d
00000200: 16ab 04bd 3fa3 08be a99a 00be 9227 0a3d
00000210: 5adb 2cbe c98e 303e 54ea 0bbe ef4d de3b
00000220: e290 8abc ed1f 8dbd 031a 27be 4edb e6bd
00000230: cccc 003e 71b3 15be 8517 8a3d 6c88 073d
00000240: fbe8 043e f429 ea3d 0f5c 693d 14ca a9bd
00000250: 0450 acbc d5fa 433d da87 e9bd 82e8 ca3d
00000260: df88 883c 616c 243d 8a85 6e3a ccb4 c03d
00000270: 5fc8 c0bd 8c2e cd3d c7b3 1ebe be7e 96bd
00000280: 124a cabc bb0f 5ebb ed16 fabd 4862 0ebe
00000290: 91d8 7b3d 279f ec3d ead7 b1bd 8f04 f9bd
000002a0: b18f db3d b5e9 6b3c 3486 e6ba 9ff6 5dbd
000002b0: ab07 8f3d 2240 46bd 2093 273e def6 c13d
000002c0: bac1 e43d f41b 89bd f897 33bd 578d 9abd
000002d0: 3e3c 863c 500c df3d a77f 0c3e 83bf aabd
000002e0: 5d88 243e dbb1 bcbd d872 bdbd 20ec 18be
000002f0: 5f8e 983b 9fef 10be af1a 1f3c f648 1c3e
00000300: 4f45 193e 4acd 77bc c642 b33c 4e11 fe3d
00000310: c3b9 a23d 8286 8e3c 2f9a ff3b 0100 f6bd
00000320: 0d8b be3c c4f4 d03c 4ccf 22be 59a9 8c3d
00000330: bc38 31be cabe b4bd c23f e2bd 7cab 1ebe
00000340: c87d 5b3d adf8 94bd 6a79 9ebd 2c92 763d
00000350: 4abd 35bd 3520 e4bd 5a45 65bc 9b49 0abe
00000360: c2c7 0fbe eb5e 31bc 7623 30be 34b7 dcbd
00000370: 8283 05be 227e debd 9f00 28be f1c7 333d
00000380: c5e9 94bc 658e 153e 218f 203e 756b a33d
00000390: 7584 5b3d ebe7 87bd e842 03be 2e38 8bbd
000003a0: dcb7 82bd 4296 03bb 54d4 003e 8c4c 17be
000003b0: ed34 6fbd 6a0d 0cbe f5b5 18be 92fd 343e
000003c0: 4ea9 03bd 065e 82bd 7681 b63c 8bd4 813d
000003d0: 02d0 3a3d 9599 05be 6cca 5c3c 50de 14be
000003e0: 93fc 243e ee8d f7bd 3208 49bd b491 15be
000003f0: da00 22be edd4 05be 6cea 93bd d3e5 653c
-0.09744225 0.12541462 0.015992742 0.03116026 -0.09621544 -0.009766027 -0.05214786 -0.11742821
0.120910175 -0.018026689 0.12107271 -0.09577084 -0.09469075 -0.097265646 -0.006093491 0.16390909
0.0067843795 -0.15914501 0.17579454 -0.009027181 0.06788084 -0.153287 0.1251786 -0.06909067
-0.0084156655 0.13279884 0.085120365 -0.058241013 0.017816523 -0.09697814 0.16869758 0.06233165
-0.11181488 -0.03091397 0.10232663 -0.06797243 -0.04607749 -0.060938116 0.10642577 0.07962617
-0.028108187 0.14337245 0.10438803 -0.018773064 -0.058947194 0.17324974 0.15409262 -0.073360965
-0.095652364 -0.022971401 0.1090045 0.16203316 0.15213403 -0.13576798 0.06751959 -0.07389957
0.058316782 0.1739608 -0.085312866 0.07997623 0.04218206 -0.07370746 -0.015521926 -0.13783084
0.066755176 -0.14119413 -0.05654022 -0.0069316276 0.08393987 -0.010546965 -0.023176681 0.008925862
-0.025713673 -0.17392638 -0.011719331 -0.012227345 0.14602223 -0.13223837 0.051028352 -0.15264174
0.016237248 -0.13279544 -0.015790265 -0.023252985 -0.03460258 -0.16473418 0.061085474 -0.109453954
-0.02201458 0.17401543 0.063518204 0.13469611 -0.17164439 0.030665755 0.08059544 -0.14696415
0.081131354 0.04524958 0.113391064 0.09542331 0.104143776 0.07854339 0.10272496 0.10521205
0.051580835 -0.12012417 0.08396111 0.09941396 -0.03001081 -0.05749387 0.050821535 -0.14752886
-0.11819918 -0.018846625 -0.0111309895 0.0042617535 0.15513349 0.073879234 0.1490387 -0.074469
0.078123055 -0.037038516 0.0064660236 -0.080236785 -0.01538174 -0.07265766 0.11435315 0.07035131
-0.032389723 -0.13343523 -0.12558998 0.033729143 -0.16880551 0.17241968 -0.13663608 0.0067841928
-0.016914789 -0.06890855 -0.16318516 -0.11272298 0.12578124 -0.14619233 0.06742767 0.033089086
0.129795 0.11433783 0.05697256 -0.082904965 -0.021034248 0.047846634 -0.11402865 0.099076286
0.016666828 0.04014242 0.00090988784 0.09409484 -0.09413218 0.10018644 -0.15498267 -0.07348393
-0.024693523 -0.0033883888 -0.12211404 -0.13904679 0.06148583 0.115537934 -0.086837605 -0.121590726
0.10720766 0.014398982 -0.0017587603 -0.054190274 0.069838844 -0.048401006 0.16364717 0.09470914
0.11169763 -0.06694785 -0.0438461 -0.0754649 0.016386148 0.1089102 0.1372057 -0.08337309
0.16067643 -0.09213611 -0.0925042 -0.14933825 0.004655644 -0.14153908 0.009710952 0.15262207
0.14967845 -0.015124628 0.021882426 0.12405644 0.079455875 0.017398123 0.0078003625 -0.120117195
0.023259664 0.025507338 -0.1589939 0.06868238 -0.17306799 -0.088254526 -0.11047317 -0.15495104
0.05358675 -0.07273994 -0.07738002 0.060197994 -0.044369973 -0.111389555 -0.0139935855 -0.13504641
-0.14041045 -0.010825853 -0.17201027 -0.10777131 -0.13038447 -0.10863902 -0.16406487 0.04389185
-0.018177876 0.146051 0.156796 0.0797948 0.053593118 -0.06636032 -0.12818491 -0.06797825
-0.06382725 -0.0020078574 0.12580997 -0.14775294 -0.058400083 -0.13676992 -0.14913161 0.17674854
-0.032143883 -0.0636559 0.022278529 0.063393675 0.045608528 -0.13046868 0.0134759955 -0.1453793
0.16111974 -0.12087618 -0.04908008 -0.14606363 -0.15820637 -0.13069506 -0.07222447 0.014031845

emb_net.v_lins1.1.bias f4 [32]
00000000: d67b 1fbe 2aee 613c 5e7e 07be 1397 2d3d
00000010: 702b b03d fe64 15bc 2bfa 28be 778d 45bd
00000020: ffd7 19be 81f1 143e a3c3 803d bb0c 17bd
00000030: f54e 2f3e ed52 013e 453d 8ebc d009 33be
00000040: f3f5 0d3e 40ea c4bd f593 3a3d db6e d7bc
00000050: 941d 16be b3e1 d33c 6539 063e 791b 383c
00000060: 26f7 723d 1560 f53c 37e2 f43d db51 a9bd
00000070: 05e8 02be 7cc8 c63d 5016 09be 21ef d4bb
-0.15574583 0.013789693 -0.13231799 0.042380404 0.08602035 -0.009118317 -0.16501682 -0.048230615
-0.15023802 0.14545251 0.06287315 -0.036877375 0.17119963 0.1262929 -0.0173632 -0.17484212
0.13863353 -0.09614992 0.04555126 -0.026297977 -0.1465972 0.025864458 0.13107832 0.011237019
0.05931773 0.029953042 0.119572096 -0.08267566 -0.12783821 0.09706208 -0.13387418 -0.006498233

emb_net.v_lins1.2.weight f4 [32, 32]
00000000: 6a81 44bd 8076 e6bc 9002 ddbd ff9c c03c
00000010: fd03 a53d 7748 1f3e c088 473d 95a3 03bc
00000020: 3703 b53d b7cc fc3d 4f0a 933d 6de1 1bbe
00000030: 13a7 153d 8918 213e 2165 93bd 6fd3 793d
00000040: 6b22 d83d b912 27be f026 8d3c ba84 043e
00000050: 2330 8d3d 9862 88bc 591b 303e 2274 aebd
00000060: 5b4d 333e 9037 ed3d 4184 0d3e 9abb 6dbd
00000070: 0551 cabd 07a9 fb3b c028 26be afbc c63d
00000080: f0db 89bd ef3c 2dbe a005 283e 1144 14bc
00000090: 3369 33bd f68e 92bd b32d 37bd 0ba1 813d
000000a0: 0fbc 11be a13d 6cbd def0 f9bd 428f 113e
000000b0: ca0b 893d 8fbe 28be fb8c 2d3d 7921 8d3d
000000c0: 64d3 2a3e c047 b83d 15c4 863d c7d9 333e
000000d0: e371 d33c abd8 193e 96bd d3bc 2d9e 033e
000000e0: 7c1a 8dbd e15c 85bd af65 2bbe e843 76bd
000000f0: e956 563d 1abf 323e 18e3 19be 119a 633d
00000100: 19c3 ccbd 0108 e93d 6c01 1a3e 24aa 2f3e
00000110: d430 223d dafc bcbd 96a1 46bd 6784 d9bd
00000120: 4dc2 a7bd 463b c7bd 1a18 47bd 4cd5 5bbc
00000130: 33de 7b3c 6a8e 2dbd ad47 06be e030 34bc
00000140: 650a 4b3c dbc2 2abe d3e9 2cbe ffeb dabc
00000150: 0497 21be f561 d8bd 911e 18be 3b9d 26be
00000160: c41e 6abd 12d7 713d 13c9 a33c 9aa6 d9b9
00000170: 3736 3ebd e98f 8a3d d298 583d a8ef 9bbc
00000180: 2963 bf3d c007 253c 8e07 f73d c3fc 533d
00000190: 7002 203e 039c 283e 5d2f c3bd 6455 ca3c
000001a0: 84aa 083c 4d38 d53c 7653 dd3b b3f0 eebd
000001b0: 427c fcbd ae77 c83d 7b91 113e b0b5 5b3d
000001c0: 709a adbc de13 b6bd 697e cfbc 1908 d8bd
000001d0: 7462 053e b915 c0bc 8ad6 b33d ec4a 25be
000001e0: 99aa 503d 7446 09bd 6164 4e3c fe32 2c3e
000001f0: 58d0 433d e5fe a9bd dd14 583d 6e14 703d
00000200: aa62 17bd 9021 ea3c 0b71 10be b4e4 85bd
00000210: c963 ec3d ea48 e93d dbf1 2d3e c884 35bd
00000220: 40a5 493d 7697 893d aca5 193e 96f0 8bbc
00000230: c66e a2bd d5c3 0dbe b7f0 d9bc 95ae 15be
00000240: 0365 a0bd aa16 efbd 008c d73d 15ab 3d3d
00000250: 96fa 9abd 654f 1ebe 3355 023e 05e9 b63d
00000260: e1d1 9cbb a99f eebb 6d23 34be 1a32 70bd
00000270: f282 ef3d ee55 20be 1670 e1bd ed62 ff3c
00000280: 1946 b2bd 8f6a 063e 5017 6cbd a78b 1cbd
00000290: cb45 abbb f357 e5bb f625 403d c05a 02bd
000002a0: 4a10 bebb e5ba 96bd 8b67 c73d 30f8 313e
000002b0: 9f5c 343e dd53 30bb f68c 2dbd b6d1 183e
000002c0: 83f3 12bd 056d f63d 6f5c bdbd 09cf 153e
000002d0: de45 79bd 0ddc b4bd 5272 dbbd cfac 273e
000002e0: 49f3 cdbd 8c75 1bbe 3e2f edbd e710 adbc
000002f0: 2dc6 fb3d e2d6 f5bd 5ae0 3fbd 6f08 1cbc
00000300: 8137 e53d 4e83 953d f46b e83d aab6 1ebe
00000310: c530 9fbb c9b1 f73d c2f1 9cbd 07d3 abbd
00000320: 5240 c93d b1fe 0d3e 613f f4bd 4793 eebd
00000330: 4bac 333e 23aa d43d 4480 cbbd dcd5 523c
00000340: bc15 28be ba66 fc3d 25d0 703d 87d3 0b3e
00000350: bc7d ac3d ec1a 0ebd 8381 0d3e 6046 083e
00000360: bb80 0a3e 1e85 5c3c 8713 22bd 1e49 193e
00000370: e4aa 8abd 8522 87bd 23d3 153e 0d21 4cbd
00000380: 1a28 a3bd e2e5 0f3e 954b e7bd 4c37 3ebd
00000390: 0e31 0bbe cde4 02be 74c0 123e 4981 18be
000003a0: 68b6 7a3c 2c06 573d b69c f83c 4eec e6bc
000003b0: a52f dfba f3d4 423d b9f4 083e cb10 d9bc
000003c0: 8f1e 98bd 64cf 533d db41 c7bd 6c7d c63d
000003d0: 8db5 abbd 2e24 a1bd 94e5 223e 5cd2 4dbd
000003e0: 61f4 77bd adfa a43d 45b8 3e3d eadd 153e
000003f0: bf14 173d e8f8 fbbd 2e57 1d3d 0ca3 273e
-0.04797498 -0.028132677 -0.107915044 0.023512362 0.08057401 0.15554987 0.0487144 -0.008034606
0.08838504 0.12343734 0.071797006 -0.15222712 0.036536288 0.15732016 -0.07197023 0.060992654
0.1055344 -0.16315736 0.01723048 0.12941256 0.06893947 -0.016648576 0.17197932 -0.08518244
0.17509978 0.11582863 0.13819982 -0.05804024 -0.098787345 0.0076800617 -0.16226482 0.09703957
-0.06731403 -0.16917776 0.16408396 -0.009049431 -0.043801498 -0.07156174 -0.044721317 0.06329545
-0.14231895 -0.05767596 -0.12204145 0.14214805 0.06691702 -0.16478942 0.042370778 0.0689115
0.16682202 0.0899806 0.065803684 0.17563544 0.025811141 0.15024059 -0.025847238 0.12853308
-0.06889817 -0.06511856 -0.16738008 -0.060123354 0.052328978 0.17455712 -0.15028036 0.05556685
-0.099981494 0.1137848 0.15039605 0.17154747 0.039597347 -0.09227915 -0.048493944 -0.10620957
-0.08191357 -0.097281024 -0.04860697 -0.013417553 0.015372801 -0.042372145 -0.1311328 -0.010997981
0.012392615 -0.16675894 -0.16886072 -0.02672386 -0.15780264 -0.10565559 -0.1485541 -0.16270916
-0.057158247 0.059042998 0.01999334 -0.00041513593 -0.046438422 0.0676573 0.052880116 -0.019035175
0.09345085 0.0100726485 0.12061988 0.051754724 0.1562593 0.16465764 -0.09530518 0.02469892
0.008341435 0.026027823 0.006754334 -0.116670035 -0.12328388 0.09788452 0.14215653 0.053640068
-0.021191806 -0.08890508 -0.025328832 -0.105484195 0.13025838 -0.023447858 0.087811545 -0.16141862
0.050943945 -0.033514455 0.012597174 0.16816327 0.047806114 -0.083005704 0.05275427 0.058613233
-0.036959328 0.028580457 -0.14105622 -0.06537762 0.1154247 0.113908604 0.16986792 -0.044316083
0.04922986 0.06718342 0.15004605 -0.017082494 -0.079312846 -0.13844235 -0.02660404 -0.14617379
-0.078317665 -0.11674245 0.1052475 0.046305735 -0.07567327 -0.15459974 0.12727813 0.08931164
-0.0047857617 -0.0072822166 -0.17591639 -0.05864153 0.11694898 -0.1565778 -0.11007707 0.031175101
-0.08704776 0.13126586 -0.05763942 -0.03821912 -0.005226826 -0.0069990098 0.046911202 -0.031824827
-0.0058002817 -0.07359866 0.09736546 0.17379832 0.17613457 -0.0026905455 -0.04237076 0.14923748
-0.035876762 0.120325126 -0.09246146 0.14629759 -0.060857646 -0.08831034 -0.10715164 0.16374515
-0.100561686 -0.1518156 -0.11581276 -0.021126224 0.122936584 -0.12003876 -0.046844818 -0.009523495
0.11192227 0.07300435 0.113487154 -0.15499368 -0.0048581087 0.12094457 -0.07663299 -0.0838986
0.09826721 0.13866688 -0.11926151 -0.11649185 0.17546193 0.103840135 -0.09936574 0.012868371
-0.16414541 0.12324281 0.058792252 0.1365491 0.084224194 -0.034693643 0.13818936 0.13308096
0.1352567 0.013459472 -0.039569404 0.14969298 -0.06770876 -0.06598381 0.14631324 -0.049836207
-0.07966633 0.14052537 -0.11293713 -0.046439454 -0.13592932 -0.12782593 0.14331228 -0.14893068
0.015302278 0.05249612 0.030348163 -0.02818885 -0.0017027749 0.047566365 0.13374604 -0.026497265
-0.074277036 0.051711455 -0.09729358 0.09691891 -0.083842374 -0.07868229 0.1590789 -0.050249442
-0.060535792 0.08055625 0.046562452 0.14635435 0.03688502 -0.123033345 0.03841322 0.16370791

emb_net.v_lins1.2.bias f4 [32]
00000000: cc2e 7fbd 5bac f73d 848a bf3d 941a c23d
00000010: 9d15 153e eaba 7e3b 01a1 033e 98ef 273e
00000020: c053 193d fbe5 663d 8479 1cbe a8f1 f83c
00000030: 5e3a bb3d 1c2f 16be d42c 2b3d 5c70 373d
00000040: 4a4f 133e b61a 98bd 8597 683d 6c93 02be
00000050: f9c7 abbd 336c 19be e931 163e 3da6 fabc
00000060: 16ec c3bc e692 973d f955 2c3e 042e c13d
00000070: a198 c63d f6ea 1b3c b966 54bc f14a 39bd
-0.06230049 0.12093421 0.09352592 0.094777256 0.14559026 0.0038868734 0.12854387 0.16399992
0.037433386 0.05637167 -0.1528073 0.030388668 0.09141992 -0.14666408 0.0417908 0.04478489
0.14385715 -0.0742697 0.056785125 -0.1275155 -0.08387751 -0.14982681 0.14667477 -0.030596847
-0.023916285 0.074010655 0.16829671 0.09432605 0.096970804 0.009516468 -0.012963944 -0.045237485

emb_net.v_lins1.3.weight f4 [32, 32]
00000000: 0246 ba3d 6fa6 bf3d ba4c 0b3e e288 10be
00000010: ce9f bc3d 3972 193d 1dca 77bd 5f76 bd3b
00000020: a99d 5c3d 523c 033e 5efb 26be 85b8 18be
00000030: 53a3 30be 649a 84bd 774f febd b880 1fbe
00000040: 9492 d33d 09b5 6ebd 98c2 18bc 28a0 13be
00000050: 9319 b83d 580d 063e 5d24 acbc 41d1 d0bd
00000060: 1fdd 2cbe 14c3 3f3d 5813 c03d f9cb fabd
00000070: 056a 193e 2337 23bd ab67 9c3d c003 e43d
00000080: a694 a1bd ac4d 5fbc a85c 32bd d5a0 0cbe
00000090: a1b3 2fbe 2b60 c8bd d731 b03d 8f1b 643d
000000a0: 3ff6 a1bd c4b2 b2bc 854d 0bbd fc03 123e
000000b0: 5721 dbbd 1975 9a3d 0ddb 10bd 7de5 e0bd
000000c0: 82d8 17be d926 563d 7a4a 2b3e f0fc 24be
000000d0: be9f 2ebc 79bd cd3c 74fb 323e eeed b5bd
000000e0: 51ee 92bd e7cc cd3d 478a 9cbd 3f3a 5abc
000000f0: 3460 e3bd 49e1 28be ea11 103e 76f5 b8bd
00000100: 5ea6 163e 00c5 54bb 3dc2 21bc 5f31 d23d
00000110: 6e53 77bd 98d9 82bd 2c52 c3bd 0b26 6c3d
00000120: bf19 8e3d a076 0ebe af6c e5bd eb0f 0e3e
00000130: a759 253e 60d7 1f3e 6a48 a1bd 4591 0cbe
00000140: 583e 00bd 22c3 8abd e222 903d 2aea 03be
00000150: bc39 2bbe 321f 103e 0e37 f6bd 3627 5f3d
00000160: 905c fe3d 0428 ecbd d50c 2fbe 4966 f63d
00000170: ead4 1b3e d78a 1d3e 8b75 063e 27c9 bfbd
00000180: 4c67 01be 4c3d 043d bec9 f9bc 7729 8c3d
00000190: 500f 403d cc6a fe3d 5a14 f7bd f196 f5bc
000001a0: 99a3 2abd 95ce d03c 58ec ee3d e81b 313e
000001b0: c8cb 173c a2bb 263e 9e78 493d ec01 a43d
000001c0: eb0d f8bd a12e 07be 7ca9 dcbd f11b 4dbd
000001d0: 0cd3 243e 06ed 0fbe 8a8c db3d a8f8 2b3e
000001e0: 0774 a0bd f08b 06be 9356 dc3d 1e78 073e
000001f0: aea4 e53d 4429 32be 152a a6bd 78de 89bd
00000200: 3565 b6bd 8368 a43c 2111 ccbd 83ce a0bd
00000210: 4d38 04be 8e13 a63c 3b6e 2bbe 7bf2 b4bb
00000220: 3aaf 4cbc e7fa 333e 2b84 1abe a78f f1bc
00000230: 20f4 943d c8f7 aabd 9e5d cf3d 733b 34be
00000240: f8a4 0b3e 1192 49bc ead9 2fbe 122c 0cbe
00000250: a39a 15bd 0555 0ebe 0431 773d ae91 073e
00000260: a9c0 203e f88e 2bbe 605c 06bd 633d 993d
00000270: f830 b33b 8025 113e 6f07 16bd 0d02 b23b
00000280: 51a0 1bbe cc0c 4bbd 08f7 053d 873f 2c3e
00000290: 15b2 1c3e 1bde c8bd ee75 2d3c 01df 26be
000002a0: 5b43 c93c e82d c2bd c40e 10be 543a 9b3d
000002b0: 2657 2e3e 6cf2 833c 7b75 15bc 87f5 ffbd
000002c0: edd0 bfbb db9f 233e 6095 8abd df12 2dbd
000002d0: 5bb4 c9bd f096 1fbe ea0e 1ebe 630d 21be
000002e0: 72ca e6bc 266e 87bd 0bec 323e 37bb 2e3e
000002f0: 8207 cfbb 2af5 e43d 058d 133d f9dd 1a3e
00000300: 4052 18be a5bd 463d d610 97bd ad42 813c
00000310: 7913 29bd 14fd 9b3d cf8e dcbd 209b 2ebe
00000320: adfe 163e 5b5a 803d 6370 953d 5cfb aebd
00000330: 9f4a b43d 034b e8bd e250 1d3d c7e9 d2bd
00000340: b804 193c 5f02 943c 943c 2b3e e19b dabd
00000350: dad7 9d3d 5005 82bd 88b7 47bd fc78 a9bc
00000360: f6b5 cfbd f89d ff3d 05ed 9fbd ee2e b83d
00000370: 98cd d23d b5f1 073e a92e a5bd fe25 a2bd
00000380: 5431 abbd d57a f13d d6a2 18be cf96 703d
00000390: 07c4 5abd 4bc4 0b3e ccc9 d5bd 318f b3bd
000003a0: 6f8a f33d 1b79 eabc 4bf4 07bd afc4 83bd
000003b0: 7788 8c39 e124 f3bd 1a30 833c 279d 02be
000003c0: 4c92 cabd a69d 27be 5592 143e be67 c4bb
000003d0: 6129 723c 958a debd 4dbb bb3d f361 b5bd
000003e0: 97d9 dd3d 0bf9 063e fadd eabd 50fb a33c
000003f0: 6b28 b13d 9238 92bd a6d4 33be 24a6 123e
0.09095384 0.093579166 0.13603488 -0.14114717 0.09210168 0.037462447 -0.060495485 0.005781933
0.053861294 0.12815979 -0.16306826 -0.14914139 -0.17249803 -0.0647476 -0.124175005 -0.15576446
0.10330692 -0.058278117 -0.0093237385 -0.14416564 0.08989253 0.13091028 -0.021013433 -0.10196162
-0.16881226 0.0468169 0.093786895 -0.12245936 0.1498185 -0.039847504 0.076369606 0.11133528
-0.078896806 -0.013629358 -0.043545395 -0.13733228 -0.17158367 -0.097839676 0.08603256 0.055690344
-0.07908296 -0.021813758 -0.034009475 0.14259332 -0.106997184 0.07541866 -0.035365153 -0.109812714
-0.14828685 0.05228314 0.1672763 -0.16112113 -0.010658203 0.025114762 0.17478734 -0.08883272
-0.071743615 0.10048848 -0.07643562 -0.013319551 -0.11102334 -0.1649219 0.14069334 -0.09031193
0.14711902 -0.0032466054 -0.00987297 0.10263323 -0.0603823 -0.06389159 -0.095371574 0.057653468
0.069385044 -0.1391244 -0.112023704 0.1387326 0.16147481 0.15609503 -0.0787514 -0.13727291
-0.031309456 -0.067755 0.07037903 -0.12882295 -0.16721243 0.140744 -0.120222196 0.054480754
0.12419999 -0.1153107 -0.17094739 0.12031228 0.15217939 0.15384994 0.13130777 -0.09364539
-0.12637061 0.03228502 -0.030491706 0.06843846 0.046889603 0.12422714 -0.12064429 -0.029979201
-0.041659925 0.025489131 0.11666173 0.17295802 0.009264894 0.16282514 0.049187295 0.08008179
-0.1211203 -0.13201381 -0.10774514 -0.050075475 0.16096133 -0.14055261 0.10720165 0.16794074
-0.078346305 -0.1313932 0.107587 0.13229415 0.11213051 -0.17398554 -0.08113495 -0.06731886
-0.089060225 0.020069366 -0.099642046 -0.07851889 -0.12912102 0.020272996 -0.16741268 -0.00552207
-0.012492949 0.1757618 -0.1508948 -0.029487444 0.07273126 -0.08348042 0.10125278 -0.17600803
0.1363715 -0.012302891 -0.17172971 -0.13688686 -0.036524426 -0.1389962 0.06034948 0.13239166
0.15698494 -0.16753757 -0.03280294 0.07482412 0.005468484 0.14174461 -0.036628183 0.0054323734
-0.15197875 -0.04957275 0.03270629 0.16821109 0.15302308 -0.09807988 0.010587199 -0.16296007
0.02456825 -0.09481412 -0.14068133 0.075794846 0.17025432 0.016106807 -0.009122248 -0.124980025
-0.0058537633 0.15978949 -0.06766772 -0.042254325 -0.09848853 -0.15584922 -0.15435377 -0.15727763
-0.028172705 -0.06612806 0.17472856 0.17063604 -0.0063180337 0.11179574 0.03602316 0.15123738
-0.14875126 0.048520703 -0.07376258 0.015778864 -0.041278336 0.0761663 -0.10769426 -0.17051363
0.14745589 0.06267234 0.07296827 -0.08544037 0.08803295 -0.11342432 0.038407214 -0.10298496
0.009339504 0.018067537 0.16722327 -0.10674263 0.07707186 -0.063486695 -0.048759013 -0.020687573
-0.10142128 0.12481302 -0.0780888 0.08993326 0.1029312 0.13275798 -0.0806554 -0.07917403
-0.08359018 0.117910065 -0.14905867 0.058737572 -0.053409602 0.13649099 -0.1043888 -0.08767546
0.118916385 -0.0286222 -0.03319196 -0.06433999 0.00026804555 -0.118722685 0.016014148 -0.12755261
-0.09891185 -0.16368732 0.14508946 -0.0059938123 0.014780373 -0.10866276 0.09166584 -0.08856573
0.108325176 0.1318094 -0.1146812 0.020017296 0.08650287 -0.07139696 -0.17561588 0.1432119

emb_net.v_lins1.3.bias f4 [32]
00000000: f72b 7cbd 1e2f 083e cdcc c4bd 7c63 b43c
00000010: 4752 90bd 09c8 013d 9c7a 3e3d 7a76 063d
00000020: 7a96 243d f0e2 213d 8e86 d9bd 0650 353d
00000030: bc47 5d3c 8cf5 0fbe eceb 463d 5ac5 c93d
00000040: 2b18 40bd adf7 32be 185c 983d db4f 173e
00000050: caf7 bbbd 1681 e2bd 1c1b edbd ed36 9c3d
00000060: 1ab0 e13d e86b b0bd 0b20 1ebd 6746 d5bd
00000070: c717 29be 5401 0cbe 2625 e03d 1cce 34be
-0.061565366 0.13299224 -0.09609375 0.022020094 -0.07046943 0.03168491 0.04650365 0.03282783
0.040182568 0.039523065 -0.106213674 0.04426577 0.013505872 -0.14058512 0.048564836 0.09852095
-0.04689805 -0.17477293 0.074394405 0.14776556 -0.091781214 -0.110597774 -0.11577436 0.07627664
0.11019917 -0.086143315 -0.038604777 -0.10413819 -0.16512977 -0.13672382 0.109445855 -0.1765675

emb_net.v_lins1.4.weight f4 [32, 32]
00000000: 92ab 193e 74db cf3d 24b5 2cbe f88c eb3d
00000010: dcf2 c6ba f1ac 1fbd fc57 febd 325a edbd
00000020: c02b c7bd 4f68 aebd 2ef8 a8bd b1b8 d4bd
00000030: a622 02be 27d8 da3d 2e68 05be 747d fb3d
00000040: 3f52 30be f2d2 b93d df7e 09be 5cd0 333d
00000050: e273 fc3c fc14 133e d0db 71bd a6b6 1f3e
00000060: 2f84 2dbe 7650 2f3e 60a6 873c a18d b6bd
00000070: 2c18 fd3d f47a 583d 7000 eabd 0c6f 0bbe
00000080: ef13 11be 203a 92bd ee4a c73d 7f27 1d3e
00000090: 0ec3 6d3d cab9 f73d 0c4e fb3c 19a8 e4bc
000000a0: fcb8 3cbd a189 e03c 1d04 013e 3151 173d
000000b0: 2582 0a3e 757c 70bd b7f4 10be 7775 8c3c
000000c0: a8b8 31be 7272 603d 0935 963b 7aa0 46bd
000000d0: b27e 033e a67e 21be 3e32 d7bd b591 8d3d
000000e0: 9a93 d1bd 3dcd 1dbe 539f 8cbb d2d6 08bc
000000f0: 4ab3 ec3d f9b4 253e 6cb0 0d3e 6741 993c
00000100: 3a42 333e 02ea f63c dd29 293e 539f 31be
00000110: 846d b0bb 324c 2c3d 73bf 82bd d521 0d3e
00000120: 5540 19bd 7425 bcbd 1184 cb3d f01b 51bd
00000130: 9d28 febd 22c4 8d3d e3e3 9a3d fcd8 1ebe
00000140: aba4 023e fd0f e43d 2ff7 ae3d 163d bcb7
00000150: f8d2 81bc 1575 4f3c 82b1 f03d 4313 723d
00000160: 4388 0f3e 3698 d73d 35b0 2e3e ccc7 0e3d
00000170: 5ac3 bd3d 490e eebb 7fde e8bd 2651 fb3d
00000180: b711 dcbc 7197 b43d 75fa b43d ad41 d33d
00000190: 0553 b7bd ab2a eb3c f19d 2a3e ef68 1f3e
000001a0: ef34 25be a6e3 b83d 0ac3 073e ba7e 08bd
000001b0: 04c8 09bd 6f2f 14be f77c 0a3e 3e93 b5bc
000001c0: 60b2 773c 2e85 f3bd 9d84 31bd 7c85 823d
000001d0: a50b 29be c6b8 97bd 4305 113c 7e7f ecbd
000001e0: b329 2bbd 4ab1 1dbe 3dca 633a 4a71 c03d
000001f0: b54e 113e 322a c3bd 1895 183d afa2 bebd
00000200: cd4f f13c b14e 2cbe 0eea 09bb b4e2 193e
00000210: 3290 87bd 55c0 1f3d 2218 97bc 5575 023e
00000220: cfcf 8ebd 9849 a6bc c202 5d3d 74c6 273e
00000230: 9412 73bd c058 93bd 6a02 22bc 1dde 293e
00000240: a44a 433d 14b1 cbbd 7cdf dabd 3438 843d
00000250: 1b45 bc3d de27 8a3d 72bc 30be 76ff 1a3e
00000260: 9a79 00bd 2369 20be f264 1abd 6733 b1bb
00000270: df96 69bd b54d 21be a91a c8bd 1e4e 273e
00000280: 316a f5bd 4b80 003e c135 10be 31e3 22be
00000290: 75a6 96bd d886 28be c1c8 b9bd d276 abbd
000002a0: 7c59 8abc c311 0fbe d992 e5bd e002 cf3d
000002b0: 8400 7d3d d58e 52bd 835e 033e 28f9 253d
000002c0: ea5a f63d 579a a23d 9a1a 07be 05ef 02be
000002d0: 5c0e 903d fc61 4a3d 6aff efbd 51a9 293e
000002e0: c71f 03bc 7b71 0d3e fbe2 9a3d c8e2 073e
000002f0: fb92 ccbd d1a5 123e 927f 203e d394 c03d
00000300: b287 f63d 10d1 2c3e 7067 04be ff0c 4dbd
00000310: 81a4 323e d490 003d 4f44 d63d 2ff2 32be
00000320: 2ec6 0e3e 6eb5 ef3c d8da eb3d b1c6 e13d
00000330: c722 fb3d a822 903d d733 28be 22fb 6a3c
00000340: 26cd 1ebe 7ede 133e 15bf 063e ae23 19bc
00000350: 157c d0bc 9fda 3f3d d295 bd3d 8fd2 c9bd
00000360: 5903 2cbe 0a9e c3bd 61ce 2abe 66a2 693d
00000370: e3e6 523d d41d a73d 1e40 5fbd 7928 a43d
00000380: df25 523d ac1f 0c3e 671a 3ebc 53fd 313e
00000390: c14a 2abe 664a 343e 20b6 64bd 9131 da3a
000003a0: 17c2 24be c0e6 98bd 382a 81bd 2730 2a3d
000003b0: 5c5a b2bd 04eb 1e3e afd6 2b3d f550 e93c
000003c0: f89e 3bbd 2c0a 4b3d 9be2 b93d 86b0 82bd
000003d0: 5292 c9bc 7d09 a33d f3de 03bc 1795 153e
000003e0: 9a0f f5bb a651 2b3e 0a3d 1e3d 042a 9bba
000003f0: 806e adbd 6130 9ebd b563 c43b 382d 293e
0.15006855 0.10149279 -0.16865975 0.11501497 -0.0015178579 -0.03898329 -0.124191254 -0.11589469
-0.097251415 -0.08515989 -0.082504615 -0.103867896 -0.1270853 0.10685759 -0.13028023 0.12279788
-0.17218874 0.09073438 -0.13427304 0.04389988 0.030816976 0.14363474 -0.05904752 0.15597019
-0.16944955 0.17120537 0.016558826 -0.08913732 0.12358126 0.052851632 -0.11425865 -0.1361658
-0.1416776 -0.07139993 0.097310886 0.15347098 0.058047347 0.12095983 0.030676864 -0.027912186
-0.046074852 0.027409377 0.12599225 0.036942665 0.13526209 -0.05871244 -0.14155851 0.017145855
-0.17355597 0.054796644 0.004583959 -0.048492886 0.12841299 -0.15770969 -0.1050763 0.06912557
-0.10233231 -0.15410323 -0.004291454 -0.008351998 0.11557634 0.16182317 0.13836831 0.018707944
0.17505732 0.03014088 0.16519876 -0.17345934 -0.005384149 0.042064853 -0.06384172 0.13782437
-0.037414867 -0.09186831 0.09937299 -0.051052034 -0.1241009 0.06922175 0.07562997 -0.1551246
0.12758128 0.11135862 0.0854324 -2.2439792e-05 -0.015847668 0.012662192 0.11752607 0.0591004
0.14016823 0.10527079 0.17059405 0.03485851 0.09265776 -0.0072648865 -0.11370563 0.12271337
-0.026863916 0.08817948 0.088368334 0.10315261 -0.089513816 0.02870687 0.16661812 0.15567373
-0.16133474 0.090277955 0.13257995 -0.03332398 -0.033638015 -0.1447122 0.13524233 -0.022164937
0.0151182115 -0.118906364 -0.04333936 0.063731164 -0.16508348 -0.074082896 0.008851352 -0.11547755
-0.041787814 -0.15399662 0.00086894986 0.09396608 0.1419018 -0.095295325 0.037251562 -0.09308373
0.029456997 -0.16826893 -0.0021044048 0.15027887 -0.066193 0.03900178 -0.018444125 0.12740071
-0.0697323 -0.020298764 0.05395771 0.16384298 -0.05934389 -0.07194662 -0.009888271 0.16588636
0.047678605 -0.09945884 -0.106871575 0.064560324 0.09192868 0.06745885 -0.17259386 0.15136513
-0.03136597 -0.15665106 -0.037693925 -0.005407739 -0.057028648 -0.15752299 -0.0977071 0.16338393
-0.11983145 0.1254894 -0.14083005 -0.15906979 -0.07355968 -0.16457689 -0.09071494 -0.083722726
-0.016888373 -0.1397162 -0.112096496 0.1010797 0.06176807 -0.051405746 0.12829022 0.040520817
0.12029059 0.07939594 -0.13193741 -0.12786491 0.07033989 0.04940985 -0.11718638 0.16568495
-0.008003182 0.1381282 0.07562824 0.13270104 -0.09988972 0.14321066 0.15673664 0.09403386
0.120376006 0.16876626 -0.12930083 -0.050061222 0.17445566 0.03138812 0.104622476 -0.17475198
0.13942787 0.029261317 0.115163505 0.110242255 0.122624926 0.0703786 -0.16426025 0.014342101
-0.15507945 0.14440343 0.1315883 -0.009346886 -0.025449792 0.046839353 0.092570916 -0.09854614
-0.16798152 -0.09551628 -0.1668029 0.05703964 0.051489722 0.08159986 -0.054504506 0.08015532
0.051305648 0.13683957 -0.0116029745 0.17381792 -0.16630079 0.17606506 -0.05583775 0.0016646852
-0.16089664 -0.07465887 -0.06306881 0.041549828 -0.08708641 0.15519339 0.041952785 0.028480986
-0.0458059 0.049570248 0.09076425 -0.063813254 -0.024605904 0.07960794 -0.008048761 0.14607655
-0.0074786665 0.16730365 0.03863243 -0.0011838083 -0.08468342 -0.07724071 0.0059933313 0.16521156

emb_net.v_lins1.4.bias f4 [32]
00000000: bfbd 42bd cfdb 013e d204 263d 244c a4bd
00000010: 2286 e73d 24e9 1fbe b0a2 e9bd c58b dd3d
00000020: 7162 093e f93c 18bc de6c 283c 4404 903d
00000030: 99d0 70bd a757 2fbe 87f1 cabc 19a0 153e
00000040: 2b26 e33d ba51 8abd 3583 433d 8b8f 86bd
00000050: e493 773d 39f1 f6bd 8a97 cdbd 1fa1 033e
00000060: 4b71 89bc 38ce c23d 9872 72bd e856 1f3e
00000070: c2af 05be fdbd 32be fb04 ef3d a2f7 17bd
-0.047544237 0.12681507 0.04053194 -0.08022335 0.11304881 -0.1561628 -0.11407983 0.108176745
0.13416459 -0.009291881 0.010279862 0.070320636 -0.058792684 -0.1712328 -0.024773372 0.14611854
0.11091264 -0.06753869 0.04773255 -0.065703474 0.060443774 -0.12057728 -0.100386694 0.12854432
-0.016777655 0.09511989 -0.059191316 0.15560496 -0.13055328 -0.17455287 0.11670872 -0.037101395

emb_net.v_lins1.5.weight f4 [32, 32]
00000000: 9688 17be 348a 1b3d fe88 13be 00d9 eb3d
00000010: ed00 d7bc 7cfc cb3c 97b3 203e 4689 adbd
00000020: 9436 1fbd 1cc8 d23d c93f 2b3e d0eb 23be
00000030: e588 1bbe bd12 c23c c683 c63d 291c d53c
00000040: 1de7 78bd e777 203e 810c 933d b4d0 91bd
00000050: 996a 0f3e ad3d 1d3e aff0 853c 85c2 ddba
00000060: 9c4e 693d d871 97bc b38c d3bd c3d7 6cbc
00000070: 58db d1bd 886e 9abc 1b98 77bd c663 85bd
00000080: 6723 c43d c8f7 0fbe 41a8 07be ee1a 29be
00000090: 9fef 2c3d af38 443b 8477 253e 8571 ccbc
000000a0: 7f14 3cbd 190c 16be dc45 acbd c647 babd
000000b0: b44d e2bc a768 013e 7561 a63d 1d8e 14bd
000000c0: 73a8 0d3d 9ed9 03be de9e b9bd a0e6 0e3e
000000d0: 3c34 593d 1f90 debd 5d74 fd3c 2549 a1bd
000000e0: 8ed3 f4bd c35a 01be 157d ba3c 61e7 e53c
000000f0: b7af b33d 770a 99bd 7560 85bd 676e 033e
00000100: eb32 08be d6da 50bd 8103 1fbe d405 debb
00000110: f80e 933d 92c8 173e 5648 a0bd 91ad 1dbe
00000120: a2d7 13be dd53 1ebe ae64 093d 27f3 1c3e
00000130: 4543 0a3e 0f39 9abd b708 173e 4aaf 2cbe
00000140: 3cf8 c4bd 9681 e63c 96a2 aebc 2177 e23d
00000150: 59b7 be3d 1cbc 66bd e1fb 923d ae2b 2e3d
00000160: 9c7e 1a3d 48b7 893d c031 d93b 39ba 0e3e
00000170: d4e3 49bd f23d 03be 50ba 56bd 563a 233d
00000180: db9b 0d3d 63e6 cebd b068 07be 1c48 1a3e
00000190: 4870 18be c9fa 0abd 9b4d eabc c945 f23d
000001a0: ac57 283e 3782 ea3d ef93 c9bd ff71 1b3b
000001b0: 55b2 a3bd 22dc 963d a43f 5a3d 3610 b93d
000001c0: 6630 053d e28a a33d 100c 9e3d 20e2 aab9
000001d0: bf88 e6bc 1325 a5bc f0ab 213d 1e95 7d3a
000001e0: d570 d23d 92aa cabd 3d85 a93c be0a edbb
000001f0: ef91 663d 9d15 a13c e4a1 cc3c 94fe cabd
00000200: 9dd0 b1bd 991e 963d ecd7 78bd 1581 2dbe
00000210: 8781 03bc e158 903d 1bff 87bd 2684 2a3e
00000220: 9d52 c4bd 921f 823d f155 bdbd 8d17 74bd
00000230: 313f e2bd 4061 2e3b baaf cfbd d70c a73d
00000240: 5ec8 2abe 6160 e13b 5de9 adbd 1daa 51bd
00000250: 9a93 823c b03b c23d 454f 263e 0db2 a63d
00000260: cdfa 14be 3ebe abbd dad9 193e 84fd 243d
00000270: 3c16 393d 6e23 fdbd 5eaa 09be 176f 8fbd
00000280: 6131 123e 7fa4 2cbd 528c ac3d 3b7a 39bc
00000290: d075 e13d d634 6ebd 816f 6dbd 63ef 503d
000002a0: a7f3 2f3d 7170 c0bd c3bf 8b3d f886 30be
000002b0: e389 1ebe bae9 f13d e613 e23d cc32 92bc
000002c0: a786 493d e83a 033e acc5 16be f585 1b3c
000002d0: 5146 0fbd 5b2e 943d 7c21 2f3d a990 00be
000002e0: 0b23 ebbd 349e d4bd 5539 80bc f202 0b3e
000002f0: aeeb fe3c c414 c13d d56a 103e 3555 83bd
00000300: 91ef ed3c d24f 6ebd e91b 183e 4cb1 32be
00000310: 9b64 46bd b626 97bc fe0a 013e 643d 4b3d
00000320: 9400 013e 77ee b2bd 5332 ba3d 8d10 f03d
00000330: af2e 10be beb4 9bbd b013 fe3c 4726 e23d
00000340: 2466 d83c 89c5 81bd e146 8f3c 71b4 133e
00000350: 8724 9cbd 754b e4bd adca df3d 0fdb 033e
00000360: cfb9 253e 7d78 993d 0fd2 3cbd 8a13 703d
00000370: 2712 67bd 6e20 04be b54f 6cbd ae2e 2f3e
00000380: 90da 06be 787d fabd 512f 90bd 7a96 00be
00000390: a326 ec3d 4336 b23c c98c 29be 8683 c0bd
000003a0: 611d d9bd 4b56 1b3e 1725 02be 4fb9 b4bd
000003b0: 0463 30be a4d1 1dbe b841 f3bd 32f5 2e3e
000003c0: e7fb 9bbd e200 71bd 347b 4a3c 54ab 223e
000003d0: 1d24 b8bc 0d17 f8bd 5c6a 7e3d 303b 343e
000003e0: 6fe2 1cbe 9869 0bbe c177 d23d b882 f4bd
000003f0: f051 c7bd f431 be3c 8ff9 98bd bfef 7e3d
-0.14798197 0.037973598 -0.14407727 0.11515999 -0.026245559 0.024900667 0.15693508 -0.084734485
-0.03887041 0.10292074 0.16723551 -0.16007924 -0.1518894 0.023690576 0.096931025 0.026014404
-0.06076728 0.15670739 0.07180119 -0.07119885 0.14005508 0.15355559 0.016350118 -0.0016918933
0.056959733 -0.018486902 -0.103295706 -0.0144557385 -0.102469146 -0.018851534 -0.060447793 -0.06513171
0.09577065 -0.14059365 -0.13247778 -0.16514179 0.042220708 0.0029941013 0.16158873 -0.024956474
-0.045917984 -0.14653052 -0.08411762 -0.09095721 -0.027624942 0.12637578 0.08124057 -0.036268342
0.034584474 -0.12875983 -0.09063505 0.13955164 0.05302833 -0.10867333 0.030939275 -0.07875279
-0.11954413 -0.12632279 0.022764722 0.028064432 0.08773749 -0.07472699 -0.06512538 0.12835084
-0.13300674 -0.05098995 -0.1552868 -0.006775597 0.071805894 0.14822605 -0.07826297 -0.15398242
-0.14437726 -0.15461679 0.03354328 0.1532713 0.13502224 -0.07530414 0.14749418 -0.16863742
-0.096176594 0.028137963 -0.021317761 0.11057878 0.093123145 -0.05633174 0.07176948 0.042522125
0.0377184 0.06724411 0.006628245 0.13938226 -0.04928954 -0.12816599 -0.052423775 0.039850555
0.034572463 -0.101025365 -0.13223529 0.1506657 -0.14886582 -0.033930574 -0.028601458 0.11829717
0.16439694 0.11450618 -0.09842669 0.002371907 -0.079929985 0.07366206 0.05328335 0.09036295
0.03251686 0.07985474 0.077171445 -0.00032593403 -0.028141377 -0.02015928 0.039470613 0.0009673404
0.10275427 -0.09895815 0.020693416 -0.0072339466 0.056291517 0.019663626 0.02497954 -0.09911838
-0.08682368 0.07330055 -0.060752794 -0.16943772 -0.008026487 0.07048202 -0.066404544 0.16651973
-0.0958607 0.06353678 -0.09244908 -0.059592772 -0.11047209 0.0026608258 -0.10140939 0.08156746
-0.16677997 0.0068779443 -0.08491776 -0.051187623 0.015939523 0.09484041 0.16241176 0.08139429
-0.14548798 -0.08385895 0.1502451 0.040280834 0.04518722 -0.12360273 -0.13443896 -0.070036106
0.14276649 -0.042149063 0.084252015 -0.011320646 0.11008799 -0.058155857 -0.057967667 0.051009547
0.042956974 -0.093964465 0.06823685 -0.17238986 -0.15482287 0.11812158 0.110389516 -0.017846487
0.04920068 0.1281544 -0.14723843 0.009492387 -0.03497917 0.07235404 0.042756543 -0.12555183
-0.11481293 -0.10381737 -0.015652338 0.13575342 0.03111824 0.09427789 0.14103253 -0.06412736
0.029044898 -0.05818159 0.14854397 -0.17450446 -0.04843579 -0.018451076 0.1260185 0.049619094
0.12597877 -0.0873689 0.0909163 0.11721907 -0.14080308 -0.07602833 0.031015247 0.11042457
0.026415892 -0.06336505 0.017489852 0.14424302 -0.076241545 -0.11147205 0.10927329 0.12876533
0.16184162 0.074936844 -0.046098765 0.058612384 -0.056413796 -0.12902996 -0.057693202 0.1710765
-0.13169312 -0.122309625 -0.07040275 -0.12557402 0.11530807 0.02175439 -0.16557612 -0.09400086
-0.10601307 0.15169637 -0.12709461 -0.08824407 -0.17225271 -0.15412003 -0.11877769 0.17085722
-0.07616406 -0.058838733 0.0123584755 0.15885669 -0.022478158 -0.121137716 0.06211315 0.17600703
-0.15320753 -0.136145 0.102767475 -0.11938995 -0.09732425 0.023217179 -0.074694745 0.06224036

emb_net.v_lins1.5.bias f4 [32]
00000000: 57e8 293d d4fa 523d f856 0d3e 4f86 3b3d
00000010: 38f8 923d 5565 85bd 8bd2 00be 6882 d23c
00000020: abfd a03d a88d 003e abe4 a43c 4808 0cbe
00000030: 8605 38bd c7ce 0f3d 271f d7bc 5e39 2abe
00000040: 832d 433d 64db 69bd 15a7 d4bd 70d9 9d3c
00000050: 750b 88bd 746f f5bd f16b 07be 5132 d4bc
00000060: 621b f13d 735b 8f3c 83e8 123c ff87 b9bd
00000070: c7fa aabd 0ce0 c93d 7f1f 883d f72f e83d
0.041481342 0.05150874 0.13802707 0.045782384 0.0717625 -0.06513468 -0.12580316 0.025696948
0.07860883 0.12554038 0.020128569 -0.13675034 -0.044927143 0.035109308 -0.026259972 -0.16623446
0.047650825 -0.057093993 -0.10383431 0.019268721 -0.0664281 -0.119841486 -0.1322477 -0.025902899
0.11772801 0.017499661 0.008966568 -0.09059142 -0.08348613 0.09857187 0.066466324 0.113372736

emb_net.v_lins1.6.weight f4 [32, 32]
00000000: 8182 94bd cd52 263e ff90 0dbe 6eee c63d
00000010: 739a 8dbd 7582 09bd 4bbc 363d 069f 953d
00000020: b624 c43d 8d3d 143d b836 10be 0445 25be
00000030: 9ca7 133d dd1c 2bbe 504f 353e cb6d bc3d
00000040: 81f6 e8bd 4b89 cebd 596c 14bc e3fa 01be
00000050: 45db e43d 2b46 32be c9c0 743d c661 bcbd
00000060: af04 313e 1dc6 47bc 56e5 f5bd 20c4 be3d
00000070: 5d7c 263e 74bf c8ba 9c70 d4bd df9a a63d
00000080: 5077 0f3e 770b 273d 4840 533d 9a97 aabd
00000090: 3b20 073e a5df 26be 323d 283e bfa7 f93c
000000a0: 236d febb e3b8 583d ad25 de3b 9ad8 113e
000000b0: a74a 32bd 3c8b 94bc d8e3 88bd 8cba bf3d
000000c0: ae52 fe3d 1b6e 2abd 891e 96bd 5c9f b63d
000000d0: d11f ee3d 1763 00be 7e4b 88bc cc13 17be
000000e0: d16e 5c3d a688 dabd 40f4 99bd 13e9 12be
000000f0: 9031 613d 7ac9 08be ecc7 cdbd 75be 69bd
00000100: c1cf 13bc 1995 993b 501f 16be bac4 8f3d
00000110: 025f 2e3e 7ba8 8c39 6c66 d1bc 09a4 96bd
00000120: 7518 07be 99d1 013e 8f74 1abe 6e23 163e
00000130: 1435 ddbd 8866 11bd b44c 773d b352 4f3c
00000140: 235a aabd da9a 1bbe 78f7 78bd b9f3 cebd
00000150: a9a1 75bd 8611 a2bc c07c 4a3d 985b 0b3e
00000160: da25 f4bd 9f42 db3d 3baa 20be d57d 14be
00000170: f15a 1cbe e916 cb3d f021 e4bc a5eb fc3d
00000180: a4ef 1d3e d94b 86bd 3d00 cd3d 6600 2fbe
00000190: c5bf dd3d 6b03 ba3d 09f2 ca3d efdc 0c3e
000001a0: 5457 fc3d 3459 e13d 3e8a 08bd 7a06 cb3b
000001b0: ad89 f93d 2b50 703c 3417 1d3c 32a9 b53d
000001c0: 093a 3e3d b540 97bd 2240 95bd 1b33 a6bd
000001d0: 413e 77bc dd24 12bd fedf 13bd 0674 c0bd
000001e0: 8ca3 7c3c e4d6 ddbd af89 c1bb 73e8 0c3d
000001f0: f0d4 223e bbac cfbd 7072 15bd 85c7 9a3d
00000200: d58d c73d 1723 323e b1c3 213e 25fe 2e3e
00000210: 89e5 fc3d 46d9 53bd 8371 913c 3a7c 0c3e
00000220: ffad cdbd a5c1 2dbe 4317 f53d 28f8 9f3a
00000230: 828a 5dbd d5b4 0c3d d561 ed3d 2bd6 46bd
00000240: eaea ecbd 9662 b8bd e541 163e b120 2b3e
00000250: 223f 0cbd f471 15be ddd3 95bd ab46 0d3e
00000260: 7c82 5b3d 6fec 6bbd 5b87 053e 80c8 27be
00000270: 8c80 0b3e 8851 88bd 20af 09be aa11 16be
00000280: da9f 30be 98e0 31bd 95ab 893d 9400 e83d
00000290: 515e 92bd 7ad3 373c 7c85 c23d 27bc 913d
000002a0: 07ad c5bd bfd9 81bc 84e8 6c3d 3d93 333e
000002b0: fde3 2dbe a0fb fabd 0302 e1bb 854d 233e
000002c0: 938b bf3d 1ad9 b0bd d1cc dc3d 7cb8 c9bb
000002d0: f69f 05be 9555 b2bd 8595 813d 4ce2 1dbe
000002e0: 9fa5 0c3c 06d3 26be 1dff bbbd fc11 e3bd
000002f0: 3c89 063e 85ab 763d 30c2 b33d 8006 8dbd
00000300: e2a1 f6bd 5c93 303e d252 88bd b6ea 23be
00000310: 79cc e1bd e547 153e b4e7 1e3e 48e3 f3bd
00000320: 5b22 1f3e 3a9d f8bd 5a20 a83c 0e7a ddbd
00000330: 86af adbd 8d4f 28bd cea7 243d 5a72 a8bd
00000340: 701a 093e a6ed 813d 272f fd3d 5c33 34be
00000350: 2869 b7bd 39d5 bebc ca3b 03be 9997 2dbe
00000360: 0493 323e 3481 113e 9188 1bbe 7b6b 103e
00000370: 7382 2d3e 179c 31be 1331 ebbc 4fff 84bc
00000380: e249 303e 6433 6ebb 753c 3c3d 79e4 b1bd
00000390: da1f 2fbe bd20 39bc 2d47 04be 3c0c 2d3e
000003a0: f492 e3bd e16f 32bd 7cd9 2d3e 36cb ec3d
000003b0: 56e4 81bc 5044 acbc f5de c2bd 4333 05bc
000003c0: 3919 983d c762 6c3d 1965 70bd ccbc 1cbe
000003d0: 042f b93d 0d28 1dbd e645 8dbd d6f2 11ba
000003e0: fa4e 993d 2d39 023e 0432 d43c f7cf 483d
000003f0: 5d4d 92bd 7bda bb3c a7b4 a73d c577 74bd
-0.07251454 0.16242523 -0.13824843 0.097134456 -0.069142245 -0.03357168 0.044613164 0.07305722
0.095773146 0.036191512 -0.14083374 -0.16139609 0.036048517 -0.16710229 0.17706037 0.09200629
-0.11375142 -0.1008478 -0.009059035 -0.12693362 0.11174635 -0.1740958 0.059754167 -0.09198336
0.17286943 -0.01219323 -0.12006633 0.093147516 0.16258378 -0.0015315847 -0.10373041 0.08135008
0.14010358 0.040782418 0.051574975 -0.08329697 0.13195889 -0.16296251 0.16429594 0.030475495
-0.007764475 0.052910697 0.0067793936 0.14242783 -0.043528225 -0.018132798 -0.06684083 0.09361753
0.12418114 -0.04160891 -0.07330043 0.08917114 0.11627162 -0.125378 -0.01663756 -0.14753646
0.05381662 -0.10670595 -0.0751729 -0.14346723 0.054978907 -0.13358107 -0.10047898 -0.0570664
-0.0090217 0.0046869633 -0.14660382 0.070199445 0.1702843 0.0002682841 -0.025561534 -0.07355506
-0.13192923 0.12677611 -0.15083526 0.14661953 -0.108011395 -0.035498172 0.060375884 0.012653994
-0.083179735 -0.1519579 -0.06078288 -0.1010508 -0.059968624 -0.019783746 0.049435377 0.13609159
-0.11921282 0.10706066 -0.15689938 -0.14501126 -0.15269066 0.09916479 -0.027848214 0.12349633
0.15423447 -0.065574355 0.10009811 -0.17089996 0.10827593 0.09082683 0.09909446 0.13756154
0.12321344 0.11003342 -0.033334963 0.0061958404 0.12184463 0.014667551 0.009588052 0.08870162
0.046442065 -0.07385389 -0.07287623 -0.08115216 -0.015090526 -0.035679687 -0.036102287 -0.0939713
0.015419852 -0.10832003 -0.0059063057 0.03440137 0.15901542 -0.101403676 -0.03648609 0.075575866
0.09743849 0.17396198 0.15797307 0.17089136 0.12348468 -0.05172088 0.017754322 0.13719264
-0.10042953 -0.16968401 0.119673274 0.0012204694 -0.05408717 0.034352142 0.115909256 -0.04854409
-0.11568244 -0.09003179 0.14673574 0.1671169 -0.034239896 -0.14594251 -0.073158 0.13796489
0.053591236 -0.057598528 0.13039915 -0.16385078 0.13623255 -0.06656176 -0.13445711 -0.14655176
-0.17248479 -0.04342708 0.0672218 0.11328235 -0.07146896 0.011219854 0.094981164 0.07115965
-0.09652143 -0.0158509 0.05783893 0.17536636 -0.16981502 -0.12255025 -0.006866695 0.1594754
0.093527935 -0.08635159 0.10781253 -0.0061560255 -0.13049302 -0.0870773 0.06327347 -0.15418357
0.008584409 -0.16291437 -0.09179518 -0.110874146 0.13138288 0.060222168 0.08777273 -0.068860054
-0.120425954 0.17243713 -0.06656422 -0.16007504 -0.11025328 0.14578207 0.15518075 -0.11908585
0.1554045 -0.121393636 0.020523239 -0.10814296 -0.08480744 -0.04109149 0.040199094 -0.08224936
0.13388991 0.06344156 0.12362509 -0.17597717 -0.08955604 -0.023295032 -0.12815776 -0.16952361
0.17438895 0.14209443 -0.15188815 0.141035 0.16944294 -0.173447 -0.028709924 -0.016235022
0.17215684 -0.003634655 0.045956094 -0.08686156 -0.17101994 -0.011299309 -0.12917776 0.16899198
-0.111120135 -0.043563727 0.16977495 0.11562197 -0.01585595 -0.021028668 -0.09515182 -0.0081298975
0.07426686 0.05771139 -0.058690164 -0.15306395 0.09042171 -0.038368274 -0.06898098 -0.00055674964
0.07485767 0.12717123 0.025902756 0.049026456 -0.07143662 0.022931328 0.081887536 -0.059684534
