pretrained/tsp/tsp500.pt (torch, 372593 bytes, 230 tensors)

emb_net.v_lin0.weight f4 [32, 2]
0	0x3f27937a	0.65459406
1	0x3f06f242	0.52713406
2	0xbf0321f6	-0.51223695
3	0x3dd9f9a2	0.10643317
4	0xbf005bc6	-0.50140035
5	0xbe769d26	-0.24083385
6	0x3e838c47	0.2569296
7	0xbe7a0892	-0.24417332
8	0xbe9cb26f	-0.30604884
9	0xbf2f1cc4	-0.6840327
10	0x3f0dee11	0.55441386
11	0xbdd11f9f	-0.10211109
12	0xbf1002cd	-0.56254274
13	0xbdad1a99	-0.08452339
14	0xbe7664c8	-0.24061882
15	0xbe4e0100	-0.20117569
16	0x3eb03701	0.34416965
17	0xbf03f5ac	-0.5154674
18	0xbdb80a65	-0.089863576
19	0xbed13a75	-0.40864912
20	0xbee6f626	-0.4510967
21	0x3e51e461	0.20497276
22	0xbd028016	-0.031860434
23	0x3d2660f4	0.040619805
24	0x3f01c2dc	0.50687957
25	0x3e97424e	0.29542774
26	0x3f1f68ee	0.62269485
27	0x3f26bdc0	0.65133286
28	0x3d6a729e	0.057238214
29	0x3ed2568e	0.4108166
30	0xbee519d3	-0.44746265
31	0xbe08f8e1	-0.1337619
32	0xbe652c47	-0.22380172
33	0xbec31466	-0.381015
34	0xbf05400b	-0.52050847
35	0xbea76282	-0.32692343
36	0x3f12e8ad	0.57386285
37	0xbf20e847	-0.6285443
38	0x3e272b6d	0.1632516
39	0xbf2b57d0	-0.66930866
40	0xbe86b716	-0.26311558
41	0xbefdfa4b	-0.4960502
42	0xbf2ee371	-0.683158
43	0x3f2ca2a8	0.67435694
44	0x3e9539f6	0.29145783
45	0xbd5556ce	-0.052084737
46	0x3e4d21b8	0.20032394
47	0xbf1d1377	-0.61357826
48	0xbf1595e5	-0.58431846
49	0x3d8d4a5e	0.0689895
50	0x3f1c5ec0	0.6108208
51	0x3f12dbfe	0.5736693
52	0xbf0aaf42	-0.5417367
53	0xbe4d3f71	-0.20043732
54	0xbef7cfc9	-0.48400715
55	0x3efaaf44	0.48961842
56	0xbf189e6c	-0.5961673
57	0xbe599702	-0.21249011
58	0xbedc287d	-0.4299964
59	0xbe198154	-0.14990741
60	0xbcfa7667	-0.030574037
61	0x3ef1436c	0.4712175
62	0x3f2bf1d1	0.6716586
63	0xbea1b9f9	-0.31587198

emb_net.v_lin0.bias f4 [32]
0	0xbb43f6c8	-0.0029901732
1	0x3ed287f8	0.4111936
2	0xbe3b65ae	-0.18300506
3	0x3e9e4427	0.3091137
4	0xbf1ab247	-0.6042828
5	0x3c904b81	0.017614128
6	0xbef56546	-0.47928828
7	0xbe3b6f88	-0.18304265
8	0x3c31600a	0.01082612
9	0x3e0aa957	0.1354116
10	0x3ebe29e2	0.3714133
11	0x3d9a1311	0.07523168
12	0xbde73ec3	-0.11291268
13	0x3f2bad49	0.6706129
14	0xbbee209f	-0.0072670723
15	0xbea93b25	-0.33052936
16	0x3e9cf0ce	0.3065247
17	0xbe6811e6	-0.22663078
18	0x3e5fe7b9	0.21865739
19	0xbeee4f2a	-0.46544772
20	0x3d89ead5	0.06734244
21	0x3d6dd385	0.05806305
22	0xbe8dadf8	-0.2767179
23	0x3ed62d97	0.41831657
24	0xbe59d1a1	-0.21271373
25	0x3c90f4a6	0.017694782
26	0x3e14f944	0.14548212
27	0x3efe9ea7	0.49730417
28	0x3e6efb15	0.23337968
29	0x3c3e605b	0.011619653
30	0x3c99968f	0.01874855
31	0xb9c86ae5	-0.00038226615

emb_net.v_lins1.0.weight f4 [32, 32]
0	0xba77f343	-0.0009458551
1	0x3df61ebe	0.12017582
2	0x3e2fadf2	0.17156199
3	0x3dffe429	0.1249469
4	0x3dfb6efa	0.122770265
5	0xbd8d3fc8	-0.06896931
6	0xbdd0daf2	-0.101980105
7	0xbd4efd72	-0.050534673
8	0xbe1543ba	-0.14576617
9	0x3c9edcd3	0.019392407
10	0xbdf642ce	-0.12024461
11	0x3de8b698	0.11362952
12	0x3c639a08	0.013891704
13	0xbd1a8819	-0.03772745
14	0x3e14772a	0.14498582
15	0xbd0a0ea3	-0.033705365
16	0x3e07c72d	0.13259573
17	0xbd957557	-0.072977714
18	0x3e00868e	0.12551329
19	0x3e37753a	0.17915812
20	0xbe164b46	-0.14677152
21	0xbc4774d1	-0.012173847
22	0xbe38d8d6	-0.18051466
23	0x3dc43cf9	0.09581942
24	0x3e03b699	0.12862624
25	0x3e07e35f	0.13270329
26	0xbd9f33cc	-0.07773551
27	0xbdcc4223	-0.09973552
28	0x3e31b7b5	0.17355235
29	0x3de2ddc7	0.11077457
30	0xbdfed78a	-0.124434546
31	0xbe132e26	-0.14373073
32	0xbe15034c	-0.14552039
33	0x3e1c8465	0.1528488
34	0xbd4f8c8d	-0.05067115
35	0xbe2138fd	-0.15744396
36	0x3e396e07	0.18108378
37	0x3d8abda6	0.06774454
38	0x3e3d904a	0.18512073
39	0x3e1c6cec	0.15275925
40	0xbe16913e	-0.14703843
41	0xbddbc5b4	-0.10731068
42	0x3d32684f	0.043556508
43	0xbd96f98c	-0.07371816
44	0xbbf5fd1c	-0.0075069796
45	0x3d516492	0.051121302
46	0xbde06e62	-0.10958554
47	0xbd58200f	-0.05276495
48	0x3e1fa74c	0.15591162
49	0x3d4ab4d6	0.049488865
50	0xbdfbf07c	-0.12301728
51	0x3c3510d2	0.011051374
52	0x3df4aa7a	0.11946578
53	0x3e01ffb9	0.12695207
54	0x3e1667ba	0.14688006
55	0xbceef481	-0.029169323
56	0xbccc062a	-0.024905283
57	0x3da5b86f	0.080918185
58	0xbd174d4a	-0.036938943
59	0x3d3568ae	0.044289283
60	0xbd33c2c5	-0.04388692
61	0xbd8c6e8d	-0.068570234
62	0x3d940e66	0.07229309
63	0x3e1f496b	0.1555535
64	0xbe225828	-0.15853941
65	0x3dc65474	0.09684077
66	0x3e1db731	0.15401913
67	0x3d9f6949	0.077837534
68	0xbd743386	-0.05961945
69	0x3dc0b91a	0.09410305
70	0xbdf399bc	-0.11894557
71	0x3d9e8e0c	0.07741937
72	0xbd78fb14	-0.06078632
73	0x3ca81736	0.02051888
74	0x3cf107ef	0.029422728
75	0xbe004687	-0.12526904
76	0x3e06e682	0.13173869
77	0x3d56d4aa	0.052448906
78	0xbddeb9e1	-0.10875297
79	0xbe265e9c	-0.16247028
80	0xbe0f7dcc	-0.14012831
81	0xbd87e28c	-0.06635007
82	0x3cdf4e25	0.027258942
83	0xbd802fb5	-0.062590994
84	0x3c82cfe9	0.01596828
85	0xbe110b66	-0.14164504
86	0xbdd476ab	-0.103741966
87	0x3d84f627	0.06492262
88	0xbda2d0f8	-0.07950014
89	0xbdfe06c1	-0.12403632
90	0x3e1028d1	0.1407807
91	0xbe145e02	-0.14488986
92	0xbdccd2f3	-0.10001173
93	0x3dd86c0d	0.10567484
94	0x3d6808af	0.056648906
95	0xbc56bc4a	-0.013106415
96	0xbc59130f	-0.013249173
97	0x3bd572cc	0.006513929
98	0xbd324475	-0.043522317
99	0x3e09bc55	0.13450749
100	0x3d9f2f3f	0.07772683
101	0xbcbc245f	-0.022966562
102	0xbdba0b05	-0.09084133
103	0xbd261109	-0.04054359
104	0x3d51abf0	0.051189363
105	0xbc8df66f	-0.017329423
106	0xbe345357	-0.17609917
107	0xbbf1b729	-0.0073765707
108	0xbdee2fa8	-0.116301835
109	0xbdbeceec	-0.09316811
110	0xbe243015	-0.16033967
111	0xbde470dc	-0.11154339
112	0xbe037e1d	-0.12841077
113	0x3de63d99	0.112422176
114	0x3e06d71a	0.13167992
115	0xbdedc727	-0.11610251
116	0x3c8f797e	0.017513987
117	0xbdb1dc3a	-0.08684583
118	0xbe19bcd7	-0.15013443
119	0x3da0423c	0.07825133
120	0x3d374c56	0.044750534
121	0x3bffeb61	0.007810042
122	0xbd058880	-0.03260088
123	0x3e1fdc27	0.15611325
124	0xbdc80319	-0.09766216
125	0xbe273df2	-0.16332224
126	0xbe2d4705	-0.16921623
127	0xbe1df949	-0.15427126
128	0xbe149f92	-0.14513996
129	0x3e035735	0.12826236
130	0x3d9d9b57	0.07695644
131	0x3ce15809	0.027507799
132	0xbc8b6888	-0.017017618
133	0x3dc0eedc	0.09420559
134	0x3e127aef	0.14304708
135	0xbe130bd9	-0.14359988
136	0xbcdc3bb1	-0.026883932
137	0x3e2a221d	0.16614576
138	0x3de4faea	0.111806706
139	0xbd9c7bd0	-0.07640803
140	0x3d965e25	0.073421754
141	0x3e0a1f2e	0.13488457
142	0xbe38c6c2	-0.1804457
143	0xbd88e2fd	-0.066839196
144	0xbd537d5f	-0.051633235
145	0xbdbfa974	-0.093584925
146	0xbdad357c	-0.08457467
147	0xbe049d12	-0.12950543
148	0xbe2610ca	-0.16217342
149	0x3d6726ff	0.056433674
150	0xbda251cc	-0.07925758
151	0x3e2eb9e9	0.17063107
152	0xbe37e708	-0.17959225
153	0x3e165f70	0.14684844
154	0xbdf22d33	-0.11825027
155	0xbdbf3c99	-0.0933773
156	0x3dce6972	0.10078706
157	0xbc04161f	-0.008061915
158	0xbe26d4a9	-0.16292061
159	0xbda7e6ec	-0.08198342
160	0xbdde39ac	-0.10850844
161	0xbe14f0be	-0.14544961
162	0x3df9f83d	0.12205551
163	0xbdc7c259	-0.09753866
164	0xbdf319c0	-0.11870146
165	0x3cc8147e	0.024423834
166	0xbd6db881	-0.058037285
167	0x3dc85010	0.09780896
168	0xbdc48e70	-0.0959748
169	0xbdfc6942	-0.12324764
170	0xbde8809b	-0.113526545
171	0xbd852c09	-0.0650254
172	0x3e207715	0.15670426
173	0xbc3d4f72	-0.011554586
174	0xbe1c2e32	-0.15251997
175	0x3cffe9e8	0.031239465
176	0x3c0fc3c9	0.008774706
177	0xbe3fc071	-0.18725754
178	0x3d483d8c	0.04888682
179	0xbd449115	-0.047989924
180	0xbda18a23	-0.078876756
181	0xbe148597	-0.14504085
182	0x3d4d13fb	0.050067883
183	0x3da6adc5	0.08138613
184	0xbe3515f2	-0.17684153
185	0x3df1c13f	0.11804437
186	0x3dc20787	0.09474092
187	0x3dd35ef8	0.10320848
188	0x3dc241b5	0.09485189
189	0xbc689035	-0.014194538
190	0xbe05ae93	-0.13054876
191	0xbda69063	-0.08133008
192	0xbe2a0916	-0.16605029
193	0xbd3052e0	-0.043047786
194	0x3e185552	0.14876297
195	0xbe0272cd	-0.12739106
196	0xbd1e9b73	-0.038722467
197	0xbdf52bd2	-0.11971249
198	0xbe189ee5	-0.14904363
199	0xbd61416b	-0.054994028
200	0x3e18b672	0.14913347
201	0xbe2e5b30	-0.17026973
202	0x3d0437e2	0.032279857
203	0xbe168785	-0.14700134
204	0xbe1b3976	-0.15158638
205	0x3c7628b6	0.015024355
206	0xbe210058	-0.15722787
207	0x3de63f7f	0.1124258
208	0xbdee8ac6	-0.11647563
209	0xbd0b7ed6	-0.034056507
210	0x3d583038	0.05278036
211	0xbdbca82c	-0.09211764
212	0xbdb74d5e	-0.089503035
213	0xbd08e9c6	-0.03342607
214	0x3e08ee49	0.13372149
215	0xbd2bfaad	-0.04198711
216	0x3d8d67d6	0.06904571
217	0x3d779b1a	0.06045065
218	0x3c5d138b	0.013493429
219	0xbe19cecb	-0.15020292
220	0x3c48c89e	0.012254862
221	0xbe2af8b2	-0.16696432
222	0x3c3b0de5	0.011416887
223	0xbdb4d0f0	-0.08828914
224	0xbd94d5a8	-0.07267314
225	0xbe0ccae7	-0.13749276
226	0x3e12c971	0.14334656
227	0xbe1a8c5c	-0.15092605
228	0xbd9066fb	-0.07050892
229	0x3e073707	0.13204585
230	0xbdda22ed	-0.10651193
231	0xbd9dbc75	-0.07701961
232	0xbe139e20	-0.14415789
233	0xbcab0292	-0.020875249
234	0x3de7b09b	0.11312982
235	0x3d3b1cc5	0.045681734
236	0xbdfe96cb	-0.12431105
237	0xbd90a03d	-0.07061813
238	0x3e0c8714	0.13723403
239	0xbd9eec0a	-0.07759865
240	0x3cb5f316	0.022210639
241	0x3d938186	0.07202439
242	0x3ddd7f06	0.108152434
243	0x3d8ba0f7	0.06817811
244	0x3cd554e6	0.02604146
245	0xbd5b06ca	-0.05347327
246	0x3e369288	0.17829335
247	0x3dc4e67b	0.09614273
248	0x3d9e5e57	0.07732838
249	0x3e42617d	0.18982501
250	0x3c4cbd7d	0.012496349
251	0xbdadd11a	-0.084871486
252	0x3c7e6225	0.015526329
253	0xbde1a6a5	-0.11018113
254	0xbe104426	-0.14088497
255	0x3e17a226	0.14807948

emb_net.v_lins1.0.bias f4 [32]
0	0xbe1e5c51	-0.15464903
1	0x3db687ab	0.08912595
2	0xbd3c230e	-0.04593187
3	0x3e04796e	0.12936947
4	0xbe29fd48	-0.16600525
5	0xbe16a9b3	-0.14713173
6	0xbdf4c627	-0.11951857
7	0xbd6314ed	-0.05543988
8	0xbb9885f8	-0.004654642
9	0xbe2eac11	-0.17057826
10	0x3dec2930	0.115312934
11	0xbd16af06	-0.03678801
12	0x3bb8d029	0.005640049
13	0x3beea36e	0.007282666
14	0x3dff619a	0.12469788
15	0xbc74b093	-0.014934677
16	0x3d32b0b3	0.043625545
17	0x3e1a814d	0.15088387
18	0x3e391bfb	0.1807708
19	0x3dff5773	0.124678515
20	0xbdea0412	-0.114265576
21	0xbbae3b4b	-0.005317127
22	0xbd15fbf6	-0.03661724
23	0xb998f89f	-0.00029176936
24	0xbcc092c4	-0.023507483
25	0x3db27614	0.08713928
26	0xbd346be3	-0.0440482
27	0x3c0b82a5	0.008515035
28	0x3d85b379	0.06528372
29	0xbe1d88bb	-0.1538419
30	0x3e29ec26	0.1659399
31	0x3e0ab7e5	0.13546713

emb_net.v_lins1.1.weight f4 [32, 32]
0	0x3d0bfcb0	0.03417653
1	0xbd958379	-0.07300467
2	0x3d6511f5	0.05592533
3	0x3dd69c2e	0.10479008
4	0x3df43010	0.1192323
5	0x3d9f79c1	0.077868946
6	0x3d3de9ad	0.04636543
7	0xbe066cf4	-0.131275
8	0xbe098788	-0.13430607
9	0x3d1006ce	0.03516274
10	0xbd535fe9	-0.05160514
11	0x3d479f7f	0.04873609
12	0x3e3465a1	0.17616893
13	0x3e20d69b	0.15706865
14	0x3aa4b9e7	0.001256761
15	0x3ca608df	0.020267902
16	0x3d9f198d	0.07768545
17	0xbae54d7a	-0.0017494403
18	0xbe3bc38e	-0.18336317
19	0xbcdc71be	-0.026909705
20	0x3dff5806	0.12467961
21	0x3cec7ec6	0.028869044
22	0xbcf2110e	-0.029549148
23	0x3e223fd1	0.15844657
24	0xbcc32ee5	-0.023826072
25	0x3dfcc671	0.12342537
26	0x3cc0c8ca	0.023533244
27	0x3dc0512c	0.09390482
28	0x3ccd1fb5	0.025039533
29	0x3d79fd05	0.061032314
30	0x3d4e35f8	0.050344437
31	0xbdc4793e	-0.095934376
32	0x3d800f9d	0.06252978
33	0x3e074105	0.13208397
34	0xbd9b64a9	-0.07587559
35	0x3e1ac347	0.15113555
36	0x3db2f552	0.087381974
37	0xbddc4f76	-0.107573435
38	0xbd8877d3	-0.0666348
39	0x3ded5197	0.11587828
40	0xbdc4105e	-0.09573434
41	0xbe37ba1d	-0.1794209
42	0x3e0e86d0	0.13918614
43	0x3e12ac13	0.14323454
44	0xbe380625	-0.17971094
45	0x3e184389	0.14869513
46	0xbdd59ea8	-0.10430652
47	0xbbc0fda4	-0.0058896113
48	0x3d8fd47d	0.07022951
49	0x3d997e74	0.07494822
50	0x3d370950	0.044686615
51	0xbd83eb5c	-0.064413756
52	0x3d4d97d1	0.05019361
53	0x3dcbe32d	0.0995544
54	0xbe2f4875	-0.17117484
55	0xbdf8c66f	-0.12147223
56	0xbd472e29	-0.048628006
57	0xbc474b3c	-0.012163933
58	0x3e205281	0.15656473
59	0x3dfcfb38	0.12352604
60	0x3db3ebb5	0.08785192
61	0xbdce45f0	-0.10071933
62	0xbe1423ff	-0.14466856
63	0xbdd43042	-0.10360767
64	0x3d6b84f9	0.05749986
65	0xbe01ab2c	-0.12662953
66	0xbcd2fc3d	-0.025755042
67	0xbcb63fad	-0.02224716
68	0xbd44c81c	-0.0480424
69	0xbd056fcc	-0.03257732
70	0x3e18fe19	0.1494068
71	0x3e03cf8c	0.12872142
72	0xbe461d89	-0.19347204
73	0x3e0d634a	0.13807407
74	0xbd5f6e1e	-0.054548375
75	0xbdf08c9e	-0.117455706
76	0xbe224424	-0.15846306
77	0xbd1b0517	-0.03784665
78	0x3e1d1333	0.15339355
79	0x3e0a76ae	0.13521835
80	0x3ce654c0	0.028116584
81	0xbd8a3e6d	-0.06750188
82	0xbe221546	-0.15828428
83	0x3df7d7dc	0.12101719
84	0x3d1e0059	0.03857455
85	0xbe03f1ee	-0.12885258
86	0xbe08e9ae	-0.13370392
87	0x3bd2ff69	0.0064391387
88	0x3b3070e3	0.0026922754
89	0x3d477466	0.04869499
90	0x3e19cd46	0.15019712
91	0x3bec2bd2	0.007207372
92	0x3d87674d	0.066115
93	0x3dcb957a	0.0994062
94	0x3da53f84	0.08068755
95	0xbda553fc	-0.080726594
96	0xbe0ce853	-0.137605
97	0x3e05ccae	0.1306636
98	0x3da7589c	0.08171198
99	0x3ada5c6d	0.0016659625
100	0x3d82cf9d	0.06387255
101	0x3e2694cb	0.16267698
102	0x3c748071	0.014923201
103	0x3c901ef5	0.017592886
104	0xbde6661a	-0.11249943
105	0xbd31d327	-0.04341426
106	0xbd200e78	-0.0390763
107	0x3d7d9b98	0.061915964
108	0x3cf4ad8f	0.029867915
109	0xbd8cf37a	-0.06882377
110	0x3e3aa0b8	0.18225372
111	0xbd96e401	-0.07367707
112	0x3de66baa	0.11251004
113	0xbd95e753	-0.07319512
114	0xbcfe7bf8	-0.031064972
115	0xbdebf8dc	-0.115220755
116	0x3e1443ea	0.14479032
117	0x3a50bda9	0.0007962832
118	0xbe17ed55	-0.14836629
119	0xbe097f4e	-0.13427469
120	0x3c847686	0.016169798
121	0x3dd759d3	0.105151795
122	0x3e2e5278	0.17023647
123	0xbb81f3d1	-0.0039658328
124	0xbc9958f3	-0.018719172
125	0xbd0b9fdc	-0.034088
126	0xbd172d14	-0.036908224
127	0x3d805085	0.06265358
128	0xbc8d5f64	-0.0172574
129	0xbe125d10	-0.14293313
130	0x3d96d377	0.073645525
131	0x3db9e726	0.09077291
132	0x3d9285df	0.0715444
133	0xbe002098	-0.12512434
134	0xbdffca09	-0.12489707
135	0xbb4b3810	-0.0031008758
136	0x3ce493c0	0.027902484
137	0xbc8c3f37	-0.017119987
138	0x3d165e9d	0.036711324
139	0xbdad5144	-0.08462766
140	0x3e2dc418	0.16969335
141	0xbdf42138	-0.119203985
142	0xbdaa1d4a	-0.08306368
143	0x3de401fa	0.111331895
144	0xbc4c031e	-0.012451915
145	0xbe237b76	-0.15965065
146	0xbe19b19a	-0.15009156
147	0xbd86c28b	-0.06580075
148	0xbc29cee2	-0.010364266
149	0x3deaba50	0.114613175
150	0x3e39d372	0.18147066
151	0x3e174ade	0.14774653
152	0x3e08a518	0.13344228
153	0x3e0a30af	0.13495134
154	0x3e20539e	0.15656897
155	0x3b76438e	0.0037576887
156	0xbdf8fffd	-0.12158201
157	0x3e17d4e5	0.14827307
158	0x3d20e47c	0.0392804
159	0xbdd4cbaf	-0.10390412
160	0x3ddeccfb	0.10878941
161	0x3d97e3b3	0.07416477
162	0x3e0c8655	0.13723119
163	0x3d744102	0.05963231
164	0x3e409b40	0.18809223
165	0xbe1d69e0	-0.1537242
166	0xbdd7295c	-0.105059355
167	0x3c350c76	0.011050334
168	0x3d88b685	0.06675438
169	0x3bad2f1c	0.005285157
170	0x3d738fb6	0.059463225
171	0x3c2dbc98	0.010604046
172	0x3e2bfbc9	0.16795267
173	0xbe135fde	-0.14392039
174	0xbd9f6cb6	-0.07784407
175	0x3d6427b5	0.05570193
176	0xbe209b24	-0.15684181
177	0xbd80070b	-0.06251343
178	0x3d3e0685	0.046392936
179	0xbdd2cd43	-0.10293057
180	0xbd3c8175	-0.046021897
181	0xbdfada21	-0.12248636
182	0xbe1ce73e	-0.15322587
183	0x3e1e7937	0.15475927
184	0xbd2e9074	-0.04261823
185	0x3dff796e	0.12474333
186	0x3d66b721	0.05632699
187	0x3e0f1ec7	0.13976584
188	0x3e18e9c9	0.14932932
189	0xbe128c94	-0.14311439
190	0x3d98f154	0.07467905
191	0xbe1bb62a	-0.15206209
192	0x3cfd83fa	0.03094672
193	0x3da90636	0.08253138
194	0xbe223f1d	-0.15844388
195	0xbdae2d81	-0.08504773
196	0x3d914061	0.070923574
197	0x3e1bd736	0.15218815
198	0xbd8db59f	-0.06919407
199	0x3cb00652	0.021487389
200	0x3e007696	0.12545237
201	0x3bde18b3	0.0067778467
202	0x3dde8cc5	0.108666934
203	0xbc7abd7f	-0.015303968
204	0x3e3ad768	0.18246233
205	0x3c189695	0.009313245
206	0x3deda32f	0.116033904
207	0xbc6d597f	-0.01448667
208	0x3cc6542f	0.024210064
209	0xbcacd96e	-0.021099772
210	0xbda30de9	-0.079616375
211	0x3e0e2133	0.13879852
212	0xbda1dc85	-0.07903389
213	0x3e2a0ff5	0.1660765
214	0xbe109729	-0.14120163
215	0xbde72358	-0.11286038
216	0x3cc318b3	0.023815488
217	0x3df45b37	0.1193146
218	0x3cb91f7b	0.022598019
219	0x3e0a9a96	0.13535532
220	0xbe21a8d3	-0.15787058
221	0x3e00ebe3	0.12589984
222	0xbdc63a77	-0.0967912
223	0x3ddea3d1	0.10871089
224	0x3c265225	0.010151421
225	0xbbd112b9	-0.0063804057
226	0xbde7c385	-0.11316589
227	0x3d2acfd4	0.041702107
228	0xbdf815d7	-0.121135406
229	0x3de0a38c	0.10968694
230	0xbd88a2fe	-0.06671713
231	0x3daa2adb	0.08308955
232	0x3e16cea1	0.1472726
233	0xbe003daa	-0.12523523
234	0xbcb245fc	-0.021761887
235	0x3dc1cfc2	0.09463455
236	0x3e1f16d1	0.15536048
237	0xbdf44d8b	-0.11928853
238	0xbd92f7f6	-0.07176201
239	0xbdd99d45	-0.106257
240	0x3a55499f	0.00081362756
241	0xbdab4ec6	-0.08364634
242	0x3da8ea0c	0.08247766
243	0x3dfd99e5	0.12382869
244	0x3e16de57	0.14733253
245	0xbdc47e0c	-0.09594354
246	0x3b38548d	0.0028126568
247	0xbd8e1062	-0.069367185
248	0xbe11c338	-0.14234626
249	0x3dafa2d3	0.08575978
250	0x3e0c0bb4	0.1367634
251	0x3d1f362f	0.038870033
252	0x3c18ef7c	0.009334441
253	0xbd2b4826	-0.041816853
254	0x3e177e9d	0.14794393
255	0xbd95dd52	-0.07317604

emb_net.v_lins1.1.bias f4 [32]
0	0x3daff007	0.085907035
1	0x3e06e66e	0.1317384
2	0x3c7b81fe	0.015350817
3	0xbcb0dd4b	-0.021589896
4	0xbcf7a9a9	-0.030232267
5	0x3e228683	0.15871625
6	0x3db805f2	0.08985509
7	0xbe315346	-0.17316923
8	0xbc3af750	-0.011411503
9	0xbd6899ae	-0.056787185
10	0xbd3b864e	-0.04578238
11	0x3e04b587	0.12959872
12	0x3e029a1d	0.12754102
13	0xbe18c9d6	-0.14920744
14	0x3d8c6ea5	0.06857041
15	0xbe1f0978	-0.15530956
16	0xbd16bc53	-0.036800694
17	0x3d667e5d	0.056272853
18	0x3e147e73	0.14501362
19	0xbe2203b6	-0.15821728
20	0xbdca1666	-0.098675534
21	0x3e0bacca	0.13640133
22	0xbe3fa0f3	-0.18713741
23	0xbcf60ba6	-0.030034851
24	0xbdaff14a	-0.08590944
25	0x3dc9dc5b	0.098564826
26	0x3e179cd5	0.1480592
27	0xbd2edf14	-0.042693213
28	0xbe15a46c	-0.14613503
29	0xbe0fba47	-0.14035903
30	0xbd9d05d3	-0.076671265
31	0xbe0f3566	-0.13985214

emb_net.v_lins1.2.weight f4 [32, 32]
0	0xbd1db8a7	-0.038506176
1	0xbdba0a4d	-0.09083996
2	0xbdff8d5e	-0.124781355
3	0xbcb1d6f9	-0.021708952
4	0x3e064ad7	0.13114487
5	0x3d8c3284	0.068455726
6	0xbd732f8b	-0.059371512
7	0x3df7a10a	0.12091263
8	0x3d475467	0.048664477
9	0x3c887c4d	0.016660834
10	0x3cbbcff1	0.022926303
11	0x3e0843d8	0.1330713
12	0xbda94441	-0.082649715
13	0x3c586dc2	0.013209762
14	0x3e0f8eb3	0.14019279
15	0x3df99c2f	0.12187993
16	0x3dab5c78	0.083672464
17	0x3bd62d2c	0.0065361466
18	0x3de0b6ea	0.10972388
19	0xbe24b77e	-0.16085622
20	0x3ddce10b	0.10785111
21	0xbd806790	-0.06269753
22	0xbe2405b8	-0.16017807
23	0x3e076b0e	0.13224432
24	0xbd2fd537	-0.042927947
25	0xbe141f21	-0.14465
26	0x3d9cf374	0.076636225
27	0xbbeb2812	-0.0071764076
28	0x39ee4de7	0.0004545294
29	0x3d9bc95e	0.07606767
30	0x3de05643	0.10953953
31	0xbe3618d9	-0.17782916
32	0xbdb121df	-0.086490385
33	0xbbf1078f	-0.0073556374
34	0x3e2cd9fe	0.16880032
35	0xbd628374	-0.055301145
36	0xbe3235dc	-0.17403358
37	0xbd8e6747	-0.06953292
38	0xbdf3ede9	-0.11910612
39	0xbda3b790	-0.07993996
40	0xbdcd4120	-0.10022187
41	0x3d905caa	0.07048924
42	0xbc1add91	-0.00945224
43	0xbdb4e379	-0.088324495
44	0x3dc74ec0	0.09731817
45	0xbe250fa8	-0.16119254
46	0xbdb63963	-0.088976644
47	0x3d1c2986	0.038125537
48	0xbd9ba87c	-0.07600495
49	0xbd27c7d5	-0.04096206
50	0xbdee9f6c	-0.11651501
51	0xbd555178	-0.052079648
52	0x3df85367	0.12125283
53	0x3d74f5e4	0.059804812
54	0xbcf93390	-0.030420095
55	0xbe3add17	-0.18248402
56	0xbd26ad50	-0.040692627
57	0xbe0a778c	-0.13522166
58	0x3e25e909	0.16202177
59	0x3caa571f	0.020793496
60	0xbbd92c4e	-0.006627596
61	0x3d666240	0.056246042
62	0x3db964b2	0.09052409
63	0xbc22d674	-0.009938825
64	0xbde66e28	-0.112514794
65	0x3df78bc5	0.12087206
66	0x3d9f8e55	0.077908196
67	0xbd0fab9f	-0.03507578
68	0xbc042329	-0.008065023
69	0x3decb974	0.1155881
70	0xbe212340	-0.15736103
71	0xbd82852a	-0.06373055
72	0xbe3f30f8	-0.18671024
73	0x3de2113d	0.11038444
74	0xbdb3b64e	-0.08775006
75	0xbe078ede	-0.13238093
76	0xbd0a945a	-0.033832885
77	0x3b5fa0bf	0.0034122912
78	0x3bf24e1b	0.007394565
79	0xbe257342	-0.16157249
80	0xbd89fb2e	-0.06737362
81	0x3d98609b	0.07440301
82	0x3db6c646	0.089245364
83	0x3c5720db	0.013130392
84	0x3cc3d2b6	0.023904186
85	0x3dac7c27	0.08422118
86	0x3e03b853	0.12863283
87	0xbdade4e9	-0.08490927
88	0xbdc7a7ef	-0.09748828
89	0x3e169bec	0.14707917
90	0x3d7d1803	0.061790477
91	0x3b47a80e	0.0030465159
92	0x3e01c774	0.12673742
93	0xbd4d252c	-0.050084278
94	0x3d14ef14	0.036360815
95	0x3db40562	0.08790089
96	0x3e22dfe7	0.15905724
97	0xbcc88861	-0.024479093
98	0xbde46a1a	-0.1115305
99	0xbd8df82a	-0.06932099
100	0xbdb1088a	-0.08644207
101	0x3dbb85b9	0.09156365
102	0x3b3cc245	0.0028802317
103	0xbe35e60a	-0.17763534
104	0xbe27e826	-0.16397151
105	0xbd5257c7	-0.051353242
106	0x3ccaaf23	0.024741715
107	0x3e32e0ee	0.17468616
108	0xbd0e57d4	-0.03475173
109	0x3db3af32	0.0877365
110	0xbe0c686d	-0.1371171
111	0xbe141f25	-0.14465006
112	0x3dae08d1	0.08497775
113	0xbd74c411	-0.059757296
114	0x3d868731	0.065687545
115	0x3e0c0b5d	0.1367621
116	0xbd7712d6	-0.060320698
117	0x3d091944	0.03347136
118	0x3e1ec9fa	0.15506735
119	0xbce98f9b	-0.02851086
120	0x3d1279f7	0.035760846
121	0xbc30574f	-0.0107630035
122	0x3e34e129	0.17664017
123	0xbe2c0d50	-0.16801953
124	0x3d17b192	0.03703458
125	0x3e04155d	0.12898774
126	0x3e170096	0.14746317
127	0xbe1060df	-0.14099453
128	0xbd6f9ab7	-0.058497157
129	0x3d63e324	0.05563654
130	0x3d85ee0b	0.06539544
131	0xbd65187c	-0.055931553
132	0xbdcd7212	-0.10031523
133	0x3c920670	0.017825335
134	0x3e2ecb44	0.17069727
135	0x3d6a5220	0.057207227
136	0xbe104a31	-0.14090802
137	0xbe31b7ce	-0.17355272
138	0x3e0db4be	0.13838479
139	0xbd1f2b4a	-0.038859643
140	0x3dab7e63	0.08373716
141	0x3e214ac9	0.15751185
142	0xbd1a1717	-0.037619676
143	0xbd746a1b	-0.059671503
144	0x3c6c4d06	0.014422661
145	0xbde2a0f2	-0.11065854
146	0xbd02a5e7	-0.031896498
147	0xbd8528e5	-0.06501941
148	0xbd1d619a	-0.03842316
149	0x3e1e952c	0.15486592
150	0x3d8d6d8d	0.06905661
151	0xbd9c8946	-0.0764337
152	0xbe0fe697	-0.14052807
153	0xbdee8f54	-0.116484314
154	0xbdb99e9f	-0.09063458
155	0x3c4ed453	0.012623864
156	0xbdfadb40	-0.1224885
157	0x3e1f72f8	0.15571201
158	0xbd753061	-0.05986059
159	0x3db03719	0.08604259
160	0x3c9266a9	0.017871218
161	0x3d8cdd5a	0.06878157
162	0xbe09c5b8	-0.1345433
163	0xbe1ca7ef	-0.15298437
164	0x3e061cce	0.13096926
165	0x3d2add01	0.041714672
166	0x3dc89a6d	0.097950794
167	0x3c967a38	0.018368825
168	0x3e2894d1	0.16463019
169	0x3d3dba00	0.04631996
170	0x3d838a5c	0.06422874
171	0xbd97674c	-0.07392749
172	0xbd8d7c33	-0.06908455
173	0xbd296d9b	-0.041364294
174	0xbd72ff0c	-0.059325263
175	0xbcf14c6c	-0.029455386
176	0xbe24c9f2	-0.16092661
177	0xbd73ef3e	-0.05955433
178	0x3e180b00	0.14847946
179	0x3e03ff35	0.12890323
180	0xbdab89c8	-0.08375889
181	0x3e0afc80	0.13572884
182	0xbe20aec9	-0.15691675
183	0xbdcfcbef	-0.10146319
184	0x3e0c9a03	0.13730626
185	0xbdfbdd52	-0.12298073
186	0x3db10fc6	0.08645587
187	0x3df0bf84	0.11755279
188	0xbe08ff9f	-0.13378762
189	0xbe226786	-0.15859804
190	0x3d21d9c6	0.039514326
191	0xbddf13a8	-0.10892421
192	0xbd822f69	-0.06356699
193	0xbd0ef722	-0.034903653
194	0x3df9b2f9	0.121923395
195	0xbdc598af	-0.09648263
196	0xbdae008b	-0.08496197
197	0xbdb571da	-0.08859606
198	0xbde353c2	-0.1109996
199	0xbd408408	-0.047000915
200	0x3b98a65a	0.0046585025
201	0xbe1e8b92	-0.1548293
202	0xbda12c5a	-0.078697875
203	0xbe2a3448	-0.16621506
204	0xbdfc0441	-0.12305499
205	0xbd321d4f	-0.043484982
206	0x3def978b	0.116988264
207	0xbe0ab3c7	-0.13545142
208	0x3c8dca76	0.017308455
209	0x3dbfbf2b	0.09362634
210	0x3e1a1947	0.15048705
211	0x3dc82b61	0.09773899
212	0x3cad5e1a	0.021163035
213	0x3d986574	0.07441226
214	0x3e190453	0.14943056
215	0x3da67c4d	0.08129177
216	0x3e07051c	0.13185543
217	0xbdb4ef8c	-0.088347524
218	0xbda745aa	-0.08167584
219	0x3c803124	0.015648432
220	0x3e008971	0.1255243
221	0xbdeb1349	-0.11478288
222	0xbd5ce706	-0.05393126
223	0xbd7caacf	-0.061686333
224	0x3d47c843	0.04877497
225	0xbdcb04dd	-0.09913037
226	0x3d69a7fa	0.05704496
227	0xbc301791	-0.010747806
228	0xbdf8cf91	-0.12148965
229	0x3da4255f	0.080149405
230	0xbdbd68b7	-0.092484884
231	0x3c9c006e	0.019043174
232	0xbd5905a1	-0.052983884
233	0xbda9c9c8	-0.0829044
234	0x3d3d26c6	0.046179555
235	0xbe1a7232	-0.15082625
236	0xbd889081	-0.06668187
237	0x3dfc12a6	0.123082444
238	0x3df613be	0.12015484
239	0x3e10566e	0.1409547
240	0x3e1e73d4	0.15473872
241	0x3dce223e	0.10065125
242	0xbd823749	-0.06358201
243	0xbdd6f762	-0.10496403
244	0xbd967c52	-0.07347931
245	0xbdc2d131	-0.09512556
246	0x3dfd136b	0.12357219
247	0xbd58e69f	-0.052954312
248	0x3e2c3238	0.16816032
249	0x3dd61505	0.10453228
250	0xbd8d1c90	-0.068902135
251	0x3d9b96b8	0.07597107
252	0x3cbb108c	0.022835039
253	0xbca5090c	-0.020145915
254	0x3b253cac	0.0025213165
255	0x3e10de98	0.14147413

emb_net.v_lins1.2.bias f4 [32]
0	0xbdba14bc	-0.09085986
1	0xbdd93703	-0.10606196
2	0x3e3730b4	0.17889673
3	0x3e2a9360	0.16657782
4	0xbcebf29f	-0.028802214
5	0xbd807f73	-0.06274309
6	0xbe2e113d	-0.16998763
7	0x3dbdcfb9	0.092681356
8	0xbc00b610	-0.007855907
9	0x3dd0f717	0.10203379
10	0x3e0d0965	0.13773115
11	0x3d202231	0.039095107
12	0xbcb1bdad	-0.02169689
13	0x3cfd6736	0.030933004
14	0xbcfcadfc	-0.030844681
15	0x3cc8681a	0.024463702
16	0xbdc43c0a	-0.09581764
17	0xbc8ec702	-0.017428879
18	0x3e050f3e	0.12994096
19	0x3e27dc39	0.16392602
20	0xbda073cf	-0.07834589
21	0x3dd7d817	0.10539263
22	0xbce0ce66	-0.027442168
23	0xbdfe3b7e	-0.12413691
24	0xbda45640	-0.080242634
25	0xbda91de9	-0.08257658
26	0xbe351812	-0.17684963
27	0x3e437947	0.19089232
28	0xbdfc81e0	-0.12329459
29	0xbe00fa95	-0.1259559
30	0xbc4fb671	-0.012677775
31	0x3d88d008	0.06680304

emb_net.v_lins1.3.weight f4 [32, 32]
0	0xbd9e0a69	-0.07716829
1	0x3b26fdd5	0.0025480886
2	0xbdd7544c	-0.10514125
3	0xbe334df3	-0.17510204
4	0xbdc319e2	-0.09526421
5	0xbd83f9b6	-0.06444113
6	0x3c3a23e6	0.011361098
7	0x3e328d5b	0.17436735
8	0xbde6fd1d	-0.11278746
9	0x3cae21f3	0.021256423
10	0x3d4b1251	0.049578015
11	0xbdc0c189	-0.09411914
12	0x3d971bbd	0.073783375
13	0xbc82a73f	-0.01594889
14	0xbd0565af	-0.032567676
15	0x3dc128e5	0.09431628
16	0x3d03c39e	0.032168977
17	0xbe09199a	-0.13388672
18	0x3e135e0e	0.14391348
19	0x3bc58640	0.0060279667
20	0xbdcd679c	-0.100295275
21	0x3b19311a	0.0023375214
22	0x3dc073a7	0.09397059
23	0xbd8b6732	-0.06806792
24	0xbe39f9b8	-0.18161666
25	0x3d15eaaf	0.036600765
26	0x3b2de998	0.0026536938
27	0x3e1e152f	0.15437768
28	0x3e1823bf	0.14857386
29	0xbe22ffbc	-0.15917867
30	0xbd22d6d4	-0.039755657
31	0x3dfa7af8	0.12230486
32	0xbe1b6f74	-0.15179235
33	0xbdbd686b	-0.09248432
34	0x3db69178	0.08914465
35	0x3dde91b0	0.108676314
36	0x3e20e2ea	0.15711561
37	0xbd33d5aa	-0.043904938
38	0xbce47ba1	-0.027890982
39	0x3d7f7e5e	0.062376373
40	0xbe0d054a	-0.13771549
41	0xbda82006	-0.08209233
42	0x3e1b8965	0.1518913
43	0xbdf804bb	-0.12110277
44	0xbcb1e682	-0.02171636
45	0xbd756b0f	-0.059916552
46	0xbcd881ef	-0.026429145
47	0xbda884ac	-0.0822843
48	0xbd7db807	-0.06194308
49	0x3e3fdddc	0.18736976
50	0xbe247852	-0.16061524
51	0xbd23ae3e	-0.039961092
52	0xbd2b4137	-0.04181024
53	0xbe1a1467	-0.15046845
54	0x3e172f25	0.14764078
55	0x3e0ae424	0.13563591
56	0x3dcb449b	0.09925195
57	0x3e00166c	0.12508553
58	0xbd6ee726	-0.05832591
59	0xbdfa0c3b	-0.12209364
60	0xbd73ab85	-0.059489746
61	0xbbf6be8a	-0.0075300382
62	0x3c55acd9	0.013041698
63	0x3e1204c5	0.14259632
64	0x3d944a60	0.072407484
65	0xbdf7db5b	-0.121023856
66	0xbae85ab3	-0.0017727226
67	0xbe05f8ea	-0.13083234
68	0xbd6bfdb9	-0.057615016
69	0x3adb1d09	0.0016717027
70	0xbe0cbe76	-0.1374453
71	0xbdbe2c34	-0.09285775
72	0xbd59b093	-0.05314691
73	0xbe0c588c	-0.13705653
74	0x3e0d71ae	0.13812897
75	0xbc894cc6	-0.016760241
76	0x3c8ad322	0.01694638
77	0x3d4c13ba	0.0498235
78	0x3e29c938	0.16580665
79	0xbdcf4846	-0.10121207
80	0xbdb61838	-0.08891338
81	0xbdef6545	-0.116892375
82	0x3db94b93	0.09047618
83	0xbbfc0e0e	-0.007692105
84	0xbe0f1f82	-0.13976863
85	0x3dec4826	0.11537199
86	0x3dff186b	0.12455829
87	0xbc6e6644	-0.014550749
88	0x3d3af1e5	0.045640845
89	0x3dabe13c	0.083925694
90	0x3c888288	0.016663805
91	0xbd28c63f	-0.041204687
92	0xbdb32b84	-0.08748534
93	0x3bde5f45	0.0067862594
94	0xbda41675	-0.08012096
95	0x3d83bf88	0.06433016
96	0xbe30a8c0	-0.17251873
97	0xbcb40945	-0.021977076
98	0x3e20553d	0.15657516
99	0x3d98540a	0.07437904
100	0xbd50ee18	-0.051008314
101	0xbda24f84	-0.07925323
102	0x3e116c6c	0.14201516
103	0x3db1ca8c	0.08681211
104	0xbd8a8593	-0.067637585
105	0x3ccffec1	0.02539003
106	0x3dfbe8f6	0.12300293
107	0xbe37a1f5	-0.17932875
108	0x3e0f9142	0.14020255
109	0xbe10eba7	-0.14152394
110	0xbdbafe99	-0.09130592
111	0x3d15559c	0.036458597
112	0x3d9df6e8	0.07713109
113	0xbe09f9c9	-0.13474192
114	0xbd563f80	-0.052306652
115	0x3e2ad01b	0.16680948
116	0xbdde46df	-0.10853361
117	0xbca80214	-0.020508803
118	0x3deef64c	0.11668071
119	0x3dd2336c	0.10263714
120	0xbe1c793e	-0.15280625
121	0xbe325a0d	-0.17417164
122	0x3d935136	0.07193224
123	0xbe1a6505	-0.15077598
124	0xbe005883	-0.12533765
125	0xbcd1f5b0	-0.025629848
126	0x3cb9e746	0.022693288
127	0xbcbd9966	-0.023144435
128	0x3df6a8f9	0.12043948
129	0xbe6535e3	-0.22383837
130	0xbc845a29	-0.016156273
131	0xbd23b93b	-0.03997157
132	0xbdc7607e	-0.09735201
133	0x3dcaeb84	0.09908202
134	0x3d90f104	0.0707722
135	0x3d25e64c	0.04050283
136	0x3e242cbc	0.1603269
137	0x3d581444	0.0527537
138	0xbd450b3f	-0.04810643
139	0xbd837005	-0.064178504
140	0xbdcf1fdf	-0.10113501
141	0xbd87b966	-0.06627159
142	0x3d1c1d92	0.038114138
143	0xbe2f6cf3	-0.17131405
144	0xbcd13499	-0.025537776
145	0xbdfb0608	-0.1225701
146	0xbe35cca9	-0.17753853
147	0x3df82132	0.121157065
148	0x3c7e2bc7	0.015513367
149	0x3e036f3b	0.128354
150	0xbb59cc15	-0.0033233215
151	0xbda2a594	-0.07941738
152	0xbe1a99cd	-0.15097733
153	0xbb2072e9	-0.0024482554
154	0x3e0463ed	0.12928744
155	0x3e088e58	0.1333555
156	0xbe0cd10f	-0.13751625
157	0x3e108b6e	0.14115688
158	0xbd9b650b	-0.07587632
159	0xbdab5ff3	-0.0836791
160	0xbe1aa975	-0.15103705
161	0xbe0e3d0f	-0.1389048
162	0x3da299af	0.07939469
163	0x3e232921	0.15933658
164	0xbcfc4db6	-0.030798774
165	0x3e2c732f	0.16840814
166	0x3c47595e	0.012167303
167	0x3dc6c753	0.09705987
168	0x3dcf4ea3	0.10122421
169	0x3cbd9eb9	0.023146974
170	0x3d5edf4f	0.054412182
171	0xbdafc602	-0.08582689
172	0xbe236e4e	-0.15960047
173	0xbde59ea1	-0.11211897
174	0xbdf5abb2	-0.11995639
175	0xbd6e464e	-0.058172517
176	0x3e217751	0.15768172
177	0x3db730ca	0.08944853
178	0x3db1e3fe	0.08686064
179	0xbb42de97	-0.0029734725
180	0x3e167366	0.14692459
181	0xbdf60dda	-0.12014361
182	0x3d4c8352	0.049929924
183	0xbdcb9182	-0.09939863
184	0xbb5bc3bf	-0.0033533422
185	0xbd9149ea	-0.07094176
186	0xbdda7acd	-0.10667954
187	0xbceef86c	-0.029171191
188	0xbe250d98	-0.16118467
189	0xbdc0efee	-0.09420763
190	0x3d8fb172	0.07016267
191	0xbe370f62	-0.17876962
192	0xbd9c3fe7	-0.07629376
193	0xbc15ff44	-0.009155098
194	0xbde085ad	-0.10962997
195	0xbe10c07b	-0.14135925
196	0xbd73be30	-0.05950755
197	0x3dcdc6d3	0.10047688
198	0xbccedbd3	-0.025251305
199	0x3d0a3580	0.033742428
200	0x3e1b33a8	0.15156424
201	0x3ddf698e	0.10908805
202	0x3e138eaa	0.14409891
203	0xbd47c92a	-0.04877583
204	0xbdf04b0c	-0.11733064
205	0xbe1ab254	-0.1510709
206	0x3d44d9d0	0.048059285
207	0x3bb9276a	0.0056504505
208	0x3ddcd5a6	0.10782938
209	0xbd992372	-0.07477464
210	0xbdcee034	-0.10101357
211	0xbe09f863	-0.13473658
212	0xbe1c3702	-0.15255359
213	0xbd2732b7	-0.04081985
214	0xbd0e6e96	-0.03477343
215	0x3c4408d4	0.011964995
216	0xbc9fa7a5	-0.019489119
217	0x3c9283d8	0.017885134
218	0xbce5d0c6	-0.028053652
219	0xbe2cca58	-0.16874063
220	0xbc985e39	-0.018599616
221	0xbd4a6bba	-0.049419142
222	0x3c9d8b37	0.019231422
223	0xbc3c786b	-0.011503319
224	0xbdb3d3cc	-0.087806314
225	0x3de5a720	0.11213517
226	0xbd5aafcb	-0.053390305
227	0xbdc8697e	-0.09785746
228	0xbe2c8251	-0.16846587
229	0xbd1f1bca	-0.03884486
230	0x3e2461a0	0.16052866
231	0xbdf48c79	-0.119408555
232	0xbdb9094a	-0.09034975
233	0xbd7753cc	-0.06038265
234	0xbc883d4f	-0.016630797
235	0x3cebf0a0	0.028801262
236	0xbd9bbedb	-0.07604762
237	0xbe0abfa3	-0.13549666
238	0xbde7ebed	-0.11324296
239	0xbd2adc3b	-0.041713934
240	0xbdee973c	-0.116499394
241	0x3e1ff627	0.15621243
242	0x3e0db2af	0.13837694
243	0xbce7c96d	-0.02829429
244	0x3e09dfa8	0.13464224
245	0x3dd31328	0.10306388
246	0xbd90fc81	-0.07079411
247	0xbd78dfb2	-0.060760207
248	0xbb154093	-0.0022774085
249	0x3d75eaf7	0.060038533
250	0x3c87bea3	0.016570395
251	0x3e127346	0.14301786
252	0x3dc7a9ec	0.09749207
253	0x3da2b735	0.079451
254	0xbd132c1d	-0.03593074
255	0x3d8df7b7	0.069320135

emb_net.v_lins1.3.bias f4 [32]
0	0xbdd5cf62	-0.10439946
1	0xbe11e130	-0.14246058
2	0x3c7b11c0	0.015324056
3	0x3d877218	0.066135585
4	0x3dea63c0	0.11444807
5	0xbc38c362	-0.011277052
6	0xbdad9115	-0.08474938
7	0x3d8d2807	0.068924
8	0xbe279916	-0.16366991
9	0xbde020d0	-0.109437585
10	0x3da8c92b	0.08241495
11	0xbde903af	-0.11377656
12	0xbe253e36	-0.16137013
13	0x3bbad55f	0.0057017053
14	0xbd283b57	-0.041072216
15	0x3ba40023	0.005004899
16	0x3dc3231e	0.095281824
17	0xbac92710	-0.0015346725
18	0xbd78324f	-0.060594853
19	0xbe138277	-0.14405237
20	0xbe3230ba	-0.174014
21	0xbe3bbbe0	-0.18333387
22	0xbd74a852	-0.059730835
23	0xbdf0ad84	-0.117518455
24	0xbdd0a35d	-0.10187409
25	0xbe09bee3	-0.13451724
26	0x3dcd25cc	0.10016975
27	0xbd8e89f7	-0.069599085
28	0xbd43bb93	-0.047786307
29	0xbdc82400	-0.097724915
30	0x3e1f4c8e	0.15556547
31	0x3e1e0de1	0.15434982

emb_net.v_lins1.4.weight f4 [32, 32]
0	0x3d9494ed	0.07254968
1	0xbdf2c00a	-0.11853035
2	0xbda175c5	-0.07883791
3	0x3dce8d93	0.10085597
4	0x3dd4f7c6	0.103988215
5	0xbde6bd47	-0.112665705
6	0xbe15cc87	-0.14628802
7	0x3d88bca6	0.06676607
8	0x3d857e6e	0.06518255
9	0x3e184c2c	0.14872807
10	0x3cbe39b8	0.023220882
11	0xbe0d5a53	-0.13803987
12	0x3e1e0686	0.15432176
13	0x3d95b236	0.07309382
14	0xbdecf5b2	-0.115703
15	0xbd828e05	-0.06374744
16	0x3d78235b	0.060580593
17	0xbe2fd056	-0.17169318
18	0x3cda7257	0.02666585
19	0x3d1974d3	0.037464928
20	0x3e2ae0f1	0.16687371
21	0x3dac9d85	0.08428482
22	0xbcf3a3a1	-0.02974111
23	0xbdc8d17b	-0.0980558
24	0xbccc47d9	-0.024936603
25	0x3dc689dd	0.09694264
26	0xbd526f40	-0.051375628
27	0xbe2d1ad1	-0.16904761
28	0x3e19d051	0.15020873
29	0xbe441c2b	-0.1915137
30	0xbd97d8ba	-0.07414384
31	0x3e1a36f5	0.15060027
32	0xbdf6ddc0	-0.12054014
33	0xbd622de7	-0.055219557
34	0x3b703f26	0.0036658733
35	0x3e31e192	0.17371204
36	0xbdd9180f	-0.10600292
37	0x3df61c1e	0.12017082
38	0xbc4c4ba1	-0.012469203
39	0x3d217cf9	0.039425824
40	0x3d3150dc	0.043290004
41	0xbda4a5d1	-0.080394395
42	0xbce9296d	-0.028462136
43	0xbe035de8	-0.12828791
44	0x3def9488	0.11698252
45	0xbc7edf4c	-0.015556168
46	0x3e25271b	0.16128199
47	0x3b3e3272	0.0029021767
48	0x3e04f96b	0.1298577
49	0x3d63399c	0.055474862
50	0x3dcb637f	0.09931087
51	0x3d3a0f83	0.04542495
52	0xbd181a61	-0.037134532
53	0x3dd376a8	0.10325366
54	0xbe40d40f	-0.18830894
55	0x3defc0c8	0.11706692
56	0xbdd68722	-0.10474993
57	0xbe0c7397	-0.13715969
58	0xbd129a49	-0.03579167
59	0xbd8d8f6b	-0.069121204
60	0x3d67b4fa	0.056569077
61	0x3e062423	0.13099723
62	0x3e0e99d7	0.13925873
63	0xbcc273ff	-0.023736952
64	0x3ceacbbe	0.028661605
65	0x3e16487f	0.14676093
66	0x3dac963d	0.08427093
67	0xbe029789	-0.12753119
68	0x3de457d0	0.111495614
69	0x3cc4acdb	0.024008205
70	0xbdffc612	-0.12488951
71	0xbd911cd4	-0.07085577
72	0x3de905b1	0.11378039
73	0x3e1c60fb	0.1527137
74	0xbdddbc34	-0.108269125
75	0x3d60b9a1	0.05486453
76	0x3c9e4dd9	0.01932423
77	0xbd641860	-0.05568731
78	0xbe3682f9	-0.178234
79	0xbc8dafe4	-0.017295785
80	0xbe260659	-0.16213359
81	0x3da15a65	0.078785695
82	0x3bb67af5	0.005568857
83	0xbd2ace67	-0.041700747
84	0xbb061fdf	-0.0020465774
85	0xbe04caee	-0.12968037
86	0xbd320799	-0.043464277
87	0x3df09b20	0.11748338
88	0xbd87aad9	-0.066243835
89	0xbc56ad36	-0.01310282
90	0xbe18ae5a	-0.1491026
91	0x3dbf812f	0.09350812
92	0xbe1b5990	-0.15170884
93	0x3dbe628b	0.09296139
94	0x3d036baf	0.032085117
95	0xbdfa264d	-0.122143365
96	0xbd2a2db8	-0.041547507
97	0xbde2d9c0	-0.11076689
98	0x3c58f86d	0.013242823
99	0xbc013e52	-0.0078883935
100	0x3c979c11	0.018507035
101	0x3d89c6ef	0.06727397
102	0xbc4d07e1	-0.0125140855
103	0xbdf616d0	-0.1201607
104	0x3d1e2744	0.038611665
105	0xbda4741b	-0.08029958
106	0xbdac75a7	-0.08420878
107	0xbca1a31d	-0.019731099
108	0x3d369431	0.04457492
109	0xbdd7a314	-0.105291516
110	0xbda429af	-0.08015763
111	0xbccdaa07	-0.02510549
112	0xbda12f50	-0.07870352
113	0x3c9e4bd6	0.01932327
114	0xbdaf4dcc	-0.085597605
115	0xbd07cc17	-0.03315362
116	0x3e08c392	0.13355854
117	0x3d4afa5a	0.04955516
118	0x3bd2cbba	0.0064329775
119	0x3da4aa10	0.08040249
120	0xbe2d19ab	-0.16904323
121	0x3d98a9fe	0.074542984
122	0xbe17713f	-0.14789294
123	0xbe2dcea2	-0.16973355
124	0x3dae5a48	0.085133135
125	0x3dcdcbb7	0.10048621
126	0x3e3713e6	0.17878684
127	0xbdfd6870	-0.123734355
128	0x3df0880a	0.117446974
129	0x3bfa66eb	0.0076416633
130	0xbb8bde57	-0.0042684483
131	0x3e26598a	0.16245094
132	0x3ddd7d39	0.108149
133	0x3e126f9f	0.14300393
134	0x3e03235e	0.1280646
135	0x3e39fca4	0.18162781
136	0xbdff2f2a	-0.12460168
137	0xbd8e2bbc	-0.069419354
138	0xbd6858b6	-0.056725226
139	0xbc93793c	-0.018002145
140	0x3d413dbb	0.04717801
141	0x3dcec6dc	0.10096523
142	0x3aad255b	0.0013209985
143	0xbd206311	-0.039156977
144	0xbdc3c86c	-0.09559712
145	0xbd96ad6e	-0.07357298
146	0xbe054e91	-0.13018252
147	0xbe32e966	-0.17471847
148	0xbdb8fa03	-0.09032061
149	0xbdd99bea	-0.10625441
150	0x3d2ab163	0.041673075
151	0x3e2c5ea2	0.16832975
152	0x3d8fdddd	0.07024739
153	0xbe1efdbc	-0.1552648
154	0xbe2c3496	-0.16816935
155	0xbbf78494	-0.0075536463
156	0xbe250d2b	-0.16118304
157	0xbdad4261	-0.084599264
158	0x3d6ad7cc	0.057334706
159	0xbd430973	-0.047616433
160	0x3cc77bf5	0.0243511
161	0xbce3e10e	-0.027817275
162	0x3e0c0d6d	0.13676997
163	0xbe25df1f	-0.16198395
164	0x3d5a295c	0.0532621
165	0x3e097ac0	0.13425732
166	0x3e207085	0.15667923
167	0x3e2b4818	0.1672672
168	0x3d8fa9c0	0.07014799
169	0x3da9172e	0.08256374
170	0x3d019d09	0.0316439
171	0xbc654891	-0.013994352
172	0x3e0e3dc2	0.13890746
173	0x3e2d1be4	0.1690517
174	0xbce17733	-0.027522659
175	0xbe08c802	-0.13357547
176	0x3e2c2018	0.16809118
177	0x3cac0106	0.020996582
178	0x3b99e710	0.0046967342
179	0x3e065152	0.13116959
180	0xbdb35d6d	-0.08758054
181	0x3e21e39a	0.1580948
182	0x3e2ee983	0.17081265
183	0x3d8463d9	0.06464357
184	0x3c7abb40	0.015303433
185	0xbd98b322	-0.07456042
186	0xbe2b0521	-0.16701175
187	0x3e2cc4a2	0.16871884
188	0x3dcb8b26	0.0993865
189	0x3c9d9d32	0.019239996
190	0xbd6979f1	-0.057001058
191	0xbc001a6f	-0.007818802
192	0xbd8c6ae4	-0.06856325
193	0xbdd12a04	-0.10213092
194	0x3dbbb3bf	0.09165143
195	0xbdfc0a13	-0.12306609
196	0x3d07a41f	0.033115502
197	0x3e161465	0.14656217
198	0x3cc21ce7	0.023695422
199	0xbbb7e178	-0.0056115948
200	0xbe0523bc	-0.13001913
201	0x3dd33e8e	0.10314666
202	0xbd8af1ca	-0.06784399
203	0xbe394ebb	-0.1809644
204	0x3e0a10e3	0.13483004
205	0x3d4752e7	0.048663046
206	0x3ccc2ce3	0.024923747
207	0xbe3f3eb8	-0.18676269
208	0xbe319b42	-0.17344382
209	0xbd381b06	-0.044947647
210	0x3dcae2fd	0.09906576
211	0x3c2768c8	0.010217853
212	0xbbdec813	-0.006798753
213	0xbd728fe2	-0.05921925
214	0xbc9df8ca	-0.019283671
215	0xbd83325e	-0.06406091
216	0x3cef82d8	0.029237196
217	0xbdd6330d	-0.10458956
218	0xbe433ac1	-0.19065382
219	0x3e0a59e4	0.13510853
220	0x3d01c28a	0.031679668
221	0x3e1c487b	0.15262024
222	0xbdd4b4ae	-0.103860244
223	0x3e25d28d	0.161936
224	0x3de8424f	0.11340772
225	0x3c965e44	0.018355496
226	0xbe19f39f	-0.1503434
227	0x3db0596f	0.08610808
228	0xbdd3b293	-0.10336795
229	0x3cb468d8	0.02202265
230	0x3cf1e26c	0.029526912
231	0xbc94f5b4	-0.018183567
232	0xbdd8b805	-0.10581974
233	0x3e3553ca	0.17707744
234	0x3da32080	0.07965183
235	0xbe1c54e5	-0.1526676
236	0xbe223e03	-0.15843968
237	0x3d94f5d9	0.07273454
238	0xbdd367bf	-0.10322522
239	0xbd27f26f	-0.041002687
240	0x3e1e81e0	0.15479231
241	0xbd1fe407	-0.039035823
242	0xbdad6463	-0.08466413
243	0x3e1e752c	0.15474385
244	0xbd3341ee	-0.043764047
245	0x3c307715	0.010770579
246	0xbc73d3f0	-0.014882073
247	0x3e250488	0.1611501
248	0x3df84825	0.121231355
249	0xba83f391	-0.0010067095
250	0x3ab4c4fa	0.0013791614
251	0x3e2766f7	0.16347872
252	0xbd977771	-0.073958285
253	0xbe28796f	-0.16452573
254	0x3caab70c	0.020839237
255	0xbdf6241c	-0.12018606

emb_net.v_lins1.4.bias f4 [32]
0	0x3dd71d8a	0.10503681
1	0x3de3d35f	0.111243
2	0xbe029fe1	-0.12756301
3	0x3dc57dfa	0.09643169
4	0xbd9caf6f	-0.07650649
5	0x3e190f27	0.14947186
6	0x3dd91685	0.105999984
7	0x3e199d23	0.15001349
8	0xb99f6376	-0.00030400947
9	0x3de6a4dd	0.11261914
10	0x3db26f5e	0.08712648
11	0xbcd10820	-0.02551657
12	0x3e0f3de8	0.13988459
13	0x3c603fd8	0.013687097
14	0xbcb01f63	-0.021499341
15	0xbd599915	-0.053124506
16	0xbe1698fa	-0.14706793
17	0x3df42f51	0.119230874
18	0xbc620f9d	-0.013797668
19	0x3df20aed	0.1181849
20	0xbe2ce59e	-0.16884467
21	0xbd2c4455	-0.042057354
22	0x3cb19329	0.021676617
23	0x3d11c36b	0.035586756
24	0xbe07e852	-0.13272217
25	0xbd8ae357	-0.06781643
26	0xbd63142c	-0.05543916
27	0xbd13e2bb	-0.0361049
28	0x3c86125c	0.016366176
29	0xbd59f414	-0.053211287
30	0xbd76a41f	-0.06021511
31	0x3d727951	0.059197728

emb_net.v_lins1.5.weight f4 [32, 32]
0	0xbe1be058	-0.15222299
1	0x3e0a2f2a	0.13494554
2	0x3d36cfa1	0.044631604
3	0xbe1a0f39	-0.1504487
4	0xbe1a3ed2	-0.15063027
5	0x3c499528	0.012303628
6	0x3df1a35a	0.11798735
7	0xbe2ec74d	-0.17068215
8	0x3e18cf03	0.14922719
9	0xbc9a240f	-0.018816022
10	0xbc95fae4	-0.01830811
11	0x3e0149c0	0.1262579
12	0x3d673257	0.056444492
13	0x39aa4931	0.0003247946
14	0x3c445015	0.011981984
15	0xbdc35cab	-0.095391594
16	0x3e0f28f5	0.13980468
17	0x38916351	6.932638e-05
18	0xbd419b23	-0.04726709
19	0xbdc5aa54	-0.09651628
20	0x3dcd46a1	0.10023237
21	0xbd07a52a	-0.033116497
22	0xbe279af6	-0.16367707
23	0x3e0b799d	0.1362061
24	0xbddc14e3	-0.10746171
25	0xbdc1ed91	-0.0946914
26	0xbb82a05e	-0.0039864024
27	0xbe034d3e	-0.12822434
28	0xbd98960a	-0.07450493
29	0x3c9cae97	0.01912622
30	0xbd5afd09	-0.05346397
31	0x3e04ee0e	0.12981436
32	0x3c8fa349	0.017533915
33	0xbce78631	-0.02826223
34	0x3db4e261	0.08832241
35	0xbdae979b	-0.0852501
36	0x3dcf30c1	0.10116721
37	0x3e1201e3	0.14258532
38	0x3d9ed289	0.07755
39	0x3d45e901	0.048317913
40	0xbe0eab4c	-0.13932532
41	0xbd2ee1d5	-0.04269584
42	0x3e18b72d	0.14913626
43	0x3db43bcd	0.088004686
44	0xbe07a2c0	-0.13245678
45	0xbe250737	-0.16116033
46	0x3cd7a90b	0.026325723
47	0xbd7ea38c	-0.06216769
48	0xbce25de7	-0.027632667
49	0xbd26fcb7	-0.04076835
50	0x3d8eb7fe	0.069686875
51	0x3d965a86	0.07341485
52	0xbde9af5b	-0.114103995
53	0x3e0bcca1	0.13652278
54	0xbd684cd8	-0.05671391
55	0xbdf07d96	-0.117427036
56	0xbdb0f249	-0.08639962
57	0xbe417147	-0.18890868
58	0x3da7a86d	0.081864215
59	0xbb485425	-0.0030567732
60	0xbe1ba494	-0.151995
61	0x3cc67f4e	0.024230625
62	0xbd74d95f	-0.059777614
63	0x39f7def0	0.00047277613
64	0x3dcbe84f	0.09956419
65	0xbd34e819	-0.044166658
66	0x3e2957e6	0.16537437
67	0x3d9cf482	0.07663824
68	0x3e172281	0.14759256
69	0x3e228bd1	0.15873648
70	0xbe1d2744	-0.1534701
71	0xbdbf3679	-0.09336562
72	0xbd25f625	-0.040517945
73	0xbe282e43	-0.16423897
74	0x3d0aed0d	0.033917475
75	0x3c8d41ac	0.017243229
76	0xbce3309e	-0.027733143
77	0xbe061bf5	-0.13096602
78	0xbdbb7a53	-0.09154191
79	0xbd54cee5	-0.051955123
80	0x3d5cfa97	0.05394992
81	0xbdecb243	-0.11557438
82	0xbe157910	-0.14596963
83	0xbe0a6014	-0.13513213
84	0xbde2bafa	-0.11070819
85	0x3cc9e863	0.024646943
86	0xbe011393	-0.12605123
87	0xbb50d84f	-0.0031867211
88	0xbdf9db35	-0.122000135
89	0x3de76f27	0.113004975
90	0x3c8de1cd	0.017319584
91	0xbd420136	-0.047364436
92	0xbd1f5b24	-0.038905278
93	0x3e12c0b9	0.1433133
94	0xbdaac42d	-0.08338199
95	0x3e244bc5	0.16044529
96	0xbdd5ae46	-0.10433631
97	0xbc8cffea	-0.017211873
98	0xbcac8968	-0.021061614
99	0x3e05b0ab	0.13055675
100	0xbdceb8b4	-0.10093823
101	0xbd6bd3eb	-0.057575148
102	0xbdb15c1b	-0.08660146
103	0xbe322365	-0.17396314
104	0x3d72f43e	0.05931496
105	0xbd3d76a5	-0.046255726
106	0x3d69f6f8	0.057120293
107	0xbdaaca33	-0.08339348
108	0x3d222b86	0.03959229
109	0xbe4da825	-0.20083673
110	0xbd194846	-0.03742244
111	0x3e381db8	0.17980087
112	0xbcd81bbb	-0.02638041
113	0xbdeee6ec	-0.116651386
114	0x3d043756	0.032279335
115	0x3df5c913	0.120012425
116	0xbe1f1ddd	-0.15538736
117	0xbe1029db	-0.14078467
118	0xbd8303fc	-0.06397244
119	0x3d3c3173	0.045945596
120	0xbce6b8d5	-0.028164307
121	0x3e35a978	0.17740428
122	0xbe335aa3	-0.17515044
123	0xbd477a3d	-0.04870056
124	0x3dad62ac	0.08466086
125	0xbe3ed019	-0.1863407
126	0x3d0a27a7	0.03372922
127	0xbd98ff3f	-0.07470559
128	0xbbfc538f	-0.0077003906
129	0x3cd0e561	0.025500001
130	0x3debbd9e	0.11510776
131	0xbc2b7edc	-0.010467257
132	0x3df7e925	0.12105016
133	0x3c45a4f1	0.012063251
134	0xbcdf7b4b	-0.02728047
135	0xbd95e6d7	-0.0731942
136	0xbdf38250	-0.118900895
137	0xbd00030c	-0.031252906
138	0x3ddfd1cb	0.10928687
139	0x3e0665e4	0.13124806
140	0xbd03bddf	-0.032163497
141	0x3c00da84	0.007864598
142	0xbc124c58	-0.008929335
143	0xbdbf4268	-0.09338838
144	0x3c760fad	0.015018386
145	0xbe1cb5f6	-0.15303788
146	0xbca53214	-0.02016548
147	0x3cf824a8	0.030290917
148	0x3dd04c29	0.101707764
149	0xbe208682	-0.1567631
150	0x3d9b35bf	0.07578611
151	0xbdd940a5	-0.10608033
152	0xbe12614f	-0.14294933
153	0xbdd671b2	-0.104709044
154	0x3de783d0	0.11304438
155	0xbdbf3761	-0.093367346
156	0xbe3ee593	-0.18642263
157	0x3d1e6965	0.03867473
158	0x3e002a3b	0.1251611
159	0xbd08ed64	-0.03342952
160	0x3bc997f5	0.006152148
161	0x3db3f57d	0.087870575
162	0x3cdbc8d7	0.026829166
163	0xbdfe8837	-0.12428325
164	0x3d5f9745	0.05458762
165	0x3d76a15b	0.060212474
166	0xbdd42966	-0.103594586
167	0xbd8e9a7a	-0.06963058
168	0x3e09a9a6	0.13443622
169	0x3debdeb9	0.1151709
170	0x3e009461	0.12556602
171	0x3dbfbcbc	0.0936217
172	0xbe3d7c07	-0.18504344
173	0x3d67f749	0.056632314
174	0x3df3ce95	0.11904637
175	0xbabb0414	-0.0014268183
176	0xbe1249ae	-0.14285919
177	0xbdea0173	-0.11426058
178	0x3d30bbf0	0.04314798
179	0x3daab281	0.08334828
180	0xbcf382fa	-0.02972554
181	0x3e0cae15	0.13738282
182	0x3da4216e	0.08014189
183	0x3dc2e0be	0.095155224
184	0x3d576d4d	0.05259447
185	0xbdffbc61	-0.12487102
186	0xbe102989	-0.14078344
187	0x3d6f93d5	0.058490593
188	0x3df55171	0.11978424
189	0xbe05b024	-0.13055474
190	0xbd9dfce8	-0.07714254
191	0x3e1aba27	0.15110074
192	0x3d816564	0.06318167
193	0xbd78d76e	-0.060752325
194	0x3dd0fdaa	0.102046326
195	0xbde4c7fa	-0.11170955
196	0xbdd045b3	-0.10169544
197	0xbe2faad6	-0.17155012
198	0xbdec3c2b	-0.11534914
199	0xbdee7a9c	-0.1164448
200	0x3df148a5	0.11781434
201	0xbdadf8e3	-0.08494737
202	0xbe14e9d1	-0.14542319
203	0xbb1e74e8	-0.0024178568
204	0x3d027902	0.031853683
205	0x3d8d1417	0.068885975
206	0xbd55b74c	-0.05217676
207	0x3d7c13ad	0.0615422
208	0x3dc3424f	0.09534132
209	0xbd7203a8	-0.059085518
210	0xbdab9fcb	-0.083800875
211	0x3df32199	0.118716426
212	0xbdaa5465	-0.08316878
213	0xbd0595d8	-0.032613605
214	0x3cb37263	0.02190513
215	0x3bcd6699	0.006268334
216	0xbc33f285	-0.010983114
217	0xbdca29ef	-0.098712794
218	0xbda747cd	-0.08167992
219	0xbd01a5d3	-0.031652283
220	0xbc874e9b	-0.016516974
221	0xbd800468	-0.062508404
222	0x3d3749b9	0.04474804
223	0xbe10f410	-0.14155602
224	0x3e142d5e	0.14470431
225	0x3e334627	0.1750723
226	0xbd10d756	-0.03536161
227	0xbdc456e5	-0.09586886
228	0xbe240537	-0.16017614
229	0x3dd3af6f	0.10336196
230	0xbe02cdd1	-0.12773825
231	0xbcdb36f1	-0.026759597
232	0xbcb5ae42	-0.02217782
233	0x3c4d7b19	0.012541556
234	0x3e3a5ac8	0.18198693
235	0xbe22e0ed	-0.15906115
236	0xbdbe5bb3	-0.09294834
237	0xbe36fd7e	-0.17870137
238	0xbd216ff8	-0.039413422
239	0x3e172ea8	0.14763892
240	0x3d88468a	0.06654079
241	0xbdc8bb26	-0.09801321
242	0xbe053947	-0.13010131
243	0xbdb0c998	-0.08632201
244	0x3e1e8e2f	0.15483926
245	0xbdfebf31	-0.124388106
246	0x3c8af33e	0.01696169
247	0x3dd5c8c7	0.10438686
248	0xbd19b40a	-0.037525214
249	0x3e12d1b0	0.14337802
250	0x3db8470e	0.089979276
251	0xbd92e697	-0.07172888
252	0xbde37988	-0.111071646
253	0x3d9a78be	0.07542561
254	0x3dda50cb	0.10659941
255	0xbe048db4	-0.1294468

emb_net.v_lins1.5.bias f4 [32]
0	0xbd8d3b0d	-0.06896029
1	0x3d56c2fa	0.052432038
2	0xbe30345d	-0.17207475
3	0x3e1c8952	0.15286759
4	0x3dbd5e85	0.09246544
5	0xbde67931	-0.11253584
6	0xbdf80d0b	-0.12111863
7	0x3d8785ae	0.06617294
8	0x3db2090e	0.08693133
9	0xbe2716d4	-0.16317302
10	0x3e2ba99c	0.1676392
11	0x3cc3a2a9	0.023881273
12	0xbdf5d950	-0.1200434
13	0x3e2ecd46	0.17070493
14	0xbe0e605e	-0.13903949
15	0x3c342db2	0.010997223
16	0x3dc3654a	0.09540804
17	0xbddfe4e6	-0.10932331
18	0x3e2d6045	0.16931255
19	0xbd38c775	-0.045112092
20	0xbd91ffbb	-0.07128855
21	0xbe26c340	-0.1628542
22	0xbdbd9ff4	-0.09259024
23	0x3dd8d190	0.10586846
24	0x3d90a262	0.07062222
25	0x3df424ab	0.11921056
26	0x3d82a7d0	0.06379664
27	0xbde2ca0b	-0.11073693
28	0xbda4c858	-0.08046025
29	0x3df964dd	0.12177441
30	0xbd995ec5	-0.07488779
31	0x3dca49bd	0.09877346
