pretrained/mkp/mkp300.pt (torch, 100783 bytes, 43 tensors)

transformer_encoder.layers.0.self_attn.in_proj_weight f4 [96, 32]
-0.06306869 -0.11971701 -0.20706387 -0.20656887 -0.097546905 0.07690929 0.13243718 0.059959132
0.22598533 -0.17829588 -0.020814713 0.091751285 0.124379836 -0.0020685273 -0.07766482 -0.22462994
0.17529625 0.09733434 0.107749365 0.024751976 -0.035966527 0.019575078 0.104124546 -0.015548581
-0.16322023 0.21435583 -0.08040826 0.16271195 0.017149476 0.01653872 0.19680321 -0.107710145
-0.04381508 0.17120883 -0.14445658 -0.0862352 -0.17572282 0.11284257 -0.0076654996 0.058090944
0.22189026 0.01258259 -0.009396546 -0.014818986 0.10677818 0.1683464 -0.0073359404 -0.1846608
0.1658037 -0.009589018 0.036165025 0.06647924 0.21388882 -0.09626449 0.14454058 0.07039188
-0.13451484 0.095017605 -0.1177535 0.15199432 0.1505991 -0.106453285 0.15527886 -0.0053281775
-0.18232287 0.032952506 -0.014421365 -0.14071123 -0.009212853 0.16266239 -0.073614486 0.19223455
0.01693811 0.14824009 -0.048901156 -0.028319497 -0.010074016 -0.048841335 -0.025793081 -0.12211673
-0.07867104 -0.17845753 0.08908825 0.23553579 0.04094242 -0.12814961 0.04932861 -0.020697504
0.050045114 -0.02948673 0.15897386 0.08656837 0.17395489 0.12918594 -0.1544987 -0.10357031
-0.046989314 0.084888585 0.19940718 0.023439283 0.13061146 0.111685686 0.0061760857 -0.030621143
-0.044088505 0.11215819 0.11102499 0.18518907 0.03996219 0.09204346 0.1410886 -0.062675536
0.0695186 0.015909035 0.006913495 0.23999363 0.23539618 0.18323466 -0.1564053 0.016275134
-0.065394394 -0.1372606 0.13642104 0.09669071 0.020465415 -0.15310742 0.21520391 0.16724314
0.13159737 0.044073876 0.07402529 -0.10986504 0.058791213 -0.02565344 -0.07876487 0.20770201
-0.09375845 -0.19141708 0.14769326 0.023190929 -0.08779892 -0.22628129 0.037755985 0.08198767
-0.18531388 -0.14387758 -0.014380493 -0.0756075 0.13412142 -0.043411788 0.16801362 0.110264786
-0.04341831 0.10757085 -0.016364353 -0.23729274 -0.026960252 0.12144669 0.2136666 -0.16659226
-0.14297558 0.19974175 0.17811866 0.004448915 -0.14702131 0.058185417 -0.17663792 0.1637796
0.08009815 -0.15448073 0.096465215 -0.15453704 -0.06254644 0.12392983 0.01707521 -0.17258744
0.11049327 -0.09690986 -0.052997194 -0.138537 -0.1145656 0.13588856 -0.09278497 0.1462077
0.18416539 -0.03664797 -0.17111897 -0.0062959637 -0.006641607 0.18985116 0.00088774256 -0.11818544
-0.13771237 -0.1302589 0.018843386 -0.041150205 0.056530118 -0.16049416 0.14156397 0.047730226
-0.07566959 -0.13413659 0.077712506 0.044208255 0.13078912 0.20240085 0.13493656 0.14281258
-0.09236411 0.07496807 0.19846396 -0.21232861 -0.24038485 -0.03394755 0.17127483 -0.1788794
0.1789839 -0.1926114 0.13512972 -0.09481198 -0.062355105 -0.097568676 -0.08137554 0.11353573
-0.123878285 0.15194844 0.16926724 0.04317385 0.121461675 -0.042616628 0.17849171 0.1615832
-0.045633666 -0.17534535 -0.20809218 0.026455399 -0.06377113 0.0023931912 0.18142441 0.19991769
-0.17730206 0.20630534 -0.16762526 -0.24695712 0.088281564 0.021422839 0.117575265 0.033951238
-0.099577785 0.15662952 -0.0058694766 0.07933875 0.058619924 -0.032810595 -0.061770122 -0.014574104
00000000: 282a 81bd 312e f5bd 8d08 54be ca86 53be
00000010: acc6 c7bd 9e82 9d3d 9d9d 073e b597 753d
00000020: b368 673e 3293 36be 9e83 aabc 19e8 bb3d
00000030: dbba fe3d 2190 07bb bc0e 9fbd 6405 66be
00000040: dc80 333e 3a57 c73d b3ab dc3d a8c4 ca3c
00000050: a351 13bd ea5b a03c 403f d53d 7abf 7ebc
00000060: 3423 27be 1880 5b3e 16ad a4bd f69d 263e
00000070: 0f7d 8c3c 367c 873c c886 493e 2397 dcbd
00000080: 7177 33bd 5e51 2f3e 6dec 13be 159c b0bd
00000090: aff0 33be 011a e73d df2e fbbb c5f0 6d3d
000000a0: 3337 633e 3527 4e3c f8f3 19bc 55cb 72bc
000000b0: 85ae da3d 0063 2c3e 5462 f0bb b917 3dbe
000000c0: 72c8 293e 421b 1dbc c721 143d 4526 883d
000000d0: ac05 5b3e 5126 c5bd 7202 143e 9e29 903d
000000e0: 42be 09be 9798 c23d bf28 f1bd 66a4 1b3e
000000f0: a736 1a3e 2e04 dabd 6c01 1f3e fe97 aebb
00000100: d9b2 3abe 35f9 063d 9747 6cbc 9b16 10be
00000110: 82f1 16bc f890 263e 31c3 96bd 22d9 443e
00000120: cbc1 8a3c 40cc 173e 944c 48bd 4afe e7bc
00000130: 7c0d 25bc da0d 48bd 034c d3bc 5618 fabd
00000140: 481e a1bd 92bd 36be e773 b63d 4b30 713e
00000150: 3db3 273d a739 03be cc0c 4a3d d08d a9bc
00000160: 1bfc 4c3d 288e f1bc 0bca 223e c24a b13d
00000170: 3b21 323e 5249 043e e834 1ebe ac1c d4bd
00000180: de77 40bd 11da ad3d 6531 4c3e bd03 c03c
00000190: 03bf 053e 77bb e43d c360 ca3b 31d9 fabc
000001a0: 2696 34bd 31b3 e53d 1261 e33d 34a2 3d3e
000001b0: 65af 233d 4881 bc3d 8879 103e 085c 80bd
000001c0: c55f 8e3d aa53 823c 998a e23b e4c0 753e
000001d0: b20b 713e dea1 3b3e b628 20be 6e53 853c
000001e0: 7fed 85bd 0b8e 0cbe f5b1 0b3e c705 c63d
000001f0: 16a7 a73c 31c8 1cbe 6a5e 5c3e c941 2b3e
00000200: 76c1 063e cf86 343d 929a 973d ec00 e1bd
00000210: 0ecf 703d 2a27 d2bc 7a4f a1bd d6af 543e
00000220: 6e04 c0bd d702 44be e73c 173e e7fa bd3c
00000230: eccf b3bd 48b6 67be 05a6 1a3d 27e9 a73d
00000240: ecc2 3dbe a554 13be 299c 6bbc 1bd8 9abd
00000250: 2057 093e 8fd0 31bd c30b 2c3e 81d2 e13d
00000260: 66d7 31bd 1b4e dc3d 890e 86bc defc 72be
00000270: bfdb dcbc 0bb9 f83d 6bcb 5a3e 2997 2abe
00000280: 3168 12be 1a89 4c3e bd64 363e 34c8 913b
00000290: c18c 16be d553 6e3d 92e0 34be d7b5 273e
000002a0: 800a a43d 3230 1ebe 8e8f c53d f53e 1ebe
000002b0: 5918 80bd ecce fd3d 50e1 8b3c c3ba 30be
000002c0: 4c4a e23d ad78 c6bd 9613 59bd a5dc 0dbe
000002d0: 5fa1 eabd 5f26 0b3e 0c06 bebd 79b7 153e
000002e0: da95 3c3e 2f1c 16bd d039 2fbe 5f4e cebb
000002f0: d6a1 d9bb 5868 423e 65b7 683a 350b f2bd
00000300: 7904 0dbe 9762 05be 725d 9a3c 1e8d 28bd
00000310: 208c 673d 9558 24be 25f6 103e c580 433d
00000320: a8f8 9abd 1a5b 09be bc27 9f3d b713 353d
00000330: 95ed 053e 2b42 4f3e cf2c 0a3e 763d 123e
00000340: 6529 bdbd dc88 993d 233a 4b3e ac6c 59be
00000350: 7227 76be 960c 0bbd ab62 2f3e 292c 37be
00000360: 8e47 373e ec3b 45be 725f 0a3e c92c c2bd
00000370: 1168 7fbd 16d2 c7bd 38a8 a6bd 6c85 e83d
00000380: e6b3 fdbd 5f98 1b3e 6454 2d3e 10d7 303d
00000390: e6c0 f83d c68e 2ebd 88c6 363e 1176 253e
000003a0: 5eea 3abd bb8d 33be 1e16 55be feb8 d83c
000003b0: 709a 82bd 16d7 1c3b 52c7 393e 39b7 4c3e
000003c0: ac8e 35be b541 533e f5a5 2bbe 54e2 7cbe
000003d0: f7cc b43d f37e af3c 4dcb f03d 7410 0b3d
000003e0: 70ef cbbd 7d63 203e bd54 c0bb 5b7c a23d
000003f0: 721b 703d 6764 06bd ab02 7dbd 39c8 6ebc

transformer_encoder.layers.0.self_attn.in_proj_bias f4 [96]
0.010698233 0.025021803 0.016059054 0.018513482 0.020533087 0.017588144 -0.019495422 -0.019428479
0.018787658 -0.013456029 0.008717882 0.016113492 0.01721285 0.010527561 -0.015328381 0.014944261
0.0012273813 -0.016333677 -0.0019761033 0.0070165643 -0.0052757184 -0.0013898322 -0.008463457 0.0027614026
-0.0089815315 -0.0018490624 0.007983333 0.004188004 0.004739531 -0.026785942 0.008784035 -0.0012357247
0.008762301 0.009503934 0.009185481 0.008595962 0.009673617 -0.0051944274 -0.009772386 -0.009341701
0.009476792 -0.008942641 0.007592541 -0.008752414 0.009167903 -0.009295112 0.0031282865 0.009911741
-0.00947803 -0.009715281 0.012515813 0.013749333 -0.0147446515 0.013213701 -0.000909131 -0.009131573
-0.01345282 -0.012807707 0.010274372 -0.011471104 0.0138418395 -0.010857371 0.014228195 0.008961867
-0.008980103 -0.011349941 -0.013460047 -0.007789902 -0.010052536 -0.0013193184 -0.017796004 -0.006808632
-0.0074012023 -0.0037437268 -0.015622309 0.0073050554 0.01058689 0.027505843 0.00694791 -0.015535318
-0.022627944 -0.012487766 -0.014330499 -0.016974296 0.021541342 -0.008344029 0.013173192 0.014665433
-0.011106733 0.009135108 0.005323308 -0.0040054396 0.0055127097 -0.02050659 -0.014571677 -0.0119480295
00000000: a447 2f3c 86fa cc3c 478e 833c 96a9 973c
00000010: 0135 a83c 0315 903c ddb4 9fbc 7928 9fbc
00000020: 93e8 993c ad76 5cbc 73d5 0e3c 7100 843c
00000030: f601 8d3c cb7b 2c3c e423 7bbc c6d8 743c
00000040: 15e0 a03a 34ce 85bc 8381 01bb 35eb e53b
00000050: efdf acbb 082b b6ba 50aa 0abc a6f8 343b
00000060: 4627 13bc 3d5c f2ba 87cc 023c 863b 893b
00000070: 114e 9b3b 316e dbbc eaea 0f3c 0af8 a1ba
00000080: c18f 0f3c 63b6 1b3c b37e 163c 14d6 0c3c
00000090: 177e 1e3c 0436 aabb 5c1c 20bc ef0d 19bc
000000a0: 8c44 1b3c 2884 12bc daca f83b 4966 0fbc
000000b0: f934 163c 874a 18bc f003 4d3b db64 223c
000000c0: bd49 1bbc d82c 1fbc 200f 4d3c e244 613c
000000d0: 8d93 71bc 477e 583c c052 6eba 989c 15bc
000000e0: 3769 5cbc 6bd7 51bc d755 283c 4cf1 3bbc
000000f0: e2c8 623c 1de3 31bc 601d 693c cbd4 123c
00000100: 4821 13bc 1af5 39bc 8787 5cbc 6f42 ffbb
00000110: 64b3 24bc fbec acba edc8 91bc f21a dfbb
00000120: c985 f2bb 5059 75bb b7f4 7fbc 3f5f ef3b
00000130: a374 2d3c ef53 e13c 4bab e33b d987 7ebc
00000140: 3d5e b9bc 7d99 4cbc 78ca 6abc ae0d 8bbc
00000150: 7877 b03c 65b5 08bc 5fd4 573c 4947 703c
00000160: 04f9 35bc 6cab 153c 256f ae3b 1040 83bb
00000170: f6a3 b43b 70fd a7bc 0bbe 6ebc abc1 43bc

transformer_encoder.layers.0.self_attn.out_proj.weight f4 [32, 32]
0.09148708 -0.022867229 -0.15571517 -0.13510484 -0.006576002 -0.17859761 -0.096292734 0.035772324
0.08166765 0.14404531 -0.097833075 -0.15804891 0.09284395 -0.08187961 -0.046010528 0.18528022
0.0757848 0.095852576 0.13279882 0.15956649 0.06865125 0.09383082 0.107426114 0.027796933
0.11949486 -0.074695975 -0.06785677 -0.10568261 -0.000112022186 -0.05078525 0.04886623 0.09717569
-0.077861376 -0.11187059 -0.080322094 -0.13033824 -0.09500174 -0.060981605 -0.08721429 -0.09376959
0.10806787 0.03702728 0.12746331 -0.15362144 0.024124196 0.16251013 -0.04075995 0.13916743
-0.093088925 -0.11234474 0.024392717 0.06971536 -0.003881912 -0.048877764 0.0011703377 0.0132716345
-0.060495377 -0.086429715 -0.05035285 -0.04230627 0.07285284 0.06694405 0.07443498 -0.11198932
0.08694955 0.07270066 -0.052247174 0.14960721 0.14272659 -0.14350015 0.08509923 0.15248206
-0.09724178 -0.056655936 0.035934955 -0.059945304 -0.09772413 0.0047209286 0.14916764 0.06258359
0.051411822 0.12566116 0.036082294 0.14620182 -0.040124808 0.12676838 -0.090862885 0.16383982
-0.16136855 -0.09986001 -0.14076632 -0.014433365 -0.15086092 -0.039300155 0.05762193 0.12992686
-0.16342883 -0.10811922 0.12320465 -0.07652813 0.10375289 0.05387372 0.013022742 0.05312562
-0.11397912 -0.0048626717 -0.07962649 -0.15679164 0.13095388 -0.0066690855 -0.09577711 -0.13629237
-0.13130046 -0.06002485 -0.15877064 -0.10136736 0.14062493 0.093561135 0.0377771 0.16143851
-0.05616642 -0.06667646 0.18557817 0.010754742 -0.05732482 -0.08679919 -0.08374158 -0.036061987
0.0923677 -0.06498578 -0.033970505 0.14933681 -0.037662387 -0.04848759 0.013651522 0.11479014
0.028771896 0.11344465 -0.10493954 -0.09721937 0.08613333 0.12657544 -0.15054071 -0.0946007
0.03357132 0.03200897 -0.02221991 -0.05024587 0.10526891 -0.010901144 -0.03394855 0.071498744
-0.06949939 0.12382427 -0.11199406 0.006970733 0.16665472 0.10574113 0.022271864 0.16227964
-0.11747141 -0.08546994 -0.07213587 0.064722575 0.03460523 0.05313217 0.08431865 0.029921751
0.08842671 -0.076537535 0.104117244 -0.06650971 -0.10474795 -0.15368156 0.0649842 -0.07792819
0.020240327 0.010182769 -0.051321376 0.07343522 0.032148767 -0.16160348 -0.058039837 -0.0871636
-0.18659887 -0.14014658 -0.14711016 0.00018281769 0.07679748 -0.07972777 -0.06451185 -0.04101808
-0.11974022 -0.030804755 0.093520805 -0.024357874 0.06175608 -0.12896742 0.08053599 0.040758897
0.025250774 -0.18151416 0.07631114 0.036920827 -0.1556 0.09113402 0.13114157 0.00979141
-0.10615501 -0.06409439 -0.15156823 -0.15512282 0.040355902 -0.036996808 0.058591004 -0.09339947
0.1619277 -0.16374604 0.1490847 0.06477283 0.027866276 -0.025197946 -0.013295306 -0.06550691
-0.003176044 -0.078074485 0.051938888 0.06278278 -0.14026856 0.021627247 0.02366599 0.01506788
0.08718173 -0.14500755 -0.13613188 0.03620567 -0.079893254 0.019283697 0.053696707 -0.07103373
-0.13091952 0.11364614 -0.008905444 0.011351703 -0.112944394 -0.05916015 0.10478217 0.13590725
-0.16389492 -0.17276016 0.116000414 0.106414266 0.13973464 0.06487671 0.02079068 -0.054357253
00000000: 945d bb3d 0e54 bbbc cc73 1fbe ec58 0abe
00000010: 817b d7bb 4be2 36be 2035 c5bd 0086 123d
00000020: 5e41 a73d 9d80 133e b55c c8bd 93d7 21be
00000030: f824 be3d 7fb0 a7bd 8975 3cbd 19ba 3d3e
00000040: 1035 9b3d 5b4e c43d 6afc 073e 6665 233e
00000050: 0799 8c3d 5f2a c03d 3902 dc3d 65b6 e33c
00000060: b9b9 f43d 34fa 98bd 7df8 8abd 2070 d8bd
00000070: 74ed eab8 3204 50bd f527 483d 0c04 c73d
00000080: c975 9fbd 681c e5bd e97f a4bd 6377 05be
00000090: 4690 c2bd d9c7 79bd 689d b2bd 450a c0bd
000000a0: b052 dd3d eba9 173d be85 023e f04e 1dbe
000000b0: 1ba0 c53c 0e69 263e e8f3 26bd e881 0e3e
000000c0: 68a5 bebd 0015 e6bd 3cd3 c73c edc6 8e3d
000000d0: ad67 7ebb 0d34 48bd 0466 993a 4571 593c
000000e0: 00ca 77bd 1002 b1bd ca3e 4ebd 5749 2dbd
000000f0: df33 953d f619 893d 5e71 983d a85a e5bd
00000100: 9b12 b23d 15e4 943d 2201 56bd a232 193e
00000110: eb26 123e b4f1 12be 8148 ae3d 4224 1c3e
00000120: b326 c7bd 0e10 68bd 8830 133d 3589 75bd
00000130: 9723 c8bd 05b2 9a3b 67bf 183e d32b 803d
00000140: 3495 523d 52ad 003e 07cb 133d eeb5 153e
00000150: e959 24bd 92cf 013e 5216 babd a0c5 273e
00000160: cc3d 25be 6883 ccbd 0c25 10be ec79 6cbc
00000170: 497b 1abe 33f9 20bd f904 6c3d 8c0b 053e
00000180: e359 27be 9c6d ddbd b852 fc3d c8ba 9cbd
00000190: 657c d43d b1aa 5c3d 575d 553c 409a 593d
000001a0: e36d e9bd 0c57 9fbb 3713 a3bd fd8d 20be
000001b0: c618 063e 5888 dabb ca26 c4bd 3a90 0bbe
000001c0: a173 06be 9edc 75bd c594 22be b199 cfbd
000001d0: fbff 0f3e fb9c bf3d 29bc 1a3d 2350 253e
000001e0: c30e 66bd ab8d 88bd 3408 3e3e a834 303c
000001f0: 6ecd 6abd c6c3 b1bd b580 abbd bcb5 13bd
00000200: 472b bd3d 4417 85bd a824 0bbd c0eb 183e
00000210: e043 1abd ec9a 46bd a2aa 5f3c 1817 eb3d
00000220: 0ab3 eb3c ab55 e83d 8bea d6bd f31a c7bd
00000230: ac66 b03d fe9c 013e 5827 1abe 03be c1bd
00000240: 1582 093d d61b 033d 8706 b6bc 9dce 4dbd
00000250: 3a97 d73d b69a 32bc a20d 0bbd ef6d 923d
00000260: b255 8ebd 9497 fd3d 245d e5bd bf6a e43b
00000270: 89a7 2a3e ce8e d83d 7c73 b63c a22c 263e
00000280: da94 f0bd dd0a afbd f9bb 93bd 458d 843d
00000290: 37be 0d3d 1ea1 593d 42af ac3d 761e f53c
000002a0: 1019 b53d b6bf 9cbd 6c3b d53d 3e36 88bd
000002b0: 1886 d6bd b35e 1dbe 7016 853d d198 9fbd
000002c0: 0bcf a53c a1d5 263c 5d36 52bd 3465 963d
000002d0: 6dae 033d 627b 25be 2ebb 6dbd d482 b2bd
000002e0: c613 3fbe 9682 0fbe 0ca4 16be c0b2 3f39
000002f0: ff47 9d3d 5048 a3bd ca1e 84bd 9302 28bd
00000300: 5c3a f5bd 415a fcbc d687 bf3d 2a8a c7bc
00000310: f1f3 7c3d 0910 04be 0ef0 a43d cdf2 263d
00000320: b6da ce3c d9de 39be 0449 9c3d 4b3a 173d
00000330: 9b55 1fbe 79a4 ba3d fa49 063e 266c 203c
00000340: cc67 d9bd eb43 83bd b434 1bbe 84d8 1ebe
00000350: 3b4c 253d f789 17bd 1ffd 6f3d 3948 bfbd
00000360: 60d0 253e 0bad 27be a9a9 183e 9ea7 843d
00000370: d147 e43c ec6b cebc 8ed4 59bc 7d28 86bd
00000380: 2d25 50bb 84e5 9fbd dfbd 543d 4294 803d
00000390: 90a2 0fbe a02b b13c 2edf c13c 45df 763c
000003a0: 568c b23d dc7c 14be 2866 0bbe 664c 143d
000003b0: 139f a3bd d8f8 9d3c 14f1 5b3d 227a 91bd
000003c0: c40f 06be 4fbf e83d 24e8 11bc 7efc 393c
000003d0: 644f e7bd ea51 72bd 0998 d63d 452b 0b3e
000003e0: 12d4 27be 0ae8 30be a091 ed3d b9ef d93d
000003f0: 9916 0f3e 15de 843d 3751 aa3c b6a5 5ebd

transformer_encoder.layers.0.self_attn.out_proj.bias f4 [32]
0.010140628 0.019061435 -0.01764942 0.018192055 0.0046944697 -0.021519199 0.006723568 -0.0018291697
-0.020655124 -0.0029917832 0.007077401 0.0060748844 -0.016605493 0.010616301 0.013017465 0.008321081
0.0017892012 0.004044118 -0.010777738 -0.012089486 -0.029722717 0.0067560035 0.0025625157 -0.00993307
0.019849284 -0.0022597883 -0.0065850313 0.008616142 -0.0139699625 -0.020102242 -0.014393779 0.03250845
00000000: e024 263c ba26 9c3c 8495 90bc 8107 953c
00000010: 11d4 993b 0849 b0bc 6051 dc3b c0c0 efba
00000020: ef34 a9bc cb11 44bb 8be9 e73b d30f c73b
00000030: 3e08 88bc feef 2d3c 3547 553c 2555 083c
00000040: a183 ea3a 8584 843b 1c95 30bc fb12 46bc
00000050: 0e7d f3bc 7761 dd3b e1ef 273b 51be 22bc
00000060: f79a a23c f518 14bb 3fc7 d7bb b82a 0d3c
00000070: 45e2 64bc 75ad a4bc e3d3 6bbc 9527 053d

transformer_encoder.layers.0.linear1.weight f4 [32, 32]
-0.010237241 0.12852432 -0.001924431 -0.16587295 0.024494296 0.18014549 0.10359825 0.07287438
-0.063049026 0.10409519 -0.1654745 -0.035679504 0.17919463 0.004473479 0.22732605 -0.11610298
0.1258733 0.16116713 0.18085249 -0.06944331 -0.12090551 -0.016243434 0.0056755506 0.093911715
-0.1426499 -0.12526359 0.11628305 0.15992574 -0.09683313 -0.15117832 0.014368115 -0.076528326
-0.055207 0.03247108 -0.017336167 -0.09808369 0.13126434 -0.02875229 -0.123112425 0.069723815
0.06661052 0.025315424 0.1655643 0.11018899 -0.14478424 -0.14856763 -0.033810046 -0.11866482
0.18017602 0.06434452 0.13461865 -0.09606512 -0.0046381583 0.10236911 -0.049918514 0.044169225
0.09711747 0.11248823 0.12770101 0.025588786 -0.15265283 -0.05155051 -0.15306625 0.001503993
0.008296796 0.02388794 0.030562831 0.0038729676 -0.056345124 -0.075231954 -0.0044420427 0.027115142
-0.000530451 -0.10332337 -0.050704077 0.17756642 -0.05004684 0.048749156 -0.103909045 0.08251464
-0.0888147 0.024456076 -0.08826693 0.030408774 0.090767264 0.19615822 -0.016164681 0.09551249
0.11013983 -0.04371076 -0.018103812 -0.15151273 0.10481422 0.14554782 0.103968054 0.16623333
-0.19730388 0.10434299 0.08733384 -0.06812062 0.17737053 -0.11947453 0.16458698 0.1317128
0.1567439 -0.011697852 0.1464218 0.10980049 -0.14496285 -0.15209608 -0.124226786 -0.08658253
-0.076446496 -0.13788298 -0.09027616 0.15217786 0.11392266 -0.036718924 -0.15106829 -0.08469898
0.00852191 0.13961075 0.006026134 -0.06659557 -0.06461012 -0.111632675 -0.07030228 -0.06670043
-0.01934247 -0.13396148 -0.12247033 -0.1582037 -0.023100656 -0.112920105 -0.007118464 -0.17190427
0.08238074 0.028152121 0.12124463 0.17848448 -0.020605693 0.09480525 -0.14547762 -0.11675768
-0.027501699 0.03051947 0.104004845 0.014268949 -0.1001714 -0.08589061 0.14163837 0.007260039
-0.08641136 -0.0490313 0.15384357 0.082926705 -0.13826466 0.124857664 -0.16811413 0.009472894
0.012451116 -0.0025972067 -0.10635978 -0.1659159 -0.16279511 0.063367434 -0.0842113 -0.14001383
-0.06714583 0.021989798 -0.029158503 -0.20840162 0.14983778 0.0147892665 -0.08101069 -0.07117282
0.019349277 0.0441865 -0.017733306 -0.06562578 -0.10979035 -0.13221124 0.15901498 0.031844415
-0.17114133 0.053059045 -0.095104165 -0.10514843 0.12299384 -0.16312264 0.06894149 0.03627661
-0.03195266 -0.08828976 0.0060090884 0.13369428 -0.07546274 0.08162763 -0.071071945 -0.014494267
-0.12098685 -0.13408765 -0.17534152 0.09742024 -0.12243238 0.15916274 0.020979527 -0.06855233
0.036516894 0.07858246 -0.1329367 0.17264077 0.102512166 -0.038574744 0.1399398 -0.17588088
-0.09035821 -0.056824602 0.068572305 0.06352991 0.014881877 -0.17304367 -0.094904065 -0.059030056
0.11142292 0.1003045 -0.13870853 0.00048049923 0.0040830905 0.14121245 0.14904518 -0.033753254
0.022926014 -0.04127794 0.07173153 -0.15498759 0.012638426 -0.027340775 -0.08789487 0.01533811
0.1530454 -0.1474989 -0.017791605 -0.0038013603 -0.046019975 0.021839194 -0.16321108 0.039700437
0.1192341 -0.12735905 0.017081065 -0.06463007 0.15125215 -0.030678686 -0.007993932 -0.0850275
00000000: 1aba 27bc e19b 033e 303d fcba 99da 29be
00000010: 43a8 c83c 0f78 383e 522b d43d 2a3f 953d
00000020: d91f 81bd dc2f d53d 2672 29be ac24 12bd
00000030: cc7e 373e 4396 923b 29c8 683e 66c7 edbd
00000040: eee4 003e ff08 253e 6531 393e 4b38 8ebd
00000050: 4f9d f7bd f310 85bc f8f9 b93b c954 c03d
00000060: d112 12be 1945 00be cf25 ee3d 93c3 233e
00000070: 7350 c6bd 7dce 1abe 3e68 6b3c e2ba 9cbd
00000080: bc20 62bd 6500 053d 9404 8ebc 1ae0 c8bd
00000090: 296a 063e ec89 ebbc 5e22 fcbd 5ccb 8e3d
000000a0: 196b 883d 4b62 cf3c b089 293e c4aa e13d
000000b0: 5242 14be 1d22 18be 677c 0abd 8b06 f3bd
000000c0: 1080 383e 0fc7 833d 79d9 093e cabd c4bd
000000d0: b1fb 97bb e5a6 d13d 5b77 4cbd caea 343d
000000e0: 86e5 c63d 3b60 e63d 0ec4 023e 939f d13c
000000f0: 0651 1cbe a126 53bd 66bd 1cbe a121 c53a
00000100: 49ef 073c a4b0 c33c e75e fa3c 9dd1 7d3b
00000110: 25ca 66bd 3613 9abd 8e8e 91bb 9320 de3c
00000120: f70d 0bba 349b d3bd 14af 4fbd f9d3 353e
00000130: eafd 4cbd 32ad 473d 44ce d4bd 70fd a83d
00000140: 7be4 b5bd 1c58 c83c 4bc5 b4bd d21b f93c
00000150: 30e4 b93d b3dd 483e cb6b 84bc 0d9c c33d
00000160: fe90 e13d 0e0a 33bd 724e 94bc 2726 1bbe
00000170: d6a8 d63d 7d0a 153e 34ed d43d 1239 2a3e
00000180: 070a 4abe c7b1 d53d 16dc b23d d382 8bbd
00000190: 9fa0 353e 10af f4bd 7d89 283e b8df 063e
000001a0: 7981 203e 59a8 3fbc 99ef 153e 14df e03d
000001b0: 2471 14be 13bf 1bbe 9d6a febd 2e52 b1bd
000001c0: fb8f 9cbd 3231 0dbe b5e2 b8bd 83d4 1b3e
000001d0: 4950 e93d 9566 16bd a5b1 1abe a976 adbd
000001e0: 7b9f 0b3c 1ff6 0e3e e076 c53b 4263 88bd
000001f0: 5052 84bd ac9f e4bd a4fa 8fbd 3c9a 88bd
00000200: 1a74 9ebc 332d 09be b9d1 fabd 2700 22be
00000210: 963d bdbc a842 e7bd 0142 e9bb ac07 30be
00000220: 3cb7 a83d 479f e63c 1b4f f83d a3c4 363e
00000230: 45cd a8bc 4129 c23d 16f8 14be a71e efbd
00000240: 3e4b e1bc f803 fa3c 7e00 d53d 4fc8 693c
00000250: aa26 cdbd 6be7 afbd a609 113e 9fe5 ed3b
00000260: 70f8 b0bd 0bd5 48bd 2b89 1d3e 7ad5 a93d
00000270: 4095 0dbe 60b5 ff3d 1c26 2cbe 3234 1b3c
00000280: c4ff 4b3c e635 2abb 28d3 d9bd dce5 29be
00000290: c3b3 26be c9c6 813d f976 acbd c95f 0fbe
000002a0: c183 89bd f323 b43c d0dd eebc 3c67 55be
000002b0: 136f 193e ae4e 723c efe8 a5bd 0ec3 91bd
000002c0: 6082 9e3c e7fc 343d 7045 91bc cf66 86bd
000002d0: c3d9 e0bd 6262 07be d3d4 223e 4a6f 023d
000002e0: ac3f 2fbe 7154 593d f9c5 c2bd 0f58 d7bd
000002f0: 32e4 fb3d 9f09 27be 3231 8d3d c896 143d
00000300: cbe0 02bd 43d1 b4bd e3e7 c43b 27e7 083e
00000310: 368c 9abd 632c a73d 2b8e 91bd 5d79 6dbc
00000320: f4c7 f7bd 464e 09be ba8c 33be 4384 c73d
00000330: d4bd fabd 8ffb 223e 42dd ab3c 2a65 8cbd
00000340: bd92 153d d7ef a03d 8f20 08be bec8 303e
00000350: e6f1 d13d 8d00 1ebd 614c 0f3e 1e1a 34be
00000360: ba0d b9bd eac0 68bd a36f 8c3d f81b 823d
00000370: 1ed3 733c 5c32 31be 105d c2bd 80c9 71bd
00000380: b331 e43d 726c cd3d 9c09 0ebe 84eb fb39
00000390: 72cb 853b ff99 103e 4d9f 183e da40 0abd
000003a0: 56cf bb3c 0f13 29bd fbe7 923d 11b5 1ebe
000003b0: 6711 4f3c c3f9 dfbc 3a02 b4bd b24c 7b3c
000003c0: efb7 1c3e f409 17be b3bf 91bc 3e20 79bb
000003d0: 717f 3cbd 1ce8 b23c ce20 27be ed9c 223d
000003e0: 0231 f43d 696a 02be 97ed 8b3c c55c 84bd
000003f0: d8e1 1a3e de51 fbbc fbf8 02bc e622 aebd

transformer_encoder.layers.0.linear1.bias f4 [32]
0.027113805 0.004032433 0.038316973 0.13696226 -0.055163663 -0.12723942 -0.0018615543 0.1623412
-0.14289951 0.04246792 0.1716789 -0.08598 0.14089382 -0.0919343 0.14494878 -0.14690392
0.15589723 -0.16013488 -0.110520765 -0.14121756 -0.1536952 0.1257358 -0.16251214 0.035750557
0.07592447 -0.08323153 -0.077083215 -0.16331878 -0.0846285 -0.17462854 -0.15834923 0.0018739895
00000000: c51d de3c 8022 843b 42f2 1c3d d63f 0c3e
00000010: 4bf3 61bd 0d4b 02be 66ff f3ba c63c 263e
00000020: 4054 12be d7f2 2d3d 98cc 2f3e 4816 b0bd
00000030: 7846 103e 0d48 bcbd 746d 143e fb6d 16be
00000040: 86a3 1f3e 66fa 23be b658 e2bd 569b 10be
00000050: 4662 1dbe e3c0 003e 9569 26be 2d6f 123d
00000060: 4a7e 9b3d 4b75 aabd cedd 9dbd 0a3d 27be
00000070: b551 adbd d3d1 32be 4d26 22be a7a0 f53a

transformer_encoder.layers.0.linear2.weight f4 [32, 32]
0.066921026 -0.015921049 -0.083014295 -0.043569908 -0.060105022 -0.094593674 -0.045532107 0.13549241
0.16361341 0.06798054 0.115596175 0.0029985383 0.039636906 0.037873723 -0.079605475 0.10349603
0.080272496 0.029652925 -0.09840881 0.1164374 0.09288706 -0.08638247 0.14872915 -0.15096048
-0.0019419531 -0.023448141 0.08061432 -0.09519024 0.1610167 0.034957215 -0.11802781 0.17411642
-0.04724007 -0.11461819 0.053815562 -0.028057497 0.083756715 -0.14786236 0.058611665 0.04246001
0.016293906 0.12323309 -0.08380714 0.14952147 -0.045734905 0.08652406 -0.038036365 0.06496572
0.10584513 -0.1134801 -0.060078714 -0.15379952 0.009776513 -0.0404046 -0.056108546 -0.061047427
-0.010931217 -0.15709086 0.15443678 -0.013631491 -0.058405697 -0.040060308 -0.107783094 -0.0745487
0.041327354 0.058707245 -0.20288527 -0.05148316 0.17432709 0.093892805 -0.09192689 0.06711647
0.04369074 0.09751567 -0.03636293 0.04246992 -0.084045246 -0.15838258 0.06002109 0.05495736
0.16619433 -0.12309459 -0.19157308 -0.10985093 0.12122593 0.0847954 0.15172298 -0.18604153
-0.18621446 -0.011842198 0.006560745 0.1388365 0.023145018 0.010556767 -0.07930693 -0.023152828
-0.027856374 -0.008677986 -0.105583005 -0.031667624 -0.12909603 0.10552529 -0.085145995 0.033990335
0.1726848 -0.21457526 0.1427926 0.08253345 -0.0030950042 0.08229254 0.0684944 -0.136781
-0.06881432 -0.12341612 0.12945345 0.12450791 -0.11360162 0.11503603 0.06321118 0.00029095594
0.009570835 0.12887871 -0.15960751 -0.10091255 0.14402324 -0.010986421 -0.02789908 -0.11543187
-0.18568127 0.0025030512 -0.0557871 0.11260512 0.17632763 -0.0054066526 0.09539339 0.14491972
0.030776856 0.06774063 0.12423109 -0.15543976 -0.12359725 -0.019753123 -0.22159131 0.06165199
-0.22825328 0.05913846 0.20204097 -0.03762289 0.089373656 -0.024678184 -0.027452549 0.1014207
0.0797893 -0.04397662 0.1225115 0.060853086 0.15431671 -0.14032629 0.11873826 0.09421227
-0.096999355 0.17499064 -0.029552821 -0.09415157 -0.036334433 -0.048374645 0.07318033 -0.024920492
-0.15108345 0.13290365 0.08297561 -0.05928163 -0.039185047 0.12672073 0.15290417 -0.013521395
0.09781671 -0.11919004 -0.09777701 0.1742577 -0.002799551 0.1411181 0.020756058 0.035476014
-0.050447177 -0.11764842 0.15772216 -0.017535875 0.03437163 0.13631113 0.1224418 -0.098431945
0.26362917 0.006163507 0.029877268 0.07721761 0.0761461 0.17124292 -0.05518647 -0.012811521
0.20006934 0.07958562 0.010689825 -0.06707585 0.0106894225 0.15563017 0.0068035205 0.123700105
0.23925504 -0.14490235 0.021657156 -0.07266197 0.0004060867 0.085645005 0.06793595 -0.13760641
-0.09003486 0.034803864 -0.1357991 0.021529315 0.1981163 -0.081336625 0.083611816 -0.1659231
-0.22465374 0.14221676 0.06265268 0.11916784 0.016920768 -0.17914307 0.06515803 0.041015945
0.12500082 0.1353081 -0.12151988 0.12431842 -0.13559732 -0.09292469 -0.2287593 0.06238368
-0.24343018 0.13269259 0.013277217 -0.06922177 -0.12712765 -0.16783357 -0.1397266 0.17403188
0.058582578 -0.04148415 -0.028983377 -0.16001168 0.057700127 -0.049456734 -0.064058505 0.081217505
00000000: e40d 893d dc6c 82bc 6603 aabd 5c76 32bd
00000010: af30 76bd 54ba c1bd e07f 3abd 86be 0a3e
00000020: 468a 273e 6239 8b3d b0bd ec3d 2083 443b
00000030: 4f5a 223d 7a21 1b3d 3208 a3bd baf5 d33d
00000040: e865 a43d b1ea f23c 8f8a c9bd bb76 ee3d
00000050: 923b be3d 4be9 b0bd 744c 183e 6295 1abe
00000060: 2289 feba 5116 c0bc 1f19 a53d 1af3 c2bd
00000070: 90e1 243e 4c2f 0f3d 90b8 f1bd 934b 323e
00000080: ce7e 41bd f1bc eabd b56d 5c3d d6d8 e5bc
00000090: a488 ab3d 3b69 17be c912 703d 8cea 2d3d
000000a0: cc7a 853c a161 fc3d 14a3 abbd 281c 193e
000000b0: 8654 3bbd 8733 b13d 05cc 1bbd bf0c 853d
000000c0: 55c5 d83d 4168 e8bd 1915 76bd 9f7d 1dbe
000000d0: ab2d 203c 4b7f 25bd 13d2 65bd de0c 7abd
000000e0: d918 33bc 6ddc 20be ad24 1e3e 9e56 5fbc
000000f0: d03a 6fbd 4716 24bd 62bd dcbd fdac 98bd
00000100: df46 293d 0277 703d 28c1 4fbe 02e0 52bd
00000110: cd82 323e df4a c03d 2a44 bcbd 5c74 893d
00000120: 10f5 323d 4cb6 c73d 4cf1 14bd f0f4 2d3d
00000130: ea1f acbd 0b2f 22be add8 753d f81a 613d
00000140: d92e 2a3e 0419 fcbd bc2b 44be 86f9 e0bd
00000150: 4d45 f83d 36a9 ad3d 455d 1b3e ac81 3ebe
00000160: 01af 3ebe c705 42bc 85fb d63b 282b 0e3e
00000170: 9f9a bd3c 4af6 2c3c ac6b a2bd 00ab bdbc
00000180: 0d33 e4bc 1d2e 0ebc e73b d8bd e9b5 01bd
00000190: c031 04be a51d d83d 0661 aebd 7339 0b3d
000001a0: 49d4 303e 9eb9 5bbe 3938 123e 4c07 a93d
000001b0: 8ed5 4abb fe88 a83d cb46 8c3d 5210 0cbe
000001c0: 86ee 8cbd 97c1 fcbd 728f 043e 01fe fe3d
000001d0: f7a7 e8bd 0398 eb3d dd74 813d 728b 9839
000001e0: fece 1c3c c8f8 033e 2770 23be 3dab cebd
000001f0: d47a 133e 6400 34bc 9d8c e4bc 8b67 ecbd
00000200: 3b23 3ebe 3b0a 243b 0481 64bd 839d e63d
00000210: 3b8f 343e 4a2a b1bb 9c5d c33d d665 143e
00000220: bf1f fc3c 99bb 8a3d df6c fe3d 9a2b 1fbe
00000230: 8e20 fdbd 4dd1 a1bc d5e8 62be cc86 7c3d
00000240: 3abb 69be 2b3b 723d d4e3 4e3e 761a 1abd
00000250: 8909 b73d e729 cabc 2be4 e0bc a8b5 cf3d
00000260: 9368 a33d d420 34bd 4fe7 fa3d 1641 793d
00000270: 3305 1e3e b2b1 0fbe 0b2d f33d 5df2 c03d
00000280: 99a7 c6bd bf30 333e c218 f2bc 8ad2 c0bd
00000290: 6ad3 14bd 7e24 46bd 92df 953d 0f26 ccbc
000002a0: 9fb5 1abe e517 083e 1eef a93d 4bd1 72bd
000002b0: 8080 20bd 14c3 013e e992 1c3e d788 5dbc
000002c0: 2154 c83d e819 f4bd 503f c8bd 9c70 323e
000002d0: ac78 37bb 4381 103e 9c08 aa3c 4c4f 113d
000002e0: b3a1 4ebd a8f1 f0bd eb81 213e 65a7 8fbc
000002f0: 44c9 0c3d 2595 0b3e c4c2 fa3d b096 c9bd
00000300: 67fa 863e 3ef7 c93b 2cc1 f43c 4424 9e3d
00000310: 7df2 9b3d 4e5a 2f3e 350b 62bd 6ae7 51bc
00000320: fade 4c3e c9fd a23d 6024 2f3c 105f 89bd
00000330: b022 2f3c 845d 1f3e 11f0 de3b 7b56 fd3d
00000340: 46ff 743e 4861 14be 596a b13c cdcf 94bd
00000350: 09e8 d439 a666 af3d 0122 8b3d b2e8 0cbe
00000360: 3264 b8bd 7f8e 0e3d eb0e 0bbe 3f5e b03c
00000370: 00df 4a3e d193 a6bd ac3c ab3d bfe7 29be
00000380: a10b 66be 45a1 113e 0c50 803d 450e f43d
00000390: 6c9d 8a3c 4871 37be 9371 853d 5600 283d
000003a0: 3700 003e 358e 0a3e 6adf f8bd a89a fe3d
000003b0: 06da 0abe 4d4f bebd e13f 6abe 0886 7f3d
000003c0: c345 79be 91e0 073e af88 593c 25c4 8dbd
000003d0: c02d 02be 90dc 2bbe 7d14 0fbe 6a35 323e
000003e0: 49f4 6f3d 49eb 29bd 8c6e edbc 1ada 23be
000003f0: f856 6c3d 2593 4abd 1b31 83bd 5d55 a63d

transformer_encoder.layers.0.linear2.bias f4 [32]
-0.10025668 0.14679256 0.124044575 -0.060185812 0.10382359 -0.1858688 0.0850435 0.14989178
0.1392496 0.16855145 0.032970805 -0.1270371 -0.11853913 -0.0405065 -0.1169859 0.17285927
0.056461036 0.08585507 -0.029132178 0.03849347 -0.02946271 0.14735325 0.04290892 -0.06938542
0.035650432 0.1352428 -0.124114126 -0.10725966 -0.036066312 0.08842967 -0.028044729 0.16556406
00000000: 6053 cdbd ca50 163e 150b fe3d 6685 76bd
00000010: 76a1 d43d 6454 3ebe 492b ae3d 3b7d 193e
00000020: 7297 0e3e c098 2c3e 650c 073d 0316 02be
00000030: a5c4 f2bd 25ea 25bd 4e96 efbd 0502 313e
00000040: b043 673d c8d4 af3d 9ba6 eebc 54ab 1d3d
00000050: c85b f1bc c5e3 163e 44c1 2f3d f119 8ebd
00000060: 3006 123d 177d 0a3e 8c2f febd f4aa dbbd
00000070: 45ba 13bd 9d1a b53d 0fbe e5bc a089 293e

transformer_encoder.layers.0.norm1.weight f4 [32]
1.0159028 0.975349 0.9925138 0.97957724 1.0233641 0.9903866 1.004374 1.0344981
0.978735 0.99680465 1.0009632 1.0087329 0.99129665 1.0035818 1.0412453 1.0012393
1.0015084 1.0118262 1.0310435 1.043932 0.9762263 1.0055736 1.0171124 1.0100429
0.9833452 0.99048126 0.9970827 0.9976733 0.9949775 0.9644336 0.98003674 0.9650641
00000000: 1a09 823f 79b0 793f 6215 7e3f 93c5 7a3f
00000010: 98fd 823f fa89 7d3f 548f 803f 6f6a 843f
00000020: 618e 7a3f 972e 7f3f 901f 803f 291e 813f
00000030: 9ec5 7d3f 5e75 803f 8747 853f 9c28 803f
00000040: 6d31 803f 8583 813f 3cf9 833f 909f 853f
00000050: f7e9 793f a3b6 803f bd30 823f 1649 813f
00000060: 83bc 7b3f 2e90 7d3f d040 7f3f 8467 7f3f
00000070: d8b6 7e3f 1fe5 763f b0e3 7a3f 710e 773f

transformer_encoder.layers.0.norm1.bias f4 [32]
0.0077901725 0.019671144 -0.015613096 0.017143758 0.005106004 -0.020659242 0.0038575104 -9.76725e-06
-0.021277377 -0.0015364286 0.008898089 0.0075158314 -0.016250882 0.008022695 0.013346333 0.008392012
0.0029432043 0.0018333577 -0.008873418 -0.0122546945 -0.032214165 0.0062893657 -0.000116288 -0.0058552055
0.020618333 -0.0009314517 -0.004076071 0.007149693 -0.012517364 -0.021518398 -0.01649869 0.031788763
00000000: b444 ff3b 6125 a13c 12ce 7fbc 1171 8c3c
00000010: 4450 a73b 923d a9bc 49ce 7c3b 05de 23b7
00000020: e54d aebc fd61 c9ba 4ac9 113c 5d47 f63b
00000030: 9220 85bc 9f71 033c 94aa 5a3c a67e 093c
00000040: c6e2 403b 474d f03a d061 11bc eac7 48bc
00000050: 00f3 03bd 0617 ce3b a5df f3b8 06dd bfbb
00000060: c7e7 a83c aa2c 74ba 9090 85bb f947 ea3b
00000070: a115 4dbc 5a47 b0bc 4328 87bc ef34 023d

transformer_encoder.layers.0.norm2.weight f4 [32]
1.0197157 0.97953993 0.9943047 0.9757603 1.0522505 0.978965 1.0038128 1.0657532
0.97077227 0.99368227 0.9893262 0.99109274 0.9774082 0.9841023 1.0704587 0.9877149
1.0020971 1.0167575 1.0060291 1.0872337 0.99117815 0.9989711 1.0237283 1.0380017
0.9682562 0.98375297 0.99329454 1.0043125 0.995844 0.96617264 0.9828464 0.9670438
00000000: 0b86 823f 21c3 7a3f c18a 7e3f 6dcb 793f
00000010: 25b0 863f 739d 7a3f f07c 803f 9a6a 883f
00000020: 8884 783f f661 7e3f 7b44 7d3f 41b8 7d3f
00000030: 6c37 7a3f 21ee 7b3f ca04 893f e2da 7c3f
00000040: b844 803f 1c25 823f 90c5 803f 792a 8b3f
00000050: dabd 7d3f 92bc 7f3f 8709 833f 3ddd 843f
00000060: a3df 773f 3cd7 7b3f 8d48 7e3f 508d 803f
00000070: a2ef 7e3f 1757 773f d29b 7b3f 2f90 773f

transformer_encoder.layers.0.norm2.bias f4 [32]
0.0054287026 0.022219408 -0.025723407 0.017716352 0.008849611 -0.015267985 0.003799727 0.008561493
-0.024465263 -0.005529656 0.01283634 0.013985869 -0.025812736 0.004479521 0.012806888 0.0084537305
0.0056502703 0.00044484346 -0.011658264 -0.008240587 -0.033947244 0.008066683 -0.0033343646 -0.002941068
0.022084687 -0.006773879 -0.00042175365 0.007893347 -0.027718375 -0.020041637 -0.017962825 0.027425352
00000000: 42e3 b13b 7a05 b63c e5b9 d2bc e221 913c
00000010: f5fd 103c 9226 7abc d704 793b 8145 0c3c
00000020: 606b c8bc 1e32 b5bb 834f 523c fc24 653c
00000030: 3b75 d3bc f2c8 923b fbd3 513c 8481 0a3c
00000040: e725 b93b e139 e939 4e02 3fbc 8703 07bc
00000050: 440c 0bbd 1f2a 043c 5b85 5abb efbe 40bb
00000060: f2ea b43c 6af7 ddbb d11e ddb9 1953 013c
00000070: a511 e3bc 5c2e a4bc c626 93bc 22ab e03c

transformer_encoder.layers.1.self_attn.in_proj_weight f4 [96, 32]
-0.083006494 -0.123423 -0.20295416 -0.21591632 -0.098163076 0.08672929 0.11939839 0.08521541
0.22965908 -0.1654626 -0.022179166 0.08530204 0.13480581 -0.0070831687 -0.111619726 -0.24341923
0.16838056 0.09095716 0.11572592 0.053291466 -0.026017373 0.010682357 0.06880331 0.0040533547
-0.17328401 0.23412392 -0.064737804 0.1515912 0.023158833 0.01725346 0.20560202 -0.10644792
0.053186487 0.19622386 -0.17286065 -0.04534765 -0.16454051 0.08789294 0.06746388 -0.03371303
0.15014564 0.005787968 0.004660545 0.0021186913 0.07154582 0.24370027 0.12248443 -0.11280783
0.15263723 0.06979033 0.0024565025 -0.06337932 0.14818634 -0.047004156 0.24422206 -0.023348
-0.079736106 0.020396268 -0.17272079 0.22856392 0.115316465 -0.16204365 0.08517092 0.0030140695
-0.19105826 0.029613828 -0.01711268 -0.14638036 0.009884089 0.16729614 -0.077515215 0.21524094
0.012099315 0.15989876 -0.043586556 -0.03263734 -0.0024729804 -0.05210741 -0.061063122 -0.11742403
-0.08793051 -0.17961307 0.08594369 0.26503313 0.048328906 -0.12417252 0.036013726 -0.016548604
0.04558897 -0.023268927 0.15413706 0.08066454 0.1744676 0.12462205 -0.15328348 -0.100721374
0.034207504 0.10204315 0.16608948 0.05675811 0.15855369 0.09665399 0.06846969 -0.09772027
-0.0978525 0.10289712 0.12463035 0.19553503 0.013793274 0.1492586 0.2346737 0.010564598
0.060374215 0.07474686 -0.023712736 0.1637849 0.18932949 0.22815971 -0.050990023 -0.0680673
-0.02249742 -0.19078054 0.06481484 0.15253705 -0.009665318 -0.19350022 0.16396992 0.16924278
0.14102805 0.049694914 0.051267847 -0.10334043 0.10876765 -0.03732433 -0.062085517 0.23386726
-0.114708915 -0.1879913 0.16995893 0.02728889 -0.0908183 -0.22481595 -0.0062140627 0.11131184
-0.1909255 -0.133229 -0.041099332 -0.032104805 0.13265103 -0.016604964 0.18244067 0.11179592
-0.032088857 0.09505217 -0.05053066 -0.23145701 -0.04268825 0.10545425 0.20074026 -0.16124794
-0.14649844 0.19821718 0.17429176 0.0012954719 -0.12882513 0.066210665 -0.17735718 0.1867484
0.07405588 -0.14470163 0.10255135 -0.15689586 -0.057594046 0.124226496 -0.0043786494 -0.16850545
0.103310734 -0.09478298 -0.05638651 -0.11866816 -0.11071205 0.14152822 -0.1000604 0.1524112
0.18233827 -0.033194277 -0.17763817 -0.008961704 -0.0074486635 0.1841264 -6.435945e-05 -0.115424156
-0.1640763 -0.14203037 0.065037005 -0.05974688 -0.023248522 -0.12679207 0.10688626 0.02037644
-0.03931484 -0.12842786 0.032671083 0.030625017 0.14283474 0.20427093 0.17093818 0.08057237
-0.08399266 0.055216465 0.252559 -0.24939278 -0.23204397 -0.0848019 0.12952138 -0.15744755
0.15043952 -0.1631379 0.20396139 -0.11352697 -0.031638958 -0.07008709 -0.05391996 0.102785416
-0.13961595 0.15107708 0.20070988 0.035722423 0.058455154 -0.022759367 0.1542714 0.13952981
-0.020034395 -0.18139608 -0.23559448 0.025643304 -0.06165909 0.0056907525 0.22426172 0.15995009
-0.16328664 0.19449914 -0.13039939 -0.29929534 0.088101864 -0.014798519 0.09212102 0.042978607
-0.115955584 0.17551696 0.04102352 0.070895374 0.077663206 -0.016353192 -0.044939693 -0.012067197
00000000: 4fff a9bd 33c5 fcbd 37d3 4fbe 2b19 5dbe
00000010: b909 c9bd 209f b13d 2587 f43d 6b85 ae3d
00000020: c02b 6b3e 076f 29be 15b1 b5bc d6b2 ae3d
00000030: 890a 0a3e ed19 e8bb e298 e4bd e442 79be
00000040: f46b 2c3e bf47 ba3d b601 ed3d 2748 5a3d
00000050: 6322 d5bc 0d05 2f3c c0e8 8c3d 01d2 843b
00000060: 5d71 31be 2ebe 6f3e 4195 84bd b93a 1b3e
00000070: 98b7 bd3c 2157 8d3c 5689 523e 5e01 dabd
00000080: 13da 593d e8ee 483e 6202 31be 75be 39bd
00000090: 4f7d 28be 3701 b43d 812a 8a3d ad16 0abd
000000a0: c7bf 193e ffa8 bd3b 7cb7 983b bed9 0a3b
000000b0: 9d86 923d 908c 793e 1ed9 fa3d cb07 e7bd
000000c0: ef4c 1c3e 3cee 8e3d 46fd 203b 04cd 81bd
000000d0: 29be 173e 6e87 40bd 5915 7a3e 4e44 bfbc
000000e0: af4c a3bd 1316 a73c b8dd 30be a90c 6a3e
000000f0: 0a2b ec3d c5ee 25be 176e ae3d b287 453b
00000100: c7a4 43be b398 f23c e42f 8cbc bce4 15be
00000110: e0f0 213c ae4f 2b3e 4cc0 9ebd 1f68 5c3e
00000120: 353c 463c 80bc 233e d187 32bd bbae 05bd
00000130: ba11 22bb 946e 55bd 531d 7abd 037c f0bd
00000140: e914 b4bd 7dec 37be 3f03 b03d 6cb2 873e
00000150: 88f4 453d 2a4e febd 2183 133d f090 87bc
00000160: 80bb 3a3d 7a9e bebc 1bd6 1d3e 7333 a53d
00000170: a2a7 323e d839 ff3d 58f6 1cbe 0247 cebd
00000180: 2b1d 0c3d 00fc d03d 5c13 2a3e 317b 683d
00000190: e65b 223e 87f2 c53d d639 8c3d 9121 c8bd
000001a0: e466 c8bd babb d23d 323e ff3d 563a 483e
000001b0: 2ffd 613c 3fd7 183e 4d4e 703e 2317 2d3c
000001c0: f44a 773d e214 993d 3641 c2bc 3bb7 273e
000001d0: 97df 413e b3a2 693e eada 50bd de66 8bbd
000001e0: 824c b8bc f95b 43be a5bd 843d ac32 1c3e
000001f0: 485b 1ebc ec24 46be bbe7 273e fb4d 2d3e
00000200: a869 103e e58c 4b3d 3cfe 513d 26a4 d3bd
00000210: 93c1 de3d 66e1 18bd 624d 7ebd e67a 6f3e
00000220: 82ec eabd cb80 40be b709 2e3e f38c df3c
00000230: f2fe b9bd 2736 66be 569f cbbb 76f7 e33d
00000240: f981 43be 2f6d 08be c657 28bd 5480 03bd
00000250: acd5 073e 2207 88bc bad1 3a3e 42f5 e43d
00000260: 9b6f 03bd b6aa c23d 3df9 4ebd 1103 6dbe
00000270: e0d9 2ebd 66f8 d73d db8e 4d3e 2e1e 25be
00000280: b003 16be 72f9 4a3e 8a79 323e d3cc a93a
00000290: bcea 03be 7599 873d 1f9d 35be f93a 3f3e
000002a0: 9caa 973d aa2c 14be 7106 d23d 4fa9 20be
000002b0: bce7 6bbd 766a fe3d c67a 8fbb b18c 2cbe
000002c0: 9494 d33d 941d c2bd 8bf5 66bd 4b08 f3bd
000002d0: 00bd e2bd c6ec 103e 78ec ccbd ae11 1c3e
000002e0: e2b6 3a3e b9f6 07bd c8e6 35be 1cd4 12bc
000002f0: eb13 f4bb a28b 3c3e b7f8 86b8 8063 ecbd
00000300: 9e03 28be 6970 11be 1f32 853d 25b9 74bd
00000310: af73 bebc c8d5 01be 2fe7 da3d 7eec a63c
00000320: 9908 21bd 9882 03be 1dd2 053d 51e1 fa3c
00000330: 4543 123e 662c 513e 6b0a 2f3e 2003 a53d
00000340: 5804 acbd a92a 623d 6a4f 813e d260 7fbe
00000350: ef9c 6dbe 9eac adbd 41a1 043e ee39 21be
00000360: d10c 1a3e 9f0d 27be 41db 503e d480 e8bd
00000370: da97 01bd d289 8fbd 2ddb 5cbd 2981 d23d
00000380: 7cf7 0ebe f3b3 1a3e e486 4d3e ad51 123d
00000390: ac6e 6f3d da71 babc 52f9 1d3e e7e0 0e3e
000003a0: 2c1f a4bc e5bf 39be ae3f 71be e811 d23c
000003b0: 3e8e 7cbd 7e79 ba3b dda4 653e f5c9 233e
000003c0: 9d34 27be c82a 473e 6b87 05be 3d3d 99be
000003d0: c06e b43d 7d75 72bc f2a9 bc3d 560a 303d
000003e0: 1f7a edbd b8ba 333e 4708 283d 9831 913d
000003f0: e30d 9f3d 21f7 85bc af12 38bd 7eb5 45bc

transformer_encoder.layers.1.self_attn.in_proj_bias f4 [96]
0.01904061 -0.029259542 0.019758677 -0.022369733 0.010823461 0.018652404 0.0022831075 -0.0068930406
0.012201496 -0.018214813 -0.009919838 0.024448281 0.018075993 0.035252508 -0.019581987 0.018704284
-0.00619806 0.0097009465 -0.03355161 0.0062717465 0.006145705 -0.0075388537 0.011309785 -0.026818642
0.015618727 0.015185725 0.009593425 -0.05222322 0.0004696576 0.010205916 -0.010220217 -0.0107002305
-0.009227792 -0.0038639645 -0.010375303 0.0094369 -0.01140462 0.0037113265 0.0044995476 0.00696443
-0.0100999605 0.0100451065 0.0007366263 0.0054060156 -0.005514601 0.005984143 0.006378149 -0.002243735
0.003012793 0.0079853395 -0.01139958 -0.0041029607 0.007821492 -0.008548125 0.008780704 -0.0064003435
0.011754996 0.007453294 -0.0031863255 -0.013173624 -0.008188287 0.00643424 -0.005093401 -0.0029272411
0.0048763514 -0.0111031355 -0.020246258 -0.00077055156 -0.0085176695 0.0034466737 -0.0037839492 -0.0059977314
-0.0049929703 -0.00089674955 -0.023724066 0.001738922 0.00895581 0.0156153375 0.007100257 -0.014368961
-0.026188398 -0.0130502945 -0.0100109195 -0.027598262 0.015560296 -0.010151063 0.01479217 0.005738812
-0.00885736 0.0061705788 -0.0008650365 -0.009765936 0.0039350586 -0.011353573 -0.008492837 -0.0056499043
00000000: 0efb 9b3c b5b1 efbc f3dc a13c bb40 b7bc
00000010: e354 313c edcc 983c 30a0 153b 04df e1bb
00000020: c9e8 473c 3b37 95bc d186 22bc c347 c83c
00000030: 1b14 943c ef64 103d 676a a0bc ba39 993c
00000040: 1819 cbbb b8f0 1e3c 6a6d 09bd 3983 cd3b
00000050: e961 c93b 7d08 f7bb ad4c 393c c5b2 dbbc
00000060: b0e5 7f3c 8ccd 783c be2d 1d3c 04e8 55bd
00000070: 603c f639 b736 273c b272 27bc 0550 2fbc
00000080: 2a30 17bc 913a 7dbb 2dfd 29bc 3a9d 1a3c
00000090: 71da 3abc ba39 733b f170 933b e035 e43b
000000a0: 4e7a 25bc 3b94 243c 271a 413a f224 b13b
000000b0: d3b3 b4bb a116 c43b cbff d03b a00b 13bb
000000c0: 4772 453b f1d4 023c 4ec5 3abc 2172 86bb
000000d0: b725 003c 6f0d 0cbc f1dc 0f3c f9b9 d1bb
000000e0: 0798 403c c33a f43b acd1 50bb 2fd6 57bc
000000f0: 2a28 06bc 51d6 d23b 8be6 a6bb f5d6 3fbb
00000100: cdc9 9f3b ede9 35bc 7bdb a5bc d7fe 49ba
00000110: b28d 0bbc 97e1 613b 22fc 77bb 9e88 c4bb
00000120: 129c a3bb d813 6bba f958 c2bc 8aec e33a
00000130: 64bb 123c 79d7 7f3c 46a9 e83b ca6b 6bbc
00000140: 0d89 d6bc e7d0 55bc d704 24bc c015 e2bc
00000150: 9df0 7e3c a550 26bc dc5a 723c a50c bc3b
00000160: 761e 11bc 9132 ca3b 9ec3 62ba 4e01 20bc
00000170: aaf1 803b 5604 3abc 8a25 0bbc d522 b9bb

transformer_encoder.layers.1.self_attn.out_proj.weight f4 [32, 32]
0.11877412 0.032915223 -0.15721487 -0.12894958 -0.0019477946 -0.15610538 -0.07762578 0.035164945
0.078430764 0.14834562 -0.099149756 -0.148508 0.090269566 -0.088473745 -0.04759013 0.180898
0.07846261 0.07857211 0.13896142 0.14688948 0.0684783 0.12094568 0.10787874 0.034346566
0.091663316 -0.12519738 -0.042680275 -0.113686465 -0.008276142 -0.045449257 0.049510207 0.10174764
-0.039152876 -0.13877702 -0.10785407 -0.13843448 -0.10138572 -0.07487175 -0.09778908 -0.09135799
0.08634435 0.07280617 0.1303498 -0.15956724 0.027687216 0.15341742 -0.04098668 0.14487036
-0.09231973 -0.12385765 0.016956482 0.07919972 -0.007997894 -0.07150523 0.005181725 0.008256329
-0.037195683 -0.043618277 -0.07537007 -0.093624435 0.08125983 0.061067794 0.08466427 -0.118309125
0.04597743 0.10784007 -0.025520694 0.15662393 0.14675194 -0.12536792 0.09494726 0.1538007
-0.09927516 -0.06892632 0.0332592 -0.054482747 -0.09977914 0.01331591 0.15057115 0.066103876
0.045596134 0.14274207 0.040325843 0.1418163 -0.032482922 0.16088174 -0.09126053 0.16023557
-0.18377812 -0.14683698 -0.1417865 0.02374218 -0.15644544 -0.035039388 0.047643773 0.13300677
-0.11582317 -0.12065054 0.1044601 -0.08350268 0.09898315 0.034906212 0.011410755 0.05188015
-0.1444469 0.057157695 -0.07730632 -0.16400515 0.12994999 -0.019961024 -0.09339515 -0.13738367
-0.12942359 -0.054083146 -0.16323791 -0.086535335 0.13661192 0.06446397 0.041067608 0.14055921
-0.052399248 -0.018727202 0.1478634 -0.054600626 -0.048739888 -0.092134364 -0.07431208 -0.042232573
0.106148385 -0.092463315 -0.048168793 0.13863152 -0.046009436 -0.06697944 0.0006473283 0.118397124
0.03287488 0.1185576 -0.10043477 -0.10779499 0.09483506 0.122784905 -0.155308 -0.08710503
0.033804372 0.039166857 -0.03192935 -0.039653417 0.098308064 -0.04886837 -0.029004907 0.06708529
-0.025000518 0.15252927 -0.13383657 0.0034260477 0.17890018 0.0977105 0.027349733 0.15617526
-0.16098684 -0.102568425 -0.07060497 0.0657405 0.03489895 0.046422243 0.070807986 0.030488325
0.09104805 -0.089881755 0.10105703 -0.062073298 -0.10507111 -0.13922143 0.062042985 -0.071533374
-0.00044888383 0.017550163 -0.05108917 0.07810813 0.049186587 -0.1601381 -0.05930514 -0.09177649
-0.16001074 -0.14802136 -0.14900018 0.04479295 0.07572636 -0.07981782 -0.070410945 -0.041680425
-0.093288034 0.015678886 0.095193006 -0.026436964 0.05784991 -0.111571014 0.093346745 0.046000853
0.00832551 -0.1523383 0.08028921 0.041684736 -0.15313111 0.09550524 0.1292059 0.016467027
-0.10838038 -0.070996635 -0.15582663 -0.1547556 0.044306394 -0.031411804 0.06659512 -0.10021783
0.13951166 -0.19983041 0.14821698 0.048984796 0.032810107 -0.02890138 -0.021480508 -0.06906912
-0.0144968545 -0.1189494 0.04364454 0.05775898 -0.14411318 0.0077604093 0.01552122 0.01694914
0.08403457 -0.14791615 -0.13413829 0.030390082 -0.07735784 0.010922932 0.05648436 -0.066896655
-0.14362133 0.12673262 -0.014286268 0.021070074 -0.11426627 -0.07206666 0.10846534 0.13789114
-0.15283823 -0.13094299 0.102464944 0.10112864 0.14495149 0.060684353 0.026484333 -0.058099553
00000000: d93f f33d 1dd2 063d effc 20be 5c0b 04be
00000010: 244d ffba 17da 1fbe 44fa 9ebd 1e09 103d
00000020: 4fa0 a03d eae7 173e 070f cbbd 7b12 18be
00000030: 40df b83d b931 b5bd deed 42bd 533d 393e
00000040: 01b1 a03d 6aea a03d e74b 0e3e 326a 163e
00000050: 5a3e 8c3d 5eb2 f73d 87ef dc3d fcae 0c3d
00000060: fab9 bb3d be33 00be 83d1 2ebd 73d4 e8bd
00000070: a898 07bc 0029 3abd 37cb 4a3d 1161 d03d
00000080: c45e 20bd 901b 0ebe 98e2 dcbd c5c1 0dbe
00000090: 51a3 cfbd 5c56 99bd a445 c8bd e619 bbbd
000000a0: 4ed5 b03d 671b 953d 6b7a 053e 9865 23be
000000b0: 4dd0 e23c 7519 1d3e a6e1 27bd e558 143e
000000c0: 2012 bdbd 14a9 fdbd 52e8 8a3c 7633 a23d
000000d0: 9909 03bc 5671 92bd 76cb a93b 8e45 073c
000000e0: 805a 18bd 14a9 32bd a05b 9abd 2bbe bfbd
000000f0: 8e6b a63d 3922 7a3d 7664 ad3d 0e4c f2bd
00000100: d452 3c3d 41db dc3d c610 d1bc 0662 203e
00000110: 2446 163e 7360 00be b673 c23d ee7d 1d3e
00000120: c650 cbbd 3e29 8dbd cd3a 083d 4d29 5fbd
00000130: 0159 ccbd f92a 5a3c 532f 1a3e 7861 873d
00000140: 03c3 3a3d fa2a 123e b62c 253d 4b38 113e
00000150: d00c 05bd 2fbe 243e cde6 babd cb14 243e
00000160: 5530 3cbe 6f5c 16be 7b30 11be f67e c23c
00000170: 3c33 20be 7685 0fbd 1e26 433d ed32 083e
00000180: b334 edbd a117 f7bd 2def d53d 7403 abbd
00000190: aeb7 ca3d d1f9 0e3d 2df4 3a3c 4880 543d
000001a0: e3e9 13be 301e 6a3d c752 9ebd f7f0 27be
000001b0: 9c11 053e 4d85 a3bc f545 bfbd 4eae 0cbe
000001c0: 9e87 04be 4a86 5dbd d727 27be 7039 b1bd
000001d0: ffe3 0b3e b005 843d 8236 283d c1ee 0f3e
000001e0: 98a0 56bd ca69 99bc 8169 173e e8a4 5fbd
000001f0: 7aa3 47bd f1b0 bcbd ef30 98bd 10fc 2cbd
00000200: 5364 d93d 685d bdbd a44c 45bd 6cf5 0d3e
00000210: 6474 3cbd 842c 89bd 78b1 293a 317a f23d
00000220: cfa7 063d 54ce f23d bfb0 cdbd 9fc3 dcbd
00000230: e238 c23d a776 fb3d 0f09 1fbe 1f64 b2bd
00000240: 7476 0a3d 6d6d 203d 5ac8 02bd 9f6b 22bd
00000250: bd55 c93d 332a 48bd b39b edbc 0364 893d
00000260: e3cd ccbc a230 1c3e 740c 09be 8b87 603b
00000270: 9c31 373e 711c c83d 8c0c e03c 68ec 1f3e
00000280: bcd9 24be 650f d2bd 5799 90bd f5a2 863d
00000290: 34f2 0e3d 4025 3e3d c703 913d a7c2 f93c
000002a0: 6677 ba3d ed13 b8bd fdf6 ce3d 9240 7ebd
000002b0: 862f d7bd 1090 0ebe c920 7e3d 1780 92bd
000002c0: 2b58 ebb9 5cc5 8f3c e142 51bd 28f7 9f3d
000002d0: e077 493d 3efb 23be f2e9 72bd 50f5 bbbd
000002e0: dbd9 23be e992 17be 8193 18be d078 373d
000002f0: 6c16 9b3d 8677 a3bd 9d33 90bd 18b9 2abd
00000300: cc0d bfbd 0271 803c 8df4 c23d 5592 d8bc
00000310: 07f4 6c3d 587f e4bd 942c bf3d 646b 3c3d
00000320: b867 083c 92fe 1bbe ab6e a43d 9dbd 2a3d
00000330: 67ce 1cbe 4098 c33d 8d4e 043e dce5 863c
00000340: 88f6 ddbd af66 91bd 0491 1fbe 4178 1ebe
00000350: 9f7a 353d aaa9 00bd 0663 883d 013f cdbd
00000360: 25dc 0e3e 58a0 4cbe 31c6 173e 48a4 483d
00000370: e463 063d 96c2 ecbc e4f7 afbc 1c74 8dbd
00000380: 3784 6dbc be9b f3bd 9ec4 323d ae94 6c3d
00000390: 6892 13be 084b fe3b b74c 7e3c ecd8 8a3c
000003a0: 511a ac3d 5577 17be 8c5b 09be 9ff4 f83c
000003b0: ca6d 9ebd 19f6 323c 255c 673d 1d01 89bd
000003c0: 7811 13be 32c6 013e f310 6abc 269b ac3c
000003d0: 6f04 eabd af97 93bd 1423 de3d 5633 0d3e
000003e0: a081 1cbe eb15 06be 24d9 d13d 881c cf3d
000003f0: 2a6e 143e 2890 783d acf5 d83c ccf9 6dbd

transformer_encoder.layers.1.self_attn.out_proj.bias f4 [32]
0.0053382483 0.02558114 -0.020727767 0.022361847 0.011944958 -0.020702202 0.010154479 0.002167957
-0.028410826 -0.007994418 0.013197038 0.013665173 -0.023657786 0.0070995325 0.008601347 0.01776917
0.006089996 0.0010623329 -0.003883819 -0.006703946 -0.018678663 0.009305155 -0.009517466 -0.007043118
0.0171223 -0.00372449 0.0072857724 0.003623184 -0.02046633 -0.011692379 -0.0150727965 0.024743838
00000000: 79ec ae3b 8a8f d13c 47cd a9bc 3130 b73c
00000010: c9b4 433c aa97 a9bc f95e 263c 4814 0e3b
00000020: d2bd e8bc 05fb 02bc 6438 583c e4e3 5f3c
00000030: f9cd c1bc 32a3 e83b aaec 0c3c a790 913c
00000040: 978e c73b fa3d 8b3a ac87 7ebb c6ac dbbb
00000050: ff03 99bc a674 183c 25ef 1bbc f5c9 e6bb
00000060: 1144 8c3c 9316 74bb 7dbd ee3b f172 6d3b
00000070: 01a9 a7bc 6491 3fbc e4f3 76bc 97b3 ca3c
