pretrained/mkp/mkp300.pt (torch, 372645 bytes, 230 tensors)

emb_net.v_lin0.weight f4 [32, 5]
0	0xbed4367a	-0.41447812
1	0xbda2dbe1	-0.07952095
2	0xbe554cc3	-0.20830064
3	0xbdf68e37	-0.12038844
4	0xbec9bec4	-0.39403355
5	0x3e2f37f2	0.17111185
6	0xbedc71f7	-0.43055698
7	0xbd194dfb	-0.037427884
8	0x3e1ed4fb	0.15510933
9	0xbe215f8c	-0.15759104
10	0x3e82fd44	0.2558385
11	0x3d85f30a	0.06540497
12	0x3e82ed96	0.2557189
13	0x3e9547b9	0.29156283
14	0xbe4d6a6c	-0.20060128
15	0x3e2065a9	0.1566378
16	0xbe4cef3d	-0.20013137
17	0x3e25727d	0.16156955
18	0xbe709c6e	-0.23497173
19	0x3e56aa5a	0.20963421
20	0x3dea1ebc	0.11431643
21	0xbe2ce45d	-0.16883989
22	0xbe62c36f	-0.22144864
23	0x3df51178	0.119662225
24	0x3ed8c2d7	0.4233615
25	0x3e5b0820	0.21389818
26	0xbd13bef4	-0.03607078
27	0xbce2a4d5	-0.027666489
28	0x3e8070bf	0.25086018
29	0xbea40301	-0.32033542
30	0x3e1b1093	0.15143041
31	0xbe0f7e77	-0.14013086
32	0x3e85459f	0.2602968
33	0xbe338eba	-0.17534915
34	0x3d0b0d83	0.033948433
35	0x3e13d7c1	0.14437772
36	0x3e9cb154	0.3060404
37	0xbdb15199	-0.08658142
38	0x3ec38144	0.3818456
39	0xbec4b539	-0.38419512
40	0xbd979344	-0.074011356
41	0xbedabe69	-0.42723396
42	0x3cc34f47	0.023841513
43	0x3e03966a	0.12850347
44	0xbe321ff3	-0.17395
45	0x3e3d7d59	0.18504848
46	0xbd86ec48	-0.06588036
47	0xbec13b7f	-0.37740704
48	0x3eaed635	0.34147802
49	0x3e8cb340	0.27480507
50	0x3e6a25bc	0.22865957
51	0x3ebc6188	0.3679316
52	0x3e3eab65	0.1862007
53	0x3e6a1834	0.22860795
54	0x3ec31119	0.38098982
55	0xbdcf57da	-0.10124178
56	0xbebfcc94	-0.37460768
57	0xbe7948dd	-0.24344201
58	0xbda2b166	-0.07943992
59	0xbd82c4c3	-0.063851856
60	0xbb86264e	-0.0040939217
61	0x3e7a0285	0.24415024
62	0x3e1f79b4	0.1557377
63	0xbea69947	-0.32538816
64	0xbe193069	-0.14959873
65	0xbdb7f30c	-0.089819044
66	0x3e8388a3	0.25690183
67	0xbe2a6a9b	-0.1664223
68	0xbe40deb1	-0.1883495
69	0xbd96fce9	-0.073724575
70	0xbdd766db	-0.10517665
71	0xbdee3925	-0.11631993
72	0xbed8cbaa	-0.42342883
73	0x3ec2429d	0.37941447
74	0x3e626bcd	0.22111435
75	0xbe53838a	-0.20655647
76	0xbe8d09af	-0.2754645
77	0x3cd91804	0.02650071
78	0x3e81a6e0	0.25322628
79	0xbea30906	-0.31842822
80	0xbe34b845	-0.17648418
81	0x3e4b418f	0.19849227
82	0xbe96cc6c	-0.29452837
83	0xbd795e47	-0.060880926
84	0xbeafaf2d	-0.34313336
85	0x3ed06d84	0.40708554
86	0x3e79576e	0.24349758
87	0xbed3a630	-0.41337729
88	0xbe807a47	-0.2509329
89	0x3e216e95	0.1576484
90	0x3c4316f6	0.01190733
91	0x3dc1c3b8	0.094611585
92	0xbebee373	-0.37282905
93	0xbe7ec3a3	-0.24879317
94	0x3e3e68be	0.18594643
95	0xbeaecb25	-0.34139362
96	0xbdd9cc11	-0.10634626
97	0x3e4b8930	0.19876552
98	0x3e66fe4c	0.22557944
99	0x3cf7603a	0.030197252
100	0x3e041ed5	0.12902386
101	0x3e5d0198	0.21582639
102	0xbceab019	-0.028648423
103	0xbdf53a8a	-0.11974056
104	0x3eb1231a	0.34597093
105	0x3ed9a211	0.4250646
106	0x3e51c2d4	0.20484477
107	0xbe4fa09c	-0.20276111
108	0xbecb4824	-0.39703476
109	0xbee926d3	-0.45537433
110	0x3bdb110f	0.006685383
111	0xbe2fc51d	-0.17165036
112	0xbde8aabf	-0.11360692
113	0xbd89f09c	-0.06735346
114	0x3ed2ea0c	0.4119419
115	0x3ed2e65e	0.4119138
116	0xbd0b0f05	-0.03394987
117	0xbe0cab57	-0.13737236
118	0x3e59aa6e	0.2125642
119	0xbc6118c8	-0.0137388185
120	0xbede4bd9	-0.43417242
121	0x3e0b3f7c	0.13598436
122	0x3ed81355	0.4220225
123	0xbeba5374	-0.36391795
124	0xbdb63ed7	-0.088987045
125	0x3dd6232f	0.104559295
126	0xbec19499	-0.37808684
127	0xbec71b80	-0.38888168
128	0x3ead47a9	0.33843735
129	0xbe30908f	-0.17242645
130	0x3e79ce53	0.24395113
131	0x3cca7ff7	0.024719222
132	0x3dd425f7	0.10358804
133	0xbe97a038	-0.29614425
134	0xbde07196	-0.10959165
135	0x3e8f4356	0.2798106
136	0x3e4d5de3	0.20055346
137	0xbdf36dec	-0.118862
138	0x3d80faee	0.06297861
139	0x3eaa8333	0.33303222
140	0xbec6eae6	-0.38851088
141	0x3e888652	0.26664978
142	0xbe126dc6	-0.14299688
143	0xbdd18d8e	-0.102320775
144	0x3e49468c	0.19655818
145	0xbeb9dbd2	-0.36300522
146	0xbd428e03	-0.047498714
147	0x3ee38461	0.44436935
148	0x3e31a55f	0.1734824
149	0xbe2324ee	-0.15932056
150	0xbdc52d79	-0.09627814
151	0x3eb5b177	0.35486957
152	0x3e373408	0.17890942
153	0x3e9189d1	0.28425458
154	0xbe95ab31	-0.2923217
155	0x3e13b6cd	0.14425202
156	0x3dc537a6	0.09629755
157	0x3dcc3587	0.09971147
158	0x3ed550a0	0.41663074
159	0x3e78b584	0.24287993

emb_net.v_lin0.bias f4 [32]
0	0x3e9a2262	0.30104357
1	0x3e3c2911	0.1837504
2	0x3e4a61ff	0.19763945
3	0xbd967270	-0.07346046
4	0xbec72543	-0.38895616
5	0xbec0983b	-0.37616143
6	0xbe90a190	-0.28248262
7	0xbe9a681b	-0.3015755
8	0x3e6527a2	0.223784
9	0x3df54374	0.11975756
10	0xbde7b807	-0.11314397
11	0xbebb8188	-0.36622262
12	0x3ee3eafd	0.4451522
13	0x3ea65fa8	0.32494855
14	0x3e4bd456	0.19905218
15	0x3edddaba	0.43330938
16	0xbe789973	-0.24277286
17	0xbe85db62	-0.26143938
18	0xbe8e430b	-0.27785525
19	0xbc9d490a	-0.019199867
20	0xbec6a71b	-0.38799366
21	0x3ead490a	0.33844787
22	0x3b9ca4c5	0.0047803842
23	0x3e60a46d	0.21937723
24	0xbe7d90dd	-0.24762292
25	0xbd420d73	-0.047376107
26	0x3d389c75	0.045071084
27	0xbe0807b3	-0.13284187
28	0x3ece11d0	0.40247965
29	0xbe4a1eff	-0.19738387
30	0x3e07ccd9	0.13261737
31	0xbe9969f7	-0.29963657

emb_net.v_lins1.0.weight f4 [32, 32]
0	0xbd1cf94e	-0.038323693
1	0xbd346da6	-0.04404988
2	0x3db1113d	0.08645866
3	0x3df2f2ba	0.11862703
4	0x3d1a3ff0	0.03765863
5	0xbc1dddeb	-0.009635429
6	0xbd4e8e89	-0.0504289
7	0x3e16eba6	0.1473833
8	0xbd3536e2	-0.044241793
9	0x3e033cf4	0.1281622
10	0xbd93ce5d	-0.07217095
11	0x3e08d7bf	0.1336355
12	0x3e2df05a	0.16986218
13	0x3de62603	0.11237719
14	0x3dc27ea6	0.094968125
15	0x3d8c3009	0.068450995
16	0xbdd866cf	-0.10566484
17	0x3bf782cb	0.0075534335
18	0x3d52f1ee	0.051500253
19	0xbd3a96f6	-0.045554124
20	0x3cf412dd	0.029794151
21	0x3dd858ad	0.105637886
22	0xbe2e03e4	-0.16993672
23	0xbe142d13	-0.1447032
24	0xbdf72f80	-0.12069607
25	0x3ca5252c	0.020159326
26	0xbd0416ba	-0.032248236
27	0x3d2e2ca8	0.042523056
28	0xbd647fe2	-0.05578602
29	0xbdef4c61	-0.1168449
30	0x3ce320f8	0.027725682
31	0x3e025a1d	0.12729688
32	0xbdcba869	-0.09944231
33	0x3e15c0d8	0.14624345
34	0x3d344548	0.044011384
35	0x3e232aca	0.15934291
36	0xbe31b088	-0.17352498
37	0xbe324a83	-0.17411236
38	0x3d57a3c3	0.05264641
39	0xbe23db47	-0.16001616
40	0xbe19b949	-0.15012087
41	0x3da289f0	0.07936466
42	0x3daa67e6	0.08320598
43	0xbe19a0c1	-0.15002729
44	0x3e11c78c	0.14236277
45	0xbcc094ef	-0.023508517
46	0x3dfccffa	0.12344356
47	0xbddc8eda	-0.10769434
48	0xbe26daa2	-0.1629434
49	0xbdf760ae	-0.12078987
50	0xbd0adb9d	-0.033900846
51	0xbe37e24d	-0.1795742
52	0xbc618f67	-0.0137671
53	0xbdaab05b	-0.083344184
54	0xbd5a6f01	-0.053328518
55	0xbc0ab7af	-0.008466645
56	0x3cdee88f	0.027210502
57	0xbe34cb87	-0.17655765
58	0x3dbc0172	0.09179963
59	0xbde6eaab	-0.11275228
60	0x3de43cbe	0.11144398
61	0x3e278139	0.16357888
62	0xbd4e50db	-0.05037008
63	0x3c52f39f	0.012875467
64	0x3dd09e85	0.10186485
65	0xbc5dba7c	-0.013533231
66	0xbe1b665e	-0.15175769
67	0x3dac52f6	0.08414261
68	0x3dc8321f	0.09775185
69	0xbdcfa1f2	-0.101383105
70	0xbdf992f2	-0.12186231
71	0xbd1972a8	-0.03746286
72	0x3d13e87e	0.036110394
73	0xbd93a829	-0.072098084
74	0x3b53df1f	0.0032329035
75	0xbd8fd8b6	-0.07023756
76	0xbdaeca6c	-0.08534703
77	0xbcf15ac0	-0.029462218
78	0xbd44d0df	-0.048050757
79	0x3e0c5367	0.1370369
80	0x3d2f77ff	0.042839047
81	0x3e220eb9	0.15825929
82	0x3e29ccba	0.16582003
83	0x3d09021b	0.033449274
84	0xbd88174b	-0.06645068
85	0x3db9814c	0.090578645
86	0x3bbc3a5a	0.0057442607
87	0x3e0a8b9f	0.13529824
88	0xbd3dada6	-0.046308182
89	0x3e29fe75	0.16600974
90	0x3bdde8bb	0.0067721284
91	0xbcf9b35b	-0.030481031
92	0xbdd7a351	-0.10529197
93	0x3e02ab7d	0.1276073
94	0x3c664c1b	0.014056231
95	0x3d9698e0	0.07353377
96	0x3d591f9d	0.053008664
97	0xbb8ab12c	-0.0042325463
98	0xbd7aa054	-0.061188057
99	0xbd135e4d	-0.035978604
100	0xbcc2e5a9	-0.023791151
101	0x3df5218a	0.11969288
102	0x3c3ec7c9	0.011644312
103	0xbd1f4ac3	-0.038889658
104	0xbc977cc7	-0.018492116
105	0x3c5c9fa3	0.013465795
106	0x3e1e4d15	0.15459092
107	0x3e03e863	0.12881617
108	0x3c2bab2e	0.010477824
109	0x3c5f3373	0.013623106
110	0x3e101955	0.14072163
111	0x3da0f2e8	0.07858831
112	0xbcb860c9	-0.022507088
113	0x3dc815e7	0.097698025
114	0x3d88843a	0.06665845
115	0xbd0a315d	-0.033738483
116	0x3d81055d	0.06299851
117	0x3c848454	0.01617638
118	0xbdac4516	-0.084116146
119	0xbc8de05e	-0.0173189
120	0x3e41db88	0.18931401
121	0x3d4c791c	0.049920186
122	0xbe024369	-0.12721027
123	0x3dd0c3a7	0.10193568
124	0x3cd7d1aa	0.026345093
125	0x3dddf265	0.10837249
126	0x3cb10424	0.02160842
127	0x3d95b6a4	0.073102266
128	0x3d58fb66	0.052974127
129	0x3e14789d	0.14499135
130	0x3dfa50db	0.12222453
131	0xbda3f8d4	-0.080064446
132	0x3d99d422	0.07511164
133	0xbb6bdf4c	-0.003599125
134	0x3dfe6f05	0.12423519
135	0xbd3b455d	-0.045720447
136	0xbd509b55	-0.050929386
137	0x3e151f9a	0.14562836
138	0x3d5a86e5	0.0533513
139	0x3d29dbe7	0.04146948
140	0x3d1554e5	0.036457915
141	0x3cc7afc2	0.0243758
142	0xbbcfdc47	-0.006343398
143	0xbe1b8df4	-0.1519087
144	0x3e3a98b7	0.18222319
145	0x3e356b09	0.17716612
146	0xbde3d965	-0.11125449
147	0x3d6ddcc3	0.058071863
148	0x3e260a0a	0.16214767
149	0x3d29fa07	0.04149821
150	0x3d7e1278	0.062029332
151	0x3debc3cc	0.11511955
152	0x3dc08d11	0.09401906
153	0xbd2234d1	-0.03960115
154	0xbe0622df	-0.1309924
155	0xbd930769	-0.07179148
156	0xbdb97b03	-0.09056666
157	0x3cc9fd3e	0.024656888
158	0xbdd36035	-0.103210844
159	0x3e0980c6	0.1342803
160	0x3d504591	0.050847594
161	0xbdb0ab8e	-0.086264715
162	0xbdeb3008	-0.114837706
163	0x3d7a591d	0.06112014
164	0xbcca0af1	-0.02466342
165	0x3c94699b	0.018116763
166	0x3c2efaad	0.010679883
167	0x3b8291de	0.003984674
168	0xbca34770	-0.019931525
169	0xbce1fdbb	-0.027586808
170	0xbd24bd53	-0.040219616
171	0x3d90c50e	0.07068835
172	0xbe00c653	-0.12575655
173	0xbbc43601	-0.005987883
174	0xbd5d3ee6	-0.054015063
175	0xbe1ec194	-0.15503532
176	0x3d583b52	0.052790947
177	0x3d120da5	0.035657544
178	0x3e228b50	0.15873456
179	0x3e093167	0.13397752
180	0x3e323902	0.17404559
181	0xbe232a78	-0.1593417
182	0xbe08e584	-0.13368803
183	0x3d18c832	0.037300296
184	0x3db07379	0.08615775
185	0x3d93b2c7	0.072118334
186	0xbe0b8c66	-0.13627777
187	0x3e09d46b	0.13459937
188	0xbe130406	-0.14357004
189	0x3d50c8d7	0.050972786
190	0xbd8fa748	-0.07014328
191	0xbd5bbcaa	-0.05364672
192	0x3e03d72f	0.12875055
193	0x3e1fbca8	0.1559931
194	0x3d9145fa	0.07093425
195	0x3d9475bd	0.07249019
196	0xbbdb523a	-0.006693152
197	0xbdd6b0d5	-0.10482947
198	0x3d3963ff	0.04526138
199	0x3e278d03	0.16362385
200	0x3da8465e	0.082165465
201	0xbe23cb45	-0.1599551
202	0xbd301ed5	-0.042998154
203	0x3d7d8ad2	0.061899967
204	0xbcd7300f	-0.026268033
205	0xbd46b26a	-0.048509993
206	0xbe174868	-0.14773715
207	0x3cdcc8e9	0.02695127
208	0x3d47f192	0.048814364
209	0xbe22d983	-0.15903287
210	0x3d0f1bd1	0.034938637
211	0x3d84a8b1	0.06477488
212	0x3d6aa6fb	0.05728815
213	0x3deb540c	0.1149064
214	0xbdf3d719	-0.11906261
215	0x3d59e1f3	0.053193998
216	0x3ce3a570	0.027788848
217	0xbd1f35ef	-0.038869794
218	0xbc4b4206	-0.012405878
219	0x3e2a5760	0.16634893
220	0x3c72aa9f	0.014811187
221	0xbd1504a7	-0.03638139
222	0x3c595fdd	0.0132674845
223	0xbdb8990a	-0.09013565
224	0xbdce058c	-0.10059652
225	0xbd2933c3	-0.04130913
226	0x3db8d03c	0.090240926
227	0xbcbdac93	-0.023153579
228	0xbd2e8f57	-0.04261717
229	0x3d982891	0.074296124
230	0x3db5c14f	0.08874761
231	0xbcf1be33	-0.02950964
232	0xbd5ea30e	-0.05435472
233	0x3d132fb5	0.03593417
234	0xbdb8dc71	-0.09026421
235	0x3e040c7d	0.12895389
236	0xbd5c976c	-0.053855345
237	0xbd58447a	-0.05279968
238	0x3e255b61	0.1614814
239	0xbe125d4c	-0.14293402
240	0xbd484ff6	-0.04890438
241	0x3e2fdb25	0.17173441
242	0xbdb08243	-0.086185955
243	0xbd409d71	-0.047025148
244	0x3e306d07	0.1722909
245	0xbd54b5ac	-0.05193107
246	0x3d9aec83	0.07564642
247	0x3db0d9ab	0.08635267
248	0x3cb180be	0.021667834
249	0xbe189c59	-0.14903392
250	0xbdeaa44f	-0.114571206
251	0xbe080f5f	-0.13287114
252	0xbe313864	-0.17306668
253	0xbd79704d	-0.060898114
254	0x3cad4c76	0.021154623
255	0xbe1a448a	-0.15065208

emb_net.v_lins1.0.bias f4 [32]
0	0x3daf8739	0.085707135
1	0xbc81a188	-0.015824094
2	0x3cdf9535	0.027292827
3	0xbd30d728	-0.04317394
4	0xbdb17f09	-0.08666808
5	0xbdf07396	-0.11740796
6	0xbe283e91	-0.16430117
7	0xbc7bcbbd	-0.015368399
8	0x3e33d602	0.17562106
9	0x3d89fd4b	0.06737765
10	0x3ada7b12	0.0016668758
11	0xbe1449f3	-0.14481334
12	0xbcaf33c8	-0.021386996
13	0xbe33528b	-0.17511956
14	0x3d023659	0.03179011
15	0xbd8220ef	-0.06353938
16	0x3e0fb5e8	0.14034235
17	0x3de0719a	0.10959168
18	0xbe0dad6c	-0.13835686
19	0x3dc49329	0.09598381
20	0xbd2a74e7	-0.041615393
21	0xbe30249e	-0.17201468
22	0xbd6e40fe	-0.05816745
23	0x3d12f459	0.03587756
24	0x3dc70200	0.09717178
25	0x3c053199	0.008129501
26	0x3e0ea150	0.13928723
27	0xbe28d142	-0.16486076
28	0xbd8868ef	-0.066606395
29	0xbe2d63fd	-0.16932674
30	0xbc83fe6a	-0.016112525
31	0xbdf502f7	-0.11963456

emb_net.v_lins1.1.weight f4 [32, 32]
0	0x3dcd7717	0.1003248
1	0x3ddb0ac7	0.10695415
2	0xbd9b7804	-0.075912505
3	0x3e228c2f	0.15873788
4	0xbdf45d23	-0.11931827
5	0xbe05ca27	-0.13065396
6	0xbd4cac11	-0.049968783
7	0x3d1cc8e8	0.038277537
8	0x3e1d223b	0.15345089
9	0xbe002772	-0.12515047
10	0x3e0aa721	0.13540317
11	0x3d94df0a	0.07269104
12	0xbda3228b	-0.07965573
13	0xbdcece95	-0.10097996
14	0x3d6a5a1c	0.05721484
15	0xbcb6964a	-0.02228846
16	0x3e12a431	0.14320447
17	0x3cd8b1b8	0.02645193
18	0xbe1bd4b1	-0.15217854
19	0xbd7a7013	-0.06114204
20	0xbda4eaa3	-0.08052566
21	0xbdfa1cc0	-0.12212515
22	0xbd112759	-0.035437915
23	0x3da14043	0.07873585
24	0xbde8b57c	-0.113627404
25	0xbd02da6c	-0.031946585
26	0xbdb19662	-0.08671261
27	0x3dea6594	0.11445156
28	0x3e09c0ca	0.1345245
29	0x3e0aa523	0.13539557
30	0x3e28303a	0.16424647
31	0xbd9fb525	-0.077982225
32	0xbe06a255	-0.13147862
33	0x3e0c1f49	0.1368381
34	0x3d988895	0.07447926
35	0x3ca4c380	0.020112753
36	0xbdc92aa4	-0.09822586
37	0xbe04c67e	-0.12966344
38	0xbd814009	-0.06311042
39	0x3e14ce5b	0.14531843
40	0xbdbc723d	-0.09201477
41	0xbde31c37	-0.11089366
42	0x3d543a59	0.051813457
43	0x3e23767c	0.15963167
44	0x3ba2093f	0.00494495
45	0x3d653638	0.05595991
46	0x3dea1f26	0.11431722
47	0xbd5377e4	-0.05162801
48	0xbe16e21f	-0.14734696
49	0x3c81a8b1	0.015827509
50	0xbdd4bd31	-0.10387648
51	0x3d8d7d35	0.06908647
52	0xbdcd5b73	-0.10027208
53	0x3e22022a	0.15821138
54	0xbccf683d	-0.02531826
55	0x3e1802bb	0.14844792
56	0xbdff8346	-0.1247621
57	0xbe1a6f3f	-0.150815
58	0xbdacf194	-0.08444515
59	0xbd46e91b	-0.04856215
60	0x3e0048ef	0.12527822
61	0xbe05920f	-0.13043998
62	0xbdacdbf3	-0.084403895
63	0x3d3e5b93	0.04647405
64	0x3c94836f	0.018129079
65	0xbd968e3e	-0.07351349
66	0x3deeef84	0.11666778
67	0xbdb9b409	-0.09067542
68	0x3db85196	0.08999936
69	0x3d0fa156	0.03506597
70	0xbdc653f5	-0.09683982
71	0x3c590408	0.01324559
72	0x3d4a939d	0.04945718
73	0xbc6fa560	-0.014626831
74	0xbd0ab5bf	-0.033864733
75	0x3dbf0e66	0.09328918
76	0xbd96fcf7	-0.07372468
77	0xbd09fcdb	-0.033688407
78	0xbcbcb906	-0.023037445
79	0x3c606b53	0.013697463
80	0x3cfc9e57	0.030837221
81	0x3d10a3d7	0.0353125
82	0xbe136bfe	-0.14396665
83	0xbdebd3d8	-0.11515015
84	0x3d672c78	0.056438893
85	0x3e13a11d	0.14416929
86	0xbe0294a7	-0.12752019
87	0xbd68446e	-0.056705885
88	0xbde4d8ee	-0.111741886
89	0xbe03b0f5	-0.12860473
90	0xbe1b47e3	-0.15164141
91	0x3d77b65e	0.060476653
92	0xbb17f02a	-0.002318392
93	0xbdaa545e	-0.08316873
94	0x3e3f947e	0.18708989
95	0xbb9e525e	-0.0048315963
96	0x3cdc863b	0.026919475
97	0x3e390474	0.18068105
98	0xbde60e25	-0.112331666
99	0xbd788653	-0.060674977
100	0xbe123bbe	-0.14280602
101	0x3d5fd451	0.05464584
102	0xbcc53ffe	-0.024078365
103	0xbe2871ad	-0.16449614
104	0x3c559e67	0.013038254
105	0x3c4063f7	0.0117425835
106	0x3e21b01a	0.15789834
107	0x3d2cea91	0.042215887
108	0xbe0d48a2	-0.13797238
109	0x3dcd7309	0.10031707
110	0x3de0dbdf	0.10979437
111	0x3daffca6	0.08593111
112	0xbdad322e	-0.08456837
113	0x3dd33fd6	0.1031491
114	0xbd8b95bc	-0.06815669
115	0x3b149b1c	0.002267546
116	0x3d9ea7f6	0.0774688
117	0xbd6c66a6	-0.05771508
118	0x3e1e9d32	0.15489653
119	0x3e1c4450	0.15260434
120	0x3cf10d18	0.029425189
121	0xbc9cb6f2	-0.019130204
122	0xbda6cb61	-0.0814426
123	0x3dee7af9	0.11644549
124	0xbd7be0f3	-0.061493825
125	0x3e2b13f7	0.16706835
126	0x3d030f5d	0.031997073
127	0x3e0b6e29	0.13616242
128	0x3db4cf51	0.08828605
129	0x3e0034aa	0.1252009
130	0xbd508a1c	-0.05091296
131	0xbbb31555	-0.0054651895
132	0xbe15abc0	-0.14616299
133	0x3dc7a23e	0.09747742
134	0xbcbbe49c	-0.022936158
135	0xbde3814f	-0.11108648
136	0xbd8ca339	-0.0686707
137	0xbe23973a	-0.15975657
138	0x3e25b28c	0.16181391
139	0xbca7d625	-0.020487854
140	0xbcf60570	-0.03003189
141	0x3ca4ecda	0.02013247
142	0x3c633a81	0.013868929
143	0x3dc8e4b1	0.098092444
144	0xbdd335a7	-0.10312968
145	0x3e1f8497	0.15577923
146	0xbdafff15	-0.08593575
147	0x3c2be401	0.010491372
148	0xbce420da	-0.027847696
149	0x3ce4f1b7	0.02794729
150	0xbc4a601e	-0.012352018
151	0x3d6dc912	0.058053084
152	0xbdc688ef	-0.09694087
153	0xbdc6ac8d	-0.0970088
154	0x3dea6910	0.1144582
155	0xbe03f01d	-0.12884565
156	0x3e0ea9e2	0.13931993
157	0xbe2d7995	-0.16940911
158	0xbc87b27a	-0.016564596
159	0x3da46a84	0.08028129
160	0x3db79d2b	0.08965524
161	0x3cc3ba49	0.023892539
162	0x3b4243de	0.0029642503
163	0x3e2feeac	0.1718089
164	0xbe0645d6	-0.13112578
165	0xbd6495cc	-0.05580692
166	0x3def2401	0.11676789
167	0x3e318989	0.17337622
168	0xbd319809	-0.043357883
169	0x3e2afbe5	0.16697653
170	0x3d9ebc23	0.07750728
171	0x3d113542	0.03545118
172	0x3e002ab6	0.12516293
173	0x3dbda049	0.092590876
174	0xbe14a0a5	-0.14514406
175	0xb9d6474a	-0.00040870375
176	0xbe2f7f1a	-0.17138329
177	0xbe010524	-0.12599617
178	0x3cce3380	0.025171041
179	0x3cdb0ee8	0.026740506
180	0x3e39edbf	0.18157099
181	0xbd42ca21	-0.047556046
182	0x3e09261a	0.13393441
183	0x3e21728b	0.15766351
184	0xbc804fec	-0.01566311
185	0x3e2bdbb1	0.16783024
186	0x3a34635b	0.000688126
187	0x3d9072ea	0.07053168
188	0x3d035a1d	0.03206836
189	0x3dd1a1a3	0.10235908
190	0x3d67f44d	0.056629468
191	0xbcbddf64	-0.02317781
192	0xbe0a1499	-0.1348442
193	0x3de3cff1	0.11123646
194	0x3a830a7b	0.000999763
195	0x3e239987	0.15976535
196	0xbe07a533	-0.13246612
197	0xbdfe94c5	-0.12430719
198	0xbd84b67d	-0.064801194
199	0x3dfd33dc	0.12363407
200	0xbd9124ec	-0.070871204
201	0x3c2aba3e	0.01042038
202	0x392eabe2	0.00016657964
203	0xbd8cca6e	-0.06874548
204	0x3c56dac3	0.01311368
205	0xbe03254e	-0.128072
206	0xbdc024d6	-0.09382026
207	0x3dade696	0.084912464
208	0xbe058333	-0.1303833
209	0x3e11a43e	0.1422281
210	0x3e2d1916	0.16904101
211	0x3d79d631	0.060995284
212	0xbe207202	-0.1566849
213	0x3d67ef99	0.056624983
214	0x3c90639e	0.017625626
215	0xbe0a6c41	-0.13517858
216	0xbd845be1	-0.06462837
217	0x3e204a83	0.15653424
218	0x3db40a62	0.08791043
219	0x3dfff83b	0.12498518
220	0xbd2c874f	-0.042121228
221	0x3d183df9	0.037168477
222	0xbdb6bb0f	-0.08922397
223	0x3c935e72	0.017989371
224	0x3e26c771	0.16287018
225	0x3e36d701	0.17855455
226	0x3dded7e2	0.1088102
227	0xbe02c25f	-0.12769459
228	0x3c924fcc	0.017860316
229	0x3cefd473	0.029276108
230	0x3cffa48e	0.031206395
231	0xbd58f407	-0.052967098
232	0xbd08f060	-0.033432364
233	0xbe0cba98	-0.13743055
234	0xbd1c3dec	-0.03814499
235	0xbe013b36	-0.12620243
236	0xbd08f057	-0.03343233
237	0xbe1ed811	-0.1551211
238	0x3e04c98e	0.12967512
239	0xbe08f7d1	-0.13375784
240	0x3d74e2f2	0.059786744
241	0x3e321a0d	0.1739275
242	0x3de29e1b	0.110653125
243	0x3e2e24e9	0.17006268
244	0xbdbaf748	-0.091291964
245	0xbe1e600d	-0.15466328
246	0xbe14ed8c	-0.14543742
247	0xbcb2c5c8	-0.021822825
248	0xbe0692c5	-0.13141926
249	0xbd979990	-0.074023366
250	0xbda2192c	-0.079149574
251	0x3e2718f8	0.16318119
252	0x3d416220	0.04721272
253	0x3cdd244b	0.026994845
254	0xbdc54ed0	-0.09634173
255	0xbd67f625	-0.056631226

emb_net.v_lins1.1.bias f4 [32]
0	0xbd2830d8	-0.041062206
1	0x3e126323	0.1429563
2	0xbdb85520	-0.09000611
3	0xbe14f81b	-0.1454777
4	0x3d9b801d	0.07592795
5	0xbde16201	-0.11005021
6	0xbd9e23df	-0.077216856
7	0x3e2639e5	0.16233023
8	0xbe236053	-0.15954714
9	0xbdc87653	-0.097881936
10	0x3dcdddbd	0.10052059
11	0x3c4ad487	0.012379772
12	0x3d70f5ca	0.058828153
13	0x3e1c2ee5	0.15252264
14	0x3cce14ea	0.025156457
15	0xbe1351c4	-0.1438666
16	0x3c9b09c9	0.018925564
17	0xbe2faf3e	-0.17156693
18	0x3d000f67	0.03126469
19	0x380effc6	3.4093646e-05
20	0xbde6fcd5	-0.11278693
21	0x3dd1ade5	0.10238246
22	0x3d5e4787	0.054267433
23	0x3bee4336	0.0072711958
24	0x3de3ec1b	0.11129018
25	0x3dd0b9e5	0.101917066
26	0x3d8ad0db	0.06778117
27	0x3d1852a0	0.037188172
28	0x3cc9e642	0.024645928
29	0x3cc9a7f8	0.024616227
30	0x3dd43548	0.10361725
31	0xbe0058d7	-0.1253389

emb_net.v_lins1.2.weight f4 [32, 32]
0	0x3d6927fd	0.0569229
1	0x3e1f0f2f	0.15533136
2	0x3d429551	0.04750568
3	0xbd6ccc45	-0.057811994
4	0x3de5c83f	0.112198345
5	0xbc700355	-0.014649232
6	0xbdb9e145	-0.0907617
7	0xbdfca1f9	-0.12335581
8	0x3d5fe841	0.054664854
9	0xbb66050b	-0.003509822
10	0xbe31b9cf	-0.17356037
11	0x3dd19e13	0.102352284
12	0x3e184261	0.14869072
13	0xbd8c4b41	-0.06850291
14	0xbe0775dd	-0.13228555
15	0xbca85d56	-0.020552319
16	0xbd3b4b28	-0.04572597
17	0x3cf0be7c	0.029387705
18	0xbe03cc1a	-0.12870827
19	0xbe0b6bb7	-0.13615309
20	0xbd87560b	-0.06608208
21	0xbe1a9ca8	-0.15098822
22	0x3d444984	0.047921672
23	0x3e12f9b5	0.14353068
24	0x3b9b3654	0.004736701
25	0x3dc0e845	0.09419302
26	0x3cf356b3	0.029704427
27	0xbd5c67d9	-0.053809974
28	0xbde46b29	-0.11153252
29	0x3d67ad1f	0.056561586
30	0xbcd6ff95	-0.026244918
31	0xbe13b8d0	-0.14425969
32	0x3e3ddeb0	0.1854198
33	0xbe051222	-0.12995198
34	0x3dbdeb0b	0.092733465
35	0x3d103c0e	0.035213523
36	0x3e1f4209	0.15552534
37	0xbd8152a5	-0.06314591
38	0x3d332eb9	0.04374573
39	0xbe08d450	-0.13362241
40	0xbe097063	-0.13421778
41	0xba5da0ae	-0.0008454424
42	0x3e21bea0	0.15795374
43	0xbbc2cf86	-0.005945149
44	0xbb114630	-0.002216708
45	0x3dd3097a	0.10304542
46	0xbbcc89f4	-0.006242031
47	0x3c836520	0.016039431
48	0xbda81c47	-0.082085185
49	0xbdd1afd5	-0.102386154
50	0x3e3807dc	0.17971748
51	0xbdd588dc	-0.104264945
52	0xbe05b4ca	-0.13057247
53	0x3d609466	0.054829024
54	0xbc360593	-0.011109727
55	0x3d4efd39	0.05053446
56	0xbe04a7d5	-0.12954648
57	0x3ddb10c7	0.106965594
58	0x3db24737	0.087049894
59	0xbd4fd982	-0.05074454
60	0xbdb8cb59	-0.090231605
61	0x3d96468a	0.07337673
62	0x3d711fc3	0.05886818
63	0xbdad67df	-0.084670775
64	0xbb075a79	-0.002065329
65	0x3ce49d60	0.027907073
66	0xbdb35fec	-0.0875853
67	0x3cca0ba3	0.024663752
68	0x3d1ffcf1	0.039059583
69	0x3dc8ef38	0.09811252
70	0xbdf24e4a	-0.11831339
71	0x3e049be1	0.12950088
72	0x3c0c62c9	0.008568474
73	0xbbeb0fbb	-0.007173506
74	0x3d8f5046	0.06997733
75	0x3cc911bf	0.024544595
76	0xbe17b687	-0.14815722
77	0xbe17179c	-0.147551
78	0xbd33c1ba	-0.043885924
79	0x3e399161	0.18121864
80	0xbe0b1411	-0.13581873
81	0x3e33e61f	0.17568253
82	0xbda15586	-0.078776404
83	0x3dcc2a66	0.09969024
84	0x3c85c3f3	0.016328787
85	0xbe19ce43	-0.15020089
86	0x3e064838	0.13113487
87	0xbe060a21	-0.13089801
88	0xbd04d174	-0.032426313
89	0xbd1bc997	-0.038034048
90	0x3e1b0332	0.15137938
91	0xbe10e4f2	-0.14149836
92	0xbe1f30a8	-0.15545905
93	0x3d1e280c	0.03861241
94	0xbd3a9b5d	-0.045558322
95	0xbde3040a	-0.11084755
96	0xbde92135	-0.11383287
97	0xbe2d4a74	-0.16922933
98	0x3e1267d7	0.14297424
99	0xbe19489c	-0.14969105
100	0x3d251d4f	0.040311154
101	0x3dafa9a4	0.08577278
102	0x3bf8a294	0.00758774
103	0x3d6d4fb2	0.05793733
104	0x3db22c2f	0.086998336
105	0xbe22623e	-0.15857789
106	0x3dfa4ec2	0.12222053
107	0x3d33e034	0.04391499
108	0x3e2573d2	0.16157463
109	0xbdd140d1	-0.10217441
110	0xbdc25aa9	-0.09489948
111	0x3e167a58	0.14695108
112	0xbe478929	-0.19485916
113	0xbdd2dbc6	-0.10295825
114	0x3df19e7d	0.11797807
115	0x3d6562bf	0.056002375
116	0xbe19950c	-0.14998263
117	0xbdd07ede	-0.10180448
118	0x3e0f7063	0.14007716
119	0x3d812ea7	0.06307726
120	0xbcfd1994	-0.030895986
121	0xbe288289	-0.16456045
122	0xbe1d4756	-0.15359244
123	0x3dfea199	0.12433166
124	0x3c893f0f	0.016753701
125	0x3da696d0	0.08134234
126	0x3cde03b1	0.02710137
127	0x3e20a77e	0.15688893
128	0x3d5ee470	0.054417074
129	0x3d129e81	0.035795692
130	0x3dcf14f9	0.10111422
131	0xbdb1a692	-0.08674349
132	0xbe305e90	-0.17223573
133	0x3dea6197	0.11444395
134	0x3d584c76	0.052807294
135	0x3ba0921c	0.00490023
136	0x3c8a16ec	0.016856633
137	0xbd0df281	-0.034655098
138	0xbd149050	-0.03627044
139	0xbdfa546a	-0.12223132
140	0x3c7f3f53	0.0155790625
141	0xbc8dbbb3	-0.017301416
142	0x3e0687c3	0.13137726
143	0xbdc422e6	-0.09576969
144	0x3d99c4af	0.075082175
145	0xbe345e32	-0.17614058
146	0xbe3d05eb	-0.18459289
147	0x3db97942	0.09056331
148	0x3dd3ade5	0.10335902
149	0x3bbc67dc	0.0057496857
150	0x3ca94f66	0.020667743
151	0x3e32141d	0.17390485
152	0xbe11f544	-0.14253718
153	0xbd027e77	-0.031858888
154	0xbe06e529	-0.13173355
155	0xbcfaf6c2	-0.030635241
156	0xbdb9d1bb	-0.09073206
157	0x3d8385d5	0.06422011
158	0x3d8cb41d	0.068702914
159	0x3c203652	0.009778576
160	0x3ce7db37	0.028302772
161	0xbc919d41	-0.01777518
162	0xbcba7bf4	-0.022764184
163	0x3d887f8b	0.06664952
164	0x3e2ad4f3	0.16682796
165	0x3d8ba1ae	0.06817947
166	0x3ce001ff	0.027344702
167	0xbd9beba5	-0.07613305
168	0x3de93f31	0.11389006
169	0xbe0392d9	-0.12848987
170	0x3e30d939	0.17270364
171	0xbdd4599c	-0.10368654
172	0x3d9ed270	0.077549815
173	0x3da50859	0.08058233
174	0x3de1212a	0.10992654
175	0xbe2688b5	-0.16263087
176	0xbd6294b6	-0.055317603
177	0xbd5314df	-0.051533576
178	0x3d053a2c	0.03252618
179	0x3e3ce318	0.18446004
180	0xbd1982f1	-0.03747839
181	0xbd5547a0	-0.05207026
182	0xbce4533d	-0.027871722
183	0x3e1634dd	0.14668603
184	0x3b9839a4	0.004645543
185	0x3da91b55	0.08257166
186	0x3d895f40	0.067076206
187	0x3e2d149e	0.16902396
188	0x3de98d82	0.114039436
189	0x3e27a95f	0.16373204
190	0x3e21a572	0.15785769
191	0xbda1f357	-0.079077415
192	0x3e0ceda8	0.13762534
193	0xbd639f1e	-0.055571668
194	0x3e3e0b2a	0.18558946
195	0xbdefd9bb	-0.11711451
196	0x3df7184d	0.12065182
197	0x3d13d69b	0.036093336
198	0xbcb7cd99	-0.022436904
199	0x3e2f3984	0.17111784
200	0xbe396eaf	-0.18108629
201	0x3db4296b	0.08796962
202	0xba1c6acf	-0.00059668435
203	0xbde276a1	-0.11057783
204	0x3e208e83	0.15679364
205	0x3df6555e	0.12028001
206	0xbe2ded3d	-0.1698503
207	0x3deccc8c	0.11562452
208	0x3df614b4	0.120156676
209	0x3dcebe27	0.100948624
210	0xbe17927a	-0.1480197
211	0xbe127041	-0.14300634
212	0xbd8a1a63	-0.06743314
213	0x3ce595b6	0.02802549
214	0x3e37ea3c	0.17960447
215	0x3cddd2f1	0.027078124
216	0x3e1dc239	0.15406121
217	0xbdf5db75	-0.12004749
218	0x39eff9a8	0.0004577164
219	0xbd15bcee	-0.03655713
220	0xbd1506cd	-0.03638344
221	0x3d50b9d4	0.05095847
222	0xbe3cf29a	-0.1845192
223	0xbdacc83d	-0.0843663
224	0x3d834dfa	0.06411357
225	0xbdf2b1b8	-0.118503034
226	0xbe30b656	-0.17257056
227	0xbdf5669b	-0.11982461
228	0xbd32396c	-0.043511793
229	0xbdc043a1	-0.09387899
230	0x3dda4282	0.106572166
231	0xbca6ad4a	-0.020346303
232	0x3b0f0b2c	0.0021826727
233	0xbd608b33	-0.05482025
234	0xbdec11e5	-0.115268506
235	0x3d54dedb	0.051970344
236	0xbd7d6e74	-0.061872914
237	0xbe0e90ac	-0.13922375
238	0xbc152adc	-0.009104457
239	0x3d85334f	0.06503927
240	0xbe1e7fb8	-0.15478408
241	0xbde3c0c2	-0.1112075
242	0xbdba09c9	-0.090838976
243	0x3df06f52	0.11739983
244	0xbe0ea0ab	-0.13928477
245	0xbcf97ee1	-0.030456008
246	0x3c71dfb9	0.014762812
247	0xbd8cd262	-0.06876065
248	0x3da2acce	0.07943116
249	0xbdb5ab11	-0.08870519
250	0x3e00a7f6	0.12564072
251	0xbd547667	-0.05187073
252	0xbdb6d403	-0.08927157
253	0xbd8cb1f8	-0.06869882
254	0x3ce24d5a	0.027624775
255	0x3e1efe17	0.15526615

emb_net.v_lins1.2.bias f4 [32]
0	0xbdcb626a	-0.0993088
1	0xbc36fe83	-0.011169079
2	0x3e1d7a1a	0.1537861
3	0x3da2c46f	0.07947623
4	0xbc2aa0db	-0.0104143275
5	0xbdf67152	-0.12033333
6	0xbd4589c6	-0.048227094
7	0xbe234e04	-0.1594773
8	0xbd5c255e	-0.053746574
9	0x3d1bb7d8	0.038017124
10	0x3dac158f	0.084025495
11	0xbe1de738	-0.15420234
12	0xbe29f4f1	-0.16597344
13	0x3e0a50bf	0.13507365
14	0xbe02d22c	-0.12775487
15	0xbe15289a	-0.1456627
16	0x3e256edd	0.16155572
17	0x3dbb9632	0.09159507
18	0x3e15a01f	0.14611863
19	0xbd08206e	-0.033234052
20	0x3e16d4dc	0.14729637
21	0x3e238a35	0.1597069
22	0xbdd5902b	-0.104278885
23	0x3d2a20c0	0.04153514
24	0x3a50b1e6	0.0007961079
25	0xbdb1026b	-0.08643039
26	0x3c7e4f11	0.015521781
27	0xbe06865d	-0.13137193
28	0x3d1c8a49	0.038217817
29	0xbde572a6	-0.11203508
30	0xbc70dd71	-0.014701233
31	0x3d407ef0	0.046996057

emb_net.v_lins1.3.weight f4 [32, 32]
0	0xbc51ddc9	-0.012809225
1	0x3df29688	0.11845118
2	0x3cdbf1c2	0.026848678
3	0x3d837e59	0.06420583
4	0xbe10fe80	-0.14159584
5	0x3bf93542	0.007605226
6	0xbd821b7f	-0.06352901
7	0xbe17cfce	-0.14825365
8	0xbe31f225	-0.17377527
9	0x3e03e992	0.12882069
10	0xbe2c0641	-0.1679926
11	0x3dcdcc64	0.1004875
12	0x3c92d75d	0.017924959
13	0xbaea0427	-0.0017854021
14	0x3d925a0a	0.0714608
15	0xbe2042f0	-0.15650535
16	0xbce7b494	-0.028284349
17	0x3e18a7df	0.14907788
18	0xbe2969d4	-0.16544276
19	0xbca0a825	-0.019611428
20	0x3e20ca9a	0.15702286
21	0x3d7a4181	0.061097626
22	0x3e227f51	0.1586888
23	0x3e245cac	0.16050977
24	0x3d0d7f2f	0.03454512
25	0x3d6e55a5	0.058187146
26	0xbd0b4f65	-0.034011263
27	0x3e3932f5	0.18085845
28	0xbc7a2135	-0.015266706
29	0xbd8c55f4	-0.06852332
30	0x3daa5569	0.08317072
31	0xbdc6711f	-0.09689545
32	0x3cb696a3	0.022288626
33	0xbe0a105f	-0.13482808
34	0xbd0fa986	-0.03507378
35	0xbd237fc6	-0.039916776
36	0x3e2fc916	0.17166552
37	0x3db3bad0	0.08775866
38	0x3d9fc96e	0.078020915
39	0x3daf84b9	0.08570237
40	0xbdd3ec1b	-0.10347768
41	0xbe24c58b	-0.16090982
42	0x3d9fc1a1	0.07800604
43	0x3d9c81f6	0.076419756
44	0x3e02a6f3	0.12758999
45	0x3dacbe86	0.08434777
46	0xbd856a92	-0.06514467
47	0xbddca35f	-0.10773348
48	0x3d5692c7	0.05238607
49	0x3db10631	0.08643759
50	0x3e21589d	0.1575646
51	0xbd2cd885	-0.042198677
52	0xbdf7a378	-0.12091726
53	0x3dd0da5b	0.10197898
54	0xbe26fcea	-0.16307417
55	0xbe015e8d	-0.12633725
56	0xbd90c71f	-0.07069229
57	0x3c194556	0.00935491
58	0xbdea4dd3	-0.11440625
59	0x3d4ef550	0.050526917
60	0xbc9be5e8	-0.019030526
61	0xbd9a4a69	-0.07533724
62	0xbd8a4d76	-0.06753056
63	0x3da15501	0.07877541
64	0xbdeed29e	-0.11661266
65	0xbd649f55	-0.055816013
66	0xbde7e4d9	-0.11322946
67	0xbe27e4e6	-0.16395912
68	0xbda811e7	-0.082065396
69	0x3dba3d9e	0.09093784
70	0x3dd8da2e	0.105884895
71	0xbd5ee311	-0.054415766
72	0xbde47ffc	-0.111572236
73	0xbd953c4e	-0.07286893
74	0xbaa9f615	-0.0012967015
75	0x3e101c8e	0.14073393
76	0x3df76b65	0.12081031
77	0xbe07cd4f	-0.13261913
78	0xbd853cdb	-0.06505748
79	0x3dd8e539	0.10590596
80	0x3e298149	0.16553225
81	0xbdf67d3d	-0.12035606
82	0x3d9836a8	0.074323
83	0x3da02101	0.07818795
84	0xbe0153ba	-0.12629595
85	0x3d07614a	0.033051766
86	0x3def9fa9	0.11700375
87	0xbaefaa4c	-0.0018285005
88	0xbdf140c4	-0.11779931
89	0x3d898b5e	0.06716035
90	0xbc9af687	-0.018916382
91	0xbe21225e	-0.15735766
92	0x3e0696fd	0.13143535
93	0xbe001d80	-0.12511253
94	0xbd1324b8	-0.03592369
95	0xbe2011c1	-0.15631773
96	0xbd5ab04b	-0.053390782
97	0x3d8b1220	0.067905664
98	0xbdaf49cd	-0.08558998
99	0x3da606f2	0.081067935
100	0x3c815c60	0.015791118
101	0xbdcf3462	-0.10117413
102	0x3e14de87	0.14538012
103	0x3d3e6da3	0.046491276
104	0x3da3ca86	0.07997613
105	0xbe1982d2	-0.1499131
106	0x3c91d939	0.017803775
107	0xbe16cabf	-0.14725779
108	0xbc97a69e	-0.018512066
109	0x3bfe4940	0.007760197
110	0xbe22fb3b	-0.1591615
111	0xbdb03739	-0.08604283
112	0x3df3a6c1	0.1189704
113	0xbd4e7253	-0.050401997
114	0xba4e06e4	-0.0007859303
115	0x3e104493	0.14088659
116	0xbe1e6132	-0.15466765
117	0x3e302182	0.17200282
118	0x3d13845c	0.0360149
119	0xbd964cda	-0.07338877
120	0x3da390d8	0.07986611
121	0xbd060ddd	-0.032728065
122	0xbca46e1d	-0.020072037
123	0x3d884eb6	0.06655638
124	0x3ddd56e2	0.10807587
125	0x3dcdad37	0.10042804
126	0xbc3d2452	-0.011544304
127	0xbe022b66	-0.12711868
128	0xbe0b77cc	-0.13619918
129	0xbd37ca84	-0.04487087
130	0xbd3b5d41	-0.04574323
131	0xbdf2d0af	-0.118562095
132	0x3e15ec0e	0.14640829
133	0x3db5b435	0.088722624
134	0x3d01ff4c	0.03173761
135	0x3b890e60	0.004182622
136	0x3dc0873f	0.09400796
137	0x3c5f0452	0.01361187
138	0xbd8bb268	-0.06821138
139	0xbcc45a88	-0.02396895
140	0x3d5dc408	0.054142028
141	0xbe3b6b6b	-0.18302695
142	0xbd90f8e7	-0.07078724
143	0xbe057cdc	-0.13035911
144	0x3cdfdebb	0.027327886
145	0x3e1b9a4d	0.1519558
146	0xbdbda468	-0.09259874
147	0x3dc37caa	0.09545262
148	0xbdb72099	-0.089417644
149	0xbc604e0b	-0.013690482
150	0xbe3dbd85	-0.18529327
151	0xbe2bf348	-0.16792023
152	0x3df41d05	0.119195975
153	0xbd6f6205	-0.058443088
154	0x3de2164e	0.110394105
155	0x3dfe055a	0.124033645
156	0xbe37355d	-0.1789145
157	0x3d6ec920	0.058297276
158	0x3de6118f	0.11233818
159	0x3ccfe7e2	0.025379125
160	0x3e097a3c	0.13425535
161	0xbda43bb2	-0.080191985
162	0xbe28085d	-0.1640944
163	0xbe0c6009	-0.1370851
164	0xbc76bfaa	-0.015060345
165	0xbd677769	-0.056510363
166	0xbdaa624b	-0.08319529
167	0xbcd1de40	-0.025618672
168	0xbcf272f4	-0.02959583
169	0x3d62db67	0.05538502
170	0xbdd4e0c2	-0.10394432
171	0xbd3fc2ee	-0.04681676
172	0x3d878676	0.06617443
173	0xbe093b5b	-0.13401549
174	0xbe2cfaa1	-0.16892482
175	0x3d424e79	0.04743812
176	0xbc494ac7	-0.012285895
177	0xbdaacae1	-0.08339477
178	0xbe0f70ef	-0.14007924
179	0x3db5a92b	0.08870157
180	0x3e2e8a9f	0.17045067
181	0x3c198ec4	0.009372417
182	0x3c4c4d2b	0.01246957
183	0x3e0dfa09	0.13864912
184	0x3e226615	0.15859254
185	0xbd66d9b4	-0.05635996
186	0x3d35bcc9	0.044369493
187	0xbe1973a5	-0.14985521
188	0x3dad60ea	0.084657505
189	0x3c3520af	0.011055156
190	0xbcc31d60	-0.023817718
191	0x3caea19a	0.021317292
192	0xbd069143	-0.032853376
193	0x3d132305	0.03592207
194	0x3cccac7a	0.024984587
195	0xbdeb23e4	-0.11481455
196	0xbd9ea6f9	-0.07746691
197	0x3d6b804f	0.05749541
198	0xbe39797e	-0.18112752
199	0x3dc172d8	0.09445733
200	0x3d39e5fe	0.045385353
201	0xbd041114	-0.03224285
202	0x3e27b122	0.16376165
203	0x3e19bc00	0.15013123
204	0xbce439e8	-0.027859643
205	0xbe1b5514	-0.15169173
206	0xbc2aa434	-0.010415126
207	0x3d961efe	0.0733013
208	0x3d8fe41e	0.07025932
209	0x3e24c5a9	0.16091026
210	0x3d8372d0	0.06418383
211	0xbd87a416	-0.06623094
212	0xbd0adca5	-0.03390183
213	0x3dc10d5d	0.09426377
214	0xbcaa6531	-0.020800205
215	0x3dcc99da	0.09990282
216	0x3e0fdaa0	0.14048243
217	0xbdc0c00c	-0.0941163
218	0xbe2c9c16	-0.16856417
219	0xbd96cd01	-0.0736332
220	0xbd42c322	-0.047549374
221	0x3d1a7404	0.037708297
222	0x3a5e2af9	0.00084750314
223	0xbe2c5940	-0.16830921
224	0x3df397f6	0.118942186
225	0xbc201c9e	-0.009772448
226	0x3d72152a	0.059102215
227	0x3dbde0e4	0.0927141
228	0x3cf83ea2	0.030303303
229	0x3e16233f	0.14661883
230	0xbdba0e0d	-0.09084711
231	0x3dc9bd93	0.098506115
232	0xbcdf8f12	-0.0272899
233	0xbe22fc04	-0.15916449
234	0xbdef7732	-0.116926566
235	0xbb070a64	-0.0020605559
236	0x3e29c1a4	0.16577774
237	0xbe0afa8e	-0.13572142
238	0x3e144b00	0.14481735
239	0xbe2b2f6d	-0.1671731
240	0xbdaffbc4	-0.08592942
241	0xbdae5280	-0.085118294
242	0x3e2d0151	0.16895033
243	0x3e0460e7	0.1292759
244	0xbcfcfea2	-0.030883137
245	0xbdae0cdc	-0.084985465
246	0x3e308103	0.17236714
247	0x3d4c54f6	0.049885713
248	0xbdd7a771	-0.10529984
249	0xbd46f51a	-0.04857359
250	0x3d8c228f	0.06842529
251	0xbd05fb62	-0.03271044
252	0x3dbd148c	0.09232435
253	0xbd91f095	-0.071259655
254	0x3da46969	0.08027918
255	0x3e0053ac	0.12531918

emb_net.v_lins1.3.bias f4 [32]
0	0x3c0d97a4	0.008642111
1	0xbc352209	-0.011055478
2	0xbd5234db	-0.05131994
3	0x3e024cad	0.12724562
4	0x3d96be41	0.07360507
5	0x3d19e543	0.037572157
6	0xbd38e930	-0.04514426
7	0xbe2b0517	-0.1670116
8	0x3e1cb3e9	0.15303005
9	0x3dbaf2d4	0.09128347
10	0xbde4c3db	-0.11170169
11	0xbc60cd18	-0.013720773
12	0x3dbd1362	0.092322126
13	0xbd6cd1f2	-0.057817407
14	0x3e400888	0.18753254
15	0xbd3f14d6	-0.04665073
16	0x3e39c3f5	0.18141158
17	0x3da33ded	0.07970796
18	0xbdb51f29	-0.08843834
19	0x3c978444	0.018495686
20	0xbd085668	-0.03328553
21	0xbe010833	-0.12600784
22	0xbc23a562	-0.009988161
23	0x3c9dc396	0.019258302
24	0xbddad42d	-0.106850006
25	0xbd65934e	-0.056048684
26	0xbe0ccf17	-0.13750874
27	0xbcf6960a	-0.030100841
28	0xbe268f27	-0.16265546
29	0xbdf12777	-0.117751054
30	0xbe09fa28	-0.13474333
31	0x3be3a071	0.0069466163

emb_net.v_lins1.4.weight f4 [32, 32]
0	0xbd62a3f0	-0.055332124
1	0x3dd5e691	0.10444368
2	0xbe36f720	-0.17867708
3	0xbe05d0f4	-0.1306799
4	0xbc1b2741	-0.009469808
5	0x3c830e04	0.015997894
6	0xbd9055d3	-0.0704762
7	0xbdc0ec29	-0.09420044
8	0xbe0f0b98	-0.13969266
9	0xbb01862c	-0.001976381
10	0xbdfacd88	-0.12246233
11	0xbe12a842	-0.14321998
12	0xbdb15e0c	-0.08660516
13	0xbdb07f57	-0.08618038
14	0x3d076d00	0.033062935
15	0x3df6f865	0.12059096
16	0x3da3547d	0.07975099
17	0x3da0ab4a	0.07845171
18	0x3e281f14	0.16418105
19	0xbc35a079	-0.011085623
20	0xbce2fd53	-0.027708685
21	0x3c529733	0.0128534315
22	0x3d418588	0.047246486
23	0xbda4e9ac	-0.08052382
24	0x3c8c965e	0.017161544
25	0xbdde9b8c	-0.10869512
26	0x3dd26d89	0.102747984
27	0xbe2490c2	-0.16070846
28	0x3da151ca	0.07876928
29	0x3ced16fe	0.028941628
30	0xbd6e0816	-0.05811318
31	0xbd942ef7	-0.0723552
32	0x3e089096	0.13336405
33	0x3d4541bb	0.04815839
34	0xbd12e0ed	-0.035859037
35	0xbd43956e	-0.04774993
36	0xbbce47b0	-0.006295167
37	0xbd6d9d84	-0.058011547
38	0xbd012f69	-0.031539354
39	0xbdcae691	-0.09907258
40	0x3bb2c3e3	0.0054554804
41	0xbe1a5908	-0.15073025
42	0xbd2a34b6	-0.041554175
43	0xbd00d423	-0.03145231
44	0xbdd40986	-0.10353379
45	0x3d3f55cc	0.04671268
46	0x3c8f8f0e	0.017524268
47	0x3ddb07b1	0.106948264
48	0xbdc1eb68	-0.09468728
49	0x3d8698c2	0.06572105
50	0x3e0eb842	0.13937476
51	0xbe422030	-0.18957591
52	0x3c61dec4	0.013786022
53	0x3dbba50a	0.09162338
54	0x3df3d7f6	0.11906426
55	0x3dbe2c7a	0.09285827
56	0x3d2b0f10	0.04176241
57	0xbdc1ddae	-0.0946611
58	0x3dcf8402	0.101326
59	0xbe1547ed	-0.14578219
60	0xbc7830ce	-0.015148355
61	0x3cb2196b	0.021740636
62	0x3e0f096d	0.1396844
63	0xbd6f573a	-0.058432795
64	0xbd8d0d8e	-0.06887351
65	0x3d843c2d	0.0645679
66	0xbe0f75ed	-0.14009829
67	0x3dc4e6fd	0.0961437
68	0x3ddf89f9	0.10914988
69	0xbc07e993	-0.0082954345
70	0x3da75616	0.081707165
71	0x3de63629	0.11240799
72	0xbab2919b	-0.0013623716
73	0x3e1d7054	0.15374881
74	0xbe0543e0	-0.13014174
75	0x3dd5f42a	0.10446961
76	0xbd63a1af	-0.055574115
77	0xbdea023b	-0.11426207
78	0x3bfb0382	0.0076603303
79	0xbdfb0a4a	-0.12257822
80	0x3dc8544f	0.097817056
81	0x3d443864	0.04790534
82	0x3cb0abef	0.02156636
83	0x3c8d092a	0.017216284
84	0xbde702cd	-0.11279831
85	0x3df075ba	0.117412046
86	0xbe0301d5	-0.12793668
87	0xbdb804b8	-0.08985275
88	0x3e0cf94f	0.13766979
89	0xbd646539	-0.055760596
90	0xbd04831a	-0.03235159
91	0xbe213de4	-0.15746266
92	0xbe02255e	-0.12709567
93	0xbd08574d	-0.03328638
94	0xbe006b5c	-0.12540954
95	0xbc477abc	-0.012175258
96	0x3e2a2a42	0.16617683
97	0xbd275085	-0.040848274
98	0x3d1372b2	0.035998054
99	0x3d79fe02	0.061033256
100	0x3e132098	0.14367902
101	0xbc9e23fd	-0.01930427
102	0xbe21b4e2	-0.15791658
103	0xbe1d824c	-0.15381736
104	0xbe035899	-0.12826766
105	0x3d8347fb	0.064102136
106	0x3deb7a03	0.11497881
107	0x3dd7b85f	0.10533213
108	0xbda0fd9e	-0.07860874
109	0xbca25e0f	-0.019820241
110	0x3d1be461	0.038059596
111	0xbd91bc74	-0.07116023
112	0x3cd5f878	0.026119456
113	0x3d1c57a0	0.038169503
114	0xbe09dfdf	-0.13464306
115	0x3d8010a8	0.06253177
116	0xbcd4a860	-0.025959194
117	0xbd85ba26	-0.065296456
118	0xbdb6564f	-0.08903181
119	0xbdea5cc1	-0.11443473
120	0xbe0bfdbc	-0.1367101
121	0x3dbd9e0d	0.092586614
122	0xbc2a3352	-0.010388212
123	0x3df70d5b	0.12063094
124	0xbe1eb331	-0.15498044
125	0xbdfad8e2	-0.12248398
126	0x3d869a37	0.06572383
127	0xbdf88fae	-0.1213678
128	0x3df9cab1	0.121968634
129	0x3de6318f	0.11239921
130	0xbe2a5dbb	-0.16637318
131	0x3e0ac0c9	0.13550104
132	0xbda4a0bc	-0.0803847
133	0x3e0de6ca	0.1385757
134	0x3d0b1fe4	0.03396596
135	0x3d8acefb	0.0677776
136	0x3cd017b5	0.02540193
137	0x3e14716f	0.14496396
138	0x3c587f0f	0.013213887
139	0xbe0d65b3	-0.13808326
140	0x3e2ff7cd	0.17184372
141	0x3cb67939	0.0222746
142	0xbd7cf347	-0.061755445
143	0x3d27d0da	0.04097066
144	0xbe0f099b	-0.13968508
145	0x3cc27436	0.023737054
146	0x3c440e0a	0.011966238
147	0xbcf06f5f	-0.02934998
148	0x3e1d4ea1	0.15362026
149	0xbd253679	-0.040335152
150	0xbcd1edb5	-0.025626043
151	0x3d682d72	0.056683965
152	0x3dccc521	0.09998537
153	0xbd86a40e	-0.0657426
154	0x3e124986	0.1428586
155	0x3d1dd71a	0.038535215
156	0xbe21a472	-0.15785387
157	0x3da6bb96	0.08141248
158	0xbddb4456	-0.107063934
159	0x3bda75d5	0.0066668787
160	0x3d946287	0.07245355
161	0xbca1a24b	-0.019730708
162	0xba46144c	-0.0007556125
163	0x3ba74c79	0.005105552
164	0x3e21b619	0.15792121
165	0xbdf9da29	-0.12199814
166	0xbac58f43	-0.0015072603
167	0xbdf0d483	-0.117592834
168	0x3b2ea100	0.0026646256
169	0xbdd8e770	-0.10591018
170	0xbd802877	-0.06257718
171	0x3e04ed58	0.12981164
172	0x3e019bbe	0.12657067
173	0x3dfdf597	0.12400358
174	0xbd6f8dfe	-0.058485024
175	0x3c124893	0.008928436
176	0xbe04d08e	-0.12970182
177	0x3d9cf5cb	0.07664069
178	0x3e29aa4c	0.1656887
179	0xbd464eee	-0.048415117
180	0x3b8492ba	0.0040458115
181	0xbc9bd136	-0.019020658
182	0xbe2dce03	-0.16973118
183	0xbe00643b	-0.12538235
184	0xbe21e029	-0.15808167
185	0x3dbd9de1	0.09258629
186	0xbdeedf05	-0.11663631
187	0x3d065a8f	0.032801207
188	0xbdbbdaed	-0.09172616
189	0xbdd4548a	-0.10367687
190	0xbd9e8a62	-0.07741238
191	0x3c242a4c	0.01001985
192	0x3e314785	0.17312439
193	0xbe1178b7	-0.14206205
194	0x3dea8b96	0.11452405
195	0x3e314e1f	0.17314957
196	0xbdaa969b	-0.08329507
197	0xbe01d7f3	-0.12680034
198	0x3d5e5072	0.054275937
199	0xbe0aca49	-0.13553728
200	0xbd8cbdc7	-0.06872135
201	0x3d349c5b	0.044094425
202	0xbd8903c1	-0.06690169
203	0x3e07570d	0.13216801
204	0x3e31e839	0.17373742
205	0xbd71690f	-0.058938082
206	0x3e2678c4	0.16257006
207	0x3c953c0e	0.018217113
208	0xbdd1fe2c	-0.102535576
209	0xbde3c12e	-0.111208305
210	0x3e15800d	0.14599629
211	0xbbf3a874	-0.0074358527
212	0xbdd4b5a2	-0.10386206
213	0x3d1ef6b0	0.03880948
214	0xbd357b1f	-0.04430687
215	0xbe0328ef	-0.12808584
216	0xbdb0b18a	-0.08627613
217	0x3e073053	0.13202028
218	0x3d7a1947	0.061059263
219	0x3e066412	0.13124111
220	0xbda5b810	-0.08091748
221	0x3dd33e6f	0.10314643
222	0xbe39bdb1	-0.18138768
223	0x3d6f5318	0.058428854
224	0x3e0d22f5	0.13782866
225	0x3bb7785c	0.0055990648
226	0xbd96802e	-0.07348667
227	0xbbb168d7	-0.005414109
228	0x3dbb5e1d	0.0914881
229	0xbd11ffbc	-0.035644278
230	0xbdc71a8a	-0.09721859
231	0x3d575713	0.052573275
232	0x3e13d544	0.14436823
233	0x3e150ce1	0.14555694
234	0x3d15db57	0.036586132
235	0x3b8507b0	0.0040597543
236	0xbc917b6f	-0.017759053
237	0x3baa58c5	0.0051985704
238	0xbe3dd788	-0.1853925
239	0xbd87176f	-0.065962665
240	0x3df7128f	0.12064087
241	0x3ccbcf4b	0.024879118
242	0x3d59bb73	0.05315728
243	0x3ddd50d0	0.108064294
244	0xbe1595bc	-0.146079
245	0xbe23363a	-0.15938655
246	0x3d70b34a	0.058764733
247	0x3bf435f8	0.0074527226
248	0x3dff289d	0.12458918
249	0xbe1320f0	-0.14368033
250	0x3dd6343e	0.10459183
251	0x3e2d375b	0.16915648
252	0xbd22a10a	-0.03970436
253	0x3d9d86b4	0.07691708
254	0xbe3166b4	-0.17324334
255	0xbaeb9fcf	-0.0017976704

emb_net.v_lins1.4.bias f4 [32]
0	0xbd591d79	-0.053006623
1	0x3ae3e6d4	0.0017387518
2	0xbddf98be	-0.10917805
3	0xbd283ff7	-0.041076627
4	0xbde0bc4a	-0.10973413
5	0xbcc2d49c	-0.02378302
6	0x3d4edbbc	0.050502524
7	0xbdf146cf	-0.11781084
8	0xbda064ed	-0.0783175
9	0x3e084b99	0.13310088
10	0x3d71fa71	0.05907673
11	0xbdc7ba26	-0.09752302
12	0xbd90fd09	-0.070795126
13	0xbe1d591e	-0.15366027
14	0x3c62ad0c	0.013835203
15	0xbd8bcc96	-0.06826131
16	0xbda5bb47	-0.08092361
17	0xbd8020c5	-0.0625625
18	0xbe2c22a1	-0.16810085
19	0x3da7f386	0.08200745
20	0x3e0b16f1	0.1358297
21	0x3dbb478f	0.09144508
22	0xbdf5d65a	-0.12003775
23	0x3d866497	0.06562155
24	0x3d9ef86f	0.07762229
25	0xbda571e1	-0.08078361
26	0x3dab1fdc	0.08355686
27	0x3d86a595	0.06574551
28	0xbd83d2b5	-0.064366736
29	0x3e0890a9	0.13336433
30	0xbe3452ea	-0.17609754
31	0x3dc86ea3	0.09786727

emb_net.v_lins1.5.weight f4 [32, 32]
0	0x3d38e854	0.04514344
1	0xbd9e048a	-0.077157095
2	0xbcba3d5e	-0.02273434
3	0xbe2588f4	-0.16165525
4	0xbdb7a4ff	-0.089670174
5	0x3d62f53e	0.055409662
6	0x3c5f6a47	0.013636178
7	0xbe06fd30	-0.13182521
8	0x3cd68020	0.026184142
9	0xbe0c9745	-0.1372958
10	0x3d40393d	0.046929587
11	0xbd979b69	-0.07402689
12	0x3df4ba18	0.11949557
13	0x3e02e0d4	0.12781078
14	0xbdb0faa0	-0.08641553
15	0x3d5c9b1e	0.05385887
16	0x3d72e645	0.059301633
17	0xbda5b73c	-0.0809159
18	0x3c2a42f4	0.010391939
19	0xbd1809b0	-0.037118614
20	0xbe1b1f48	-0.15148652
21	0x3c63550e	0.013875259
22	0xbdacc11f	-0.084352724
23	0xbe133f54	-0.14379627
24	0xbe1863b3	-0.14881782
25	0xbca4d1af	-0.020119516
26	0xbba6fa9b	-0.0050957925
27	0x3d873004	0.06600955
28	0xbdf50039	-0.11962933
29	0xbc33f069	-0.010982611
30	0x3e1670ab	0.14691417
31	0xbe074af0	-0.1321218
32	0xbdec4b39	-0.11537785
33	0xbdfcd0ee	-0.12344538
34	0xbe0de670	-0.13857436
35	0x3e06f4f9	0.13179387
36	0xbddc517b	-0.10757729
37	0x3e029eda	0.1275591
38	0xbddca805	-0.10774235
39	0x3e031287	0.12800036
40	0x3e158a3d	0.14603515
41	0xbe254e5b	-0.16143171
42	0x3e402d65	0.18767317
43	0x3d3b7141	0.045762304
44	0xbcd98c88	-0.026556268
45	0xbe29855e	-0.16554782
46	0xbd9ab4b6	-0.07553999
47	0xbd5e2b22	-0.054240353
48	0xbbb82fa6	-0.0056209145
49	0xbdce9e52	-0.10088791
50	0xbdeecfe0	-0.11660743
51	0x3d1b11cf	0.03785878
52	0x3e0e3821	0.13888599
53	0xbd84fa1d	-0.06493018
54	0x3de80465	0.11328963
55	0xbbce125f	-0.006288811
56	0xbe08084d	-0.13284416
57	0xbe0be25b	-0.13660567
58	0xbde9598b	-0.11394032
59	0xbe23db99	-0.16001739
60	0x3d98ef00	0.07467461
61	0x3df33ffa	0.11877437
62	0x3c79b6ec	0.015241366
63	0x3dd6491a	0.10463162
64	0x3e05f1e9	0.13080563
65	0xbe0dea27	-0.13858853
66	0x3d44d7d3	0.04805739
67	0xbd980451	-0.07422698
68	0x3d2339ac	0.039849922
69	0xbc8b971e	-0.017039832
70	0xbe008a51	-0.12552764
71	0x3c9b7d13	0.018980538
72	0x3d139c76	0.036037885
73	0x3d647a02	0.05578042
74	0x3da7dee5	0.08196811
75	0xbe0b9873	-0.13632374
76	0x3d5ebf38	0.05438158
77	0x3d9a6c20	0.075401545
78	0xbdb618c5	-0.08891443
79	0x3dd586c9	0.10426099
80	0x3d80745e	0.06272195
81	0x3e29145f	0.16511677
82	0xbd6bacd0	-0.057537854
83	0xbe1c43ed	-0.15260287
84	0x3e1e7b32	0.15476683
85	0xbdaa717c	-0.08322427
86	0x3ddbde83	0.107358
87	0xbe20ce45	-0.15703686
88	0xbe363069	-0.17791905
89	0x3d978c7a	0.07399841
90	0xbce49613	-0.027903592
91	0x3e264090	0.16235566
92	0x3db77a9a	0.08958931
93	0x3e24fcbe	0.16112038
94	0x3d77218c	0.060334727
95	0x3dd977cf	0.10618555
96	0xbd98a943	-0.07454159
97	0xbdfc46dc	-0.12318203
98	0xbe1c7b6d	-0.15281458
99	0x3dfa7997	0.12230223
100	0xbe39e6b9	-0.1815442
101	0x3d1df90a	0.03856758
102	0xbdb8db59	-0.09026212
103	0x3e1f18f5	0.15536864
104	0x3d92e932	0.07173385
105	0x3cdb654e	0.026781704
106	0x3aa8e062	0.0012884254
107	0xbe183c24	-0.14866692
108	0xbe153b02	-0.14573291
109	0x3c6c11e4	0.014408562
110	0x3d9271d2	0.07150616
111	0x3e29ff03	0.16601186
112	0xbe15bf1d	-0.14623685
113	0x3d8c161d	0.06840155
114	0x3e16fc57	0.14744698
115	0xbe10eec9	-0.1415359
116	0xbdf5045e	-0.119637236
117	0x3e0d09e8	0.1377331
118	0x3d85f5eb	0.06541046
119	0xbd427439	-0.04747412
120	0x3c7e4c83	0.0155211715
121	0xbd0acdcf	-0.03388768
122	0x3e2c2575	0.16811164
123	0xbd6b227a	-0.057405926
124	0xbdfdbdf3	-0.123897456
125	0xbdeb9e8e	-0.11504851
126	0x3c4ae7ea	0.012384394
127	0x3dc08e3f	0.09402131
128	0xbddea89c	-0.108720034
129	0xbe0c1609	-0.1368028
130	0xbe15b527	-0.14619885
131	0xbc4931e0	-0.0122799575
132	0xbdf97d7e	-0.12182139
133	0xbd71b7e7	-0.059013274
134	0xbce5c354	-0.028047241
135	0xbdbc3d93	-0.09191432
136	0x3c12fb7f	0.008971094
137	0x3e11af4c	0.14227027
138	0xbc86bed3	-0.016448414
139	0xbe24f0bb	-0.16107456
140	0x3d812eff	0.06307792
141	0x3d424d75	0.04743715
142	0xbd7a8042	-0.061157472
143	0xbdf2569a	-0.11832924
144	0xbe26683c	-0.162507
145	0x3d904a4a	0.070454195
146	0x3dc50474	0.0961999
147	0xbc0194f5	-0.007909049
148	0xbdcac7f9	-0.09901423
149	0x3e02829a	0.12745133
150	0xbe15a4ad	-0.146136
151	0x3d90c1bb	0.07068201
152	0xbe0fe980	-0.14053917
153	0xbe2498c5	-0.16073902
154	0xbe1f06bd	-0.15529914
155	0x3deff4ad	0.1171659
156	0x3e32d689	0.17464651
157	0x3d74ffad	0.059814144
158	0xbdf5be26	-0.119991586
159	0xbe19c5d3	-0.1501687
160	0x3e1aef7b	0.15130417
161	0xbc68552f	-0.014180466
162	0xbddfddb9	-0.10930962
163	0xbde91c8b	-0.11382397
164	0x3cfd23ad	0.0309008
165	0xbdcb2165	-0.09918479
166	0x3dd55833	0.10417213
167	0x3d5f2828	0.054481655
168	0x3dc7bf92	0.09753336
169	0x3bcb7881	0.0062094335
170	0x3d36922a	0.044572987
171	0x3dcd7c88	0.10033518
172	0x3d95bfac	0.07311949
173	0x3d45670d	0.04819398
174	0x3de8fdff	0.11376571
175	0x3e073931	0.1320541
176	0xbdf8538d	-0.12125311
177	0xbdcf88f9	-0.10133547
178	0x3ddc4741	0.10755778
179	0x3e2e2f7e	0.17010304
180	0xbd44919c	-0.047990426
181	0xbd9e37b3	-0.077254675
182	0x3da3db12	0.08000769
183	0xbda7b220	-0.081882715
184	0xbdda4518	-0.1065771
185	0x3dcd6f32	0.100309744
186	0x3d108f23	0.035292756
187	0xbd4327a6	-0.047645234
188	0x3e0da999	0.13834228
189	0xbe19c4da	-0.15016499
190	0x3d2795ad	0.040914226
191	0xbd6ea653	-0.058264088
192	0xbdeec364	-0.116583616
193	0xbc8050eb	-0.015663585
194	0xbe0f74a3	-0.14009337
195	0x3db62efa	0.08895679
196	0xbd65a75f	-0.05606782
197	0xbe1d3f64	-0.15356213
198	0xbd117164	-0.03550853
199	0xbdbcb33e	-0.09213875
200	0x3d80c578	0.06287664
201	0x3e0c2c34	0.13688737
202	0x3e198c6c	0.14994973
203	0x3df32742	0.11872722
204	0xbe2e53e4	-0.17024189
205	0xbdd87404	-0.10569003
206	0xbd886171	-0.066592105
207	0xbe0be5e3	-0.13661914
208	0x3d1d1cb9	0.03835747
209	0x3ddecb63	0.10878637
210	0x3d733ae2	0.059382327
211	0xbd59647e	-0.053074352
212	0xbd32c51c	-0.04364501
213	0xbd18ae15	-0.037275393
214	0x3e09c516	0.13454089
215	0xbae86ded	-0.0017732956
216	0xbce34132	-0.027741048
217	0xbd53e0f5	-0.051728208
218	0xbe1e923b	-0.1548547
219	0x3dfea72c	0.12434229
220	0x3d1fb1a9	0.03898779
221	0xbdf4c2bc	-0.11951205
222	0x3e1552b0	0.14582324
223	0xbddd8c96	-0.1081783
224	0xbda3d694	-0.07999912
225	0xbdfbf743	-0.12303021
226	0xbe27ff7a	-0.1640605
227	0xbdfca016	-0.123352215
228	0x3c587afc	0.0132129155
229	0x3e275e0f	0.16344474
230	0x3e2cda1f	0.16880082
231	0x3dfa7403	0.12229159
232	0x3e06748f	0.13130401
233	0x3e0eeefb	0.13958351
234	0x3d03c4e0	0.032170177
235	0x3dea5787	0.11442476
236	0x3d0064e3	0.031346213
237	0xbdc65c06	-0.09685521
238	0xbe21ce0f	-0.15801261
239	0xbd6f6075	-0.058441598
240	0xbc1c64f4	-0.0095455535
241	0x3ddb3518	0.10703486
242	0xbd8c75b4	-0.068583876
243	0x3e068b11	0.13138987
244	0x3e1f2e36	0.15544972
245	0x3e185667	0.1487671
246	0x3cc89bd0	0.02448836
247	0xbde35eb5	-0.11102048
248	0x3dd1518c	0.10220632
249	0x3c1eb0d7	0.009685717
250	0xbe251ab0	-0.16123462
251	0x3cf133fc	0.029443733
252	0x3e2532e2	0.16132692
253	0xbe0ed65f	-0.13948964
254	0xbe107e57	-0.14110695
255	0xbcfda1d2	-0.030960951
