pretrained/mkp/mkp500.pt (torch, 100783 bytes, 43 tensors)

transformer_encoder.layers.0.self_attn.in_proj_weight f4 [96, 32]
-0.07157199 0.1618454 -0.049642406 -0.09284677 0.056180183 0.08636807 -0.19693063 0.17516166
0.042996634 -0.19691667 -0.13228148 -0.11159727 0.14944965 0.0029440634 -0.17891423 -0.19905512
-0.113669634 0.061253473 0.1927214 0.041403186 0.02540989 -0.18570015 0.17363462 -0.0954113
-0.010010886 -0.1456752 -0.19386292 0.0075751035 0.14806823 -0.05521084 -0.22553264 0.111170016
0.10070467 0.02664406 0.032318175 -0.11993508 -0.0074295765 -0.07508329 -0.15931033 0.20398612
-0.029118905 0.041113377 -0.055985514 0.022814022 -0.20903753 -0.00365023 0.10411345 0.0577432
0.012985847 0.03945704 -0.18444188 -0.08224859 0.043161355 -0.20905568 -0.008193732 -0.11203259
0.13529742 0.054853816 0.06288271 0.18625174 -0.20237339 -0.12640867 0.05817619 -0.061577737
-0.014061242 0.006057469 0.1911095 -0.037306912 0.039100103 0.09595202 0.19328189 -0.04126281
0.081133984 0.1336916 0.066255204 0.008125899 0.16075657 -0.19650349 0.18293506 -0.056825314
-0.0079433 0.014434868 0.1473483 -0.11566507 0.11813752 -0.017503045 0.063076824 -0.11335663
-0.122346975 0.049302276 -0.17920855 -0.03778005 0.0816832 -0.14041445 0.1957701 0.16144183
0.040210206 -0.12554482 -0.1251973 0.054651935 0.13094817 -0.16852935 0.22200638 0.03215127
-0.07991672 0.19821492 -0.061517194 0.056547534 -0.16609631 0.06547349 0.21664774 -0.10074028
0.15187818 -0.12466311 0.09615779 -0.12840866 -0.21319975 -0.11367969 0.16525601 0.21626526
-0.10075908 -0.21861771 0.12688844 -0.099718295 0.03810865 -0.12581624 0.11397618 -0.09037723
-0.15340848 0.06994046 0.20191042 0.08396234 0.058725704 -0.023204643 0.06445154 -0.018860316
0.20373474 -0.14289013 -0.10128915 0.114587024 -0.16394892 -0.015311643 -0.09908295 -0.03391117
-0.11064686 -0.09097896 0.21830678 -0.17950393 -0.099845596 0.1426775 -0.055967897 0.17041253
0.00020047167 0.0025391034 -0.04873307 -0.18512844 0.12456022 -0.0054476433 -0.14777136 0.15117435
-0.09476446 0.12947235 0.20207125 -0.16166683 0.00048859994 -0.10821045 -0.20323753 0.16024809
0.215805 0.005648374 0.107934214 -0.07026108 0.20938462 -0.054053046 -0.118221104 0.05744018
-0.1354523 0.12574527 -0.074840054 0.005324709 -0.12923197 -0.0649449 -0.087523974 -0.15559192
0.17729478 0.117511734 0.057114866 -0.18709143 0.054938193 0.1530536 -0.20795669 0.09154221
-0.21116622 0.08060533 -0.13891575 0.13687795 0.13360879 -0.14581345 -0.19585817 -0.100218914
0.028276358 0.20935857 0.0027110286 0.07531381 0.05231295 0.10298452 -0.123450875 0.1768941
-0.057122346 0.18115169 -0.13055253 0.06368209 -0.08132093 0.09053992 0.08211578 -0.16836876
0.100507006 0.0138778705 -0.013840144 -0.15144084 -0.04507681 -0.17573896 0.14904734 0.008134089
0.19005495 0.006789666 -0.12168486 -0.2202295 -0.0013835683 0.15811358 -0.055572055 -0.0628856
-0.04265741 -0.054977085 -0.12136316 -0.052124865 -0.18264265 0.14510469 0.008199482 0.13162053
0.13087916 0.11605295 -0.050940532 0.075997785 -0.13110496 -0.18125045 0.041379213 0.109145105
-0.21319778 -0.1350562 0.026983801 0.11684108 -0.13051657 -0.013134398 0.17703785 0.2002956
00000000: 5694 92bd cdba 253e d655 4bbd 7326 bebd
00000010: 311d 663d bee1 b03d 2fa8 49be 945d 333e
00000020: 3d1d 303d 86a4 49be cc74 07be 1c8d e4bd
00000030: 5409 193e 30f1 403b 4b35 37be 1bd5 4bbe
00000040: a0cb e8bd ece4 7a3d c258 453e 6396 293d
00000050: 6728 d03c 2e28 3ebe 46cd 313e 0067 c3bd
00000060: b304 24bc e12b 15be 0084 46be 9338 f83b
00000070: 339f 173e c324 62bd 07f2 66be 1bad e33d
00000080: 403e ce3d a544 da3c 1060 043d 86a0 f5bd
00000090: ce73 f3bb 45c5 99bd 3f22 23be bde1 503e
000000a0: c58a eebc 8066 283d 1151 65bd 79e4 ba3c
000000b0: ef0d 56be b238 6fbb 6f39 d53d 2284 6c3d
000000c0: 97c2 543c b59d 213d 55de 3cbe f371 a8bd
000000d0: f6c9 303d b112 56be 013f 06bc 5871 e5bd
000000e0: 688b 0a3e 65ae 603d a6c8 803d c7b8 3e3e
000000f0: f83a 4fbe 4671 01be 284a 6e3d f038 7cbd
00000100: 2061 66bc bc7d c63b 35b2 433e 22cf 18bd
00000110: 6e27 203d 7e82 c43d b0eb 453e 3103 29bd
00000120: 9329 a63d 73e6 083e cfb0 873d 7e22 053c
00000130: 5f9d 243e 3638 49be 5453 3b3e a9c1 68bd
00000140: 9d24 02bc 3980 6c3c 79e2 163e cfe1 ecbd
00000150: 16f2 f13d 8c62 8fbc 6c2e 813d 8527 e8bd
00000160: 0d91 fabd 2ff1 493d 7282 37be 41bf 1abd
00000170: 8649 a73d cec8 0fbe f577 483e 0251 253e
00000180: 75b3 243d d28e 00be b933 00be b5da 5f3d
00000190: 4717 063e f592 2cbe a455 633e 0db1 033d
000001a0: 61ab a3bd daf8 4a3e 74f9 7bbd 639e 673d
000001b0: 2715 2abe f716 863d e8d8 5d3e eb50 cebd
000001c0: f485 1b3e 5f4f ffbd 60ee c43d 8f7d 03be
000001d0: 0951 5abe e6d0 e8bd df38 293e a474 5d3e
000001e0: c75a cebd 52dd 5fbe 0bef 013e 1b39 ccbd
000001f0: d117 1c3d f9d5 00be 586c e93d b217 b9bd
00000200: 1d17 1dbe f23c 8f3d 9bc1 4e3e 73f4 ab3d
00000210: 5d8a 703d aa17 bebc 2bff 833d f380 9abc
00000220: d79f 503e ca51 12be b070 cfbd 9aac ea3d
00000230: 3ae2 27be afdd 7abc 00ec cabd 70e6 0abd
00000240: d29a e2bd 2d53 babd d08b 5f3e e1cf 37be
00000250: d97b ccbd 0d1a 123e 983e 65bd 9f80 2e3e
00000260: b435 5239 1667 263b 549c 47bd 4f92 3dbe
00000270: 6e19 ff3d 2582 b2bb 6051 17be 73cd 1a3e
00000280: df13 c2bd 6694 043e c4eb 4e3e fd8b 25be
00000290: 6315 003a 719d ddbd 801d 50be 1318 243e
000002a0: fcfb 5c3e ff15 b93b 9d0c dd3d 0be5 8fbd
000002b0: ec68 563e ba66 5dbd e81d f2bd 6546 6b3d
000002c0: 02b4 0abe 5ec3 003e be45 99bd e67a ae3b
000002d0: 6355 04be d501 85bd c53f b3bd 7d53 1fbe
000002e0: c38c 353e fea9 f03d 47f1 693d e594 3fbe
000002f0: df06 613d 15ba 1c3e 99f2 54be 7b7a bb3d
00000300: f53b 58be 6814 a53d ee3f 0ebe bc29 0c3e
00000310: bed0 083e 1f50 15be 0b8f 48be 933f cdbd
00000320: d2a3 e73c 1862 563e 83ab 313b 203e 9a3d
00000330: 1b46 563d 8ce9 d23d d0d3 fcbd ba23 353e
00000340: 1ff9 69bd d47f 393e 90af 05be c16b 823d
00000350: 968b a6bd fe6c b93d 512c a83d dc68 2cbe
00000360: 9ed6 cd3d 0260 633c c5c1 62bc 4f13 1bbe
00000370: 76a2 38bd eaf4 33be de9f 183e d844 053c
00000380: c49d 423e d97b de3b e935 f9bd d883 61be
00000390: d958 b5ba 87e8 213e 869f 63bd 2aca 80bd
000003a0: 89b9 2ebd a72f 61bd 408d f8bd e280 55bd
000003b0: ad06 3bbe 5396 143e 1f57 063c 88c7 063e
000003c0: 3005 063e 2bad ed3d 05a7 50bd baa4 9b3d
000003d0: 6140 06be b899 39be 407d 293d 7887 df3d
000003e0: 8550 5abe 2c4c 0abe 220d dd3c 604a ef3d
000003f0: 23a6 05be a831 57bc 6949 353e 4a1a 4d3e

transformer_encoder.layers.0.self_attn.in_proj_bias f4 [96]
-0.012678454 0.012519264 0.005410633 0.013389772 -0.0075788186 -0.011344654 0.008336962 0.008357229
-0.010926949 0.0045868433 0.011074528 0.00033481928 -0.0127163045 -0.0131788775 0.009613918 -0.00963272
0.014915848 -0.014904965 -0.018083014 -0.0092729535 0.032281473 0.0034016506 0.011872962 -0.011564614
0.0102878595 0.007783101 -0.011557637 -0.010284871 0.013896372 0.0016149436 -0.04015037 0.0121160755
-0.0107646715 0.0017066601 0.005028344 -0.004011794 0.013473801 0.0046362258 0.0055353143 0.005300436
0.005826546 -0.009303258 -0.0039072074 0.0056757317 0.004094661 -0.0053403545 -0.0067380797 -0.0066983937
0.002889694 0.004155378 0.0058474666 0.007714787 -0.0041645244 -0.0035467576 -0.0070695723 0.001680155
0.0048409034 0.0025760983 0.0060679354 -0.0032857663 0.0053303437 -0.0027024886 -0.0002622326 0.0016233341
-0.0051770047 -0.003736782 0.00916001 0.0018905675 -0.00028623303 0.004977864 0.015257381 0.023014087
-0.013352456 -0.010221979 -0.0042770472 -0.0011098984 -0.01974129 0.008172448 -0.004509077 -0.016173242
0.016151931 0.007890609 0.011098336 -0.005536501 0.00017107798 -0.017201392 -0.015797876 0.0004068528
-0.012525355 -0.0024735366 0.0062308675 -0.004422133 -0.008786342 -0.018755944 0.017024936 0.00059450243
00000000: 4ab9 4fbc 991d 4d3c ae4b b13b c660 5b3c
00000010: bd57 f8bb edde 39bc c197 083c c2ec 083c
00000020: f206 33bc 3b4d 963b f071 353c af8a af39
00000030: 0c58 50bc 38ec 57bc b283 1d3c 8ed2 1dbc
00000040: 9a61 743c f433 74bc d422 94bc 96ed 17bc
00000050: 9439 043d 3aee 5e3b d086 423c 8279 3dbc
00000060: 698e 283c 6209 ff3b 3e5c 3dbc e081 28bc
00000070: 9cad 633c 84ac d33a b774 24bd 8182 463c
00000080: 4e5e 30bc 03b2 df3a cfc4 a43b 5e75 83bb
00000090: 38c1 5c3c 7beb 973b 9561 b53b 48af ad3b
000000a0: 9cec be3b b16c 18bc 0808 80bb 7dfb b93b
000000b0: 822c 863b 24fe aebb 1ccb dcbb 337e dbbb
000000c0: 0561 3d3b d629 883b 1b9c bf3b 53cc fc3b
000000d0: 9076 88bb b870 68bb dfa7 e7bb a638 dc3a
000000e0: 71a0 9e3b c2d3 283b 88d5 c63b 0356 57bb
000000f0: 2aaa ae3b 3c1c 31bb 447c 89b9 0ec6 d43a
00000100: dda3 a9bb cce4 74bb de13 163c ebcc f73a
00000110: 8c11 96b9 5a1d a33b 18fa 793c 0a88 bc3c
00000120: 42c4 5abc 167a 27bc 7926 8cbb 037a 91ba
00000130: 7cb8 a1bc bbe5 053c e1c0 93bb bf7d 84bc
00000140: 0e51 843c 9d47 013c ccd5 353c 896b b5bb
00000150: 6563 3339 efe9 8cbc 8c6a 81bc dc4e d539
00000160: 2637 4dbc 0f1b 22bb 4e2c cc3b 8ae7 90bb
00000170: 97f4 0fbc 11a6 99bc e177 8b3c 62d8 1b3a

transformer_encoder.layers.0.self_attn.out_proj.weight f4 [32, 32]
0.023685807 -0.030431814 -0.09559762 -0.11184974 -0.024189014 -0.15321714 0.052555162 -0.16094947
-0.06329345 -0.0077574975 0.06379305 -0.023072721 -0.06919695 0.1445846 0.10674815 -0.0833778
0.0779369 -0.025107874 0.05976254 0.10294635 -0.025847597 0.040794466 0.11636347 0.044861183
-0.069892526 -0.023848947 -0.06166912 -0.16096635 -0.020137765 0.06322828 0.095984854 0.03612265
-0.17210051 -0.0015405999 -0.060692444 -0.09627037 0.048573043 -0.12405678 0.086526625 -0.17718492
-0.13223842 0.10786688 0.07474603 -0.010836404 0.06305616 -0.15490656 -0.100139245 0.07976158
0.026786298 -0.11505706 -0.15813611 0.045445375 0.0036666272 -0.1467144 -0.13608468 -0.08189421
-0.040289618 -0.14287797 -0.11950473 -0.07679263 -0.06092883 -0.097638056 -0.086412966 0.102138355
-0.022661883 0.17991386 -0.12961611 -0.05172367 -0.05427241 0.18680207 0.08408453 0.14170006
0.183451 0.061324682 0.13778724 -0.06490826 0.09691454 -0.07272313 0.0784601 0.1342346
0.07046039 0.15330951 -0.025696745 0.055120956 0.07521563 0.15543658 0.100648046 0.16030304
-0.0047381143 -0.065796256 -0.0524669 0.1423119 0.11930462 -0.06781322 -0.15471277 -0.08734358
0.20226529 -0.003614624 -0.14315519 0.052829053 0.16738263 -0.106334604 0.117845215 0.07207993
-0.009750975 -0.014370246 0.06497029 -0.14365701 0.16080618 0.07862273 -0.032849763 0.038737696
-0.14911723 -0.062398996 0.02568024 0.023206707 0.20220791 -0.121917635 0.06609415 -0.12900124
-0.17558104 -0.05091799 0.11870354 -0.029441291 -0.18238987 -0.033889093 0.047065537 0.13248359
-0.043756947 0.0013970485 -0.13957228 0.058258135 0.077764064 -0.14020227 -0.17466092 0.11856603
0.106874295 0.1075973 -0.10499297 0.02172878 0.06876153 -0.060651895 0.12245555 -0.17596716
0.13817213 -0.017167961 0.07927595 -0.1369978 0.09549977 0.12859674 -0.09160119 0.018388974
0.097721 -0.005885776 0.055139124 0.07158804 -0.13722213 0.02989422 -0.11262117 0.01607137
0.10950912 -0.11646175 -0.13842446 -0.1479026 -0.09674072 -0.1318416 0.068468 -0.16428778
0.16376355 -0.05220581 -0.015120472 0.05917512 0.041451134 -0.057651743 0.14322178 -0.002295328
-0.136415 -0.033913676 -0.02869642 -0.10891244 0.13201727 -0.02117014 -0.14465871 -0.1108097
0.1270601 0.046364117 0.13902411 0.15703125 -0.11912347 0.090554655 0.030028846 0.029280934
0.13207348 0.15689676 -0.07106615 -0.16331702 -0.14140137 -0.043952253 -0.081672125 0.020723367
-0.11300716 0.0679963 0.01295049 -0.060633797 -0.14187597 -0.13591091 0.08642485 0.1792415
0.083085455 0.1364715 0.0059640086 0.06324422 -0.16153346 0.15913075 0.1141165 0.0826122
0.02480031 0.15250254 0.046620216 0.14435938 -0.09228342 -0.09458497 0.029970132 0.12834325
-0.075554356 -0.11952287 0.09720228 -0.14829336 -0.018084466 0.17218637 -0.12946667 -0.16762954
0.064257994 0.086036496 -0.14850786 0.010034662 0.11964777 -0.06017004 0.13323183 0.15122496
-0.07334702 -0.101477936 -0.05747116 0.0045722793 0.12842664 0.16269246 -0.1037617 -0.13894425
-0.014943406 0.04870419 -0.083610184 0.034727994 0.14878649 0.11930535 0.16048987 0.10161319
00000000: bd08 c23c 244c f9bc afc8 c3bd 7a11 e5bd
00000010: 0a28 c6bc f4e4 1cbe 1544 573d f0cf 24be
00000020: ff9f 81bd 9b32 febb eea5 823d 0103 bdbc
00000030: 21b7 8dbd fc0d 143e c69e da3d fbc1 aabd
00000040: 629d 9f3d 07af cdbc 91c9 743d 89d5 d23d
00000050: 57be d3bc 1918 273d f94f ee3d 5cc0 373d
00000060: d023 8fbd de5e c3bc c298 7cbd 5dd4 24be
00000070: f4f7 a4bc d47d 813d b593 c43d 58f5 133d
00000080: 1e3b 30be f4ed c9ba a498 78bd 6629 c5bd
00000090: 87f4 463d 7b11 febd df34 b13d f76f 35be
000000a0: 8269 07be 50e9 dc3d 7214 993d 2c8b 31bc
000000b0: 9723 813d d39f 1ebe ce15 cdbd 0a5a a33d
000000c0: f06e db3c 09a3 ebbd 6fee 21be ee24 3a3d
000000d0: cc4b 703b 4d3c 16be c859 0bbe 27b8 a7bd
000000e0: ba06 25bd 9a4e 12be e5be f4bd 7445 9dbd
000000f0: 8290 79bd 76f6 c7bd 48f9 b0bd ea2d d13d
00000100: 6aa5 b9bc 573b 383e 16ba 04be 33dc 53bd
00000110: bf4c 5ebd 0b49 3f3e 8334 ac3d d219 113e
00000120: 94da 3b3e 972f 7b3d 1918 0d3e 9fee 84bd
00000130: 217b c63d ddef 94bd b0af a03d cc74 093e
00000140: 894d 903d 2bfd 1c3e fb81 d2bc 83c6 613d
00000150: a70a 9a3d c42a 1f3e 9020 ce3d 7b26 243e
00000160: 2f42 9bbb 30c0 86bd 88e7 56bd 36ba 113e
00000170: fb55 f43d a8e1 8abd 066d 1ebe 31e1 b2bd
00000180: a21e 4f3e 54e3 6cbb 4697 12be 4763 583d
00000190: 5a66 2b3e f5c5 d9bd d558 f13d a49e 933d
000001a0: 8ec2 1fbc 2e71 6bbc 250f 853d d31a 13be
000001b0: 60aa 243e f404 a13d 798d 06bd 6bab 1e3d
000001c0: 30b2 18be 1796 7fbd 5e5f d23c fe1b be3c
000001d0: 970f 4f3e f4af f9bd 5f5c 873d e718 04be
000001e0: 84cb 33be 628f 50bd d71a f33d dd2e f1bc
000001f0: 69c4 3abe 4acf 0abd cbc7 403d c7a9 073e
00000200: 7c3a 33bd 2b1d b73a 09ec 0ebe 15a0 6e3d
00000210: c442 9f3d 2f91 0fbe 50da 32be bfd2 f23d
00000220: e9e0 da3d f95b dc3d 8e06 d7bd 8e00 b23c
00000230: d8d2 8c3d 1f6e 78bd fac9 fa3d bc30 34be
00000240: ff7c 0d3e d3a3 8cbc 6e5b a23d 2749 0cbe
00000250: 6295 c33d ddae 033e 6899 bbbd 79a4 963c
00000260: f321 c83d 78dd c0bb 90d9 613d c09c 923d
00000270: f583 0cbe b9e4 f43c eea5 e6bd 1ba8 833c
00000280: 5146 e03d 7f83 eebd 24bf 0dbe c773 17be
00000290: 0020 c6bd 7c01 07be f338 8c3d 0e3b 28be
000002a0: a2b1 273e c2d5 55bd dbbb 77bc 9c61 723d
000002b0: aac8 293d 3c24 6cbd bba8 123e 376d 16bb
000002c0: 60b0 0bbe 11e9 0abd c114 ebbc 7c0d dfbd
000002d0: 892f 073e 006d adbc 6a21 14be 32f0 e2bd
000002e0: 0b1c 023e 4de8 3d3d 565c 0e3e cdcc 203e
000002f0: 01f7 f3bd b874 b93d 0eff f53c 92de ef3c
00000300: 453e 073e 8ba9 203e 218b 91bd 943c 27be
00000310: 85cb 10be 4707 34bd b743 a7bd 0dc4 a93c
00000320: 4c70 e7bd a541 8b3d 4b2e 543c 255b 78bd
00000330: ef47 11be 3b2c 0bbe 83ff b03d 158b 373e
00000340: b528 aa3d 2fbf 0b3e bb6d c33b 3086 813d
00000350: 0769 25be 2cf3 223e e9b5 e93d 9630 a93d
00000360: 052a cb3c a029 1c3e d7f4 3e3d f2d2 133e
00000370: 17ff bcbd c4b5 c1bd ec83 f53c 6a6c 033e
00000380: 3ebc 9abd 68c8 f4bd fd11 c73d 37da 17be
00000390: e025 94bc a051 303e e992 04be 14a7 2bbe
000003a0: b299 833d e733 b03d 7212 18be 6c68 243c
000003b0: e409 f53d dc74 76bd ed6d 083e b7da 1a3e
000003c0: f636 96bd aad3 cfbd e166 6bbd 0fd3 953b
000003d0: 4682 033e da98 263e 0481 d4bd 6747 0ebe
000003e0: 30d5 74bc 0b7e 473d d13b abbd f13e 0e3d
000003f0: 7c5b 183e 5d56 f43d 7557 243e 931a d03d

transformer_encoder.layers.0.self_attn.out_proj.bias f4 [32]
0.014496336 -0.008823433 -0.014872361 0.029501185 -0.01789215 -0.0054802885 0.0050592446 -0.0033937306
0.017610699 0.009119633 -0.0088418275 0.011608865 0.014463672 -0.0066092853 0.009293454 -0.0017711711
0.0005146305 -0.00848244 0.021930307 0.00870323 -0.003279915 -0.008882329 -0.028095935 0.019292265
0.023203745 0.018012604 -0.015530353 0.012097324 0.015227547 -0.008243136 -0.004744578 -0.0159588
00000000: 0a82 6d3c 2990 10bc 34ab 73bc 78ac f13c
00000010: 8f92 92bc fe93 b3bb 05c8 a53b 5a69 5ebb
00000020: 5044 903c 836a 153c 50dd 10bc 1c33 3e3c
00000030: 0af9 6c3c b492 d8bb 9243 183c a426 e8ba
00000040: 45e8 063a eff9 0abc 30a7 b33c fe97 0e3c
00000050: d8f3 56bb 3087 11bc 7229 e6bc d00a 9e3c
00000060: c815 be3c 2b8f 933c 0673 7ebc db33 463c
00000070: f67c 793c 380e 07bc 6878 9bbb 08bc 82bc

transformer_encoder.layers.0.linear1.weight f4 [32, 32]
-0.019722136 0.043410424 -0.029928824 0.16918966 -0.034510307 -0.1889297 -0.06187142 0.07482556
-0.12606204 0.14242159 -0.08672214 -0.1094488 -0.103550054 -0.07187363 -0.12340509 0.21189348
-0.12852474 -0.09642274 -0.09320897 -0.044161253 -0.18926008 0.016784258 -0.0071269125 0.09124443
-0.06896239 -0.11471135 0.023540812 -0.12655997 -0.010564267 0.019459767 -0.24729012 -0.18988195
0.0013070975 0.058346916 0.08328133 -0.0021797395 0.14249925 -0.011533789 0.20239235 0.09323369
-0.15564592 0.123950385 -0.17263234 0.14680055 0.10141621 0.12106751 -0.041405283 0.14353845
0.17492303 0.14630017 -0.14736918 -0.10890096 0.16386434 0.1562524 0.034587774 -0.12537564
-0.08915409 0.16923715 -0.12844878 -0.17293005 -0.022484006 0.025648993 -0.15367317 -0.11144605
-0.07859137 0.15295497 -0.036476158 -0.08855957 0.033875655 0.046543527 -0.13842064 -0.07650404
0.126101 0.05640711 0.041215625 0.08643146 0.15501745 -0.042572796 0.034030464 -0.05060787
-0.19049367 -0.16642016 0.14986436 -0.035229877 -0.08612713 0.0580929 -0.13065611 0.1785346
-0.09965608 0.11020333 0.16009313 -0.09206404 -0.15067165 -0.13289548 -0.009352856 0.15781933
-0.012135431 -0.0912926 0.15815759 -0.0062832306 -0.13580967 -0.0678973 0.14069086 -0.18580815
0.079016075 -0.092292614 -0.118778445 -0.16933681 -0.061487045 0.094034515 -0.118122764 -0.014547297
-0.040266342 -0.05075113 -0.034983106 -0.038466386 0.117929235 0.10973479 0.08912988 -0.04063913
0.06289333 0.09010449 -0.061919086 -0.06222398 -0.14636098 -0.16007937 0.15971981 0.088619545
-0.03750386 -0.16809012 -0.14528196 0.034562886 -0.110795 0.009527878 0.016635051 -0.062117506
0.13515776 0.16710694 -0.09856459 0.106824584 -0.013775676 0.141832 0.103795 0.05687486
-0.07529824 -0.062881984 -0.12955384 -0.017187824 -0.07032844 0.10366659 -0.13713121 -0.17544326
-0.068293326 -0.017961133 -0.06336309 0.07453414 -0.027489332 -0.08668934 0.02701078 -0.07267017
0.13430396 -0.07906539 -0.13279745 0.015232759 0.04246918 0.07722135 -0.17386484 0.010869927
0.12648134 -0.04587939 -0.011735419 0.027730173 -0.027363967 0.023331482 0.14937063 0.1649274
0.1314389 -0.034243 -0.111302644 0.14388753 0.026317487 0.12390498 -0.13075711 -0.057345282
0.05911909 0.063069016 -0.07715958 -0.033660445 -0.096320376 -0.055933498 -0.025568856 -0.1579247
0.13081282 -0.00019558714 0.111930594 0.17828919 0.068613246 0.147735 0.071044005 -0.12875712
0.028778201 0.057253957 -0.16158387 -0.0118674245 0.058494497 -0.015897766 -0.13059482 -0.17633636
-0.0077639096 0.07009092 -0.058995757 0.061793283 -0.14804493 0.09011484 -0.13767226 0.11600665
-0.1526747 0.10399781 -0.17892861 0.13356258 -0.05823208 0.107783906 0.05779856 0.029805811
0.099068806 0.035621453 0.13336895 -0.014511686 -0.00319881 -0.06820248 -0.1362329 0.17552294
0.0026136725 -0.1492731 0.07708238 0.17081611 -0.042271517 0.13341899 -0.0004479018 0.17854272
-0.067245826 -0.10598474 -0.14943331 -0.015577722 0.13971224 -0.18072873 -0.17476566 -0.14845473
0.03533472 0.116996035 0.15976049 0.18509676 0.034115363 -0.11163192 0.16995534 0.05984852
00000000: 5190 a1bc 21cf 313d 4b2d f5bc 0e40 2d3e
00000010: ae5a 0dbd ca76 41be e36c 7dbd 253e 993d
00000020: 6816 01be f7d6 113e 619b b1bd b126 e0bd
00000030: 0d12 d4bd 7b32 93bd cfbb fcbd 9bfa 583e
00000040: fd9b 03be 4979 c5bd 58e4 bebd 6ee2 34bd
00000050: 65cd 41be 247f 893c e088 e9bb 5cde ba3d
00000060: 273c 8dbd c9ed eabd a9d8 c03c f098 01be
00000070: bf15 2dbc 176a 9f3c 9f39 7dbe 6a70 42be
00000080: ea52 ab3a 2dfd 6e3d 678f aa3d f6d9 0ebb
00000090: 53eb 113e 38f8 3cbc f13f 4f3e 4ef1 be3d
000000a0: a561 1fbe b3d9 fd3d 88c6 30be e252 163e
000000b0: 4db3 cf3d 3ef2 f73d 9698 29bd befb 123e
000000c0: 061f 333e b6cf 153e f2e7 16be 7707 dfbd
000000d0: 0ecc 273e a100 203e e9ab 0d3d 7962 00be
000000e0: 6b96 b6bd 814c 2d3e 1488 03be 9314 31be
000000f0: 6130 b8bc d61d d23c 805c 1dbe d43d e4bd
00000100: 83f4 a0bd 3aa0 1c3e 0668 15bd b85e b5bd
00000110: 33c1 0a3d 6da4 3e3d 24be 0dbe 26ae 9cbd
00000120: 9f20 013e 240b 673d b7d1 283d fa02 b13d
00000130: e5bc 1e3e d060 2ebd 8763 0b3d 334a 4fbd
00000140: c610 43be 0c6a 2abe 0b76 193e 344d 10bd
00000150: 6c63 b0bd d2f2 6d3d b7ca 05be c6d1 363e
00000160: 7d18 ccbd 49b2 e13d 74ef 233e 128c bcbd
00000170: ab49 1abe c115 08be b93c 19bc 649b 213e
00000180: b0d3 46bc 9df7 babd 10f4 213e 8fe3 cdbb
00000190: b111 0bbe bd0d 8bbd 4411 103e 7e44 3ebe
000001a0: 2ed3 a13d e903 bdbd 1d42 f3bd a166 2dbe
000001b0: d7d9 7bbd 2b95 c03d 59ea f1bd c957 6ebc
000001c0: 52ee 24bd 6be0 4fbd 724a 0fbd ee8e 1dbd
000001d0: e284 f13d a2bc e03d ba89 b63d 3775 26bd
000001e0: 38ce 803d b488 b83d de9e 7dbd 92de 7ebd
000001f0: a7df 15be d9eb 23be 978d 233e 2a7e b53d
00000200: a69d 19bd d11f 2cbe cbc4 14be d091 0d3d
00000210: 7de8 e2bd d11a 1c3c 3b46 883c ed6e 7ebd
00000220: cc66 0a3e 151e 2b3e 3bdc c9bd d9c6 da3d
00000230: 5fb3 61bc 683c 113e 7992 d43d 9df5 683d
00000240: f735 9abd 45c8 80bd c3a9 04be 7bcd 8cbc
00000250: 5b08 90bd 264f d43d 206c 0cbe 66a7 33be
00000260: 5fdd 8bbd 3a23 93bc 82c4 81bd 5ba5 983d
00000270: 4f31 e1bc 2e8a b1bd b645 dd3c 19d4 94bd
00000280: fa86 093e 09ed a1bd 0efc 07be d292 793c
00000290: 2af4 2d3d 3a26 9e3d a009 32be c717 323c
000002a0: 5384 013e 07ec 3bbd ea45 40bc 632a e33c
000002b0: 662a e0bc aa21 bf3c 9df4 183e bae2 283e
000002c0: eb97 063e 6342 0cbd a4f2 e3bd 4157 133e
000002d0: c597 d73c e5c1 fd3d 31e5 05be e3e2 6abd
000002e0: dc26 723d 542a 813d d805 9ebd 89df 09bd
000002f0: 9e43 c5bd 861a 65bd c775 d1bc 03b7 21be
00000300: ccf3 053e 8616 4db9 de3b e53d 7191 363e
00000310: 1a85 8c3d d847 173e 857f 913d e8d8 03be
00000320: 43c0 eb3c 2083 6a3d 3e76 25be 966f 42bc
00000330: ed97 6f3d 083c 82bc a6ba 05be 8591 34be
00000340: 6568 febb d48b 8f3d 89a5 71bd f41a 7d3d
00000350: 1799 17be 218e b83d f5f9 0cbe e594 ed3d
00000360: c256 1cbe cefc d43d 1039 37be a1c4 083e
00000370: c384 6ebd cfbd dc3d 2fbe 6c3d 512b f43c
00000380: 96e4 ca3d cde7 113d df91 083e 6cc2 6dbc
00000390: 20a3 51bb bead 8bbd a380 0bbe 49bc 333e
000003a0: 264a 2b3b 0cdb 18be 5edd 9d3d 6bea 2e3e
000003b0: e624 2dbd fd9e 083e 5dd4 eab9 e7d3 363e
000003c0: 2eb8 89bd 870e d9bd 0c05 19be b439 7fbc
000003d0: ba10 0f3e f410 39be c5f5 32be 8404 18be
000003e0: 24bb 103d 9e9b ef3d 4198 233e 018a 3d3e
000003f0: 8dbc 0b3d 479f e4bd c608 2e3e b923 753d

transformer_encoder.layers.0.linear1.bias f4 [32]
-0.064680025 0.012523668 0.14819811 0.11960896 -0.05002694 0.07545204 0.04445697 0.14460607
-0.0994587 -0.054459438 0.08268486 0.081295334 0.000675788 0.16142763 -0.00079517456 0.11182609
-0.05102531 -0.1368319 -0.088348575 0.022813547 -0.16062969 -0.06771003 0.0042297575 0.04398374
0.052468944 -0.01236967 -0.08030727 -0.1446928 -0.090778545 -0.13002993 0.16050054 -0.08189088
00000000: f676 84bd 1230 4d3c 3fc1 173e 8bf5 f43d
00000010: 0ce9 4cbd 9986 9a3d 8318 363d 9d13 143e
00000020: 01b1 cbbd dc10 5fbd ae56 a93d 2b7e a63d
00000030: 5d27 313a 494d 253e 4373 50ba 1405 e53d
00000040: eaff 50bd a91d 0cbe 19f0 b4bd 7ae3 ba3c
00000050: 1c7c 24be 8eab 8abd c799 8a3b 4b28 343d
00000060: ade9 563d 28aa 4abc 2378 a4bd 592a 14be
00000070: 1aea b9bd 9126 05be 415a 243e 68b6 a7bd

transformer_encoder.layers.0.linear2.weight f4 [32, 32]
-0.063768625 0.14764126 -0.11032701 0.19720276 -0.13064067 0.056729153 0.045048542 0.040284898
0.110750474 0.13364848 0.05011476 -0.03983275 -0.08506326 -0.09908395 -0.14595497 -0.13237865
-0.07271535 0.017143574 0.09808284 0.06117537 0.16789538 -0.037401658 0.075919814 -0.13386567
0.012495551 0.08790792 0.049165674 0.0898574 -0.015237016 -0.12504955 0.017021159 0.14284544
0.082780555 -0.12782274 0.12797034 0.049426883 -0.117472924 0.15106933 0.045111425 0.14264882
0.11879019 -0.06120067 -0.12417929 0.031881176 0.020441778 0.026839929 -0.020893358 -0.017257709
0.03655845 0.04598225 0.052825537 -0.1587427 0.083992206 0.09986086 0.0891067 0.17257378
0.17556871 -0.047783356 -0.09234922 -0.07711889 -0.109905235 0.09509718 -0.06212739 0.087107934
-0.056484774 0.13784404 -0.1273355 0.13458578 -0.055242293 0.04118004 0.09134241 -0.10230872
-0.09009601 -0.14389887 0.013205448 -0.027733091 0.054222375 0.023516806 0.08535811 -0.005603697
0.09940568 -0.11455047 -0.055363193 -0.031382978 -0.1890351 -0.026281351 -0.0825789 0.056878332
0.074246384 -0.07408802 0.04315052 -0.09454936 0.022395108 0.0142866615 0.045530323 0.005598374
0.1656836 -0.104227394 -0.13865586 0.048611682 -0.09958577 0.1120219 -0.15332888 0.04389739
-0.16284582 -0.1015661 -0.056161817 0.13104439 0.09280444 0.08623206 0.1531367 0.13583252
0.14117922 0.11684129 0.17870784 0.120582774 0.08685658 -0.1402659 0.110149056 0.107008494
0.18018916 -0.023442918 0.047603887 0.13268295 0.01208373 -0.01961124 -0.0733414 0.0019709307
-0.10783049 -0.13900548 0.041227482 -0.12696244 0.11250802 0.07869506 -0.03725973 -0.207799
0.0059004994 -0.10867307 0.2639538 0.21602042 0.12966031 0.029999044 0.03672207 -0.004005483
-0.15385441 -0.06292021 -0.103245065 0.11806569 -0.108122714 -0.18465008 0.07769638 -0.11911496
0.046569414 0.002762807 0.17488794 -0.051548623 -0.06187773 0.025568245 -0.056580473 0.12659577
0.09069388 0.16346559 -0.19869222 -0.040957894 0.059635047 0.16391057 -0.15842119 -0.09067422
0.04816205 -0.13023493 -0.04952174 0.06816121 0.17959094 -0.18392427 -0.14894807 0.007760632
-0.11281228 -0.09577258 0.039396416 -0.04662993 0.054298684 0.022100162 -0.10147363 -0.13249505
-0.15231037 0.02316109 -0.0037220973 -0.09946353 0.16599597 0.063817464 0.027291369 0.10989377
0.051863354 0.16681947 0.06294151 0.0957765 0.08978714 -0.075678326 -0.023906298 -0.0856751
0.035561256 -0.06234725 0.03336844 -0.12685399 0.1779192 -0.1661116 0.072743274 -0.16462545
-0.12688689 0.10365702 -0.013486444 0.13512361 0.15616809 -0.09846671 -0.059302174 -0.007991852
-0.06866147 0.119451955 0.119147405 -0.12596607 -0.12671289 -0.106567785 0.058586903 0.21125288
0.16707867 0.013566329 -0.067115396 0.127507 0.03916261 -0.17586431 -0.16034594 0.20067047
0.11961997 -0.0388389 -0.22234805 -0.1780737 -0.101202 0.052474316 0.056798294 -0.033468917
0.16916716 0.009063943 0.12735987 -0.021857932 0.021677496 0.16760851 0.13574542 0.16896081
0.026058396 -0.035506424 0.04539456 -0.16775268 -0.0051790387 0.012737908 -0.13085057 -0.08423221
00000000: 2099 82bd 452f 173e 21f3 e1bd 85ef 493e
00000010: abc6 05be d45c 683d d284 383d c701 253d
00000020: 25d1 e23d 26db 083e 2245 4d3d aa27 23bd
00000030: a535 aebd 87ec cabd 3875 15be 458e 07be
00000040: c9eb 94bd ae70 8c3c a8df c83d 0693 7a3d
00000050: c4ec 2b3e 7b32 19bd d97b 9b3d 1514 09be
00000060: 24ba 4c3c 1109 b43d f261 493d 2807 b83d
00000070: ada4 79bc fd0c 00be f56f 8b3c 1346 123e
00000080: da88 a93d f7e3 02be a80a 033e d873 4a3d
00000090: a595 f0bd ebb1 1a3e c2c6 383d 8812 123e
000000a0: 4548 f33d 8ead 7abd b651 febd d695 023d
000000b0: 8475 a73c 69df db3c 8c28 abbc 0a60 8dbc
000000c0: 50be 153d e257 3c3d 975f 583d 728d 22be
000000d0: 1b04 ac3d da83 cc3d 937d b63d 2eb7 303e
000000e0: 49c8 333e 7bb8 43bd 9621 bdbd 82f0 9dbd
000000f0: ff15 e1bd 4fc2 c23d 4a79 7ebd a565 b23d
00000100: 945c 67bd fd26 0d3e 3d64 02be dbd0 093e
00000110: be45 62bd 67ac 283d bb11 bb3d 3c87 d1bd
00000120: 4284 b8bd 3a5a 13be aa5b 583c 8230 e3bc
00000130: 4818 5e3d 51a6 c03c 3cd0 ae3d 389f b7bb
00000140: 3595 cb3d 7099 eabd 84c4 62bd 708b 00bd
00000150: 6b92 41be fd4b d7bc 201f a9bd 41f9 683d
00000160: 7d0e 983d 76bb 97bd 9abe 303d 18a3 c1bd
00000170: f275 b73c 9a12 6a3c 017e 3a3d 9172 b73b
00000180: f6a8 293e 2c75 d5bd cdfb 0dbe 0b1d 473d
00000190: a0f3 cbbd bd6b e53d 3f02 1dbe c0cd 333d
000001a0: 0ec1 26be e301 d0bd ef09 66bd 8030 063e
000001b0: 4110 be3d 6f9a b03d decf 1c3e ae17 0b3e
000001c0: 4991 103e 7c4a ef3d 30ff 363e 1af4 f63d
000001d0: dde1 b13d dda1 0fbe d495 e13d 4527 db3d
000001e0: 8283 383e 5d0b c0bc 4bfc 423d 0ade 073e
000001f0: d6fa 453c c0a7 a0bc 0434 96bd bb2a 013b
00000200: 3bd6 dcbd 7457 0ebe 26de 283d 7102 02be
00000210: 9b6a e63d e02a a13d a99d 18bd 43c9 54be
00000220: fa58 c13b fd8f debd f424 873e 7534 5d3e
00000230: acc5 043e 8ec0 f53c e269 163d 6d40 83bb
00000240: 038c 1dbe 50dc 80bd 2672 d3bd 6dcc f13d
00000250: 716f ddbd e914 3dbe 481f 9f3d 8bf2 f3bd
00000260: 92bf 3e3d 3610 353b d315 333e a624 53bd
00000270: 8173 7dbd 7f74 d13c edc0 67bd 52a2 013e
00000280: b7bd b93d 8663 273e f975 4bbe 77c3 27bd
00000290: e143 743d 2cd8 273e 2a39 22be 68b3 b9bd
000002a0: 9245 453d 4e5c 05be 4fd7 4abd 1b98 8b3d
000002b0: b0e6 373e a556 3cbe d885 18be e64c fe3b
000002c0: 200a e7bd 6a24 c4bd 235e 213d 07ff 3ebd
000002d0: 4c68 5e3d 660b b53c 68d1 cfbd c8ac 07be
000002e0: 40f7 1bbe 54bc bd3c 6eee 73bb 89b3 cbbd
000002f0: d9fa 293e bbb2 823d 2692 df3c fc0f e13d
00000300: ab6e 543d b9d2 2a3e 7ae7 803d 7826 c43d
00000310: 52e2 b73d 3dfd 9abd 24d7 c3bc 6d76 afbd
00000320: aea8 113d d45f 7fbd 58ad 083d 03e6 01be
00000330: 7330 363e 2919 2abe 6dfa 943d 9393 28be
00000340: a3ee 01be 224a d43d 3ff6 5cbc d85d 0a3e
00000350: 87ea 1f3e eaa8 c9bd d6e6 72bd 42f0 02bc
00000360: 639e 8cbd 3aa3 f43d 8e03 f43d 40fd 00be
00000370: 06c1 01be 3640 dabd d2f8 6f3d ad52 583e
00000380: ac16 2b3e 4f45 5e3c cc73 89bd 3291 023e
00000390: f968 203d c615 34be ba31 24be 8f7c 4d3e
000003a0: 51fb f43d 8a15 1fbd 35af 63be f458 36be
000003b0: ff42 cfbd 4fef 563d 54a5 683d b416 09bd
000003c0: 283a 2d3e ef80 143c a06a 023e 680f b3bc
000003d0: 0195 b13c 91a1 2b3e d900 0b3e 1004 2d3e
000003e0: 6b78 d53c 2f6f 11bd a5ef 393d 5cc7 2bbe
000003f0: edb4 a9bb a9b2 503c b1fd 05be f081 acbd

transformer_encoder.layers.0.linear2.bias f4 [32]
0.013871397 -0.011348272 -0.07450157 -0.113871664 0.007232827 -0.1168374 -0.009107241 0.09664859
-0.11388892 -0.076885164 0.03463714 -0.05657526 -0.03506688 -0.08760581 0.03333764 -0.032471698
-0.009583911 -0.13822398 0.1474963 0.1388275 -0.15955359 -0.045641426 -0.1563969 0.1656057
0.14795092 0.003435178 -0.1799837 0.04695435 -0.051226802 -0.0039036965 -0.08380288 -0.0335223
00000000: db44 633c 1aee 39bc 4794 98bd 8c35 e9bd
00000010: 5a01 ed3b 7248 efbd 8a36 15bc b2ef c53d
00000020: 983e e9bd f875 9dbd acdf 0d3d 76bb 67bd
00000030: 4aa2 0fbd ad6a b3bd 0d8d 083d 0b01 05bd
00000040: d605 1dbc 968a 0dbe 4509 173e cc28 0e3e
00000050: 0462 23be 81f2 3abd 8226 20be 8a94 293e
00000060: 7280 173e b920 613b a64d 38be 3453 403d
00000070: 32d3 51bd 29d5 7fbb d8a0 abbd ae4e 09bd

transformer_encoder.layers.0.norm1.weight f4 [32]
0.99400073 0.9974084 0.99354917 1.0085336 1.0497346 1.0059239 1.0029225 1.021686
0.98504114 1.00862 0.99709576 1.0066298 0.982025 1.0505275 0.9939618 1.0326974
1.001216 1.0694263 0.99856895 0.99399287 1.0015211 1.0111824 0.9723325 1.0396053
0.99865115 0.9875863 0.9858607 0.9950226 0.9787597 1.0026472 1.0193124 0.9775758
00000000: d576 7e3f 2856 7f3f 3d59 7e3f a117 813f
00000010: b45d 863f 1dc2 803f c45f 803f 9bc6 823f
00000020: a82b 7c3f 761a 813f ab41 7f3f 3fd9 803f
00000030: fe65 7b3f af77 863f 4874 7e3f 6e2f 843f
00000040: d927 803f f6e2 883f 37a2 7f3f 5176 7e3f
00000050: d831 803f 6d6e 813f c8ea 783f c911 853f
00000060: 9aa7 7f3f 75d2 7c3f 5e61 7c3f cdb9 7e3f
00000070: ff8f 7a3f be56 803f d478 823f 6842 7a3f

transformer_encoder.layers.0.norm1.bias f4 [32]
0.013323192 -0.009151919 -0.013956123 0.028126553 -0.01787208 -0.0059663 0.004126422 -0.003636424
0.015210165 0.005201833 -0.009214055 0.010286542 0.014092128 -0.00810699 0.00874846 -0.0023500817
-0.0006082642 -0.009716873 0.021099357 0.0075319647 -0.0024958558 -0.009755447 -0.027589329 0.016912334
0.022378072 0.01711811 -0.016098307 0.011349397 0.014282663 -0.009524857 -0.0048532467 -0.016878663
00000000: 8449 5a3c eef1 15bc 39a8 64bc a869 e63c
00000010: 7868 92bc f480 c3bb f036 873b 1251 6ebb
00000020: 0e34 793c 2374 aa3b 8cf6 16bc e288 283c
00000030: abe2 663c 2ed3 04bc b355 0f3c d403 1abb
00000040: eb73 1fba 8533 1fbc 8fd8 ac3c b3ce f63b
00000050: 8391 23bb 4fd5 1fbc 0403 e2bc bc8b 8a3c
00000060: 3852 b73c 473b 8c3c 99e0 83bc d2f2 393c
00000070: d501 6a3c 250e 1cbc fc07 9fbb 1f45 8abc

transformer_encoder.layers.0.norm2.weight f4 [32]
0.9874599 0.99666303 0.99792475 1.02821 1.1288458 1.0138433 1.0457723 1.0270034
0.99971193 0.9838062 0.9840837 1.0257773 0.9769244 0.9931129 0.9877131 1.0648365
1.0072534 1.0459663 1.0081022 0.9971385 1.009528 1.0290834 0.97386044 1.0598507
0.9786515 0.9759812 0.9797083 0.9993177 0.9734278 0.9882691 1.0094191 0.979118
00000000: 2cca 7c3f 4f25 7f3f ff77 7f3f 639c 833f
00000010: 057e 903f 9ec5 813f dedb 853f d974 833f
00000020: 1fed 7f3f b9da 7b3f e9ec 7b3f ac4c 833f
00000030: b817 7a3f a63c 7e3f c4da 7c3f 904c 883f
00000040: aeed 803f 39e2 853f 7e09 813f 7844 7f3f
00000050: 3738 813f 01b9 833f eb4e 793f 30a9 873f
00000060: e888 7a3f e7d9 793f 2ace 7a3f 49d3 7f3f
00000070: 9032 793f 34ff 7c3f a534 813f 7aa7 7a3f

transformer_encoder.layers.0.norm2.bias f4 [32]
0.02238142 -0.012748989 -0.012944372 0.023808818 -0.020050783 -0.007573308 0.006362018 -0.004757695
0.015564065 -0.00012135069 -0.017387537 0.014630993 0.017349865 0.0023128926 0.011193542 0.0025065686
0.00357937 -0.0042286003 0.026404858 0.006120655 -0.0010791775 -0.0041684546 -0.029590802 0.0062990948
0.013777761 0.023267927 -0.017589426 0.012388391 0.019343678 -0.010936423 -0.0025508495 -0.01852682
00000000: 3d59 b73c 23e1 50bc a214 54bc b60a c33c
00000010: 8a41 a4bc 8329 f8bb 7a78 d03b 70e6 9bbb
00000020: 6c00 7f3c a87d feb8 4f70 8ebc d5b6 6f3c
00000030: 4e21 8e3c e693 173b 1e65 373c 3e45 243b
00000040: dd93 6a3b 1290 8abb 004f d83c c78f c83b
00000050: 3073 8dba 8897 88bb 6968 f2bc a368 ce3b
00000060: 1ebc 613c 619c be3c b317 90bc aef8 4a3c
00000070: a276 9e3c af2e 33bc 272c 27bb 8fc5 97bc

transformer_encoder.layers.1.self_attn.in_proj_weight f4 [96, 32]
-0.09238218 0.18955795 -0.03323252 -0.112546496 0.06456784 0.08637094 -0.17690243 0.19739878
0.028396392 -0.1792684 -0.10511205 -0.115796104 0.12523437 0.005862954 -0.16820222 -0.18633896
-0.12640403 0.088441215 0.17390598 0.035990663 0.03758746 -0.17899343 0.17822874 -0.10648218
-0.036137827 -0.1774468 -0.17313077 -0.00028573896 0.12529902 -0.04486174 -0.1986573 0.118268766
0.11505679 0.04019338 0.05841221 -0.14256558 0.09444543 -0.08429446 -0.059167076 0.1756665
-0.027358813 0.021543711 -0.06686893 0.015795251 -0.19928479 0.050028834 0.11267202 -0.012655661
0.022083163 0.10929109 -0.20902804 -0.08028276 0.035504926 -0.21095762 -0.020808347 -0.11544293
0.15274136 0.076642424 0.049709324 0.17803308 -0.18467917 -0.15554883 0.09960887 -0.069665074
-0.03689976 0.03394457 0.20916307 -0.057944417 0.023759505 0.112743914 0.17160523 -0.023662852
0.05979658 0.156834 0.08129769 -0.012069548 0.1469776 -0.167188 0.14236915 -0.0706739
-0.020858519 0.013802166 0.1351245 -0.14008717 0.13254008 0.0022790357 0.087530985 -0.12485231
-0.1445588 0.038435258 -0.16143762 -0.05810494 0.06953973 -0.11962974 0.20366655 0.18715768
0.054525007 -0.11899616 -0.10767631 0.043839272 0.21140666 -0.17105915 0.29535046 0.0062687923
-0.07795328 0.1834399 -0.074304365 0.047819152 -0.15476574 0.102471024 0.21685264 -0.16051461
0.15695749 -0.06500317 0.080298625 -0.1297866 -0.21756545 -0.11284938 0.15851428 0.21502787
-0.08289864 -0.1956266 0.11338863 -0.107718565 0.05356268 -0.14638004 0.13994199 -0.09473472
-0.20771666 0.1508927 0.24220732 0.018643072 0.030322481 -0.044296913 0.10721143 0.040409114
0.16144894 -0.108654924 -0.05096884 0.10339283 -0.20667964 0.0424336 -0.11167108 -0.009647017
-0.14819771 -0.026180284 0.17774026 -0.20242262 -0.086212225 0.15484259 -0.046072613 0.16133916
-0.050582923 -0.06655275 0.0016354636 -0.20601435 0.09169263 0.0056874813 -0.07883396 0.17674406
-0.10005794 0.15881366 0.2091606 -0.178291 0.01832462 -0.1379336 -0.16888306 0.1684942
0.21206306 -0.00015331636 0.11806104 -0.057695936 0.20168069 -0.047569536 -0.08346004 0.082049124
-0.13478 0.20295458 -0.08661926 0.018981664 -0.14012949 -0.078576624 -0.10704426 -0.14334002
0.17877176 0.09856873 0.061883073 -0.17818987 0.051869594 0.13715911 -0.1835785 0.079141274
-0.2243539 0.093835056 -0.13022752 0.12683393 0.113969184 -0.13228098 -0.22020012 -0.09187707
0.015970288 0.22366281 0.007599169 0.06149197 0.047361646 0.12245659 -0.15951407 0.16094303
-0.067071125 0.16472441 -0.1338151 0.046397354 -0.073231116 0.10409665 0.1005761 -0.1757014
0.087595135 0.013707346 -0.004422756 -0.16428544 -0.048939727 -0.1603729 0.1448516 0.026632624
0.17376289 0.02338978 -0.11077 -0.2323711 -0.022739137 0.17417099 -0.08113875 -0.051171005
-0.057463124 -0.037013765 -0.11272543 -0.06800961 -0.1904687 0.16655533 -0.03035332 0.11559441
0.118504256 0.09675846 -0.05640525 0.055818588 -0.11976119 -0.16519625 0.062562235 0.10034301
-0.2296286 -0.13882491 0.038785506 0.10107199 -0.13763626 0.004742387 0.17645335 0.2216382
00000000: de32 bdbd 7b1b 423e d31e 08bd c77e e6bd
00000010: 253c 843d 3fe3 b03d e925 35be e822 4a3e
00000020: 8d9f e83c 2392 37be fd44 d7bd 8226 edbd
00000030: 703d 003e 061e c03b 343d 2cbe a4cf 3ebe
00000040: 0f70 01be ab20 b53d 6914 323e f26a 133d
00000050: 4ff5 193d 0e4a 37be 9881 363e 5413 dabd
00000060: 4205 14bd 9db4 35be 3149 31be 3ccf 95b9
00000070: 634e 003e f2c0 37bd d26c 4bbe e536 f23d
00000080: e5a2 eb3d d0a1 243d a441 6f3d b6fc 11be
00000090: 9b6c c13d 93a2 acbd 2d59 72bd ebe1 333e
000000a0: 971f e0bc 707c b03c 94f2 88bd 0b65 813c
000000b0: 5011 4cbe 09eb 4c3d 97c0 e63d b159 4fbc
000000c0: c0e7 b43c 02d4 df3d 720b 56be 4a6b a4bd
000000d0: 9d6d 113d 4605 58be 4476 aabc 586d ecbd
000000e0: 3b68 1c3e b4f6 9c3d 019c 4b3d 4e4e 363e
000000f0: 891c 3dbe 3148 1fbe bcff cb3d 90ac 8ebd
00000100: 3424 17bd 7609 0b3d d82e 563e 2057 6dbd
00000110: 4ba3 c23c 48e6 e63d 48b9 2f3e 99d8 c1bc
00000120: 42ed 743d 1899 203e 677f a63d 5abf 45bc
00000130: 4c81 163e 5533 2bbe 38c9 113e 7abd 90bd
00000140: 7cdf aabc 7b22 623c 145e 0a3e 0373 0fbe
00000150: 96b8 073e e05b 153b 7243 b33d 91b2 ffbd
00000160: 3907 14be 4a6e 1d3d e74f 25be 72ff 6dbd
00000170: d96a 8e3d 7000 f5bd f78d 503e 43a6 3f3e
00000180: 9d55 5f3d 42b4 f3bd 6685 dcbd cf90 333d
00000190: fd7a 583e 212a 2fbe 2d38 973e 716a cd3b
000001a0: f8a5 9fbd abd7 3b3e e32c 98bd 04de 433d
000001b0: e97a 1ebe 54dc d13d 9e0e 5e3e f15d 24be
000001c0: 77b9 203e 6220 85bd 9b73 a43d c7e6 04be
000001d0: 7ac9 5ebe 931d e7bd 9151 223e 4430 5c3e
000001e0: c3c6 a9bd 5752 48be 4c38 e83d 8d9b dcbd
000001f0: 8a64 5b3d a6e4 15be f44c 0f3e 4704 c2bd
00000200: adb3 54be 9e83 1a3e 3205 783e 5bb9 983c
00000210: da66 f83c ae70 35bd ab91 db3d 0784 253d
00000220: df52 253e 7986 debd b4c4 50bd 9fbf d33d
00000230: d4a3 53be dbce 2d3d cfb3 e4bd 860e 1ebc
00000240: 24c1 17be 0978 d6bc 8b01 363e e047 4fbe
00000250: 0990 b0bd 0e8f 1e3e a3b6 3cbd 1836 253e
00000260: 0a30 4fbd cf4c 88bd 0d5d d63a 6df5 52be
00000270: 58c9 bb3d 0d5e ba3b b373 a1bd 65fc 343e
00000280: 2deb ccbd 0ca0 223e 322e 563e ea91 36be
00000290: 831d 963c 773e 0dbe aeef 2cbe be89 2c3e
000002a0: 0f27 593e 8cc3 20b9 fdc9 f13d 9352 6cbd
000002b0: 6285 4e3e 46d8 42bd 19ed aabd 5f09 a83d
000002c0: c503 0abe 53d3 4f3e 7065 b1bd 6f7f 9b3c
000002d0: 1b7e 0fbe c8ec a0bd 053a dbbd bac7 12be
000002e0: f20f 373e 67de c93d 1b79 7d3d 6877 36be
000002f0: 3675 543d 7073 0c3e 01fc 3bbe d214 a23d
00000300: 07bd 65be 982c c03d 5d5a 05be c1e0 013e
00000310: ad68 e93d aa74 07be 247c 61be 0c2a bcbd
00000320: 1fd4 823c dd07 653e 7302 f93b 01df 7b3d
00000330: 49fe 413d 85ca fa3d a857 23be 40ce 243e
00000340: 965c 89bd 84ad 283e d306 09be 270b 3e3d
00000350: 32fa 95bd a030 d53d d8fa cd3d 11eb 33be
00000360: 1465 b33d c794 603c c4ec 90bb 713a 28be
00000370: 0675 48bd cb38 24be fa53 143e a92c da3c
00000380: e6ee 313e ed9b bf3c 62db e2bd b1f2 6dbe
00000390: 6d47 babc e159 323e 132c a6bd b098 51bd
000003a0: 745e 6bbd bf9b 17bd 97dc e6bd 9f48 8bbd
000003b0: 3a0a 43be 7b8d 2a3e 87a7 f8bc c3bc ec3d
000003c0: 5cb2 f23d 4d29 c63d 3109 67bd 08a2 643d
000003d0: 5b45 f5bd 3529 29be a120 803d a380 cd3d
000003e0: c223 6bbe 1e28 0ebe 8ddd 1e3d d5fe ce3d
000003f0: 85f0 0cbe 0766 9b3b 30b0 343e 20f5 623e

transformer_encoder.layers.1.self_attn.in_proj_bias f4 [96]
0.00050774147 0.0027531965 0.02476124 0.006205815 0.018469768 -0.017283948 0.020470941 0.023027403
-0.023640689 0.028926319 -0.015033327 0.016787536 -0.014329902 -0.006427071 -0.018200537 -0.019956173
0.0048042866 -0.008553959 0.021452377 -0.0046375897 0.0099185975 0.025435962 0.010689877 -0.0053844573
0.0082465205 0.007236236 -0.01336824 -0.015742563 0.009584386 0.041965906 -0.010407298 -0.0002647372
0.012072559 0.011258719 -0.017010665 0.004955368 -0.018587472 -0.016831312 -0.01832926 -0.021242127
-0.01708421 0.010350944 0.019645352 -0.018987874 -0.004199752 0.01751531 0.016183922 0.020050187
-0.011486239 -0.009433358 -0.0110640945 0.008761604 0.0050854036 -0.0088567985 0.003988064 -0.0072323093
-0.011500838 0.0051431386 -0.0049599134 0.005869924 -0.007432783 -0.0060278275 -0.0071593607 -0.008500853
-0.002224783 -0.0073155407 0.008851248 -0.018314658 -0.00092776533 0.00011940723 0.011509717 0.033013146
-0.007986997 -0.0016645015 -0.006256374 -0.00087288365 -0.009558072 0.0026752022 -0.0058637243 -0.018929668
0.007251847 0.002323391 0.01226609 -0.008601342 0.0010302099 -0.01956617 -0.0021181963 0.0047303573
0.002101544 -0.00024357768 0.008617051 -0.00029038423 -0.022447366 -0.0179672 0.019167645 -0.012640183
00000000: f419 053a f96e 343b 16d8 ca3c 265a cb3b
00000010: e94d 973c 1197 8dbc adb2 a73c f7a3 bc3c
00000020: 1eaa c1bc e3f6 ec3c 584e 76bc 0486 893c
00000030: f7c7 6abc 2e9a d2bb 4b19 95bc 217b a3bc
00000040: 476d 9d3b e825 0cbc e5bc af3c ecf6 97bb
00000050: 9d81 223c 145f d03c 9824 2f3c 1a70 b0bb
00000060: 6a1c 073c f21d ed3b 7606 5bbc 8cf6 80bc
00000070: d407 1d3c 71e4 2b3d 5f83 2abc 6dcc 8ab9
00000080: fccb 453c 7d76 383c f359 8bbc a460 a23b
00000090: c144 98bc d2e1 89bc 3f27 96bc f803 aebc
000000a0: 2ff4 8bbc 0197 293c 4aef a03c 758c 9bbc
000000b0: 139e 89bb 447c 8f3c 2594 843c 4a40 a43c
000000c0: c730 3cbc 5f8e 1abc 2d46 35bc d58c 0f3c
000000d0: 75a3 a63b 1b1c 11bc 4eae 823b 02fd ecbb
000000e0: 036e 3cbc c687 a83b c586 a2bb 7e58 c03b
000000f0: b48e f3bb 1585 c5bb 1299 eabb 2947 0bbc
00000100: aacd 11bb 34b7 efbb d304 113c 9f08 96bc
00000110: 4735 73ba 456a fa38 4193 3c3c cb38 073d
00000120: e5db 02bc 672b daba 4502 cdbb 3bd2 64ba
00000130: 7699 1cbc 7252 2f3b 7c24 c0bb 6412 9bbc
00000140: e7a0 ed3b 0844 183b b6f7 483c a5ec 0cbc
00000150: 1c08 873a 3c49 a0bc 70d1 0abb 1d01 9b3b
00000160: 0fba 093b e368 7fb9 882e 0d3c b63e 98b9
00000170: 8ae3 b7bc f32f 93bc 7705 9d3c c518 4fbc

transformer_encoder.layers.1.self_attn.out_proj.weight f4 [32, 32]
0.023249948 -0.010792489 -0.08990635 -0.11309434 -0.021938127 -0.15058596 0.052558206 -0.16815394
-0.06228028 -0.0072387 0.04952238 -0.005994216 -0.07102707 0.1357007 0.121374466 -0.092144795
0.07073964 -0.031484235 0.058533445 0.09719472 -0.03376695 0.038276173 0.121095434 0.071786
-0.06057323 -0.028577384 -0.06526343 -0.16360404 -0.022786286 0.04553436 0.0952486 0.026772063
-0.17721489 -0.008677565 -0.055232663 -0.08763036 0.039638843 -0.11834258 0.07847667 -0.1771223
-0.124928474 0.11505267 0.07522948 -0.035279498 0.056991484 -0.1580733 -0.09827174 0.07722375
0.033247843 -0.10265684 -0.16292864 0.040726345 0.0012299134 -0.15218589 -0.14493994 -0.10241049
-0.042768765 -0.14792007 -0.1092254 -0.06629883 -0.05145774 -0.07490732 -0.092800684 0.11781675
-0.031951405 0.1798957 -0.11644853 -0.04144844 -0.06135007 0.19838595 0.075393334 0.1344901
0.19290745 0.07038538 0.13584295 -0.109755106 0.08626954 -0.07941107 0.08255078 0.12207622
0.071010664 0.132012 -0.0370182 0.04546443 0.057555918 0.14449528 0.09560299 0.14372616
0.006145653 -0.07546473 -0.04669655 0.14870171 0.12822331 -0.042991918 -0.15608078 -0.0869135
0.19124398 0.015509631 -0.13730136 0.061286658 0.1549165 -0.09795375 0.106337234 0.06263623
-0.00040417328 -0.0042986926 0.03531867 -0.0893676 0.15199594 0.064261064 -0.02933451 0.033491317
-0.12608278 -0.019105893 0.01880518 0.01680916 0.20201322 -0.12963293 0.050185062 -0.11537707
-0.16988961 -0.05787465 0.13149574 -0.016721684 -0.17140767 -0.06480157 0.028032722 0.15362842
-0.037653226 -0.0120098125 -0.14005737 0.05157574 0.08696332 -0.14492548 -0.1655461 0.12613082
0.10013488 0.10021131 -0.09410659 -0.005851042 0.07315496 -0.052906547 0.11988597 -0.17469783
0.12965108 -0.053896103 0.08414387 -0.13300951 0.0930467 0.13323154 -0.08070232 0.014924539
0.096000604 -0.001439988 0.043889806 0.05998022 -0.14561912 0.050019365 -0.099432275 -0.0012769408
0.11394358 -0.1224003 -0.13779184 -0.15512271 -0.08915338 -0.13591978 0.0757783 -0.16051702
0.15764605 -0.058533564 -0.020766307 0.051596787 0.04651338 -0.05539757 0.14658988 -0.0019522345
-0.14224803 -0.061447985 -0.024950288 -0.10770031 0.13122806 -0.017398195 -0.13526802 -0.09047746
0.128457 0.04800859 0.12815166 0.14613311 -0.12806794 0.091693364 0.041686766 0.011559161
0.13198367 0.16334574 -0.06853144 -0.16692713 -0.1358548 -0.04314122 -0.076995395 0.021309277
-0.1157594 0.06477967 0.007844186 -0.051586233 -0.14088081 -0.13857079 0.093863696 0.17217426
0.07375611 0.13451554 0.007042321 0.06365742 -0.16684105 0.1595723 0.12231358 0.10544561
0.027646665 0.15279931 0.038634893 0.13752708 -0.09766459 -0.09398537 0.037488304 0.11482162
-0.07661182 -0.12565535 0.09538434 -0.14491582 -0.022466946 0.17232147 -0.13288505 -0.16526218
0.06690956 0.08908103 -0.14256504 0.0064129154 0.11898457 -0.059388578 0.13109283 0.15254869
-0.067288615 -0.0870338 -0.058297817 0.0033215994 0.13407183 0.16170561 -0.110146254 -0.14912142
-0.019779922 0.047613844 -0.07685699 0.04138376 0.15288506 0.122835726 0.15786666 0.113503166
00000000: ad76 be3c fbd2 30bc d220 b8bd 019e e7bd
00000010: 96b7 b3bc 3533 1abe 4647 573d 8c30 2cbe
00000020: 9b19 7fbd 9e32 edbb fbd7 4a3d 216b c4bb
00000030: a476 91bd 20f5 0a3e 2d93 f83d 69b6 bcbd
00000040: f2df 903d 9df5 00bd c4c0 6f3d 060e c73d
00000050: 374f 0abd 7ac7 1c3d e200 f83d 8a04 933d
00000060: a31b 78bd 1e1b eabc d5a8 85bd d187 27be
00000070: 4eaa babc 3d82 3a3d b311 c33d 1651 db3c
00000080: d277 35be 582c 0ebc a53b 62bd 8c77 b3bd
00000090: 575c 223d 985d f2bd 60b8 a03d 8c5f 35be
000000a0: 80da ffbd bca0 eb3d ea11 9a3d 3c81 10bd
000000b0: e76f 693d f8dd 21be b242 c9bd 7c27 9e3d
000000c0: e42e 083d c03d d2bd c4d6 26be abd0 263d
000000d0: 0c35 a13a 9ed6 1bbe 236b 14be 97bc d1bd
000000e0: 4d2e 2fbd 5c78 17be 91b1 dfbd aec7 87bd
000000f0: 5ac5 52bd 0269 99bd 490e bebd e949 f13d
00000100: 7adf 02bd 9436 383e 917c eebd d7c5 29bd
00000110: 364a 7bbd b025 4b3e d267 9a3d c6b7 093e
00000120: 8889 453e 3626 903d 6a1a 0b3e 49c7 e0bd
00000130: 16ae b03d 45a2 a2bd 6210 a93d 1903 fa3d
00000140: 0a6e 913d 272e 073e 65a0 17bd e938 3a3d
00000150: c1bf 6b3d 92f6 133e 80cb c33d f32c 133e
00000160: 7961 c93b 418d 9abd e244 3fbd 4345 183e
00000170: f94c 033e 4b18 30bd a4d3 1fbe b5ff b1bd
00000180: 76d5 433e 1b1c 7e3c ba98 0cbe b807 7b3d
00000190: 6ea2 1e3e fa9b c8bd 56c7 d93d 6c47 803d
000001a0: 38e7 d3b9 0cdc 8cbb 4faa 103d 5c06 b7bd
000001b0: d3a4 1b3e 4e9b 833d ed4e f0bc 312e 093d
000001c0: d81b 01be f683 9cbc 520d 9a3c 5db3 893c
000001d0: 8edc 4e3e 7fbe 04be da8e 4d3d d04a ecbd
000001e0: 8bf7 2dbe f80d 6dbd d2a6 063e eafb 88bc
000001f0: 7e85 2fbe afb6 84bd e1a4 e53c c550 1d3e
00000200: 453a 1abd cec4 44bc 336b 0fbe 1541 533d
00000210: d319 b23d 5867 14be eb84 29be 7028 013e
00000220: 8413 cd3d 963b cd3d f5ba c0bd 19ba bfbb
00000230: 45d2 953d 89b4 58bd c786 f53d fde3 32be
00000240: 41c3 043e 29c2 5cbd 9f53 ac3d a533 08be
00000250: 458f be3d d96d 083e 4247 a5bd 0e86 743c
00000260: f79b c43d fbbd bcba ccc5 333d d2ad 753d
00000270: 2e1d 15be 1be1 4c3d 26a3 cbbd 065f a7ba
00000280: 405b e93d 02ad fabd 4e19 0dbe 7dd8 1ebe
00000290: 0c96 b6bd 8e2e 0bbe a731 9b3d 935e 24be
000002a0: f76d 213e e4c0 6fbd 1a1e aabc 2757 533d
000002b0: d084 3e3d 90e8 62bd a81b 163e 1fe2 ffba
000002c0: 78a9 11be e2b0 7bbd 8c64 ccbc fb91 dcbd
000002d0: a660 063e a986 8ebc b383 0abe 3f4c b9bd
000002e0: 3b8a 033e a8a4 443d 303a 033e eba3 153e
000002f0: 3e24 03be bbc9 bb3d bebf 2a3d a362 3d3c
00000300: ba26 073e 1b44 273e 365a 8cbd f2ee 2abe
00000310: 851d 0bbe d9b4 30bd c3af 9dbd cb90 ae3c
00000320: 4413 edbd 34ab 843d e784 003c 164c 53bd
00000330: 0f43 10be 80e5 0dbe 9c3b c03d 734e 303e
00000340: 720d 973d 71be 093e 45c3 e63b d25e 823d
00000350: 61d8 2abe ec66 233e 8b7f fa3d def3 d73d
00000360: 427b e23c 6c77 1c3e 9f3f 1e3d e6d3 0c3e
00000370: 5f04 c8bd 677b c0bd 568d 193d 9927 eb3d
00000380: a8e6 9cbd ccab 00be dd58 c33d d064 14be
00000390: 9a0c b8bc 0a75 303e 0513 08be 7d3a 29be
000003a0: e107 893d 1d70 b63d 92fc 11be 6f23 d23b
000003b0: 2fae f33d 7041 73bd 333d 063e b935 1c3e
000003c0: 9dce 89bd c73e b2bd b1c9 6ebd 31af 593b
000003d0: 204a 093e 2896 253e 5c94 e1bd 49b3 18be
000003e0: 8109 a2bc bc06 433d 3367 9dbd 0482 293d
000003f0: e78d 1c3e 4c91 fb3d cca7 213e 5974 e83d

transformer_encoder.layers.1.self_attn.out_proj.bias f4 [32]
0.01390763 -0.015844498 -0.025163502 0.02027716 -0.011517459 0.0007622733 0.0074827326 -0.005630996
0.02304112 -0.00010831989 -0.014489775 0.0055257347 0.022037433 -0.0028737271 0.02008306 0.005356729
0.010929197 -0.0070108613 0.020993229 0.007976923 -0.0021667185 -0.004427504 -0.02343795 0.007813756
0.011362202 0.02329816 -0.018803881 0.01192071 0.01798006 -0.0136941355 -0.006687853 -0.024667505
00000000: d4dc 633c 52cc 81bc b023 cebc 491c a63c
00000010: b9b3 3cbc 4cd3 473a b631 f53b 3884 b8bb
00000020: bbc0 bc3c cc29 e3b8 8566 6dbc 3911 b53b
00000030: d987 b43c 2455 3cbb 3b85 a43c 8087 af3b
00000040: 6010 333c 5ebb e5bb fef9 ab3c a4b1 023c
00000050: 81ff 0dbb 9814 91bb f200 c0bc 4505 003c
00000060: 8828 3a3c c8db be3c 990a 9abc 154f 433c
00000070: eb4a 933c 5e5d 60bc c725 dbbb 8213 cabc
