pretrained/mkp/mkp500.pt (torch, 372647 bytes, 230 tensors)

emb_net.v_lin0.weight f4 [32, 5]
00000000: 0b0b dcbe 5cb2 a6bd 4c42 68be 4e96 14be
00000010: 0dd5 cebe 18df 303e ee40 dcbe 3d05 09bd
00000020: c433 203e f5d4 23be 6d54 763e a447 583d
00000030: bbbd 713e 9abe 933e e600 49be 62e0 223e
00000040: bddd 58be f541 1a3e b01a 72be a09d 573e
00000050: 6c85 e63d cfa2 26be fae3 5abe 8b81 eb3d
00000060: 7398 da3e d0a6 5b3e be0a b6bc 549c bfbc
00000070: 5cd7 783e 43aa a9be 6e27 253e 464b 28be
00000080: f3b0 893e 1b4e 2cbe 10e9 143d ced7 f63d
00000090: 2df3 993e b112 a6bd 236d c03e f301 c2be
000000a0: 1f9a c7bd 4859 d2be 9d82 883c e93f 0b3e
000000b0: 294a 2ebe 0ff3 413e b2eb 87bd 4b14 bfbe
000000c0: 494e af3e 6f7a 8c3e 8d63 713e 62c1 ba3e
000000d0: bda3 3b3e e6e6 693e df94 bf3e a0e1 e5bd
000000e0: 75fb bbbe 9504 79be 4f32 8fbd 3a6d 81bd
000000f0: a2e2 35bb 8fa6 793e b4b6 263e 4afb a7be
00000100: f9b8 15be e394 bebd 792c 843e 6240 1fbe
00000110: eac7 39be c1b7 95bd 4c8f d5bd 68ad f6bd
00000120: 68bd d7be f33f c33e e3fa 5b3e 94b6 4fbe
00000130: 1afb 91be 71e6 dd3c 6ebe 823e ca64 a6be
00000140: 6e09 42be 81c7 5a3e af9b 9cbe da3c 76bd
00000150: 5717 b1be c060 cb3e 1163 763e a657 d0be
00000160: 9e7a 7ebe cf0e 273e 6c02 753c 7cb8 c63d
00000170: 36b9 c4be 97d1 80be 9f59 393e d29c aabe
00000180: ca98 c7bd 192b 623e 6cd0 773e e5f5 513d
00000190: 943c 0c3e 263d 623e 72fa f1bc 43f4 e7bd
000001a0: b45f ab3e 6fc6 dc3e a339 523e e80e 47be
000001b0: d4f7 cabe ad36 eabe eef7 013c ef95 19be
000001c0: f34d 07be 2651 81bd 2812 cf3e 72a9 d63e
000001d0: f924 1fbd 5e35 0abe aa42 633e 24d9 5fbc
000001e0: 6cae d7be e548 193e 0cc9 e13e 32bb b8be
000001f0: 0a17 8dbd ee03 ec3d a0ef bcbe 2a14 b7be
00000200: f1fd af3e 2913 28be 4360 833e ac78 113a
00000210: 4414 f53d be9b 92be d75d f0bd 8533 943e
00000220: ed69 4c3e e87e e0bd bed2 7a3d 60a4 ab3e
00000230: ba13 c5be f5b7 833e 8199 0fbe 3278 dabd
00000240: 14f7 503e 326f bdbe fef6 40bd 3432 e43e
00000250: 37b9 2f3e cdcf 22be 0633 bbbd 9e09 b23e
00000260: f130 403e 4efc 913e fba3 97be 78d1 113e
00000270: 2a79 cb3d 655c d33d fef0 d03e 020c 803e
-0.42977175 -0.08139488 -0.2268154 -0.14510462 -0.4039692 0.17272604 -0.43018287 -0.03345226
0.15644747 -0.15999205 0.24055643 0.052802697 0.23607533 0.28856355 -0.19629249 0.15905908
-0.21178336 0.15064223 -0.23642993 0.21056223 0.11255917 -0.16273044 -0.21376029 0.11499318
0.42694435 0.21450353 -0.02222192 -0.023389973 0.24300903 -0.33137712 0.16128322 -0.16434965
0.26892814 -0.1682667 0.03635508 0.1205288 0.3006834 -0.08109034 0.37583265 -0.37892112
-0.09746193 -0.4108374 0.016663844 0.13598599 -0.17020477 0.18940376 -0.06636752 -0.3732017
0.34239414 0.2743716 0.23573132 0.36475664 0.1832418 0.22841987 0.37418267 -0.11224675
-0.36715284 -0.24318154 -0.069920175 -0.063196614 -0.0027753492 0.24379943 0.16280633 -0.32808906
-0.14621343 -0.09305742 0.2581518 -0.15551904 -0.18142667 -0.07310439 -0.10427722 -0.12044793
-0.42136693 0.38134727 0.21482424 -0.20284492 -0.28511888 0.027087422 0.2553591 -0.3249877
-0.1894891 0.21365167 -0.30587527 -0.060116626 -0.3458812 0.39722252 0.24061228 -0.4069187
-0.24851462 0.16314243 0.014954191 0.09703156 -0.38422555 -0.25159904 0.18100594 -0.3332277
-0.09745939 0.22086753 0.242006 0.051259894 0.13694984 0.22093639 -0.029538367 -0.11325886
0.33471453 0.43120143 0.20529799 -0.1943928 -0.39642203 -0.4574484 0.007932646 -0.14998601
-0.13213329 -0.06314306 0.4044354 0.41926152 -0.03885362 -0.1349692 0.22193399 -0.01366261
-0.4212526 0.14969213 0.440987 -0.3608032 -0.0688916 0.11524187 -0.3690157 -0.3575757
0.3437343 -0.16413559 0.2565938 0.00055492925 0.11966756 -0.28634447 -0.117366485 0.28945556
0.19962282 -0.109617054 0.061236136 0.33523846 -0.38491613 0.25726286 -0.14023401 -0.10667457
0.20406753 -0.36998898 -0.04711055 0.44569552 0.17160498 -0.15899582 -0.09140591 0.34772962
0.1876867 0.28512806 -0.29617295 0.14240062 0.099352196 0.10320357 0.40808862 0.2500916

emb_net.v_lin0.bias f4 [32]
00000000: b7b6 933e 88fe 383e 3536 3b3e 4311 91bd
00000010: 00ec c8be 0739 c5be ae99 8dbe 226c 9fbe
00000020: 5c66 623e 8d83 ee3d f84c bfbd e632 bbbe
00000030: 7858 de3e 789a a63e 9628 493e 5fe0 db3e
00000040: 10da 7fbe 783d 89be 1bc5 8dbe 2659 adba
00000050: 078e c5be e9be ac3e b03d c63a 6d5d 733e
00000060: 2675 66be 07c1 43bd 6a71 643d 5869 04be
00000070: a722 c73e f726 45be d490 003e e516 95be
0.28850338 0.18065846 0.18282397 -0.070833705 -0.39242554 -0.3852007 -0.2765631 -0.31137186
0.2210936 0.11646185 -0.093408525 -0.3656227 0.4342687 0.32539725 0.19644389 0.4294462
-0.24985528 -0.2680471 -0.27689442 -0.0013225421 -0.3858492 0.33739403 0.0015124585 0.23766108
-0.22505626 -0.047791507 0.055772223 -0.1293081 0.38893625 -0.19253145 0.12555248 -0.2911903

emb_net.v_lins1.0.weight f4 [32, 32]
00000000: f946 0abd 078c 91bd 4e9f 923d 7b7f f13d
00000010: 0799 3f3d 1e83 16bd 5b5b 84bd 5ff8 033e
00000020: 75eb 6fbd 0b5e 033e 16c4 65bd 1e38 0f3e
00000030: 66b6 343e c940 f23d ecc9 c33d 8f87 5a3d
00000040: 62f4 d8bd 80a0 c839 e16e 613d 05e4 48bd
00000050: c488 403d 51b5 b53d 81f4 22be 03ed 2dbe
00000060: 14a4 ecbd ef2d b43b 681d 3fbd f8c6 4f3d
00000070: 3943 31bd fac5 fdbd be5c ba3c 2131 0a3e
00000080: e3ab c3bd 1e05 183e d255 f33c 5e2a 223e
00000090: 3e14 30be b981 39be 3fc9 283d 6962 33be
000000a0: 07c4 19be 9c8f a23d 07fe 8f3d 670b 28be
000000b0: 17c6 0b3e 3253 a1bc 01e2 ff3d dc61 d6bd
000000c0: 5d4a 2abe fe0c febd 3c2a ebbc b7b5 41be
000000d0: 5b74 a3bc 68f8 b4bd 7078 4dbd fffc 31bc
000000e0: f822 4f3c 6c8c 30be 9cf4 b23d 36df f6bd
000000f0: 6ab9 e03d 2534 1b3e 2bf8 77bd 638b e438
00000100: 032c b83d fd11 2fbc 0fa8 1ebe 02db a13d
00000110: 78bf ca3d 281a c5bd 4ae6 08be 14e4 0ebd
00000120: 46e8 043d e5f3 8abd 4c77 843b 4bf4 aabd
00000130: ceb0 b1bd bfc2 02bd 0bfd 4abd 1faa 063e
00000140: 4afb 303d 469b 223e d43a 243e d9ea c53c
00000150: ffe8 87bd 43bf c23d 22a4 b23b de62 143e
00000160: f035 54bd 5c53 243e f041 713b b388 ddbc
00000170: 83be e2bd 635c ed3d 29d7 333c 2ef8 9b3d
00000180: 3828 933d 301c fc3b cb8b 6cbd 03df 97bc
00000190: e80b dabc 68b4 043e 1ba2 d83c 6369 1bbd
000001a0: cc0b 37bc 915b 2a3c 18ee 143e 549b 033e
000001b0: ceac 3b3c a974 623c 3527 0a3e 030f a53d
000001c0: da9d a8bb 7208 db3d a30c 913d 3abf 0abd
000001d0: f31a 863d 4529 ed3c 7443 aabd aa97 70bc
000001e0: 46f7 483e 4e91 633d fec8 e5bd 55bc d13d
000001f0: 47df ba3c b7ba e63d 12d9 913c 7995 873d
00000200: 8235 123d 5a95 0b3e fee9 013e f066 b1bd
00000210: f036 713d d9cc d3bb f523 f33d 1475 0abd
00000220: 9153 8cbd 91ac 073e 3e18 843d 32f7 c33c
00000230: 8fa9 383d 4c19 f43c 17f4 95bc 55e9 27be
00000240: a16a 473e 1880 343e b89b fabd e37a 493d
00000250: e584 2b3e 5941 593d 9dd5 4c3d c574 f23d
00000260: 0d59 b23d d39f 55bd 9e42 08be 9f2c 87bd
00000270: 4a70 b2bd ce8c 633c a9a3 babd 39eb 0d3e
00000280: 8dfd 7f3d 0800 b2bd fb09 e9bd 6368 5b3d
00000290: 79c0 08bd a4e7 ab3c d5b7 5f3c 3d49 593c
000002a0: 0541 b0bc bbaa 09bd ab17 45bd 8911 983d
000002b0: f898 febd 43b2 68bb 670d 70bd b6c7 1ebe
000002c0: 84dc 773d faac f83c 25e4 0f3e 8023 083e
000002d0: eecf 263e 0cdb 22be 0428 12be 7a2b 253d
000002e0: 4a47 ad3d bb0d 993d aac9 0fbe c499 fc3d
000002f0: d343 22be d525 593d dcf6 93bd a6ba 76bd
00000300: fe9a 043e deb0 203e f518 803d 14d3 c23d
00000310: b718 9a3b 87ef e5bd f1b2 6c3d 3046 173e
00000320: 8470 943d 3bf5 25be f47b 16bd 951a 483d
00000330: e863 d5bc 4351 3bbd 1cea 20be cd76 123c
00000340: 0b3b 8c3d 9130 21be a64a 633d e4e3 753d
00000350: 5f24 923d cff3 e53d 891d c0bd df94 4d3d
00000360: 23b5 063d b037 44bd 0209 0fbc 8073 2f3e
00000370: a661 cd3c fcaf 20bd 59df 223b b3c9 bbbd
00000380: 660c a8bd a4a0 3ebd 692d af3d 9dc9 d3bc
00000390: 95a4 32bd e55e 8d3d 5de0 b13d f31a 11bd
000003a0: deee 6fbd 2a18 0d3d cec1 babd 91da 093e
000003b0: 8030 57bd aa9d 4fbd f7fa 233e dee7 10be
000003c0: 4ce8 24bd 541b 343e 6077 aebd 66b5 4abd
000003d0: fd7d 333e 6be0 4fbd 4c8c 9a3d 751e b63d
000003e0: 76f9 b23c 884c 1bbe e6df eebd c8e3 04be
000003f0: 4def 31be 6290 79bd f4a7 683c b146 1dbe
-0.03375909 -0.07106786 0.07159291 0.11791893 0.046776798 -0.036746137 -0.06462737 0.12887715
-0.05857416 0.12828843 -0.056095205 0.13986251 0.17647704 0.11828763 0.09559998 0.053351935
-0.10593487 0.00038266554 0.055037383 -0.04904558 0.04700543 0.08872474 -0.15913583 -0.16984944
-0.11554733 0.00549864 -0.046658903 0.05072686 -0.043277 -0.12391277 0.022749301 0.13495304
-0.09554269 0.14845702 0.029704008 0.15836474 -0.17195222 -0.18115892 0.04120755 -0.17518009
-0.15016185 0.079375476 0.07030874 -0.164106 0.13649784 -0.01969299 0.12494279 -0.10467884
-0.1662993 -0.12404822 -0.028706662 -0.18916975 -0.019952944 -0.08836442 -0.050163686 -0.010863542
0.012642615 -0.17241067 0.08738062 -0.12054293 0.10972865 0.1515661 -0.060539406 0.0001089785
0.089927696 -0.010685441 -0.15493797 0.079031006 0.09899801 -0.096241295 -0.13369098 -0.03488548
0.032448076 -0.067848004 0.0040425416 -0.083473764 -0.08676301 -0.031924006 -0.049557727 0.13150834
0.043208398 0.15879545 0.16038066 0.024159836 -0.06636237 0.095091365 0.005451695 0.1449084
-0.05180925 0.16047424 0.0036812983 -0.027042722 -0.110714935 0.11589887 0.010976591 0.07615696
0.071854055 0.00769379 -0.057750504 -0.018538957 -0.026617005 0.12959445 0.026444485 -0.0379423
-0.011172246 0.010397808 0.1454395 0.12852222 0.011454774 0.013821759 0.13491519 0.08059504
-0.0051457705 0.1069497 0.070824884 -0.033873774 0.06548109 0.028950343 -0.08313647 -0.014684597
0.19625577 0.055558495 -0.11219977 0.102409996 0.022811545 0.11266082 0.017803703 0.066203065
0.03569556 0.13631192 0.12686917 -0.08662212 0.058890283 -0.0064636287 0.11872093 -0.03380306
-0.068518765 0.13249423 0.06449936 0.023921583 0.04508358 0.029797219 -0.018304868 -0.16397603
0.1947427 0.17626989 -0.12236732 0.04918946 0.16749914 0.053040836 0.050008405 0.11838678
0.08708391 -0.052154373 -0.13306662 -0.06600308 -0.08712824 0.013888551 -0.09113247 0.13859262
0.062497664 -0.08691412 -0.11378857 0.053566348 -0.03338668 0.020984478 0.013654669 0.01326209
-0.021515379 -0.033610087 -0.048118275 0.074252196 -0.1243152 -0.0035506643 -0.05860653 -0.15505871
0.060513034 0.03035592 0.14051874 0.13294792 0.16290256 -0.15903872 -0.14273077 0.040324666
0.08460863 0.07473322 -0.14041772 0.12334016 -0.15846185 0.053014595 -0.07224819 -0.060236596
0.1294975 0.1569247 0.0625476 0.09512916 0.0047026533 -0.11227327 0.05778784 0.14772868
0.07248023 -0.16206829 -0.036739305 0.048853476 -0.026048616 -0.045731794 -0.15714306 0.008939457
0.06847199 -0.15741183 0.055491112 0.060031787 0.071358435 0.112281434 -0.093806334 0.050190803
0.03288759 -0.04790467 -0.008730175 0.17133904 0.025070976 -0.03923033 0.0024852364 -0.091693304
-0.0820549 -0.046539918 0.08553583 -0.025852973 -0.04361399 0.06902865 0.08685372 -0.03542609
-0.05857741 0.034446873 -0.091189966 0.13462283 -0.052536488 -0.05068747 0.16013704 -0.1415095
-0.040260598 0.1758855 -0.08518863 -0.0494894 0.1752853 -0.05075113 0.07546291 0.08892528
0.021847468 -0.15165913 -0.11663799 -0.12977517 -0.17376442 -0.06092871 0.014200199 -0.15358998

emb_net.v_lins1.0.bias f4 [32]
00000000: bbb0 b33d 8ca0 19bc 709d af3c 679c 49bd
00000010: 3489 89bd 6e9e cfbd 98db 1abe 036f b1bc
00000020: cebb 2a3e acfc 833d 16a8 873c d80f 26be
00000030: c557 52bc cad2 18be 4eaa fb3c 1bf3 92bd
00000040: 3c97 173e 2b6f f73d 492d 1ebe dfd3 e93d
00000050: 200c 61bd 51c3 24be 7b6c 87bd 96c7 8f3c
00000060: cf8d b93d 7ab9 363c c3d9 053e c353 25be
00000070: 95cd a0bd 1d5e 28be 3b68 c6bc 0188 1abe
0.08773943 -0.009376656 0.021437377 -0.049221423 -0.067156225 -0.1013764 -0.15122831 -0.02165938
0.16673204 0.06444678 0.016559642 -0.16216981 -0.012838309 -0.1492416 0.030720856 -0.07175275
0.14803785 0.120817505 -0.15446962 0.11417364 -0.054943204 -0.16090132 -0.06612488 0.017551225
0.09060251 0.0111526195 0.13071351 -0.16145234 -0.07851712 -0.16442151 -0.024219623 -0.15090944

emb_net.v_lins1.1.weight f4 [32, 32]
00000000: 79ec bf3d 37a4 d23d 7b08 c3bd d9a7 1e3e
00000010: 4e39 f6bd 37a2 08be 9e24 63bd 90ed 4f3c
00000020: 4906 1a3e a9a2 f6bd dcf5 073e 45a8 8f3d
00000030: 0075 95bd 9194 bdbd ea65 863d 7deb 9cbc
00000040: 8b24 123e 94e3 003d 1696 22be 5387 5cbd
00000050: b9da 8fbd 5ead f6bd 8b40 cabc 3b27 7b3d
00000060: 4cd5 f1bd 56ec 08bd f287 b0bd a1fc e13d
00000070: 357a 153e 8bd5 153e 15c3 283e c9e8 b1bd
00000080: 1e7b fcbd ce43 f93d 804c 873d 93a8 d13b
00000090: d4ea d3bd 0e17 0dbe 28f9 8bbd f25b 113e
000000a0: 5a9f adbd fe2e eebd 0cec 3b3d 8bbc 1d3e
000000b0: e666 7f3b 2287 2f3d 602c ee3d c897 60bd
000000c0: 28ee 1bbe f925 153c a8c5 c6bd ccc3 9c3d
000000d0: b7c1 e4bd da9f 1b3e 692e 9fbc 2bbc 113e
000000e0: 9218 01be 96f5 28be dd9c b8bd 1a65 72bd
000000f0: da9c f23d bb4f 0dbe 3d40 b6bd cb2a 173d
00000100: 6098 eb3b 69bc a2bd bdc7 c53d 25f9 c3bd
00000110: ad30 b03d ea4a e23c 8c2a cbbd f21b a9bb
00000120: 10b5 3b3d 7f5f 21bd 5ad1 4cbd da99 ae3d
00000130: a4a5 c0bd 31b5 6bbd be57 1ebd f947 5a3c
00000140: c234 133d 7edb 9f3c 0aa7 16be 9c0e dcbd
00000150: 4e1c 463d aa12 063e 56a4 f8bd 7045 a5bd
00000160: 5689 01be 80f2 14be b575 2abe e519 3f3d
00000170: bc55 22bc 5591 bdbd 4ddb 283e e77f 9dbc
00000180: 94f8 ee3c 2ea1 383e 2abe e0bd fea7 53bd
00000190: 655a 0bbe 9edc 923d 578a f5bc a8cb 21be
000001a0: db83 0a3c 70c7 793c 6626 253e 161f 2e3d
000001b0: e648 13be e904 cf3d 0f2e da3d 28cb c03d
000001c0: 0bc9 adbd b8b9 cc3d 48b5 8fbd 0e28 b0bb
000001d0: 1a19 b43d 7b2e 4ebd 0aee 163e 30ec 1f3e
000001e0: e645 a73c 578f 1ebb c58c aebd 7c07 f93d
000001f0: cac2 84bd 5af0 1b3e 75eb d73c ad10 143e
00000200: 0162 d03d 4f61 003e 1078 6abd 533c 18bc
00000210: 8497 17be 5890 ba3d 3e28 e4bc 1a73 ebbd
00000220: e969 7ebd 4659 21be 7ba9 213e bd86 c9bc
00000230: 3b56 04bd bda8 0f3b cc2a b53c 8a46 c53d
00000240: b331 debd 46a6 173e 148f aabd 5dea 983c
00000250: 1e62 33bd 5a87 c73c bf07 d4bb c2df 843d
00000260: 1d3d d6bd e09b ccbd ac01 d93d 9aff 05be
00000270: fb0b 063e 719a 32be 11c1 4bbc 1e84 a33d
00000280: c243 a63d 48c5 e83c ae44 53ba 0650 2b3e
00000290: 1971 0dbe c7cd 56bd 6ec9 ed3d 1c0a 203e
000002a0: eb10 17bd 912b 2b3e 631a 8b3d c696 1d3d
000002b0: 062e 013e 64c6 ca3d 96b0 21be 1db3 193b
000002c0: 4ad7 30be 5022 f9bd 2d0f 7f3c 3511 233d
000002d0: 738c 313e 4409 45bd 5e1b 143e b416 243e
000002e0: 85b2 d7bc 82ea 223e 1aa1 f63b 461f 7c3d
000002f0: 195f 063d 4c1b e33d 7909 823d d040 f2bc
00000300: 352a 06be 7cad f43d 4976 6b3b 69da 2f3e
00000310: 110a 02be 0674 e6bd a8e5 8fbd bbe7 f73d
00000320: c248 92bd 96be 843c 0617 32bb 4f78 81bd
00000330: 9b46 5c3c a850 00be 7a3d babd f4f2 a13d
00000340: 658f 0cbe 9ad4 053e 8637 263e 3bed 8f3d
00000350: c01a 23be d002 6d3d b22d 953c 8fd5 fdbd
00000360: 9287 77bd cd37 2f3e 7f5a ba3d 98d6 ff3d
00000370: d425 48bd c8be 0c3d b909 a6bd 9f64 c23c
00000380: e708 303e 8dec 233e 3b43 e63d 4893 d4bd
00000390: 51a2 403d 49da b53c cde9 b03c 1cf7 6abd
000003a0: 261d 46bd 4510 02be 5903 36bc d604 e5bd
000003b0: f142 bcbc 56f7 24be a3d9 0e3e dfc3 18be
000003c0: ca47 9f3d 100f 2d3e e1f6 fe3d 6c75 303e
000003d0: 9494 8fbd 5978 11be b5dc f5bd e201 18bd
000003e0: 62be 07be 61f0 81bd 1b5a bebd 363f 3f3e
000003f0: b409 733d 227b aa3c 58f0 b7bd 571a 24bd
0.093712755 0.10285228 -0.09523102 0.15493716 -0.12022649 -0.1334313 -0.055454843 0.012690917
0.1504146 -0.12042744 0.13277382 0.07014517 -0.072977066 -0.092568524 0.06562407 -0.019155258
0.14271753 0.031467035 -0.15877566 -0.053839993 -0.0702414 -0.12044786 -0.02468898 0.06131671
-0.11808261 -0.033428513 -0.086196795 0.11034513 0.145974 0.14632241 0.16480668 -0.08686978
-0.1232817 0.12171136 0.06606388 0.0063982694 -0.10347524 -0.13778326 -0.06834632 0.1419523
-0.084776595 -0.11630057 0.04587941 0.15403955 0.0038971244 0.042853482 0.116295576 -0.05483225
-0.15227568 0.009103292 -0.09705669 0.07654533 -0.11169761 0.15197697 -0.01943131 0.14231937
-0.12607029 -0.16499934 -0.09014294 -0.05917845 0.11846323 -0.13799946 -0.08898971 0.036906045
0.0071897954 -0.07946093 0.09657238 -0.09569005 0.08603034 0.027623612 -0.099202245 -0.005160802
0.04582697 -0.039397713 -0.05000434 0.085254386 -0.094065934 -0.057545844 -0.038657896 0.013322824
0.035938986 0.019513842 -0.14712158 -0.10744974 0.048366837 0.13093057 -0.121407196 -0.08069885
-0.12650046 -0.14545631 -0.16646464 0.046655554 -0.009908136 -0.092562355 0.16489907 -0.019226028
0.029171266 0.18030235 -0.10973771 -0.05167388 -0.13608702 0.07170986 -0.029973192 -0.15800345
0.008454288 0.0152453035 0.16127929 0.042510115 -0.14383277 0.101083584 0.10653316 0.09413749
-0.084856115 0.099963605 -0.070169985 -0.0053758686 0.0879385 -0.050337296 0.14739242 0.15617442
0.020419072 -0.0024194324 -0.085229434 0.12159631 -0.064824656 0.15228406 0.026357392 0.14459486
0.10174943 0.1253712 -0.057243407 -0.009291726 -0.14803892 0.09109563 -0.02785122 -0.11496563
-0.062112723 -0.15756711 0.15787308 -0.024600381 -0.0323088 0.0021920644 0.022115134 0.09632595
-0.10849323 0.14809522 -0.08328071 0.01866644 -0.043794744 0.024356533 -0.00647065 0.06487991
-0.10460875 -0.09990668 0.10596022 -0.13085786 0.13090508 -0.17441727 -0.012436167 0.07984184
0.081183925 0.028414384 -0.00080592453 0.16729745 -0.13812675 -0.05244234 0.11610685 0.15628856
-0.03688137 0.16715838 0.06792142 0.038473867 0.12615213 0.09901121 -0.15790018 0.0023452707
-0.17269626 -0.12164748 0.015567583 0.03981133 0.17338733 -0.04810454 0.14463565 0.16024286
-0.026330242 0.1590977 0.007526529 0.061553262 0.032805536 0.11089191 0.06349463 -0.02957192
-0.13102038 0.11947152 0.0035928658 0.1717316 -0.12699153 -0.112525985 -0.07026225 0.12104746
-0.07142784 0.01620416 -0.0027174368 -0.06321775 0.013444568 -0.12530768 -0.09093757 0.07907668
-0.13726576 0.13069382 0.16232118 0.0702767 -0.15928173 0.05786401 0.018210266 -0.12394249
-0.060432024 0.1711113 0.09099292 0.124921024 -0.0488642 0.03436163 -0.08107323 0.02372962
0.17190896 0.16008206 0.11243292 -0.10379654 0.047029797 0.022198813 0.02159586 -0.057364568
-0.048367642 -0.12701519 -0.011109197 -0.11182563 -0.022981139 -0.16109976 0.1395021 -0.14918469
0.077773646 0.16900277 0.12449432 0.17232293 -0.07010761 -0.14206065 -0.12004987 -0.03711117
-0.13256219 -0.06344677 -0.0929453 0.18676457 0.059335425 0.020810667 -0.08981389 -0.040064182

emb_net.v_lins1.1.bias f4 [32]
00000000: 9f54 84bc 29a4 063e 5e6c aabd 35e5 17be
00000010: bcdc 9b3d e9fd dabd e1d6 a4bd 820a 463e
00000020: 061f 28be ad1a e7bd 6e72 b33d 146a a03b
00000030: f2a8 313d 5911 173e 8b17 d93b 15f1 17be
00000040: 15d1 883c dbe9 20be 72f8 fc3c a370 15bc
00000050: 5a1e dabd 6b1e bf3d 07db 2e3d 88c7 183d
00000060: c83e cf3d 9861 dd3d e2a3 823d 12f8 063d
00000070: b1d7 d43c b070 dc3c 3668 b83d 3141 05be
-0.016153632 0.1314856 -0.08321451 -0.1483353 0.07610461 -0.10692961 -0.080487974 0.19339946
-0.16418085 -0.11284385 0.0876206 0.004895458 0.04337401 0.14752711 0.006625121 -0.14838059
0.01670126 -0.15714209 0.030880187 -0.009121093 -0.1065032 0.09331974 0.04268935 0.037299663
0.101193964 0.1080963 0.063789144 0.032951422 0.025981756 0.026909202 0.09004252 -0.1301315

emb_net.v_lins1.2.weight f4 [32, 32]
00000000: f540 8a3d bcaa 143e 5ee2 463d a961 41bd
00000010: cbd3 d83d 0af6 b8bc a088 9ebd 8489 00be
00000020: d732 873d 1eb3 0d3c a234 36be 54ca ca3d
00000030: f0d5 153e a1f4 9bbd aada 03be 8e8c 8abc
00000040: b6ce 4abd 0d8e 423d d099 02be a890 09be
00000050: aab4 77bd 8d44 1cbe 01cb 473d d676 103e
00000060: 4375 103c 0ad8 aa3d 22f9 2b3d 8511 71bd
00000070: e0ce f8bd 8b68 8e3d c77d 8ebc 865b 18be
00000080: 60d4 3f3e 5c8e 07be 6a91 a13d 8165 203d
00000090: b4f7 253e f9ea 87bd 8600 273d 86fb 11be
000000a0: 227b 0fbe e87d 6abc 3fa9 243e f21e 2dbc
000000b0: aafe ed3b 2682 f13d 7cf9 3bbc b5a8 58b9
000000c0: a996 a4bd 8452 babd 93c7 333e a573 d6bd
000000d0: 6b01 11be e4de 4f3d aef7 02bc d6fc 2f3d
000000e0: 6c2c f9bd 9356 ca3d eee7 ae3d 18bd 51bd
000000f0: dd58 a6bd a91f a83d e12e 723d ae84 c1bd
00000100: 9b0b b03b 42bb 193d 2d7b d9bd c16e 8e3c
00000110: a324 183d 9e64 c63d 69ed 07be 3039 033e
00000120: dd0f fc3b 3fc6 a4bc 63e8 813d 812b 933c
00000130: b67c 17be 2a3c 11be 870c 21bd a271 243e
00000140: 1471 0dbe d4d6 353e 46fa 8cbd fe4f d13d
00000150: ea55 033d e850 17be b3dc 013e 0887 03be
00000160: 62a1 00bd 95e2 5bbd b0c0 263e ec38 0bbe
00000170: 0bf7 24be 79a7 fe3c e36c 80bd 70ca e9bd
00000180: 10b5 02be 3bc4 1cbe 067e 0e3e e317 13be
00000190: b65d 693d 6757 cb3d baa1 873c b1c5 213d
000001a0: 4d7b 993d c054 2cbe 7fa0 0d3e 0c8d 913d
000001b0: aeca 2d3e fff8 c8bd 0ff5 d3bd d339 263e
000001c0: 8b29 2dbe de80 ddbd ff9b fb3d 33dc 803d
000001d0: 4cde 0bbe 6d06 bbbd cd3d 0b3e d047 7c3d
000001e0: a57e ffbc 8b8c 16be a0a3 14be 2b2c 053e
000001f0: b5f7 213d ac73 c53d 8b2b e43c 4ba7 1c3e
00000200: 82e3 3b3d 45d1 083d f57d ce3d b860 b9bd
00000210: be34 2dbe f398 db3d 5265 463d abe7 91bb
00000220: 7e63 bc3b 8069 21bd 4b74 dabc 9c59 01be
00000230: 7b04 b63c a87b dcbc 87f1 043e 03e2 d7bd
00000240: 572b 9a3d f507 36be 08a5 2bbe b97b cf3d
00000250: 507a dc3d 2c60 3a3c b829 853c 55b3 2b3e
00000260: 25f0 12be b779 97bc d773 07be 697e fabc
00000270: b278 9bbd de8c 873d a8af 953d f86e 203c
00000280: 4b88 f23c a6e6 dfbc 7e37 babc 0826 923d
00000290: a035 2c3e 3ade 8a3d e4c3 dd3c 838e 98bd
000002a0: 02fc d93d 9016 f5bd a1ad 3a3e bb3a e8bd
000002b0: e06c 9f3d a9e8 9b3d 8a0e d83d 37c3 29be
000002c0: 3776 4fbd 3b03 29bd 8db1 1c3d 6409 3e3e
000002d0: 551c d4bc 377f 67bd 7736 08bd 6ffb 153e
000002e0: 7073 b13a 263f 9f3d 613a 863d e526 2f3e
000002f0: 5594 e43d a23b 2c3e 2c23 213e a383 9dbd
00000300: c9d6 143e 0b40 8bbd f105 353e f962 dbbd
00000310: 051b fb3d a478 343d 0985 b1bc c7d5 2f3e
00000320: 116b 40be c9d6 b73d 581e 8f3b 2f1e dcbd
00000330: d097 263e 34b9 013e 7b99 2abe 2443 043e
00000340: 952d 163e 209a c83d 2535 0fbe 5ff1 07be
00000350: 1d4d a5bd 3ced 533c 202a 1e3e b19e 3a3d
00000360: 3438 233e 2c44 cabd 72bf de3a 207f acbc
00000370: 241b 03bd 81a9 773d 2401 44be f41b 91bd
00000380: 9fdf 8f3d bb2e 05be fb8f 2ebe cacd dabd
00000390: 6610 4fbd 80c9 babd 5a2b f43d 9196 aebc
000003a0: 016e 313c 9051 27bd 9513 ebbd 5417 633d
000003b0: 6535 61bd c2f0 12be e598 91bc d9d5 973d
000003c0: 2b74 26be 090f e3bd be38 aebd e7d4 e83d
000003d0: ca32 0bbe fe1f c3bc 193f 4d3c 2150 7ebd
000003e0: 8fa8 b83d 98dd c0bd bd29 033e 52dc 5ebd
000003f0: 5185 b6bd 7700 4fbd 76d6 233d 8321 1d3e
0.06750671 0.14518255 0.048555724 -0.047212277 0.10587271 -0.022578258 -0.07740903 -0.12552458
0.06601494 0.008648662 -0.17793515 0.09901872 0.14632392 -0.07615019 -0.12876382 -0.016912725
-0.04951354 0.04749875 -0.12753987 -0.13434088 -0.06047503 -0.15260525 0.048777584 0.14107832
0.00881702 0.083419874 0.04198564 -0.0588546 -0.12148833 0.06953534 -0.01739396 -0.14878663
0.18733358 -0.132379 0.07889064 0.0391593 0.16207772 -0.06636614 0.040771984 -0.14256105
-0.14011815 -0.014312245 0.16080187 -0.01056646 0.0072630243 0.11792402 -0.011473056 -0.00020662214
-0.08036549 -0.0909777 0.175566 -0.10471276 -0.14160697 0.050749674 -0.007993622 0.042965733
-0.12166676 0.09879794 0.08540331 -0.051205724 -0.08122418 0.08209164 0.05912674 -0.09449135
0.005372477 0.0375321 -0.10619197 0.017386796 0.037144314 0.0968716 -0.13274159 0.12814784
0.0076923207 -0.020114062 0.063431524 0.01796508 -0.14793667 -0.14183107 -0.039318588 0.16058972
-0.13812667 0.17757732 -0.06883673 0.102203354 0.032064356 -0.14776957 0.12681846 -0.12844479
-0.031403907 -0.053682882 0.16284442 -0.13595933 -0.16109864 0.031085717 -0.062707685 -0.11415565
-0.12764382 -0.15309231 0.13915262 -0.14364581 0.056974135 0.0992878 0.01655661 0.039495174
0.07494221 -0.16829205 0.13830756 0.07106981 0.16971847 -0.09813117 -0.103494756 0.16232996
-0.16910379 -0.10815595 0.12285613 0.06292 -0.13659018 -0.09132085 0.13597794 0.061591923
-0.031188319 -0.1470205 -0.14515543 0.1300513 0.039542872 0.09641203 0.027852794 0.15298192
0.045871265 0.0334027 0.10082618 -0.09051651 -0.16914651 0.10722532 0.04843647 -0.004452666
0.005749165 -0.039407253 -0.026666781 -0.1263184 0.022218933 -0.026914433 0.1298276 -0.10541155
0.07527798 -0.17776473 -0.16762173 0.1013102 0.10765517 0.011375468 0.016255245 0.16767628
-0.1434942 -0.018490655 -0.13227783 -0.030577855 -0.0759138 0.06618665 0.073088944 0.009792082
0.029606005 -0.027331661 -0.022731539 0.0713616 0.16817331 0.067806676 0.027070947 -0.07449057
0.1064377 -0.11967194 0.18230297 -0.11339327 0.07784438 0.07612736 0.10549648 -0.16578375
-0.050649848 -0.041262846 0.038255263 0.1855827 -0.025892416 -0.056517806 -0.033255067 0.14646696
0.0013538431 0.077757165 0.06554104 0.17104681 0.111611046 0.16819623 0.15736073 -0.07691123
0.14535059 -0.067993246 0.17678048 -0.10712237 0.12261013 0.044060364 -0.021669881 0.17171393
-0.18790843 0.08976514 0.004367631 -0.107479446 0.1626885 0.12668306 -0.1666011 0.12916237
0.14665826 0.09795022 -0.13985117 -0.1327567 -0.08071349 0.012934979 0.15445757 0.045561496
0.15939409 -0.09876284 0.0016994311 -0.021056712 -0.032008305 0.060464386 -0.1914106 -0.0708541
0.07025074 -0.13006108 -0.17047112 -0.106837824 -0.05055275 -0.09120464 0.11922331 -0.02131203
0.01082945 -0.04084927 -0.11478344 0.05544217 -0.05498256 -0.14349654 -0.017773101 0.07413835
-0.16255252 -0.11086852 -0.085069165 0.11368733 -0.13593593 -0.023818966 0.012527251 -0.062088136
0.09016525 -0.09417266 0.1280889 -0.054409333 -0.08912147 -0.050537553 0.039999448 0.15344815

emb_net.v_lins1.2.bias f4 [32]
00000000: 724a a5bd 39cb bcbc 5781 1f3e 664c 853d
00000010: dfcd 833b c70d fabd 39b0 39bd 5c81 22be
00000020: 4a43 7ebd 0d4e 003d 852c b93d 2af1 1cbe
00000030: 8c5b 17be 6fa1 203e 11e3 e0bd 6c65 24be
00000040: 4975 1c3e 1d59 b13d 19ed 2b3e 2470 eebc
00000050: 88dc 123e 8496 263e 9bcf bdbd 5671 1e3d
00000060: 50bc b63c 0a72 86bd c5ef c53c 4cd2 e2bd
00000070: 802a 4c3d d916 debd 5add 26bc b9ae 5c3d
-0.0807084 -0.023046123 0.15576683 0.065087125 0.0040223445 -0.12209659 -0.045334075 -0.15869659
-0.06207589 0.031324435 0.090416946 -0.15326372 -0.14781016 0.15686582 -0.109808095 -0.16054314
0.15279116 0.08659575 0.16789664 -0.029106207 0.14341938 0.16268355 -0.09268113 0.038682304
0.022306591 -0.0656472 0.024162183 -0.11075267 0.04984522 -0.108442016 -0.01018461 0.053877566

emb_net.v_lins1.3.weight f4 [32, 32]
00000000: 6cfd 9abb f70c e53d 5fa8 963c f105 933d
00000010: 0d4d 12be 472f 123c 5c53 5cbd bf85 25be
00000020: ecf1 30be 10bc 023e de6e 2cbe e2de c03d
00000030: 1a33 8f3c 21c4 c2ba ad1d ac3d 526a 13be
00000040: 957b 6fbc f351 2c3e dc6e 2ebe bfa9 5abc
00000050: 1cb7 1f3e adbb 5d3d 1d80 123e 2a78 203e
00000060: 89e3 e73c d0e9 813d 8af4 a2bc bf6b 3b3e
00000070: e29f 11bc a03b 87bd 71e1 c03d cc14 d3bd
00000080: bffe 803c e7b2 0fbe 5234 1fbd 581b 3cbd
00000090: 0aa3 2d3e 39d5 b33d 966c 923d 8681 d33d
000000a0: 573f dbbd 8e4f 24be 6366 bd3d 412e 9f3d
000000b0: ef8b fe3d c491 b43d e2fa 53bd 261a c9bd
000000c0: 90f4 513d 64dc bf3d aef7 2e3e 5e2e fcbc
000000d0: 3f50 e9bd 455f d43d 5516 23be b90c 05be
000000e0: 0ba0 9abd 511e ad3b 598d d9bd 60f3 373d
000000f0: ad11 25bc d159 9ebd 4f80 63bd f0e4 a53d
00000100: 68d6 ccbd f36a 5ebd e082 efbd aad3 2cbe
00000110: 9898 9cbd db37 c13d 3e0a d23d 2fbf 6abd
00000120: e5b8 e3bd 0f8c 8cbd e95b 03bb 2451 1b3e
00000130: fe24 ef3d 8094 09be 5eee 7abd 6c31 c93d
00000140: ca9b 2e3e b172 03be 5345 993d 4c8c c73d
00000150: 7aa3 d3bd 1741 e63c 7a51 ed3d b0eb 143c
00000160: abff e8bd 0c78 703d 83e1 90bc b789 23be
00000170: 7d50 053e 256d 06be cfd6 34bd 582d 23be
00000180: fc5b 8dbd ae32 8c3d 23f2 bbbd af98 8e3d
00000190: a0c1 8b3c de23 bebd 9c09 013e 1095 043d
000001a0: 7858 973d a336 27be a989 8f3b 1cd3 1bbe
000001b0: ef09 b8bc ad92 873b a7d1 27be bed2 b4bd
000001c0: 621e de3d b478 9cbd 04c1 91bb acce 0b3e
000001d0: 9711 39be ce61 2b3e 48eb 143d 40af 98bd
000001e0: 8e3e 943d 098c f5bc 729f 15bd e167 6a3d
000001f0: ed05 e43d 3bbf bf3d ac7d e3bc cc10 03be
00000200: f275 17be 9846 4dbd 8ef4 34bd 4351 eabd
00000210: 3929 1d3e 29c4 b53d 1a91 d13c 91ca 0abc
00000220: f78a b33d 33f7 663c ecff 8bbd 3eae 07bd
00000230: 9373 573d 9f93 37be 851d 99bd 894c 08be
00000240: f78e b93c bccc 183e 418e cfbd b760 b53d
00000250: 8a74 b7bd 5862 51bc ac5d 3dbe 4548 30be
00000260: 64de f33d 4199 57bd 506c d53d 4941 023e
00000270: 3443 30be 904f 6a3d a005 e13d f374 0a3d
00000280: 7861 093e d5c4 afbd 4913 1cbe 93f6 06be
00000290: 863b bdbb d788 4fbd 1e9f adbd fb1a 83bc
000002a0: bfd4 edbc 3364 803d 23c5 ddbd b198 7dbd
000002b0: 43bf 683d e2ff 11be 603e 2fbe 4563 473d
000002c0: 5d72 62bc 7a82 b3bd ab6a 19be 511b c33d
000002d0: d2ad 2c3e 74a6 273c c1c7 7e3c 1ccd 173e
000002e0: 4ed0 1d3e 8985 3bbd 7c2a 183d 50cf 17be
000002f0: 5655 973d 0a64 503c cc30 bebc b429 c73c
00000300: da46 08bd d706 003d d871 a23c 4034 edbd
00000310: a774 9abd 38ee 883d 5208 39be bcf6 d53d
00000320: 4dab 2a3d 71b1 67bc 75ba 293e dfa3 193e
00000330: 0b8a 13bd 62d6 22be b621 b73a 93b0 ad3d
00000340: f90f 8f3d 2ca5 263e a079 853d 4a2e 90bd
00000350: f014 fbbc ac4a a93d cd54 06bd d193 ed3d
00000360: bcbf 0c3e 5b48 99bd c775 3dbe cf39 80bd
00000370: 9446 4abd b74e 263d c4bf ab3b 1fa1 1dbe
00000380: 8213 eb3d 5cfe a7bc 50fc 6d3d a1f3 b23d
00000390: d640 c63c 308d 073e b4a6 b6bd 54d6 c13d
000003a0: 6ab4 e4bc 10bd 1ebe 1fe5 e2bd 295e 5cba
000003b0: 52a9 213e 5454 1abe 12fa 153e 794a 3bbe
000003c0: 6eeb a7bd e7b4 bcbd 5799 393e 5943 003e
000003d0: 6ffe efbc 425e acbd 0775 3c3e a41b 293d
000003e0: d4a2 c5bd 7c15 74bd b534 983d b0cc 1ebd
000003f0: 6db9 ad3d 34b4 9dbd 6714 af3d 2d21 fb3d
-0.0047299173 0.111841135 0.018390832 0.071788676 -0.14287205 0.008922405 -0.053790435 -0.16164301
-0.17279786 0.12767053 -0.16839167 0.094175115 0.017480422 -0.0014859476 0.08404098 -0.14396027
-0.014616867 0.16828136 -0.17034477 -0.013346135 0.15597194 0.05413406 0.14306684 0.15670839
0.02830674 0.06343424 -0.019891996 0.1830282 -0.008888217 -0.066031694 0.094179995 -0.10306701
0.015746472 -0.1403309 -0.038868256 -0.045924515 0.16956726 0.08780903 0.071496174 0.10327439
-0.107054405 -0.16045973 0.09248044 0.07772494 0.12429034 0.08816865 -0.051752932 -0.098194405
0.051258624 0.09368208 0.1708667 -0.030783828 -0.11392259 0.10369734 -0.15926488 -0.12993135
-0.07550057 0.005283155 -0.10622663 0.044909835 -0.010075015 -0.07731975 -0.055542286 0.08100307
-0.10001832 -0.054301213 -0.11694884 -0.16877618 -0.076462924 0.09434482 0.1025586 -0.057311233
-0.1111925 -0.068626516 -0.0020043796 0.15167671 0.116769776 -0.13435555 -0.06126248 0.098238796
0.17051616 -0.1283672 0.07483926 0.097435564 -0.10333915 0.02810721 0.11587806 0.009089395
-0.1137689 0.058708236 -0.017685657 -0.15970503 0.13018985 -0.13127573 -0.04415017 -0.15935266
-0.0690231 0.06845604 -0.09177043 0.06962716 0.017060101 -0.09284185 0.12601322 0.03236872
0.07389921 -0.16329436 0.004380424 -0.1521725 -0.022465674 0.004137358 -0.1638857 -0.088292584
0.10845639 -0.0764021 -0.004448058 0.13653058 -0.18073116 0.16736528 0.036357194 -0.07455301
0.07238494 -0.029974 -0.036529012 0.057227973 0.11133943 0.09362646 -0.027769886 -0.12799376
-0.14791086 -0.05011615 -0.044178538 -0.11441281 0.15347756 0.08875305 0.025581885 -0.008471147
0.0876674 0.014097023 -0.068359226 -0.033125155 0.052600455 -0.17927407 -0.074763335 -0.13310446
0.022651179 0.1492185 -0.10134555 0.088563375 -0.08957775 -0.012779795 -0.18492764 -0.17215069
0.11907652 -0.05263639 0.104210496 0.12720217 -0.17213136 0.057204783 0.10987401 0.033802938
0.13416088 -0.085824646 -0.15241732 -0.13179998 -0.005774918 -0.05066761 -0.08477615 -0.016004076
-0.02903211 0.062691115 -0.108286165 -0.061913196 0.056823026 -0.14257768 -0.17113638 0.048678655
-0.013821212 -0.08765121 -0.14982097 0.095266946 0.16863182 0.010232557 0.015550555 0.14824337
0.15411493 -0.045781646 0.03714989 -0.14825177 0.073893234 0.012719164 -0.023216628 0.024311878
-0.033270694 0.031256523 0.019829676 -0.115822315 -0.07541781 0.066860616 -0.1806958 0.104474515
0.04166727 -0.014141426 0.16575034 0.15003918 -0.03602032 -0.15902093 0.0013971839 0.084809445
0.069854684 0.16273946 0.06517339 -0.07040079 -0.030649632 0.08266196 -0.032795716 0.11600459
0.13745016 -0.07484504 -0.1850196 -0.06261026 -0.049383715 0.040602412 0.005241366 -0.15393494
0.1147833 -0.02050703 0.058101952 0.08737875 0.024200838 0.13237453 -0.08918515 0.09464708
-0.02791806 -0.15501809 -0.11078858 -0.0008406365 0.15787247 -0.15071231 0.14646176 -0.18290128
-0.081992015 -0.09214192 0.18124901 0.12525691 -0.029296128 -0.08416416 0.18404017 0.041286126
-0.096501976 -0.0595908 0.07431928 -0.038769424 0.08482633 -0.07700387 0.08548813 0.12262187

emb_net.v_lins1.3.bias f4 [32]
00000000: 48f7 733c 0fca a0bc 6725 47bd a3f8 e33d
00000010: e31b 8b3d a983 1a3d e3db 37bd dd6e 2fbe
00000020: 5b47 183e b104 a63d 93df ddbd 5646 6fbb
00000030: 3918 e53d 12ee 3bbd dbcd 383e dcdf 86bd
00000040: 5f91 2c3e f8fd 883d 40b8 9ebd 76e6 dc3c
00000050: 3a81 9bbc c2fd e2bd f9c3 adbc 32d2 123c
00000060: 43a7 dbbd e640 47bd 9da9 0dbe 145c 0abd
00000070: a97b 30be acc4 01be e94e 02be b9a7 e93b
0.014890499 -0.019627599 -0.048619654 0.11131408 0.06792428 0.037723217 -0.044887435 -0.17132135
0.1487097 0.081063636 -0.10833659 -0.003651043 0.11186261 -0.04588134 0.18047278 -0.065856665
0.1685233 0.06689066 -0.07749987 0.026965361 -0.018982518 -0.11083557 -0.021211611 0.008961247
-0.10725262 -0.048645876 -0.13834234 -0.03377922 -0.17234673 -0.1267268 -0.12725414 0.00713059

emb_net.v_lins1.4.weight f4 [32, 32]
00000000: 9394 67bd 43c0 c93d c991 34be 7f12 fcbd
00000010: effd a13b 2aa7 9e3c e55b 84bd ee9a b1bd
00000020: f585 0ebe 3860 263b 774c e3bd 7a8d 03be
00000030: 8bcb a9bd b42e b6bd d345 0c3d 6397 fe3d
00000040: a558 af3d 2e8b af3d f787 2f3e 7841 84bb
00000050: fd43 7fbc d48e a23c f62b 533d 052e 9dbd
00000060: ca05 0a3c 2a38 edbd 6ee2 e73d 0f41 22be
00000070: f115 8f3d b041 b93c d763 54bd 47c6 a3bd
00000080: c04e 163e dad1 2a3d 396e 14bd 718f 6abd
00000090: 6002 f7bb 14c8 51bd 0e25 dbbc 514c b2bd
000000a0: e5cb 8a3c aa83 12be 52f8 41bd 7bac babc
000000b0: 6520 bcbd fe73 843d dcad 8a3c a000 e33d
000000c0: 64fd b7bd ccf8 913d ec3b 0e3e d28c 37be
000000d0: f6fc b33c 4e8c bd3d 828e eb3d af33 e23d
000000e0: a6a1 623d 22eb dcbd bd6f e33d 117d 17be
000000f0: 78fa 3cbc 1804 d33c 4bdf 0f3e a831 7bbd
00000100: d697 85bd 73af 943d 410c 10be 3015 d33d
00000110: 1715 f83d c60f b4bb d023 b33d 01fa da3d
00000120: 4656 e0bb 6aa2 1b3e 84a4 f9bd ed17 d83d
00000130: 4f19 66bd 2b8f e6bd 5b37 1aba b135 0bbe
00000140: 001a d93d 3014 423d c352 933c 6676 dc3c
00000150: 0d40 cdbd 3975 013e af1b fabd 803b afbd
00000160: c464 113e d435 6abd ee01 04bd e7b9 1dbe
00000170: fd88 febd ca74 cebc 977d 01be cc16 7dbc
00000180: c92b 213e 265a c7bc 8f21 473d f4d3 813d
00000190: 0079 173e 1062 a6bc 388a 20be 34bf 32be
000001a0: 6708 12be 0d27 693d 81e5 d33d d85e c83d
000001b0: 9347 90bd 3a8c a7bb 714d e33c cde5 75bd
000001c0: 5625 9a3c b579 393d 5183 1abe 502a 433d
000001d0: d5b1 17bd 17ac 53bd 7e1e cebd d938 efbd
000001e0: b6f0 1dbe 232c bd3d 9771 9fbb 3848 f13d
000001f0: 739b 09be 465a efbd e8c7 403d e12e efbd
00000200: 9ac8 f43d d32d da3d a66d 2bbe b512 103e
00000210: 601c a1bd 7295 163e 5737 fd3c da2b 8f3d
00000220: c349 d13c 00d1 173e c8d8 993c 164a 0dbe
00000230: f5d1 303e 1627 eb3c 1d17 69bd b0b7 323d
00000240: 33e6 08be 7d78 dd3c 3395 423c 3e70 cfbc
00000250: 7008 2a3e de24 1cbd 0e02 c0bc d540 683d
00000260: 3414 cd3d 456e 7abd 5ade 0c3e 89ca 423d
00000270: 6553 1bbe 2356 b23d 8c60 cdbd 2044 2a3c
00000280: 5cf3 873d cfb9 dbbc 0ec3 74bb dfe7 823a
00000290: 08e4 1f3e bdfa f3bd 61e1 70bb d15d f3bd
000002a0: 17e3 37b9 6ef7 e4bd e78b 6dbd ee94 093e
000002b0: 384e fb3d 9e21 e73d 14af 71bd 312f 873c
000002c0: 8c71 10be 0315 9a3d 9bc5 263e 1eed 77bd
000002d0: 1883 9a3b 6273 aebc ed7a 37be 0d1e 04be
000002e0: 4091 2bbe d094 b93d 80f4 d8bd 5f5f 0a3d
000002f0: d97a b8bd 7e50 dfbd f6c5 a2bd f578 033c
00000300: ede5 253e 8621 0cbe 2057 f53d 7d3f 3f3e
00000310: 1339 87bd aae6 e1bd 72f3 4d3d 2d39 05be
00000320: 0299 95bd f6cb 283d 3f68 8dbd 773d 003e
00000330: 2563 273e 7a9c 90bd d242 2c3e 5db5 ca3c
00000340: af54 e2bd 4853 01be df0b 163e d86c 43ba
00000350: e860 cbbd 7f8e 213d 4d1a 79bd 6af8 eabd
00000360: e0d3 adbd f399 173e e8bd 593d 0b68 0d3e
00000370: a5f7 b7bd 03ca de3d 83e8 31be 1936 8a3d
00000380: 0d87 0f3e 84e5 c13b fabf 8cbd 2a71 ba3b
00000390: 22f5 b43d 62b7 f5bc 1feb 9fbd 787c 2e3d
000003a0: c7bd 1a3e 595d 223e 2e31 1d3d 5917 8dbb
000003b0: ef2c 62bc ddf8 883c 9800 3abe 4056 4abd
000003c0: d19f e53d 0d95 1d3d 477e 6e3d d4d2 cc3d
000003d0: 9dd9 1bbe 2130 14be e458 5e3d 8806 b03c
000003e0: 1592 e03d ad23 09be a292 023e 1b21 3f3e
000003f0: 04ca 34bd 4f16 c93d 9784 33be e1ae 00ba
-0.056538176 0.09851124 -0.17633738 -0.12308215 0.0049436013 0.01936682 -0.0646284 -0.086721286
-0.13918288 0.002538694 -0.11098569 -0.12846938 -0.08290776 -0.08895627 0.034246277 0.124312185
0.085618295 0.08571468 0.1714171 -0.004036125 -0.0155801745 0.019843496 0.051555596 -0.07674793
0.008424232 -0.11582978 0.11322485 -0.1584513 0.06986607 0.02261433 -0.051853027 -0.07996803
0.14678478 0.041704036 -0.03623793 -0.057265703 -0.007538125 -0.0512162 -0.026751067 -0.087059624
0.016942928 -0.14308038 -0.047355957 -0.022787323 -0.09185866 0.06467436 0.016928606 0.110841036
-0.08983877 0.07127532 0.13890046 -0.17924812 0.021971207 0.092552766 0.115017906 0.11045014
0.05532994 -0.107870355 0.11105297 -0.14793803 -0.011534326 0.025758788 0.14050023 -0.061326653
-0.06523101 0.07260027 -0.14067174 0.103067756 0.121133976 -0.0054950444 0.08747065 0.10692216
-0.006846222 0.15198675 -0.12189582 0.105514385 -0.05617648 -0.11257776 -0.00058828824 -0.135947
0.10600662 0.047382534 0.0179838 0.026911926 -0.10021982 0.12642373 -0.122123115 -0.085562706
0.14198595 -0.05718024 -0.032228403 -0.15402947 -0.12428472 -0.025202174 -0.12645565 -0.01544733
0.15739359 -0.024334978 0.04861599 0.06339255 0.14792252 -0.020310432 -0.15677726 -0.1745575
-0.14261018 0.056922007 0.10346509 0.09783715 -0.07044902 -0.005113152 0.027746888 -0.06003361
0.018816631 0.045282084 -0.15089156 0.047647774 -0.03703483 -0.05167779 -0.1006441 -0.11680765
-0.15423855 0.09236934 -0.004865836 0.11781353 -0.13438205 -0.1168714 0.047065645 -0.11678863
0.11952324 0.106532715 -0.16741046 0.14069636 -0.0786674 0.14705446 0.030910177 0.06990786
0.025547868 0.14825821 0.018780127 -0.13797793 0.17267592 0.028705161 -0.05690681 0.04363221
-0.13369064 0.027034992 0.011876392 -0.025322076 0.16604781 -0.038121097 -0.02343848 0.056702454
0.10013619 -0.061140317 0.13756695 0.047556434 -0.15168531 0.087078355 -0.100281805 0.010392219
0.06638214 -0.026821999 -0.0037347707 0.0009987316 0.15614331 -0.11913059 -0.003675543 -0.118831284
-0.00017536838 -0.11180006 -0.05799475 0.13435718 0.122707784 0.11285709 -0.059004858 0.016501995
-0.14105815 0.07523539 0.16286318 -0.060528867 0.0047153346 -0.021295253 -0.17917986 -0.12902088
-0.16754627 0.09061587 -0.1059351 0.03378236 -0.09007806 -0.109040245 -0.07947914 0.008024444
0.16200991 -0.13684663 0.119795084 0.18676563 -0.06602683 -0.11030324 0.050280996 -0.13010092
-0.073045745 0.041210137 -0.06904649 0.12523447 0.16346414 -0.070610955 0.16822365 0.024744684
-0.11051308 -0.12629426 0.14652966 -0.00074548787 -0.09930593 0.039442535 -0.060816098 -0.114731625
-0.084876776 0.1480482 0.053159624 0.1380922 -0.08982781 0.108783744 -0.17373852 0.067485996
0.14016362 0.005917253 -0.06872554 0.0056897597 0.08835818 -0.02999467 -0.07808518 0.04259917
0.15111457 0.15855922 0.03837698 -0.004305762 -0.013804658 0.01672023 -0.18164289 -0.04939866
0.11212123 0.038472224 0.058225896 0.1000115 -0.15219732 -0.14471485 0.05428399 0.02148749
0.10965363 -0.13392515 0.12751248 0.18664972 -0.04413797 0.09818708 -0.17531048 -0.00049088715

emb_net.v_lins1.4.bias f4 [32]
00000000: 5bd6 6cbd 6baa 97bb f456 dbbd 3565 3bbd
00000010: 73a8 ddbd a92c 65bc aa14 563d 7b83 d8bd
00000020: a508 92bd 95af 123e a428 693d 8e33 bdbd
00000030: 93f9 9abd 8f71 21be 7dc1 cc3c 9ec9 9ebd
00000040: 2756 b6bd e5f3 6fbd 8227 26be 5c49 b53d
00000050: f319 143e 6e6d aa3d c98e 04be 740d 6d3d
00000060: 8809 8f3d be59 b7bd f9ad a33d 4d54 943d
00000070: cde4 7dbd 2594 003e 8c7e 3abe 9e63 ce3d
-0.057821613 -0.0046284697 -0.10709944 -0.045750815 -0.10823145 -0.013987699 0.0522658 -0.10571953
-0.07130555 0.14324792 0.056923524 -0.09238349 -0.07567134 -0.15765975 0.024994606 -0.07753299
-0.08903151 -0.058582205 -0.16226009 0.08851883 0.14463024 0.08321653 -0.12945093 0.057874158
0.0698424 -0.08952664 0.07992167 0.072426416 -0.06198578 0.12556513 -0.18212336 0.10077594

emb_net.v_lins1.5.weight f4 [32, 32]
00000000: 638a 123d 82db c1bd 5bdb b0bc ea32 27be
00000010: 275b a1bd d382 843d 39c9 823c de57 febd
00000020: 8673 af3c 46a8 f9bd 3ad6 2e3d acdd 88bd
00000030: 27ec ff3d 5120 083e 593e a7bd 86d4 8c3d
00000040: 4ba6 873d 5403 94bd f011 063c 7680 33bd
00000050: 7383 13be f4ee 973c 07c4 b1bd 6fb6 0ebe
00000060: 4c35 25be 2f2f c6bc c67b 7e3b 6afb 9a3d
00000070: a6ad 07be 88af 8ebc 88f9 203e 7d72 03be
00000080: 2e73 e2bd 470e 04be 19a6 0cbe 2a18 023e
00000090: 5641 d3bd 05d6 063e a758 efbd 80f1 0f3e
000000a0: 5fb8 223e 786c 1fbe 074d 333e 8390 193d
000000b0: 618f 23bd 6191 37be c46d 6dbd bb02 53bd
000000c0: 28a9 103c 6865 e4bd 5969 ebbd c4ab 373d
000000d0: 6443 083e 737a 92bd 5585 e03d 22eb f9bb
000000e0: b4a0 0ebe 21ae 09be d3aa d2bd dce4 1abe
000000f0: 240c 873d 0e78 e83d 44de 613b 6609 d53d
00000100: 2a91 113e 7924 0abe fb52 0c3d 29f6 98bd
00000110: fa0c 173d 48ea a7bc 899e 00be f784 943c
00000120: 839f d83c 6413 403d 9b3f a33d db3b 13be
00000130: a7c8 3d3d 812b 8c3d 8f67 bfbd e92d d03d
00000140: a570 803d 2167 253e 21f5 54bd 5fae 17be
00000150: c450 1f3e d4c9 bfbd cc91 d13d b08f 2dbe
00000160: 47bd 35be b5d6 993d a060 a8bc 2699 2e3e
00000170: 1588 983d fc94 243e f1ae 273d 32f9 cd3d
00000180: 1089 aebd dfc8 e4bd 877c 08be b6ef 033e
00000190: 1a5b 3abe 9d01 2e3d db4f c3bd 50ca 233e
000001a0: cf76 823d 7d83 853c 928b 323b cc4a 14be
000001b0: bfe2 12be d30c df3c 9ca1 973d f3e2 293e
000001c0: fb81 20be 08ef 923d 7f26 1d3e 4ebc 07be
000001d0: d60e fdbd cbe8 183e 8d94 963d 123d 4cbd
000001e0: f0c5 d43c 4978 a4bc 644f 1f3e 3b1f 5bbd
000001f0: 83d7 d2bd ae77 00be b018 cb3c 4e32 df3d
00000200: d613 e9bd fb63 0bbe cce5 12be 7d45 26bc
00000210: b899 00be 9572 92bd 2e6a 0bbd 014d c4bd
00000220: 6ba7 093b 6e0c 083e 5e00 e3bc 734d 2fbe
00000230: da34 5e3d b667 f83c d083 65bd 634a 0abe
00000240: 07c6 23be 280d 653d 6a81 bf3d b6fe d93b
00000250: a811 d3bd e668 f43d ffe6 12be 0207 513d
00000260: 5095 15be 1c92 26be 695e 28be 0aba e83d
00000270: b8e4 313e 9642 633d a48e fabd 1883 1dbe
00000280: 0e8b 1d3e 2501 a6bc 41e9 cabd 0114 e4bd
00000290: e1b5 b43c 3fc5 dabd 095c d43d 57e0 733d
000002a0: 09df c03d f81a 853a c37c 693d 4478 da3d
000002b0: dee4 893d bc7e 2d3d 5819 f03d faf6 043e
000002c0: a2a8 e8bd d28b ccbd 58dc cb3d fa7e 223e
000002d0: ec8a 43bd 00ac 90bd d4cb a83d 3290 acbd
000002e0: db48 aebd 7a6c c73d 921e 0f3d b0e1 39bd
000002f0: c01f 183e aa7b 23be 87a9 7d3d 7203 85bd
00000300: cf56 02be 6a94 25bc 9540 11be 40eb ca3d
00000310: e7ae 24bd ec0f 1ebe 1179 37bd 8b66 cebd
00000320: d5d5 693d 4dfc 0f3e b59e 133e 7e25 e03d
00000330: f9f6 2fbe bc45 c0bd 7f9c a4bd 6feb 13be
00000340: 054f 063d e904 c93d b22b 433d e87a 5ebd
00000350: 289c 21bd 4bce bfbc 1d8f 0d3e 2ded 1cbc
00000360: 76c0 29bd 5d56 12bd 7744 2cbe 5e4e fe3d
00000370: dfcc 2c3d 5f84 f2bd 77ad 0d3e 09d4 b3bd
00000380: c43a 90bd ad49 ecbd 2e0d 2abe c697 e4bd
00000390: 155a c53c 55db 2f3e 9dff 353e 58c1 f53d
000003a0: b5ca 0b3e 564d 1f3e af12 313d 480b ed3d
000003b0: 13c9 203d c21f 9dbd 8f22 1ebe 9b2b 34bd
000003c0: e836 ab3b 612b f03d b2be 55bd e318 083e
000003d0: 25a3 283e 8d52 203e 215a 073d 8a6f c4bd
000003e0: 44c2 c93d 7496 b93c 734d 1fbe b44d 393d
000003f0: 8898 393e 2a11 01be 6c5f 0abe 2695 40bc
0.035776507 -0.09465696 -0.021588972 -0.16328016 -0.07878714 0.06470265 0.015965091 -0.12419103
0.02141739 -0.12190299 0.04268477 -0.066829056 0.12496214 0.13293578 -0.08166189 0.06876473
0.06623515 -0.07227197 0.008182988 -0.04382368 -0.14405613 0.018546559 -0.086799674 -0.1393678
-0.16133612 -0.02419242 0.00388311 0.07567485 -0.13249835 -0.017417684 0.15720189 -0.12836643
-0.11057125 -0.12896071 -0.13735236 0.1270453 -0.10315196 0.1316758 -0.11686831 0.14056969
0.15890644 -0.15568721 0.17509852 0.037491333 -0.03993166 -0.17926551 -0.05796601 -0.051516276
0.0088293925 -0.11152154 -0.11494703 0.044841543 0.13306957 -0.071522616 0.10962931 -0.007626907
-0.13928491 -0.13445331 -0.102864884 -0.15126365 0.065941125 0.113510236 0.0034464756 0.10402183
0.14215532 -0.13490476 0.034258824 -0.07468826 0.03687761 -0.020497456 -0.12560476 0.018129809
0.026443249 0.046893492 0.07971116 -0.14378302 0.046333935 0.06844235 -0.09345924 0.10165007
0.06271485 0.16152622 -0.051991586 -0.14812611 0.15558153 -0.093646675 0.10232887 -0.16949344
-0.17747985 0.07511655 -0.020553887 0.17050609 0.074478306 0.16072458 0.04093832 0.10057296
-0.08522236 -0.111711256 -0.13328753 0.12884411 -0.18198815 0.042482007 -0.095367156 0.15995145
0.06370317 0.01629805 0.0027243835 -0.14481658 -0.1434431 0.027227795 0.074038714 0.1659048
-0.15674584 0.07174498 0.15346716 -0.13255426 -0.12356345 0.14932553 0.073525526 -0.04986293
0.02597329 -0.020076888 0.15557629 -0.05349658 -0.10295012 -0.12545654 0.024792045 0.10898267
-0.113807365 -0.13612358 -0.14345473 -0.010148403 -0.12558639 -0.07150761 -0.034036808 -0.09585
0.002100433 0.13285992 -0.027710136 -0.17119388 0.054249622 0.03032289 -0.05603391 -0.13504939
-0.1599351 0.05592075 0.09350856 0.0066526784 -0.10306102 0.1193407 -0.1434593 0.051032074
-0.1460774 -0.16266674 -0.16442265 0.11363609 0.17372406 0.055483423 -0.12234238 -0.1538204
0.15385076 -0.020264218 -0.09907771 -0.11136628 0.022059383 -0.10682153 0.10369117 0.05954012
0.094175406 0.0010155132 0.057003748 0.1066747 0.06733106 0.04235719 0.11723584 0.12984839
-0.11360289 -0.09987606 0.099541366 0.1586875 -0.047739908 -0.070640564 0.08242002 -0.084259406
-0.0850999 0.09737487 0.034941263 -0.045381248 0.14855862 -0.15965143 0.061929252 -0.06494798
-0.12728427 -0.010106185 -0.14184792 0.099081516 -0.040205862 -0.15435761 -0.044793192 -0.10078152
0.05708869 0.14061089 0.1441601 0.10944651 -0.17184056 -0.09388301 -0.08037662 -0.1444528
0.032790203 0.0981539 0.047649093 -0.05431643 -0.039455563 -0.023413798 0.13824125 -0.0095780315
-0.04144331 -0.035726894 -0.16822992 0.12417291 0.042187568 -0.11841654 0.13835703 -0.08780677
-0.07042459 -0.1153749 -0.1660659 -0.11161761 0.024090806 0.17173512 0.1777329 0.11999768
0.13651545 0.15556845 0.04323071 0.11574417 0.03925426 -0.07672073 -0.1544287 -0.043986898
0.005225051 0.11727024 -0.052183814 0.13290744 0.16468485 0.1565649 0.033044938 -0.09591587
0.09851506 0.02265475 -0.15556888 0.04524012 0.18124592 -0.12604204 -0.13512963 -0.01175431

emb_net.v_lins1.5.bias f4 [32]
00000000: 11b4 a03d dfc8 8a3d bad6 753d e9bd 143e
00000010: 2696 fbbd 1327 343e a7d7 3c3e 6303 313e
00000020: 7107 5ebd 3d66 de3d 4a39 543d aaf1 223e
00000030: 0fb1 323d 7ab2 25be 88c6 67bc 9785 593d
00000040: b143 8d3d dc9f 19be d86c debd 3868 883d
00000050: fc30 80bd 4a3a 023e 3ad2 d53d dd93 243e
00000060: 1d4a 2cbe 7435 f03c c3da 05be 2e07 d8bd
00000070: 3a96 ccbd f811 173e db81 ebbc 8fb0 1dbd
0.07846845 0.06776594 0.060019232 0.1452557 -0.12284498 0.1759303 0.1844164 0.17286448
-0.054206315 0.10859344 0.051812448 0.159125 0.043625887 -0.16181365 -0.014146455 0.053105917
0.06897677 -0.15002388 -0.10860604 0.06660503 -0.06259343 0.12717548 0.10440488 0.1607203
-0.16825147 0.029322363 -0.13071732 -0.105482444 -0.09989591 0.14752948 -0.028748443 -0.038498458
